coup_nsfp/nfsp_coup_demo_best_agent_avg_strategy.pt (torch, 86473 bytes, 6 tensors)

net.0.weight f4 [128, 25]
000000 8d c4 8f be af 05 18 3e 8f ed 5b 3e ee 15 d1 bc
       -0.28079644 0.14845918 0.2147734 -0.025523152
000010 75 a9 e1 bd 79 fd 0e bd ec 7c 2b 3f b7 bd 0b 3e
       -0.110186495 -0.0349097 0.6698749 0.13646589
000020 09 47 0a be ba a5 0b bd 25 a6 c7 be b7 cb 6a be
       -0.1350366 -0.034093596 -0.38993946 -0.22929274
000030 11 4f 6b 3e c3 6b 42 be 1c 10 4b be 71 1f 3e be
       0.2297938 -0.1898642 -0.19830364 -0.18566681
000040 06 55 c1 be ea 72 0d bf 03 14 0b be 69 ff 2d 3e
       -0.3776018 -0.5525347 -0.13581853 0.16991962
000050 2f 0e 45 be 58 6b 77 be e8 cc a6 3d 5f 89 f2 3d
       -0.19243692 -0.24162042 0.081445515 0.11842608
000060 fd ec 5b 3d d2 14 a0 bd 48 48 64 be 96 11 a7 3e
       0.053692807 -0.07816471 -0.22293198 0.32630605
000070 2c 6d 9d 3e 28 ea 10 3e b2 51 a2 3e c3 b9 69 be
       0.30747354 0.14151824 0.31702954 -0.22824769
000080 b8 9d 1f 3d 38 fe d1 3d 4e b7 28 3e 9a ce 48 3d
       0.03896877 0.102535665 0.16476175 0.049025156
000090 f5 94 84 be 23 8f 33 be d7 48 38 be 63 d5 55 be
       -0.25894895 -0.17535071 -0.17996536 -0.20882182
0000a0 ac a0 f3 be c6 25 54 3e 29 f4 da be 10 7e 3d be
       -0.4758352 0.20717534 -0.42764404 -0.1850512
0000b0 8c ff a0 bd fa 51 32 be 8e bd b7 be 16 58 8b bd
       -0.07861242 -0.17414084 -0.35886806 -0.068039104
0000c0 f3 6e 7d 3e 59 5f 0f 3d 86 2f df 3d 3a 3c 94 bc
       0.24749355 0.03500304 0.10897736 -0.018095125
0000d0 67 a8 23 be f2 be d3 bd 0b b6 26 3e 91 e3 bb be
       -0.15982209 -0.10339154 0.16280381 -0.36697057
0000e0 a3 1b 62 3e 8b 05 20 be a7 ee 49 3e cf b2 3d 3e
       0.22080855 -0.15627114 0.19719945 0.18525241
0000f0 af 8d 93 3b 7c 03 7c 3e fd 53 c9 bd 33 98 e7 3b
       0.004502974 0.24610704 -0.098304726 0.007067704
000100 9d a8 53 bc 93 cc 9a be 72 07 2f 3e 04 81 ca 3e
       -0.0129186185 -0.30234203 0.17092684 0.39551556
000110 97 51 34 3e b1 8b b4 3e 69 5c fe bd 56 bf a9 3e
       0.17609249 0.35262826 -0.124199696 0.3315379
000120 28 87 7e 3e 3b f2 12 3d 44 b5 70 3d f2 36 9b 3e
       0.24856246 0.03587554 0.05876662 0.30315357
000130 94 df aa be 12 51 3d 3e 48 78 40 3e 2b b3 84 bd
       -0.33373702 0.18487957 0.18795884 -0.06479486
000140 67 a3 84 be 9e 40 79 be cb 73 6a bd 5c 2b 02 be
       -0.25905916 -0.24341056 -0.057239335 -0.12711853
000150 18 61 32 3e 5b cd 29 be 92 d8 3f be c7 37 71 bf
       0.17419851 -0.16582243 -0.18734959 -0.94225734
000160 e7 05 4e 3d 34 36 22 3d a5 e9 d7 bd eb 00 81 3e
       0.050298598 0.039602473 -0.10542611 0.25196013
000170 e1 61 92 3e 00 33 90 bd 5c 6e 8d be dd fe dd 3e
       0.285903 -0.070409775 -0.2762326 0.43358508
000180 02 a2 50 bf 1f 0a 34 be 46 55 08 3f bb e9 41 3e
       -0.81497204 -0.17581986 0.53255117 0.18936817
000190 07 6a 0d be ba e4 8b be cb d4 43 3d 0b 42 67 be
       -0.13809977 -0.27322942 0.047810357 -0.22583787
0001a0 72 f6 11 bd 65 26 c0 3e 6b 32 7e be 20 a1 12 39
       -0.03563542 0.37529293 -0.2482392 0.00013983669
0001b0 11 b3 83 3c 85 bc 75 3e e4 7d a0 bd ad 52 42 bd
       0.016076596 0.23997696 -0.07836512 -0.047442127
0001c0 f8 56 d7 3e 33 ee 9c bc 57 17 3a be 23 33 a1 3e
       0.4205854 -0.019156551 -0.18172966 0.31484327
0001d0 14 8f 71 3e c9 c9 da bd 90 29 ff bd 7f 6b 01 be
       0.23589736 -0.10683019 -0.12459099 -0.12638663
0001e0 51 63 cc 3e 16 d7 ce 3e e1 e7 01 3f 73 2d ad bc
       0.39919522 0.40398473 0.50744444 -0.021139836
0001f0 c6 66 06 3d a6 2f 37 3d 40 f3 d7 3e c1 37 40 3c
       0.032812856 0.044723175 0.42177773 0.011732043
000200 d2 6f ab be ff f9 84 bd bb 5f b5 be 84 79 cc 3e
       -0.3348375 -0.064929955 -0.354246 0.3993646
000210 6e 2e d5 3d 16 2d b3 bb 63 2b 41 bd 46 b6 d9 3e
       0.104092464 -0.005468021 -0.047160517 0.42521876
000220 4b f2 cd bb f1 02 70 3e 67 ca a8 bb 79 20 08 be
       -0.006284987 0.23438622 -0.0051510814 -0.13293637
000230 5c 94 00 3f 29 3f 48 3e 5c 4c 08 bd a7 ce 0b be
       0.5022638 0.19555344 -0.033275947 -0.1365305
000240 5b b3 82 3e 32 af bf bd 83 cb 9d bd 48 06 bf be
       0.25527462 -0.09359588 -0.077048324 -0.3730948
000250 9f 48 91 bb 4e a8 36 3e b2 b8 04 3e cd 94 5a 3e
       -0.004433706 0.1783764 0.1296108 0.21345825
000260 f2 00 85 3e e1 d2 7d 3e 29 fb 9f bd 62 c3 04 bf
       0.25977284 0.24787475 -0.07811577 -0.5186063
000270 3a e7 07 be d8 fd e9 3d 2e 84 b8 3d 53 fd 99 be
       -0.132718 0.1142537 0.09009586 -0.30076084
000280 37 e1 69 3e 71 b9 a0 be 35 56 9a bc e7 c7 81 bd
       0.22839819 -0.3139148 -0.018839935 -0.063369565
000290 cc 02 c3 3e 26 c5 26 3d b7 07 97 be 46 2d 11 be
       0.3808807 0.04071536 -0.29498073 -0.14177427
0002a0 8d 72 89 3c 5a 84 19 3e 37 10 20 be ba eb fa 3d
       0.016778255 0.14991894 -0.15631185 0.122519925
0002b0 b5 73 d2 3e f4 bd cc 3e 6c 79 9f 3c 5b 37 b5 3c
       0.41103902 0.39988673 0.019467078 0.022121122
0002c0 65 7e 48 3e 28 66 00 bc 6f 1c bf bd 13 b9 fb bd
       0.19579466 -0.007836856 -0.09331595 -0.122911595
0002d0 7d 92 7d be 86 e6 0d 3e 22 56 82 3e b4 24 5e 3e
       -0.24762912 0.13857469 0.2545634 0.21693689
0002e0 00 65 a3 be b7 5a 3f be 1a 80 a3 bd 80 f9 2e be
       -0.31912994 -0.18686949 -0.07983418 -0.17087364
0002f0 6d ba 9a 3d 34 08 0f 3e 2c ce c9 bc 3d 67 c9 3e
       0.07555089 0.13967973 -0.024634443 0.39336577
000300 ca c6 37 bb 57 ab 9a 3d 1d 41 43 be 00 a3 fc bd
       -0.0028042071 0.07552212 -0.19067807 -0.12335777
000310 c4 5f d2 be fe 1b a6 3a 05 7f dd bc 07 ba 04 3e
       -0.41088688 0.0012673137 -0.027038107 0.12961589
000320 84 92 7f 3e 16 6f 24 be 74 54 d2 3d d0 f0 e1 bd
       0.24958235 -0.16058001 0.102700144 -0.110322595
000330 55 15 99 bd ad e6 de 3e 4d f4 ab be 64 99 8b 3d
       -0.07474772 0.43535367 -0.33584824 0.06816366
000340 c5 a7 18 3e e8 1f 90 3e 4e a6 45 3e 50 b2 cb bc
       0.14907749 0.28149343 0.19301721 -0.0248653
000350 2e 7c 71 3e 73 90 3a 3e 55 0b 62 be 0f a4 15 be
       0.23582527 0.18219166 -0.22074635 -0.14613365
000360 6b 97 fb bc c2 a0 66 3d cf df 19 be 1e cd 75 3d
       -0.03071185 0.056305654 -0.15026782 0.060010068
000370 b9 07 2e be 8f 41 88 3e bd 77 30 3e cf 69 37 3e
       -0.16995133 0.26612517 0.17233177 0.17911457
000380 02 06 11 be 81 de 44 bc 0e 61 aa 3d b1 95 69 bf
       -0.14162448 -0.01201594 0.08319293 -0.91244036
000390 bc 83 89 be 2d cf d8 3e 88 32 d7 3e 36 22 6e 3e
       -0.26858318 0.42345563 0.4203074 0.23255238
0003a0 12 3c 3b 3e 00 26 3b be 61 70 34 bd 78 03 0b bf
       0.18284634 -0.18276215 -0.044052485 -0.5430217
0003b0 05 99 c7 bd 32 a9 11 be 33 7d 09 bb a9 cb 22 bf
       -0.09745983 -0.14224699 -0.0020979166 -0.6359201
0003c0 19 ac ea 3d 3f 39 2e bf 43 00 0d 3e cd 1f 7d bc
       0.11458606 -0.680561 0.13769631 -0.015449476
0003d0 76 bb 81 bf 21 22 ca be c5 54 c1 be c0 82 67 be
       -1.0135334 -0.39479163 -0.37759987 -0.22608471
0003e0 af 0e 07 bd d3 49 cc bd c4 c5 10 bd ce 7f 4f 3e
       -0.032972988 -0.09975018 -0.035344854 0.20263597
0003f0 80 49 5e be 55 76 e0 3d 9b 40 22 3e 52 dd 1a 3f
       -0.21707726 0.1096007 0.15844958 0.6049396

net.0.bias f4 [128]
000000 82 8d 27 be 10 93 14 3e 2b 05 93 3e b2 89 99 3d
       -0.16362575 0.14509225 0.2871488 0.074969664
000010 c9 cd 3b 3e af 38 62 3e a9 c2 18 3e e1 24 0b 3e
       0.1834022 0.22091936 0.14918007 0.13588287
000020 2e 8d 55 3e 68 bf fb 3c e7 d3 5a be 66 db ac bd
       0.20854637 0.030730918 -0.21369897 -0.084402844
000030 ed b8 18 3e 2c 27 9d 3d 44 f4 7f 3d 41 8d 2d bc
       0.14914294 0.07673487 0.06248881 -0.01059276
000040 a5 a7 df bd 12 ff db 3d c4 47 cd bd 30 88 bb bd
       -0.109206475 0.1074201 -0.10023454 -0.09156835
000050 87 90 8f bd 52 7b a9 bd ac df 53 3d 8e c7 b9 bd
       -0.07009988 -0.082754746 0.051726982 -0.09071265
000060 03 cb 8b 3e 48 04 be 3d 50 5f 25 3e 4b dc 3e 3e
       0.27303323 0.0927816 0.1614964 0.18638723
000070 cd fe 5b 3e 04 21 0a 3e 92 61 55 3d 02 0f 11 be
       0.21483918 0.13489157 0.052095003 -0.14165881
000080 59 b8 1d 3e 5a de 52 bd aa 79 12 3c 67 a3 35 bd
       0.15402354 -0.051481582 0.00894014 -0.044345286
000090 1e f2 06 be be cd 05 bd 07 5c 3d 3e 23 4d f6 3d
       -0.13178298 -0.032666914 0.18492137 0.120264314
0000a0 e5 86 8b 3d 4e ff 1e 3d 58 35 ad 3c ef 97 f4 3d
       0.068128385 0.038817696 0.0211436 0.119430415
0000b0 6c 89 36 3d ce f2 51 3d 36 ee 34 3e 36 d4 18 3e
       0.04456465 0.051256947 0.17668995 0.14924702
0000c0 d2 6b a0 3b 31 11 cb bd 41 bb 85 bd 57 d5 17 3e
       0.0048956657 -0.099153884 -0.065298565 0.14827476
0000d0 0d b0 22 bc 3a 5f 0e 3e d2 f7 e0 3d 0e 83 11 3e
       -0.009929669 0.13903514 0.10984768 0.1421015
0000e0 ea cd 04 be 3f b4 04 be c9 66 cb 3d ae 45 90 3d
       -0.12969175 -0.12959383 0.09931714 0.0704454
0000f0 7e c0 3c 3e f3 c8 b2 bd b3 74 85 3c 20 ff 36 3e
       0.18432805 -0.08729734 0.016290998 0.1787076
000100 3b f3 4e 3e ce 17 51 bd 51 9a fe ba e5 9a 1b 3e
       0.20209973 -0.051048093 -0.0019424652 0.15195806
000110 39 b1 2b 3e 7a 91 81 3e 55 3c ae 3d 44 5b a8 3d
       0.16766824 0.25306302 0.08507601 0.082205325
000120 54 e3 08 be 7d 2a 63 3e 95 ae 02 3e d3 63 09 3e
       -0.13367969 0.22184177 0.1276191 0.13416986
000130 ab 56 e5 bd 3e 4b c4 3a 45 3e 80 3e 2d 3a fb bd
       -0.11198171 0.0014976037 0.25047508 -0.122669555
000140 4a 25 15 3e cd f7 9d 3c 6c 58 04 bd 04 4c f2 bd
       0.14565006 0.0192832 -0.03231089 -0.11830905
000150 e0 5c 28 3e 11 58 b3 3c af 61 9b 3d 3c 8c 03 3e
       0.16441679 0.02189258 0.07586991 0.12846464
000160 5a b3 38 3d c8 b4 07 bc 8f cd 05 be af b0 b1 bd
       0.045092918 -0.008282848 -0.13066696 -0.08676278
000170 28 a2 a6 3c 05 5e db 3d d4 57 a0 bd 38 e5 5f bd
       0.020340994 0.10711292 -0.07829252 -0.05466196
000180 2e 6f 5b 3e 49 8e 6c 3e 0d c7 05 3e c6 7d 4d be
       0.2142913 0.23101152 0.13064213 -0.2006751
000190 99 46 d0 bc c6 90 44 3e 17 0b b1 3d 97 ca 59 3d
       -0.025424289 0.19195852 0.08644693 0.05317172
0001a0 9c b5 83 3e 2b 81 c8 bd dc be 89 bd 5d ff 24 be
       0.25724494 -0.09790262 -0.06725857 -0.16113038
0001b0 37 5e 0c bc 0e f9 c6 bd 9c 30 07 3e f4 cd 79 3e
       -0.008567384 -0.09715472 0.13202137 0.24394971
0001c0 b9 a2 88 bd 6c 82 6b 3d 80 58 f6 bd f8 69 03 bd
       -0.06671662 0.057497427 -0.12028599 -0.03208348
0001d0 69 ca 38 3e b2 37 9e 3d 0e 31 14 3e ba 68 1a 3c
       0.18045963 0.07725467 0.14471838 0.009424383
0001e0 66 12 4d bd 61 a7 38 3d 7e 25 f1 bd 38 10 b0 bd
       -0.050066374 0.0450815 -0.11774729 -0.085968435
0001f0 d9 fc 9a bd 66 92 21 3e 6b 05 fb bd f9 60 39 3c
       -0.07567758 0.15778503 -0.12256893 0.011314624

net.2.weight f4 [128, 128]
000000 3a 2c 5d be 07 f8 3e bd f6 1e b4 3d ea 4d b8 be
       -0.21598902 -0.046623256 0.08794968 -0.35996944
000010 56 98 25 3e e4 fd b9 ba db b3 08 be 04 da 30 bd
       0.16171393 -0.0014190045 -0.1334986 -0.043176666
000020 6b 34 c6 3c 91 e6 ad 3e 54 39 15 3f c4 91 99 bd
       0.024194917 0.3396497 0.582906 -0.07498506
000030 7e 34 ff 3c 41 63 31 bd 02 e8 91 3e e6 b2 30 3d
       0.03115296 -0.043307547 0.2849732 0.04313936
000040 37 67 05 3e 49 2d bc 3d 0f 05 31 3e 85 1e 3f be
       0.13027655 0.09188325 0.17287086 -0.18663986
000050 7b a7 dd 3e c7 17 ee 3c bb 9a 15 bd 7e 76 2f bc
       0.4329184 0.029064072 -0.036524516 -0.010709403
000060 a8 47 af 3c 93 1a 1e be c9 74 fc bd 69 46 b9 be
       0.021396473 -0.15439825 -0.123269625 -0.3618653
000070 e3 ed 13 3e ca 1f 03 3e 0c 02 0a 3c b5 cb 3f 3d
       0.14446215 0.12805095 0.00842334 0.04682513
000080 72 dd 85 3e 33 6d 8c be 73 d1 db 3d 21 21 b8 3b
       0.26145512 -0.27427062 0.10733309 0.0056191836
000090 16 34 a8 3d 5f ae fd 3d 35 25 ee 3d 47 9a a8 be
       0.082130596 0.12386774 0.116281904 -0.32930204
0000a0 18 d6 6b 3e 1b 8c 53 3e 67 82 09 3c aa 65 c2 bd
       0.23030889 0.20658915 0.008392907 -0.09492047
0000b0 b8 81 39 3d aa c0 62 3e a7 58 19 3e c4 66 f9 bd
       0.045289725 0.22143808 0.14975224 -0.12177804
0000c0 58 2b 55 3c 93 58 50 be 80 bb 94 bd 89 38 df 3d
       0.013010822 -0.20346288 -0.07262325 0.10899455
0000d0 16 67 52 bd aa 17 ce 3d 6c 93 13 3d 4d 22 bd 3b
       -0.05136784 0.10063107 0.036029264 0.0057719112
0000e0 46 95 a4 3d bc c1 59 3e cd ce 39 3d a1 6d d5 3e
       0.08036284 0.2126531 0.045363236 0.41685203
0000f0 8d dd 20 3d 3c 69 80 3d 66 11 80 3e da 59 28 3d
       0.039273787 0.06270072 0.25013274 0.041101314
000100 ff 6f 9c 3d 85 fa c8 3e 87 43 20 3d 33 c9 ce bc
       0.07638549 0.3925363 0.0391269 -0.025242424
000110 9a 57 10 3e 63 b2 eb 3c 47 b2 f6 be 1e d3 7f 3c
       0.14095917 0.028771585 -0.4818289 0.015614299
000120 58 20 c9 3d 5d 2e 6f 3d 2c 22 1e 3e 65 9f 47 be
       0.09820622 0.058393825 0.15442723 -0.19494398
000130 b5 1b 09 be 4b 86 11 3e 79 1c 16 3d 6a 38 6a 3d
       -0.13389476 0.14211385 0.036648247 0.057182707
000140 b3 42 da bd 55 6f 36 3e 8d d6 ab 3c 80 eb 13 3e
       -0.10657253 0.17815907 0.02097633 0.14445305
000150 05 bd 84 be aa 06 fc bd ca 90 8a 3d 48 21 09 3e
       -0.2592546 -0.123059586 0.067658976 0.13391602
000160 a6 c1 4c bd 98 aa 9f 3c 32 3c ff 3d 57 04 51 be
       -0.049989365 0.019490525 0.12462653 -0.20411812
000170 81 5d bd 3d af 80 36 3d ca f9 ae 3e 53 f5 1d 3f
       0.0924635 0.044556316 0.3417495 0.6170246
000180 32 68 b5 3d 68 9c a4 3e df ee 07 3e 35 21 6e 3d
       0.08857764 0.32150578 0.13274716 0.058137137
000190 ab 41 39 be 5b 2e 34 3e 99 1b fe 3d 56 c4 1f 3d
       -0.18091457 0.17595808 0.124076076 0.0390056
0001a0 f4 36 7c 3e 73 5f 95 3e 2b 4b 05 3d 51 d0 37 3d
       0.24630338 0.29174384 0.03254239 0.0448764
0001b0 75 63 92 3e 2f c5 12 3e 50 6b 13 3e 99 ef f2 bb
       0.28591505 0.14333032 0.14396405 -0.007413816
0001c0 9c fe fc 3e bd 4b 47 bd ca 6d 86 3e 13 51 c8 be
       0.49413002 -0.048656214 0.26255637 -0.39124355
0001d0 b7 4d 08 3e 6c a6 cc 3d 9b e6 5c be 4f 7e af 3e
       0.13310896 0.0999268 -0.21572344 0.34276053
0001e0 15 05 15 3e 67 40 7d 3e 78 a5 6a 3e c7 cb 2e 3e
       0.1455272 0.24731599 0.22914684 0.17069922
0001f0 c9 5c 3f 3b 75 02 10 3d 19 ba 09 be 18 58 88 be
       0.0029199591 0.035158593 -0.13449897 -0.2662971
000200 c0 ec 8e 3d d8 da d3 bd 81 c2 3e 3e 6e 31 67 3e
       0.0697875 -0.103444755 0.18628885 0.2257745
000210 55 d0 00 3e 54 97 b3 3d fe 48 7a 3d 49 ea 3b be
       0.12579472 0.08769098 0.061104767 -0.18351091
000220 07 71 ec 3d 37 49 07 be 03 f9 e0 be 23 6a 2a 3d
       0.11544996 -0.13211523 -0.4393998 0.041605126
000230 5a 45 7e 3e 03 98 12 bf 82 a8 13 3e 8e e7 9c 3e
       0.24831143 -0.572632 0.1441975 0.30645412
000240 0d f1 66 bd c0 dd da 3c 68 83 36 3c 4f 22 67 bc
       -0.056382228 0.026717067 0.011139728 -0.014107301
000250 54 32 c6 3e f8 60 04 be f9 9a bc 3d 89 9d a6 bd
       0.38710272 -0.12927616 0.09209246 -0.08135516
000260 ff 94 cd 3d 24 26 4e bc 18 3a 0d bd f8 8a d6 3d
       0.100381844 -0.012582336 -0.03447923 0.10475725
000270 b7 20 b8 3d 3e 96 2e 3e 3e 49 22 3e 3b 7e c0 3d
       0.08990615 0.170495 0.15848252 0.093990766
000280 27 2e 31 3e 5a 75 c4 be d2 99 bf bd f4 66 98 3d
       0.17302762 -0.38370782 -0.09355511 0.07441512
000290 19 0d 92 3e 1b ba d6 be ef 92 d4 bb 8c 2e 26 3e
       0.28525618 -0.41938862 -0.0064872424 0.16228694
0002a0 4b 0b f1 bd 85 3d 26 3e 79 0a 2a 3d cb 8e ec 3d
       -0.11769732 0.16234405 0.041513894 0.11550673
0002b0 14 39 a1 3d 37 6f 57 bd d2 5f 04 be 2e 33 17 be
       0.07872215 -0.052596297 -0.12927178 -0.14765617
0002c0 f4 a3 28 be 31 5f 8d 3d a3 63 96 bd 34 68 87 3e
       -0.16468793 0.06902922 -0.07343223 0.26446688
0002d0 28 82 cd be 35 36 b6 bc 66 98 ca 3d 48 b6 ce 3d
       -0.40138364 -0.022242645 0.09892349 0.10093361
0002e0 ab d0 9c be 16 36 91 3e ef 40 02 be e9 c5 2e 3f
       -0.3062795 0.28361577 -0.12720083 0.68270737
0002f0 f6 b5 95 bc 80 a2 8e 3d e8 95 ad 3e 60 7a 73 3e
       -0.018275242 0.06964588 0.33903432 0.23777151
000300 c4 3c 5d 3e 32 05 83 3e 70 72 c1 3d ae 00 2c bc
       0.21605211 0.255899 0.09445655 -0.010498209
000310 bb 8b 75 bc d9 63 a6 3c af e5 15 bf dc 20 f9 bd
       -0.014986928 0.020311283 -0.58553594 -0.121644706
000320 ca 60 c7 3d 54 87 d3 be 68 ef e3 3d 20 71 bd 3d
       0.09735258 -0.41314185 0.111296475 0.092500925
000330 38 a8 36 3e 94 9b 5f 3d b8 a3 97 3e 4d 42 e2 be
       0.17837608 0.05459173 0.29617095 -0.44191208
000340 a9 ba c5 be 7e cb 82 bd 9d 21 27 3e 41 ad 3a bd
       -0.38618973 -0.06386469 0.16321416 -0.045575384
000350 e9 a3 83 bd 7e fa d3 bd 21 8c a9 3d 91 e5 9f bd
       -0.06427748 -0.10350512 0.082786806 -0.07807458
000360 67 ec 4d bd a4 ff 8c 3d 7d 40 7b 3e 3a c1 14 bf
       -0.05027428 0.06884697 0.24536319 -0.5810734
000370 cc aa 22 be ea 72 38 3e d1 69 18 3e d3 d5 5a bf
       -0.15885466 0.18012586 0.14884116 -0.8548252
000380 6a 35 56 bd 96 59 97 be 5e 55 2e 3e fa a6 b2 bd
       -0.052297033 -0.29560536 0.17024752 -0.087232545
000390 a0 3f 32 bd 0f 94 1f 3e 8d 18 30 3e f4 ed 24 3e
       -0.04351771 0.15583824 0.17196865 0.16106397
0003a0 fc a7 82 bd a3 72 f9 3d 3a 5f 98 be ae 11 ca 3c
       -0.06379697 0.12180068 -0.29760152 0.024666633
0003b0 a2 b7 c1 3e 13 35 06 bc 2f 7b 9b be 34 28 c5 be
       0.37835413 -0.008191365 -0.3036742 -0.38507235
0003c0 40 b7 d6 3e 5e aa 4e 3e b2 03 9f bd 46 4e 8d bc
       0.41936684 0.20182177 -0.07764377 -0.017249238
0003d0 02 4a 9e 3d c0 bb 89 bc 3d 06 a0 be 67 e6 a1 3e
       0.077289596 -0.016813159 -0.3125476 0.31621096
0003e0 b9 98 36 be 83 9a 22 3f 6c fe 02 3e a7 e4 92 be
       -0.17831697 0.63517016 0.12792367 -0.28690073
0003f0 e5 6f 1d 3e 2b 90 1a 3e 17 03 0e 3e 3c 73 04 bf
       0.15374716 0.15094058 0.13868366 -0.51738334

net.2.bias f4 [128]
000000 a4 3f cf 3d 74 c1 18 3e 1f 7b 1d 3e 3a 80 a9 3d
       0.1011956 0.14917547 0.15378998 0.082764104
000010 2d 50 8f 3d 78 9b 41 bd a5 97 70 bd 9d 5d ee 3c
       0.06997714 -0.047267407 -0.05873837 0.029097373
000020 65 fd e9 bb a5 44 8e bd 31 9e 74 3d 8c 8c d1 bd
       -0.0071408027 -0.06946687 0.059721176 -0.10231885
000030 ac 72 e3 3d de 01 50 bc 73 53 58 bc 32 47 71 bd
       0.11105856 -0.012695758 -0.01320349 -0.058905788
000040 06 be 99 3d 3f 73 6f 3d 3d e8 05 3d be 29 f8 3c
       0.07506947 0.058459517 0.032692183 0.030293342
000050 c8 c9 bf 3d 71 2f 1a bd f0 6e ce 3d ee 33 29 3c
       0.093646586 -0.0376429 0.100797534 0.010327322
000060 7e ce 86 3d 9c 79 88 bb 99 79 36 3e 14 6c e5 bb
       0.06582354 -0.0041648876 0.17819823 -0.0070014093
000070 15 94 af 3d bd 53 9a 3c c8 58 62 3d e4 1f 25 bc
       0.08573166 0.018838758 0.05526045 -0.010078404
000080 19 7c d1 3c 44 d2 25 bd b4 6b 93 3c 13 f2 31 3d
       0.02557187 -0.040483728 0.017995693 0.04344375
000090 a5 60 53 3d 90 7f 39 bd d3 e3 b1 3d 8c e3 97 bd
       0.05160584 -0.04528767 0.08686032 -0.07416448
0000a0 a9 0b 93 bd 6e e2 1f 3d f0 c6 c9 3d 45 c8 eb bc
       -0.071799584 0.0390343 0.098523974 -0.02878202
0000b0 65 30 a3 bc f9 23 67 bb c8 c1 5a bd 4c 49 c4 3d
       -0.019920537 -0.0035269244 -0.05340746 0.09584293
0000c0 0a 26 66 3b 57 18 80 3d a2 ef 68 3d 29 4c b9 3d
       0.0035117888 0.062546425 0.056869157 0.090477295
0000d0 1a 92 42 bd 38 ab 94 bd 98 a0 17 3d 08 b1 8a 3d
       -0.047502615 -0.0725922 0.03701839 0.06772047
0000e0 da e4 9b 3d c9 eb 10 bd d2 d1 9a 3d 92 3f 93 3d
       0.07612009 -0.035381112 0.07559551 0.071898594
0000f0 ac df 19 bd 7f 64 58 3d ee 23 11 3e 87 ac ed 3b
       -0.037566826 0.052830216 0.14173862 0.007253233
000100 0b 7f 15 3d 20 09 0a 3c 32 85 ed 3c 8d 7b ce bd
       0.03649811 0.008425027 0.028994177 -0.10082159
000110 9d f7 99 bd 6d 68 d5 3b a6 df 9a 3d 94 2d c5 3c
       -0.075179316 0.0065126927 0.07562189 0.024069585
000120 1a da 95 3d 9d 25 57 3d e8 0d c1 3c f2 93 21 3d
       0.0731699 0.052526105 0.023566201 0.039447732
000130 0f 2c 66 3d ac ff 28 3d 87 74 cd 3b 82 6d d7 3d
       0.05619436 0.041259453 0.0062699947 0.10518934
000140 8f f6 bf 3d 33 27 2a 3d fa ae a2 bd 23 e1 3b 3c
       0.09373199 0.04154129 -0.079435304 0.011467251
000150 a1 23 a1 bd 5d 11 1f bc 72 f6 6c bd f1 23 6b bd
       -0.07868124 -0.00970873 -0.057852216 -0.057407323
000160 15 39 94 bd cc 51 31 3d 01 9d 63 bd 77 ad 95 3c
       -0.0723745 0.0432909 -0.055569652 0.018271191
000170 3d 98 19 3e 25 e3 53 bd de 4e 53 bd 91 05 70 3d
       0.1499948 -0.051730294 -0.051588885 0.05859906
000180 2b 26 7d bc ae a4 6d 3b 09 17 88 bd 2c 02 27 bd
       -0.0154509945 0.0036261487 -0.066450186 -0.040773556
000190 b4 dc 9f 3c b2 1b 4d 3c ce b3 83 3c d4 4b 16 3d
       0.01951442 0.01251881 0.016076948 0.03669341
0001a0 44 c9 7a bc 67 72 74 bc c7 85 a0 bd 7b c8 43 bd
       -0.0153067745 -0.014919854 -0.07838016 -0.047798615
0001b0 1b 00 e6 3c 12 36 32 bd a4 a4 8a 3d 3d 91 25 bd
       0.028076222 -0.043508597 0.06769684 -0.040421713
0001c0 c0 01 4f bd 8f 8b 85 bc 3a ea 31 bd 0e 4f 88 3d
       -0.05053878 -0.016301898 -0.043436266 0.066557035
0001d0 ba 91 ad 3c 27 e8 39 3b 2c 63 a7 bd 28 00 2b 3d
       0.021187652 0.0028367133 -0.081732124 0.041748196
0001e0 ba 13 be 3a 22 55 3c bd 13 df 04 3d ef df 20 bd
       0.0014501729 -0.045979626 0.032439303 -0.03927606
0001f0 d7 cb 10 3c 16 16 0d bd 11 06 ee 3c 96 01 e5 3d
       0.008837662 -0.03444489 0.029055627 0.11181943

net.4.weight f4 [7, 128]
000000 e1 03 fb 3d a0 fb 50 3e b5 3f 81 3f b3 b8 28 bf
       0.12256599 0.20408487 1.0097567 -0.6590683
000010 15 30 32 bf 9d ed d2 bf ac 3f 4e 3e f1 ae 11 3f
       -0.6960462 -1.6478764 0.20141476 0.56907564
000020 cd dd 80 bf a4 25 e5 bc 98 ee 74 bc cd 0b 4f be
       -1.0067688 -0.02797205 -0.014949463 -0.20219345
000030 cb ba c7 bd d5 8b 1d 3e 81 8c 71 3f 8b fd dd 3e
       -0.09752425 0.15385373 0.94355017 0.433575
000040 8f 53 65 bd cb 59 0a bf 73 9b af 3e 32 e6 fa 3d
       -0.05598789 -0.54043263 0.34298286 0.122509375
000050 e7 08 45 3e 11 a3 df bc ed 46 66 bd d2 76 24 3e
       0.19241677 -0.027299436 -0.056219984 0.16060951
000060 14 0a fe 3d 69 8a 61 3e d4 25 8a bc 26 c2 04 bd
       0.12404266 0.22025456 -0.016863741 -0.032411717
000070 27 87 1b 3e 1d 2c 10 bf f1 d0 1b 3e 42 5c 09 bf
       0.15188275 -0.5631731 0.15216424 -0.536564
000080 df 08 42 bf 74 46 e5 3e 10 cb 0d 3c f6 5c 4d be
       -0.75794786 0.44780314 0.008654371 -0.20054993
000090 bf e8 69 be d7 d2 ab 3d eb 58 b9 be 45 6c a3 3e
       -0.22842692 0.08389824 -0.36200652 0.3191854
0000a0 97 06 89 bd 65 ba ce be 96 14 91 bd 7c 8b db be
       -0.0669071 -0.40376583 -0.070840046 -0.42879856
0000b0 e9 dc 86 bf 47 1b c1 3e fe e3 10 3f fe ad 0a 3e
       -1.0536166 0.37716123 0.5659789 0.13542935
0000c0 b0 f1 b5 bf f6 a8 f4 3e 26 e2 9a bf 35 1b 83 bf
       -1.4214382 0.47785157 -1.2100265 -1.0242678
0000d0 10 f4 bd bc 21 e2 70 be b6 bc 3e 3e 99 43 b6 3e
       -0.023187667 -0.23523761 0.18626675 0.35598448
0000e0 8c 06 d3 bc e9 e7 89 bf b3 61 92 3d 29 2c e4 be
       -0.025759958 -1.0773898 0.07147541 -0.44564942
0000f0 42 17 5d 3e ad 31 0e bd 12 98 b3 3e 10 80 7b bf
       0.21590903 -0.034715343 0.35076958 -0.9824228
000100 fb 7b 27 3e 6e 7a b9 3e a3 85 48 3e e2 63 7a be
       0.16355889 0.3622622 0.19582228 -0.24452165
000110 5d f8 f7 be 4a e3 63 be 1f 83 ae 3d 2c f4 02 3f
       -0.48431674 -0.22254673 0.08521103 0.51153827
000120 1d b5 c6 be 08 32 2b 3f b6 49 0a 3e c5 37 f7 be
       -0.38810053 0.66873217 0.13504681 -0.48284736
000130 d4 49 30 bd 72 aa ed 3d dd ac 04 3e bc 23 63 bf
       -0.043039158 0.116047755 0.12956567 -0.887264
000140 db 92 59 3e 6d ce 4c bf 28 a5 08 bf 69 a2 70 3e
       0.21247427 -0.8000248 -0.5337701 0.23499455
000150 4a 4f 17 bf 56 ce 94 3f 8d 9e 18 bf 85 9b 2b 3f
       -0.5910536 1.1625469 -0.5961693 0.6703418
000160 70 ed 2c bc 4d 8f 3b bf a8 5c 2b 3f 68 a5 f2 3e
       -0.010554656 -0.73265535 0.6693826 0.4739182
000170 35 c1 27 be 99 7b 83 3e 05 3e 64 bd 37 88 76 3e
       -0.16382296 0.25680235 -0.05572321 0.240754
000180 aa d4 d7 bd d3 dc f0 bc 1e 24 a6 bf a5 6c a1 3e
       -0.10538609 -0.029402172 -1.2979772 0.31528202
000190 24 7d b3 bd ce f8 45 be e9 59 53 3d ea 5e 65 be
       -0.08764103 -0.19333193 0.051599417 -0.22399488
0001a0 21 b1 d2 3e 25 8c 43 bf bd bf 7c bf b4 a6 86 3f
       0.41150764 -0.7638572 -0.9873007 1.0519624
0001b0 14 88 cb be 8c 7d c0 3e d0 7b 02 be ad 70 29 bf
       -0.39752257 0.37595785 -0.12742543 -0.66187555
0001c0 58 c6 56 3e b5 97 cc 3e ab 52 c2 bd 7b 39 b4 3c
       0.209741 0.39959493 -0.09488424 0.022000065
0001d0 3e 82 2b bd 33 1f 1a be 4c 11 91 3e 86 04 cd 3e
       -0.041872256 -0.15050964 0.2833351 0.40042514
0001e0 ca 60 bb be 5a f6 65 bf 1e 55 8e 3c cd a7 0d bd
       -0.36597282 -0.8982903 0.017374571 -0.034583855
0001f0 6e fd 18 be dc 16 db be 54 53 92 bf 03 a7 41 bd
       -0.14940426 -0.42790878 -1.143168 -0.047278415
000200 b2 37 f6 3c e8 fc 13 3f 97 59 1d bc 80 5f 7c 3e
       0.030055854 0.5780778 -0.009603879 0.24645805
000210 f6 d5 a5 bd 6e d2 a2 3e cc 4b a4 bd ba 5b 4f bf
       -0.080974504 0.3180117 -0.080222696 -0.8099934
000220 8c 95 1d 3f 1c 79 8d 3e ed 71 f1 3b 7a 9c ec 3d
       0.61556315 0.27631462 0.0073683173 0.11553283
000230 55 ac 6a bc 4c 00 8f 3d 9d 60 f9 be 29 5c 07 bf
       -0.014323314 0.069824785 -0.48706523 -0.52875
000240 83 28 b8 3e 55 53 99 3d 58 b9 8b be e1 d0 7d be
       0.35968408 0.074865974 -0.27289844 -0.24786712
000250 ab 29 5c 3e 23 34 de bc d7 7c d7 3c e2 51 8e be
       0.2150027 -0.02712447 0.026304645 -0.27796847
000260 bd 3a 30 bf 46 73 9c 3e cf 5f 57 3e 87 6e af bd
       -0.6883963 0.30556697 0.21032642 -0.08566003
000270 3c 36 2c 3d 3e ec 43 3e b4 09 c1 be 01 c4 f1 bd
       0.04204391 0.19133088 -0.37702715 -0.11804963
000280 57 3b cb 3e ea 20 a9 be cd 77 90 3d fc b2 ae be
       0.3969371 -0.33032924 0.070541 -0.3412093
000290 ac c4 96 3c c3 44 2a bc 32 04 a1 3e ec 1d 25 bd
       0.018404327 -0.010392371 0.31448513 -0.04031174
0002a0 86 6e 02 bd 33 c7 91 be 27 46 2b bd fc 2d 74 bf
       -0.031843685 -0.2847229 -0.04181495 -0.95382667
0002b0 6e df 0f be 03 69 01 3f ce 43 99 be fe 46 38 3d
       -0.14050075 0.5055086 -0.29934543 0.04498958
0002c0 88 27 26 3e 5d 14 39 bf 4b db a5 be 9c 9a ab be
       0.16226017 -0.72296697 -0.3239387 -0.33516395
0002d0 33 e8 04 bd cd 06 43 3e 74 16 24 3e 55 88 03 bf
       -0.032448005 0.19045563 0.1602419 -0.513799
0002e0 fc f9 cc bd fc a4 98 3e de ff 4c be 40 39 1c bf
       -0.10008618 0.29813373 -0.2001948 -0.61024857
0002f0 a4 53 c6 be 11 5c 1d 3d ae 14 a3 3e 1a dc d4 3e
       -0.38735688 0.03841788 0.31851715 0.41574174
000300 36 62 37 be ef 70 61 bf f8 ac 9d 3e 6e 81 3e bf
       -0.17908558 -0.8806295 0.30796027 -0.74416244
000310 dd 5a 93 3e fa f4 57 bf a3 55 0b 3e 3b e5 e0 be
       0.2878026 -0.8435818 0.13606887 -0.4392489
000320 81 06 03 be ee c6 c9 bd 86 90 14 3d f7 d5 35 3f
       -0.1279545 -0.09852396 0.03627064 0.7102961
000330 41 17 4f 3e b9 82 bc bf 82 be 37 3f 20 33 13 3f
       0.20223714 -1.4727393 0.71775067 0.57499886
000340 6e 64 a9 be a5 05 e4 3e d2 a6 91 be af 92 82 3e
       -0.33084434 0.44535556 -0.28447586 0.25502536
000350 4c ab 5b bf 1a 0c 0f bf 91 1b a0 be 0f 25 8c bf
       -0.85808253 -0.5587784 -0.31271031 -1.0948809
000360 20 7c a7 3c d4 2b ff 3d 8a 9a 65 bf 8a 20 2f bf
       0.02044493 0.124595314 -0.8968893 -0.68409026
000370 cd f4 9d 3e 65 93 65 bf ee 3c 7a 3d 8a 48 85 3e
       0.3085083 -0.8967803 0.061093263 0.26031905
000380 bf 44 04 bf 43 1c 58 3c 1f 27 d2 3e 83 90 18 be
       -0.516674 0.013190332 0.41045472 -0.14898877
000390 bd 74 8b be d2 20 53 3e 8f e1 b9 3e 8b d6 1a 3e
       -0.27237502 0.20617989 0.363049 0.15120904
0003a0 eb 1f 9c bd 5e 8c 98 3e b0 b2 d8 3e 57 ad db bd
       -0.07623275 0.29794592 0.42323828 -0.10726421
0003b0 3d 4b 0e be aa 69 6e 3d fe cf cd 3e 8a f1 51 3e
       -0.13895889 0.058206238 0.40197748 0.20502296
0003c0 38 d3 00 be 88 41 97 be 06 fa d0 3d a3 8d 95 be
       -0.12580574 -0.29542184 0.10203938 -0.29209623
0003d0 a0 fd e8 3e 44 4e 9d bc 49 bf 10 bd 21 0a a0 be
       0.45506 -0.019202359 -0.035338674 -0.31257728
0003e0 52 41 a0 bf e6 1b 53 3f bd a1 0b bd b0 46 39 3f
       -1.2519934 0.82464445 -0.034089793 0.72373486
0003f0 e3 5f ce be 58 4a 8b be 73 aa 85 be d6 cc 0e be
       -0.4030753 -0.27205157 -0.26106605 -0.13945326

net.4.bias f4 [7]
000000 c3 50 b7 bd 79 67 92 3d 0f d7 e9 bd 86 f0 9e 3d
       -0.08950951 0.07148642 -0.11417972 0.0776072
000010 ed 7a a8 3d 08 18 05 3d 78 a0 12 be
       0.08226571 0.03249362 -0.14319026
