coup_nsfp/nfsp_coup_demo_q.pt (torch, 86145 bytes, 6 tensors)

net.0.weight f4 [128, 25]
-0.046090316 -0.27560702 -0.059917092 0.2460614 -0.2011745 0.075567976 0.08267208 0.071521826
-0.10938609 -0.07279834 0.06112954 0.08482172 -0.09010099 -0.04770751 0.040011406 -0.110180706
-0.22706923 -0.29515466 -0.07220545 0.18559429 -0.08751731 -0.056299623 0.00021595959 -0.12604874
0.21761027 0.01761713 0.18673949 -0.1355188 -0.032962177 -0.017286625 0.06569614 -0.044009693
-0.1103182 -0.089691 -0.012703305 0.094528675 0.21467558 0.064533524 -0.1365379 0.054710332
0.17041598 -0.15598474 -0.24688333 -0.19455802 0.009196151 -0.06802104 0.061645903 -0.06833757
-0.028644389 -0.13653524 0.09109613 -0.04414245 0.1392092 -0.005243132 0.16461726 -0.14948446
0.18683612 0.17185296 -0.073372655 -0.08198279 -0.11573576 -0.05244755 0.07996967 -0.14571428
-0.16654848 -0.1027026 -0.17863043 -0.1267533 0.062467363 0.22462228 0.043805502 0.15985356
0.12018055 -0.14012317 -0.1469373 0.16825067 -0.13224754 0.096918486 -0.111165196 -0.18771751
0.24872738 0.010449804 0.015031865 -0.004698816 0.30910867 0.015863486 0.02374062 -0.20241024
-0.19763796 -0.12038533 -0.09366359 -0.09335708 -0.20621239 -0.12102971 0.12621701 -0.20849085
-0.110145226 0.27427253 -0.07410097 0.2547178 -0.13053778 -0.18389764 0.18510106 0.20458882
0.19882052 0.06456212 -0.09496551 0.19042875 0.10080789 -0.05627294 -0.20857896 0.16809912
0.15936452 -0.109906055 0.072804555 0.1686456 -0.045507684 0.05742314 -0.10220678 0.035887066
0.18771455 0.10258773 0.13591427 -0.18688095 -0.10504242 -0.17564353 -0.042903997 -0.079797134
0.056401744 -0.2855103 0.14521079 0.22916196 -0.095968924 -0.03726112 0.1393988 -0.2229345
0.18226407 -0.14977205 -0.1685675 0.09626234 0.1986123 0.11197214 -0.12480166 -0.020175219
0.14072366 0.03494046 0.036845904 0.15355484 -0.027410232 -0.014241081 -0.08450644 0.23597765
-0.20424251 0.12185287 -0.083383806 0.15850717 -0.042967334 -0.08844395 -0.09156311 -0.19298196
-0.0049110954 0.028096149 -0.10061766 0.18184935 0.026091272 -0.03470068 0.16979592 -0.058530655
0.113376595 -0.10406878 -0.06563703 -0.0459782 0.070904136 0.15946317 0.0114660775 0.0067395074
-0.02181531 -0.14333393 -0.07302439 0.16252433 -0.16187695 -0.08435595 -0.019245427 0.033194315
-0.26309666 -0.06820796 -0.0017038778 0.05722813 0.02517054 0.16113815 0.2654556 0.26723394
-0.009214172 -0.09010172 0.17482442 0.11565812 -0.1688658 0.17618918 0.2303022 -0.08951565
0.1691738 -0.025923412 0.067443445 0.22740105 -0.0072651785 0.1872029 0.09064836 0.18037386
0.09397366 0.08908544 0.12818557 -0.15874761 0.15419284 0.1937249 -0.050246276 0.22124562
-0.052663345 -0.212829 -0.18303609 0.19871242 0.11209238 0.08353552 0.10238724 0.20115426
0.13129008 -0.15408406 0.15839805 0.25391105 0.13613 -0.19823018 0.07874805 0.03193101
0.16373804 0.25823843 -0.1160352 -0.03498824 -0.2527402 0.067852944 -0.06065142 0.10820135
-0.052960083 -0.039326422 -0.01776523 0.1455311 -0.13046658 -0.0074767754 -0.11464317 -0.2021178
-0.203224 0.03393829 0.11346006 0.074332096 0.082826465 0.067498215 0.19515963 0.030002205
00000000: 33c9 3cbd 5d1c 8dbe a06b 75bd 85f7 7b3e
00000010: b000 4ebe 62c3 9a3d fb4f a93d 097a 923d
00000020: d005 e0bd 4c17 95bd f862 7a3d 03b7 ad3d
00000030: de86 b8bd f368 43bd 00e3 233d 6ca6 e1bd
00000040: d684 68be 831e 97be 73e0 93bd 6e0c 3e3e
00000050: 473c b3bd 6f9a 66bd 3673 6239 ec12 01be
00000060: 3ad5 5e3e cd51 903c a338 3f3e 71c5 0abe
00000070: 5903 07bd ae9c 8dbc b38b 863d 8243 34bd
00000080: 82ee e1bd eaaf b7bd 8621 50bc 4098 c13d
00000090: ead3 5b3e 272a 843d 97d0 0bbe f117 603d
000000a0: 8781 2e3e 77ba 1fbe fcce 7cbe 383a 47be
000000b0: 74ab 163c 9d4e 8bbd 6a80 7c3d 91f4 8bbd
000000c0: a3a7 eabc e5cf 0bbe 9c90 ba3d b7ce 34bd
000000d0: db8c 0e3e 94ce abbb 6d91 283e 7412 19be
000000e0: f851 3f3e 39fa 2f3e 6744 96bd 98e6 a7bd
000000f0: df06 edbd 3ed3 56bd 23c7 a33d 2036 15be
00000100: af8b 2abe be55 d2bd e5ea 36be 9ecb 01be
00000110: c7dd 7f3d 6203 663e 666d 333d a7b0 233e
00000120: 3821 f63d 737c 0fbe bb76 16be e749 2c3e
00000130: e66b 07be 337d c63d 94aa e3bd 0539 40be
00000140: 64b2 7e3e a835 2b3c 3648 763c 87f8 99bb
00000150: 7e43 9e3e 24f4 813c b07b c23c a144 4fbe
00000160: 9b61 4abe 958c f6bd b2d2 bfbd ff31 bfbd
00000170: 5729 53be 6dde f7bd 083f 013e a07e 55be
00000180: d293 e1bd 736d 8c3e 40c2 97bd 5f6a 823e
00000190: b2ab 05be aa4f 3cbe 228b 3d3e bb7f 513e
000001a0: 9b97 4b3e 2539 843d 477d c2bd c1ff 423e
000001b0: 5e74 ce3d 747e 66bd b995 55be 2d22 2c3e
000001c0: 7430 233e 6d16 e1bd 8e1a 953d 6fb1 2c3e
000001d0: 4466 3abd 8734 6b3d ca51 d1bd 51fe 123d
000001e0: 3e38 403e 8419 d23d 1c2d 0b3e b85d 3fbe
000001f0: 7b20 d7bd e6db 33be 1abc 2fbd ae6c a3bd
00000200: 8405 673d 682e 92be 23b2 143e 6fa9 6a3e
00000210: 5b8b c4bd 1e9f 18bd 8fbe 0e3e f148 64be
00000220: 6fa3 3a3e d85d 19be f59c 2cbe 3125 c53d
00000230: 0661 4b3e a651 e53d 0398 ffbd 8046 a5bc
00000240: dd19 103e ba1d 0f3d bbeb 163d 7b3d 1d3e
00000250: 6c8b e0bc 6c53 69bc b611 adbd 20a4 713e
00000260: f324 51be ff8d f93d 21c5 aabd b44f 223e
00000270: 84fe 2fbd 1a22 b5bd 7185 bbbd 109d 45be
00000280: 41ed a0bb e529 e63c a210 cebd b736 3a3e
00000290: 5dbd d53c 4d22 0ebd fbde 2d3e d7bd 6fbd
000002a0: fd31 e83d 0322 d5bd b56c 86bd a353 3cbd
000002b0: 3036 913d 504a 233e 37dc 3b3c 16d7 dc3b
000002c0: 05b6 b2bc 21c6 12be d08d 95bd c76c 263e
000002d0: 12c3 25be d0c2 acbd 96a8 9dbc c3f6 073d
000002e0: 9bb4 86be 9db0 8bbd a754 dfba 0b68 6a3d
000002f0: 7332 ce3c 6601 253e cce9 873e e3d2 883e
00000300: 0af7 16bc 4087 b8bd 2c05 333e 2ade ec3d
00000310: 28eb 2cbe f06a 343e 57d4 6b3e fb53 b7bd
00000320: e63b 2d3e 565d d4bc ca1f 8a3d d2db 683e
00000330: bc10 eebb 1eb2 3f3e d9a5 b93d edb3 383e
00000340: 4375 c03d 6d72 b63d 1443 033e bc8e 22be
00000350: bae4 1d3e d25f 463e 0acf 4dbd 368e 623e
00000360: 85b5 57bd d8ef 59be d06d 3bbe 457b 4b3e
00000370: b190 e53d ac14 ab3d 67b0 d13d 62fb 4d3e
00000380: e870 063e 36c8 1dbe 1933 223e a100 823e
00000390: aa65 0b3e dafc 4abe a846 a13d 17ca 023d
000003a0: f2aa 273e d437 843e dda3 edbd d44f 0fbd
000003b0: 2a67 81be 7cf6 8a3d a06d 78bd ab98 dd3d
000003c0: acec 58bd be14 21bd 6388 91bc 1b06 153e
000003d0: 0899 05be bdff f4bb 0aca eabd f8f7 4ebe
000003e0: f419 50be e002 0b3d bf5d e83d 6d3b 983d
000003f0: eca0 a93d 813c 8a3d edd7 473e 2fc7 f53c

net.0.bias f4 [128]
0.03845254 0.06383516 0.22986385 0.13838282 0.027983475 0.16327515 -0.01588083 0.16073906
-0.16692592 -0.03801658 0.17437972 -0.06643604 -0.123059526 -0.15528241 0.04102325 0.09024425
-0.06594975 0.22757165 -0.15359789 0.22523595 0.021348245 0.088522814 0.0291845 -0.09493048
0.06514413 0.061830036 0.0207496 -0.06159431 -0.07392339 -0.06665533 0.0015277889 -0.0338751
0.06036932 -0.06337972 -0.04929501 -0.10101309 -0.18209288 0.14750451 0.21622808 -0.102365315
0.029689707 0.25005677 -0.02995309 0.19947688 0.040238317 -0.10247053 -0.073495425 0.22277538
-0.08625413 -0.13335994 -0.007287293 0.033438955 -0.09311837 -0.085824154 0.18417363 -0.11462891
0.20856875 0.008512663 0.10603965 -0.05581554 0.14309627 0.02375718 0.06305036 -0.03903572
-0.08415059 0.090797946 -0.06876284 0.22490998 -0.0038451648 0.102293655 0.11682323 -0.029249094
-0.032798186 0.11992861 -0.05516179 0.16096416 0.1152919 0.08405309 -0.025565794 -0.100189045
-0.11246504 0.09667761 -0.05309695 -0.1492798 0.16904633 0.09702639 0.026013318 0.08915991
-0.077549346 -0.08793876 -0.16582437 0.20451738 -0.06230017 -0.09128433 -0.04012468 0.16856936
0.24395026 0.113707915 -0.1543018 -0.05155026 0.02606647 -0.05962421 0.101309404 0.069281735
0.12887368 -0.09249853 -0.015039106 0.14717498 0.21771851 -0.020244425 -0.13951778 -0.024459472
0.029389527 -0.09892163 -0.1282456 0.037850454 0.014567822 0.066353895 0.17239799 -0.0695882
0.0178884 -0.07185771 -0.03285973 0.1471137 0.10792425 0.09382262 0.079977065 -0.18433146
00000000: 6980 1d3d 02bc 823d 6e61 6b3e 3ab4 0d3e
00000010: 9a3d e53c 9a31 273e 8418 82bc c898 243e
00000020: a1ee 2abe 46b7 1bbd 9990 323e 9e0f 88bd
00000030: a206 fcbd 5a02 1fbe ff07 283d fad1 b83d
00000040: aa10 87bd 8b08 693e c448 1dbe 41a4 663e
00000050: 84e2 ae3c 734b b53d 5514 ef3c e96a c2bd
00000060: 496a 853d 7e41 7d3d 11fb a93c 514a 7cbd
00000070: 2565 97bd 9782 88bd 1740 c83a 9ec0 0abd
00000080: d245 773d 3acd 81bd 90e9 49bd f3df cebd
00000090: 8e76 3abe 6c0b 173e e56a 5d3e e8a4 d1bd
000000a0: d437 f33c 7107 803e 2f60 f5bc ab43 4c3e
000000b0: efd0 243d 12dc d1bd c584 96bd 3b1f 643e
000000c0: 01a6 b0bd 828f 08be 3fca eebb 49f7 083d
000000d0: d8b4 bebd 93c4 afbd 0398 3c3e 90c2 eabd
000000e0: 0c93 553e b278 0b3c 512b d93d d69e 64bd
000000f0: d487 123e 6b9e c23c 8c20 813d ebe3 1fbd
00000100: 2557 acbd 46f4 b93d 88d3 8cbd cd4e 663e
00000110: 29ff 7bbb 567f d13d 0541 ef3d cc9b efbc
00000120: 6457 06bd 229d f53d 54f1 61bd cad3 243e
00000130: 291e ec3d 0724 ac3d 5b6f d1bc ea2f cdbd
00000140: 1254 e6bd e9fe c53d 307c 59bd cedc 18be
00000150: 7b1a 2d3e c6b5 c63d e219 d53c 7999 b63d
00000160: 31d2 9ebd 3d19 b4bd ddcd 29be 016d 513e
00000170: 772e 7fbd 47f3 babd c759 24bd 729d 2c3e
00000180: 19ce 793e b2df e83d 4b01 1ebe 5e26 53bd
00000190: 5a89 d53c 8438 74bd 4e7b cf3d 95e3 8d3d
000001a0: 76f7 033e df6f bdbd 9566 76bc 0ab5 163e
000001b0: 9af1 5e3e a3d7 a5bc c0dd 0ebe 3b5f c8bc
000001c0: 4ec2 f03c 6c97 cabd d152 03be 1409 1b3d
000001d0: e0ad 6e3c 8de4 873d 1989 303e 4284 8ebd
000001e0: b28a 923c 232a 93bd ed97 06bd f9a4 163e
000001f0: 6407 dd3d 1326 c03d 04cb a33d 63c1 3cbe

net.2.weight f4 [128, 128]
-0.07752093 0.11547458 0.04316441 0.02529061 -0.036447756 -0.07614713 0.04044609 0.07674618
-0.045201913 -0.059178185 -0.1261014 0.051117666 0.05633048 0.0030083219 -0.044114195 0.0063742367
0.02522035 0.07315148 -0.0015540577 -0.05173589 -0.013992041 -0.112241425 0.11115938 -0.024521543
-0.024381317 0.113168575 -0.057219323 -0.01856463 0.038855147 0.027084561 0.01640856 0.048892222
0.01414892 0.046546727 -0.069644526 0.085171185 0.079084575 0.11439582 -0.08671463 -0.06345191
0.04744477 0.00033681528 0.019802453 0.09584689 -0.07544694 -0.15375656 0.066713646 0.00036426316
0.07837727 -0.078201085 -0.20040956 0.035156135 0.0793065 -0.11528505 -0.009570939 0.0046771695
0.004135512 -0.06931966 -0.089596204 -0.011776477 0.11145097 -0.029507989 0.14697215 0.05405165
-0.027144201 -0.054071378 0.0032614507 -0.0023393976 0.050114665 -0.03439951 0.076181516 0.10494449
0.08365162 -0.059639096 -0.039564643 0.07540694 0.048498966 -0.104885206 -0.03527565 0.031137679
-0.008001616 -0.17254716 0.050607257 0.0088553475 0.12821099 0.059076782 0.038642127 -0.11975274
0.028694272 0.065619536 -0.014449436 -0.059728585 -0.00073640054 0.027766172 0.016502561 -0.12687762
-0.060442414 -0.01890261 -0.005469938 -0.08254904 -0.03109669 0.13329336 -0.02563321 0.046024192
-0.048150755 -0.036996868 -0.06958325 0.07658165 0.069052674 -0.020376433 0.049820762 0.13930781
-0.04582446 0.03280854 -0.011992784 -0.012176679 -0.029651504 -0.06772116 -0.07116877 -0.21396932
0.05583257 0.054331765 -0.04739752 -0.01569569 0.1376013 0.044817757 -0.022189982 -0.086340494
0.049932882 0.053302526 -0.09342656 0.10059328 0.0021336132 0.013742079 0.049878046 0.10684748
0.070297204 0.05869907 -0.09306093 0.031062357 -0.11766619 -0.023504583 -0.013183121 0.043912336
-0.03942019 0.079093695 -0.06168309 0.036677 -0.04426527 0.1362724 -0.024663365 -0.016022606
-0.058778215 -0.053236954 0.06212748 0.029470224 -0.08264049 -0.12920648 0.053755715 -0.12535632
-0.08603628 -0.026428254 0.16260242 -0.058192916 -0.06896931 -0.063510045 -0.00964106 0.07405856
0.10703903 0.06792449 0.044331122 -0.027062403 0.040168058 0.0037570703 -0.07524283 0.034936786
0.02002817 0.04303356 0.11321549 -0.065554075 0.027051885 0.1224305 -0.070827186 -0.032826528
-0.01552492 -0.006590604 0.05481251 -0.14418736 -0.11868028 -0.06829489 -0.016211472 0.013806347
-0.02039679 0.08253673 0.02284883 -0.09616971 -0.08088391 0.09757255 -0.10995569 -0.020702211
0.04669854 0.01727541 0.015383339 -0.062024117 0.054328468 0.038506936 0.019503685 -0.10532363
0.09093097 0.058607753 -0.10011958 -0.012443698 -0.015148392 0.0558451 0.003980576 0.057228196
-0.2550005 -0.052553754 0.018799508 -0.06304519 -0.12301519 0.025342371 0.041637894 -0.026028158
0.008649744 -0.046364345 0.064235955 -0.14710963 -0.04213802 -0.021728197 -0.05318734 -0.018866574
0.032426964 0.0031885004 0.015537229 -0.04032887 0.054936554 0.017481664 0.07826146 0.035276163
-0.034080714 -0.050757263 -0.059283342 -0.07719561 -0.050793454 -0.083532386 -0.029992778 -0.04824513
-0.060349092 -0.0277597 -0.062699124 0.018571308 -0.0759834 0.05069018 0.11573676 -0.039467014
00000000: 4bc3 9ebd f07d ec3d 2acd 303d 412e cf3c
00000010: 3e4a 15bd 07f3 9bbd cdaa 253d 1a2d 9d3d
00000020: a425 39bd d364 72bd ba20 01be c260 513d
00000030: caba 663d 4427 453b 16b1 34bd f9de d03b
00000040: e89a ce3c 71d0 953d 86b1 cbba 03e9 53bd
00000050: e03e 65bc d5de e5bd 87a7 e33d 67e1 c8bc
00000060: 54bb c7bc edc4 e73d cf5e 6abd da14 98bc
00000070: 9326 1f3d 71e0 dd3c 3f6b 863c 3643 483d
00000080: dfd0 673c c8a7 3e3d caa1 8ebd 3b6e ae3d
00000090: 18f7 a13d 5b48 ea3d 7197 b1bd 13f3 81bd
000000a0: 7255 423d 9596 b039 c138 a23c 604b c43d
000000b0: ed83 9abd 5c72 1dbe 2aa1 883d 93fa be39
000000c0: 4384 a03d e427 a0bd 2a38 4dbe e1ff 0f3d
000000d0: 726b a23d 911a ecbd 6dcf 1cbc f142 993b
000000e0: 3083 873b 77f7 8dbd 377e b7bd 20f2 40bc
000000f0: 6840 e43d bdba f1bc de7f 163e 4365 5d3d
00000100: 845d debc f379 5dbd 10be 553b 9450 19bb
00000110: 0945 4d3d 80e6 0cbd 0e05 9c3d 23ed d63d
00000120: 8a51 ab3d 2048 74bd 890e 22bd f46e 9a3d
00000130: daa6 463d 0ece d6bd 337d 10bd 7214 ff3c
00000140: 3619 03bc 34b0 30be 8e49 4f3d 0516 113c
00000150: be49 033e 7ffa 713d 3547 1e3d ed40 f5bd
00000160: 4010 eb3c 8963 863d 54bd 6cbc f6a5 74bd
00000170: 010b 41ba e275 e33c 6130 873c 35ec 01be
00000180: 7792 77bd a5d9 9abc 2a3d b3bb 790f a9bd
00000190: 7cbe febc 0e7e 083e bdfc d1bc dd83 3c3d
000001a0: ba39 45bd 078a 17bd aa81 8ebd d7d6 9c3d
000001b0: 7d6b 8d3d 7aec a6bc db10 4c3d b5a6 0e3e
000001c0: 6eb2 3bbd 3f62 063d 627d 44bc b280 47bc
000001d0: b6e7 f2bc 64b1 8abd efc0 91bd c61a 5bbe
000001e0: b1b0 643d fc8a 5e3d e723 42bd 3f94 80bc
000001f0: 5be7 0c3e d392 373d c4c7 b5bc 49d3 b0bd
00000200: 6c86 4c3d c053 5a3d 6d56 bfbd d903 ce3d
00000210: 17d4 0b3b 7526 613c ec4c 4c3d dad2 da3d
00000220: fbf7 8f3d 706e 703d bb96 bebd 7c76 fe3c
00000230: f9fa f0bd af8c c0bc 04fe 57bc 6cdd 333d
00000240: 1177 21bd e0fb a13d 68a7 7cbd 9f3a 163d
00000250: 804f 35bd fe8a 0b3e d30a cabc d741 83bc
00000260: 6dc1 70bd fe0e 5abd 6279 7e3d 8a6b f13c
00000270: 6b3f a9bd b44e 04be f42e 5c3d 685d 00be
00000280: ca33 b0bd 1180 d8bc 4081 263e b25b 6ebd
00000290: c83f 8dbd 8e11 82bd 89f5 1dbc 04ac 973d
000002a0: 4737 db3d ff1b 8b3d 8d94 353d f9b1 ddbc
000002b0: 4387 243d 2e39 763b ea18 9abd e019 0f3d
000002c0: 1e12 a43c f543 303d 86dd e73d 3741 86bd
000002d0: ea9b dd3c d8bc fa3d d80d 91bd 1c75 06bd
000002e0: 3c5c 7ebc fef5 d7bb 1583 603d daa5 13be
000002f0: a60e f3bd 31de 8bbd eccd 84bc 0434 623c
00000300: 2b17 a7bc 0409 a93d 782d bb3c a0f4 c4bd
00000310: 77a6 a5bd 1ed4 c73d 7330 e1bd af97 a9bc
00000320: f846 3f3d 2985 8d3c 660a 7c3c 000d 7ebd
00000330: 8787 5e3d 73b9 1d3d 31c6 9f3c eab3 d7bd
00000340: 043a ba3d af0e 703d 7f0b cdbd a7e0 4bbc
00000350: f630 78bc d5bd 643d 7e6f 823b 1d68 6a3d
00000360: 6d8f 82be 9b42 57bd 6d01 9a3c d61d 81bd
00000370: 63ef fbbd ce9a cf3c 7f8c 2a3d 0139 d5bc
00000380: a8b7 0d3c 8ae8 3dbd 248e 833d e8a3 16be
00000390: eb98 2cbd 55ff b1bc f8da 59bd 138e 9abc
000003a0: 23d2 043d 29f6 503b dd8f 7e3c e32f 25bd
000003b0: 2705 613d b535 8f3c 8b47 a03d bd7d 103d
000003c0: 3898 0bbd d9e6 4fbd 17d3 72bd bb18 9ebd
000003d0: cc0c 50bd 0713 abbd 6ab3 f5bc af9c 45bd
000003e0: 9c30 77bd 4f68 e3bc 6668 80bd db22 983c
000003f0: 2f9d 9bbd 82a0 4f3d 6507 ed3d 2aa8 21bd

net.2.bias f4 [128]
-0.053395025 -0.024177533 0.002990336 0.013312999 0.070553236 0.11221743 0.04658512 -0.043891035
0.025393307 0.037031323 -0.045453187 -0.011395552 0.076176986 -0.075221665 0.0567352 0.058449294
-0.04593395 0.06765805 0.01484481 0.08247142 -0.022930168 0.0071721496 -0.010940168 0.1002525
0.044851363 -0.0960061 0.032734472 0.05637555 -0.08413512 0.05193911 -0.08519625 0.040786654
-0.0031374162 -0.032293234 0.050091624 -0.049312107 0.0384705 -0.04573894 0.08559943 0.04251876
-0.044429615 0.06503282 0.08344931 -0.0662859 0.07796574 0.09873036 0.0020037896 -0.038577136
0.04719384 -0.049026717 -0.070207514 -0.06759414 0.03148107 -0.015008882 0.07119484 -0.053830966
-0.06976854 0.06100288 0.08382623 -0.04990535 0.041581217 -0.01760741 -0.011325994 0.057093702
0.028088817 -0.03460577 0.041902523 0.0016633194 0.07129291 -0.0014842337 -0.042348474 0.008276604
-0.07116138 0.03053205 0.077337205 0.031110123 0.050893947 0.022203928 0.07721391 -0.014537263
-0.021884622 0.08068645 0.053677052 -0.0038372576 0.011034095 0.009457154 -0.04319648 0.035589203
0.04442971 -0.031863313 0.11116742 0.05966696 0.07562258 0.013523919 0.013107681 0.046704143
0.069738 0.054040156 -0.063679755 0.0018779305 0.058074895 0.06148071 0.05970946 -0.07979542
0.087822214 -0.058905974 -0.04546548 0.019531185 0.07101201 0.054890182 -0.017038679 0.03547734
0.0638157 0.03097746 0.08436823 0.037518438 0.09817981 0.04105437 0.08665912 0.020563198
-0.051860835 0.082034595 0.067542024 0.086681925 -0.060576744 0.042125523 0.008127684 0.09347247
00000000: beb4 5abd f60f c6bc 83f9 433b c41e 5a3c
00000010: 377e 903d 40d2 e53d 0ad0 3e3d 16c7 33bd
00000020: a005 d03c 28ae 173d 1f2d 3abd 69b4 3abc
00000030: ae02 9c3d d10d 9abd 2b63 683d 8768 6f3d
00000040: 3d25 3cbd 4e90 8a3d a537 733c c7e6 a83d
00000050: 0cd8 bbbc 5a04 eb3b 643e 33bc 2f51 cd3d
00000060: 10b6 373d d99e c4bd 9514 063d 0cea 663d
00000070: 094f acbd 1bbe 543d 5f7b aebd e80f 273d
00000080: 1c9d 4dbb e945 04bd e02c 4d3d 7efb 49bd
00000090: 3e93 1d3d c158 3bbd c14e af3d 2728 2e3d
000000a0: d4fb 35bd ed2f 853d 79e7 aa3d e7c0 87bd
000000b0: 80ac 9f3d 2533 ca3d 0352 033b 0f03 1ebd
000000c0: 544e 413d 3dd0 48bd f5c8 8fbd cc6e 8abd
000000d0: 4bf2 003d d0e7 75bc 9ace 913d dc7d 5cbd
000000e0: cfe2 8ebd 28de 793d 16ad ab3d 8d69 4cbd
000000f0: 1151 2a3d 6a3d 90bc a990 39bc 16db 693d
00000100: 851a e63c c8be 0dbd fba1 2b3d bd03 da3a
00000110: 0402 923d 9e8a c2ba 9875 2dbd 989a 073c
00000120: 0fbd 91bd 5a1e fa3c f862 9e3d a8da fe3c
00000130: 2c76 503d 03e5 b53c 5422 9e3d b32d 6ebc
00000140: 6147 b3bc f03e a53d 78dc 5b3d 807a 7bbb
00000150: 59c8 343c 2ef2 1a3c cbee 30bd fcc5 113d
00000160: edfb 353d 1b83 02bd bfab e33d 5865 743d
00000170: 03e0 9a3d 6d93 5d3c 99c1 563c d84c 3f3d
00000180: ccd2 8e3d 3659 5d3d 886a 82bd e424 f63a
00000190: f1df 6d3d 32d3 7b3d e891 743d c86b a3bd
000001a0: 22dc b33d 6447 71bd 033a 3abd ddff 9f3c
000001b0: bf6e 913d 87d4 603d b394 8bbc b050 113d
000001c0: ceb1 823d 71c4 fd3c 40c9 ac3d efac 193d
000001d0: 7f12 c93d a128 283d 567a b13d 2774 a83c
000001e0: 076c 54bd c101 a83d 7953 8a3d 4b86 b13d
000001f0: 521f 78bd d08b 2c3d fa29 053c 7f6e bf3d

net.4.weight f4 [7, 128]
-0.0051657925 -0.18668899 0.074845076 0.05490173 -0.04428818 0.048126712 -0.08727971 0.1010062
0.0068138475 0.00982342 -0.16862136 -0.01746675 -0.0019700977 -0.052160803 -0.05091782 0.057012066
-0.09450404 -0.01430945 0.022646442 -0.11365219 -0.012217151 -0.0049942043 0.011333673 0.05418158
0.11474134 -0.10374278 0.09221071 0.018092712 0.014201617 0.048114847 0.047173712 0.0147859985
0.01930546 -0.08613473 0.05758539 -0.026843263 0.028356293 0.0007294697 0.08418409 -0.04498694
0.11778265 0.067219086 0.014719254 0.06621188 0.055523332 0.12780292 0.06417398 0.0033428613
-0.0048793172 0.09712456 -0.011541809 0.060084645 0.05258688 0.020404149 -0.042448763 -0.06778728
-0.040207263 0.0016546723 0.06846841 0.07980374 -0.04367185 0.031640746 -0.0625257 0.02296844
0.09148356 0.090054736 -0.023715833 0.07441016 -0.025363214 -0.13384417 0.035018787 0.07424812
-0.09300798 -0.027659025 0.10758416 -0.06283576 -0.07126793 -0.0013893931 0.07671333 0.053668406
-0.05466561 -0.0741955 0.020529471 -0.05038038 0.09316695 0.17530712 0.09591857 0.08474907
-0.010102915 -0.0620243 0.08189596 -0.09296353 -0.0043906197 -0.017280716 0.0999828 -0.043969706
0.06890626 0.021003332 -0.06962278 -0.04577586 -0.109373875 -0.063451335 0.018518653 -0.0037227615
0.06957095 -0.07386733 -0.06899127 -0.07081493 -0.11440227 0.08590025 0.092618294 -0.0021168005
0.016287819 0.09967601 0.10023486 -0.022827722 0.09485354 -0.1269012 0.2371344 -0.061743423
-0.021446178 -0.03329347 0.043091282 0.10424605 -0.12671253 0.08616221 -0.1448794 0.10260004
-0.09636521 0.013554579 0.08924063 0.059528843 -0.032034885 0.10802939 -0.10226086 0.0407276
0.038834807 -0.08065125 -0.098523386 -0.046133194 -0.03017771 0.10560839 -0.08021061 0.051952228
0.096938066 0.095179036 0.086731024 -0.07454383 0.12777692 0.039748985 0.011056194 0.087828636
-0.03144679 0.15336649 0.10995822 0.11839677 -0.067856565 0.07769807 0.04481207 0.05864925
0.05448934 -0.10351204 0.08970047 -0.015383099 -0.02580604 -0.10192996 0.058224536 -0.019700898
0.052099984 -0.070507534 0.052290153 0.06690049 0.044120643 -0.12872727 -0.008766616 0.075151525
0.070834674 0.046906002 0.08608716 0.06856603 0.037348818 0.021262702 0.061377794 0.045598686
0.04209009 0.01519951 0.010623939 0.10017586 0.0370165 -0.03917366 -0.06825742 -0.05953032
-0.052301582 -0.14734562 0.045332123 0.04814508 0.0103526255 -0.026123513 0.036075566 -0.040651932
0.028492233 0.106750235 0.0023868466 0.06064567 0.081456214 0.037310403 -0.10116997 0.117149994
-0.12269242 -0.041034326 0.015690368 -0.124745294 -0.052345406 0.058406133 0.0064228163 -0.022875357
0.08952074 -0.12636715 0.0147346165 0.023026044 0.117041156 0.006809705 -0.071770266 -0.037578277
0.09602762 -0.051079128 -0.07760256 -0.104138106 -0.07809815 -0.057336602 0.11602271 -0.054954886
0.09361838 0.10952851 0.0013680973 -0.0790443 0.15578572 0.018331476 0.016285636 0.044102993
-0.07462691 0.05089979 0.094454885 0.09719075 -0.013123588 0.13484108 -0.055625614 -0.0150024975
0.077553086 -0.054396197 0.039233677 -0.05240022 0.14672847 -0.05401016 0.05543157 0.018136524
00000000: cf45 a9bb 662b 3fbe 6048 993d a3e0 603d
00000010: 8667 35bd 8420 453d b4bf b2bd 57dc ce3d
00000020: b246 df3b 69f2 203c 14ab 2cbe 6e16 8fbc
00000030: c11c 01bb 91a6 55bd 348f 50bd 7c85 693d
00000040: 568b c1bd 2f72 6abc 0885 b93c 7bc2 e8bd
00000050: 722a 48bc 6ca6 a3bb dfb0 393c 81ed 5d3d
00000060: 82fd ea3d 1877 d4bd f8d8 bc3d 2b37 943c
00000070: e6ad 683c 1314 453d 3939 413d f940 723c
00000080: 7c26 9e3c 6867 b0bd a8de 6b3d 67e6 dbbc
00000090: 754b e83c e239 3f3a b568 ac3d 3a44 38bd
000000a0: 0838 f13d 29aa 893d 0729 713c 189a 873d
000000b0: 6f6c 633d c5de 023e a66d 833d e813 5b3b
000000c0: aee2 9fbb 3ee9 c63d db19 3dbc 511b 763d
000000d0: 5765 573d 9a26 a73c c1de 2dbd 0fd4 8abd
000000e0: 5fb0 24bd 97e1 d83a 2a39 8c3d 2570 a33d
000000f0: 41e1 32bd ba99 013d 790d 80bd 4f28 bc3c
00000100: bc5b bb3d 9e6e b83d b547 c2bc 5b64 983d
00000110: 84c6 cfbc 720e 09be dc6f 0f3d 660f 983d
00000120: f87a bebd 2e95 e2bc 1655 dc3d 09b0 80bd
00000130: ecf4 91bd 4c1c b6ba e11b 9d3d 67d3 5b3d
00000140: 0ce9 5fbd cff3 97bd 6c2d a83c a85b 4ebd
00000150: 50ce be3d b683 333e f570 c43d ec90 ad3d
00000160: b286 25bc 310d 7ebd 12b9 a73d aa63 bebd
00000170: 30df 8fbb 4a90 8dbc c8c3 cc3d 9419 34bd
00000180: ba1e 8d3d 2e0f ac3c 6396 8ebd 787f 3bbd
00000190: 69ff dfbd c6f2 81bd 6eb4 973c 93f9 73bb
000001a0: 377b 8e3d c147 97bd 4c4b 8dbd 6b07 91bd
000001b0: bd4b eabd 78ec af3d a9ae bd3d 05ba 0abb
000001c0: 086e 853c f022 cc3d ef47 cd3d 3401 bbbc
000001d0: 9342 c23d 63f2 01be 5cd3 723e ace6 7cbd
000001e0: e5af afbc bc5e 08bd 7c80 303d f47e d53d
000001f0: eec0 01be d075 b03d 445b 14be f81f d23d
00000200: 205b c5bd 0614 5e3c cbc3 b63d 84d4 733d
00000210: 0337 03bd 833e dd3d 246e d1bd fcd1 263d
00000220: 3f11 1f3d 7c2c a5bd a1c6 c9bd 29f6 3cbd
00000230: 3f37 f7bc 3649 d83d 7645 a4bd dccb 543d
00000240: 7787 c63d 3aed c23d 09a0 b13d 6faa 98bd
00000250: f4d7 023e d5cf 223d 0a25 353c 80df b33d
00000260: 59ce 00bd 1b0c 1d3e c631 e13d 017a f23d
00000270: 62f8 8abd 2a20 9f3d dc8c 373d 323a 703d
00000280: 3730 5f3d 1ffe d3bd e1b4 b73d 6509 7cbc
00000290: 3067 d3bc a8c0 d0bd da7c 6e3d c763 a1bc
000002a0: cb66 553d 4166 90bd 332e 563d 2003 893d
000002b0: d9b7 343d 15d1 03be daa1 0fbc 0be9 993d
000002c0: c511 913d 8220 403d 774e b03d 596c 8c3d
000002d0: 13fb 183d 1e2f ae3c 4867 7b3d b0c5 3a3d
000002e0: a966 2c3d 5e07 793c 0810 2e3c 0029 cd3d
000002f0: 9d9e 173d 8f74 20bd 8cca 8bbd 11d6 73bd
00000300: 2f3a 56bd c5e1 16be 2dae 393d c733 453d
00000310: 0f9e 293c fa00 d6bc f9c3 133d a482 26bd
00000320: 8b68 e93c de9f da3d a46c 1c3b 9867 783d
00000330: 84d2 a63d cbd2 183d 3432 cfbd 56ec ef3d
00000340: 2a46 fbbd 9c13 28bd 1689 803c 767a ffbd
00000350: 2368 56bd 453b 6f3d 7d76 d23b 1a65 bbbc
00000360: a656 b73d 6466 01be 7669 713c 1da1 bc3c
00000370: 46b3 ef3d f223 df3b 4afc 92bd aeeb 19bd
00000380: 21aa c43d 5938 51bd 17ee 9ebd 5c46 d5bd
00000390: ecf1 9fbd c9d9 6abd 519d ed3d 6018 61bd
000003a0: feba bf3d 7c50 e03d ba51 b33a fae1 a1bd
000003b0: 4b86 1f3e e42b 963c 7469 853c 57a5 343d
000003c0: fed5 98bd 4c7c 503d 9071 c13d f20b c73d
000003d0: 5104 57bc c813 0a3e afd7 63bd 09cd 75bc
000003e0: 27d4 9e3d 8cce 5ebd 7eb3 203d 9da1 56bd
000003f0: fd3f 163e c239 5dbd 370c 633d 0c93 943c

net.4.bias f4 [7]
0.09586202 0.0012624885 0.0002879289 -0.010100867 0.022312114 0.05664693 0.02038735
00000000: 4f53 c43d 167a a53a 2af5 9639 1b7e 25bc
00000010: e5c7 b63c 9c06 683d 5f03 a73c
