coup_nsfp/nfsp_coup_demo_best_agent_q.pt (torch, 86341 bytes, 6 tensors)

net.0.weight f4 [128, 25]
000000 85 b1 b2 bf 24 2f e8 3d e1 2f 0c 3e 2a 31 e5 3d
       -1.3960425 0.11337116 0.1369014 0.11191018
000010 3a 46 25 3e 08 65 5e 3e 5f a8 a8 be 59 c7 2f bb
       0.1614007 0.21718228 -0.32940957 -0.0026821701
000020 d7 08 ff be 99 4d bd bd db 4e 95 3d 7b 89 cd bf
       -0.49811432 -0.09243316 0.07290431 -1.6057581
000030 d6 66 af bd a7 a8 5c bd 7c d6 f4 3e 38 a8 16 bf
       -0.08564536 -0.053871777 0.4781989 -0.5885043
000040 c7 c6 53 3f 47 17 23 be ad de f8 3d 45 46 bb 3e
       0.82725185 -0.15926848 0.12151847 0.3657705
000050 1a 8d 02 bf 59 8a 08 bf 78 45 62 3f fe fb 71 bd
       -0.50996554 -0.533361 0.8838725 -0.05907821
000060 2b 4c f3 bc 57 bf ba 3e 69 f7 14 3f e3 8f f2 bd
       -0.029699406 0.36474106 0.5819002 -0.118438505
000070 2f 17 69 be 95 37 b9 3e 83 76 91 bf a5 29 82 3e
       -0.2276275 0.36175218 -1.1364292 0.25422397
000080 be 74 23 3e 9c 38 4d be d9 45 d2 be 10 72 fd 3e
       0.15962502 -0.20041126 -0.41068915 0.49501085
000090 e0 ba 75 bd 5c 4d a8 3c 05 0b 0d be fd 58 48 3e
       -0.05999267 0.0205447 -0.13773735 0.19565196
0000a0 8c d0 6d bf ae b9 30 3f 60 5d 17 3f 48 13 43 be
       -0.9289634 0.69033325 0.59126854 -0.19050324
0000b0 da 00 84 3d 5c 00 2d 3f 8a bc 47 bf 77 2f c9 bc
       0.06445475 0.67578673 -0.7802206 -0.024558766
0000c0 3b 29 5c bd 84 e3 a3 3d c1 87 92 3d 61 0f 4b bd
       -0.053750258 0.080023795 0.07154799 -0.049575213
0000d0 d9 46 18 3e ca 68 cf 3e 92 ac cb bd 85 fe fd 3e
       0.14870776 0.40509635 -0.099450245 0.49608245
0000e0 62 13 9e bc 28 f6 b7 3b d9 df fc 3e 91 5c 34 3e
       -0.019296352 0.005614061 0.49389532 0.17613436
0000f0 ad d8 23 3f b7 67 8a 3e 2d e0 2a bc 53 01 36 3e
       0.64002496 0.27032253 -0.010429424 0.17773943
000100 55 d4 c4 bf 3e 3d 19 3d a7 bb 1e bf 74 9a a8 bf
       -1.5377299 0.03741192 -0.62005085 -1.3172135
000110 9a a1 d6 3a 10 de 18 3e 48 05 04 bf e7 0e 76 3e
       0.0016375065 0.1492846 -0.5157056 0.24029122
000120 48 3e f7 be b4 be ab 3d 67 a4 85 3d a7 91 bc be
       -0.48289704 0.08385983 0.06525498 -0.36829874
000130 ac 63 98 bd dd 3e 9e 3d d1 1f 1c 3e 71 95 b9 bd
       -0.07440886 0.07726834 0.15246512 -0.09061707
000140 10 d5 65 3e 41 4c 4c 3d 95 23 1e be 1f f4 a9 3f
       0.22444558 0.04987741 -0.15443261 1.3277625
000150 bd f3 94 3e e4 96 b8 3c ae 91 69 be 27 f5 ea 3d
       0.29092208 0.022532888 -0.22809479 0.1147254
000160 03 ed df 3d 5b 2d 1d 3e 2d 60 14 be 16 b2 ce be
       0.10933878 0.15349333 -0.14489813 -0.40370244
000170 a9 90 6c bf f0 e4 b2 bd 77 09 cc 3e 56 8e 33 be
       -0.92408234 -0.087350726 0.3985097 -0.17534766
000180 bd a8 60 be e4 9d 21 bf 34 f0 4f bf 5d 49 ca 3e
       -0.21939369 -0.63131547 -0.81225896 0.39509097
000190 9b f3 35 bf 19 d4 d8 ba e6 a1 17 3d 0c 1c 8b 3e
       -0.7107484 -0.0016542702 0.037019633 0.27169836
0001a0 eb 56 32 bb d8 ff 3a 3f d5 44 94 be cc b8 8a 3e
       -0.0027212452 0.73046637 -0.28958765 0.27094114
0001b0 9a ec 1d 3f c8 53 4e 3f 99 c0 c8 be 30 01 85 3d
       0.6168915 0.8059659 -0.3920944 0.06494367
0001c0 82 69 80 3f 40 bf 3c be 4e 25 d1 bd 0a a1 b7 3e
       1.0032198 -0.18432331 -0.102121934 0.3586505
0001d0 c1 de 59 be 11 a5 71 bf 65 18 29 be f9 76 5e bd
       -0.2127638 -0.94392496 -0.16513212 -0.05431268
0001e0 03 39 20 bf f5 53 0f be b9 d8 ff be 0c 99 a3 be
       -0.6258699 -0.13996871 -0.49970034 -0.31952703
0001f0 49 02 81 3e 42 57 60 3e e5 7b 58 3e a3 c9 bc 3e
       0.25197056 0.21908286 0.21141012 0.36872587
000200 bc b6 2a 3e a0 1f 05 3e c5 55 0b 3e 20 c4 18 be
       0.1667127 0.13000345 0.13606937 -0.14918566
000210 e4 6f 17 be 49 98 d5 3e c0 b7 87 3d 5e c2 10 3f
       -0.14788777 0.41717747 0.066268444 0.5654658
000220 22 5b 88 3e d9 01 24 be 78 f1 49 be c9 fc aa bf
       0.2663203 -0.1601633 -0.1972102 -1.3358394
000230 12 2a 24 bf a9 e2 ae bf 2c f3 86 bf 8d 4e 16 bd
       -0.64126694 -1.3662921 -1.054296 -0.036696006
000240 f7 89 73 3d 65 cf 84 bd 26 18 b1 3e 4b f9 65 be
       0.059457745 -0.0648487 0.34588736 -0.22458379
000250 bf 0c 9d 3e 8e 27 66 3e 9c 2e d4 bd 7a a5 d9 3b
       0.30673787 0.22476026 -0.103604525 0.006642041
000260 16 91 95 3e c5 3a a2 3e ec 04 1d 3e aa 5b 9b 3e
       0.29212254 0.31685463 0.15333909 0.30343372
000270 0f e1 4e bd 2e 13 09 3e 21 c5 68 3f fb d4 58 3e
       -0.0505076 0.13386223 0.90925795 0.21174996
000280 e0 b2 0c 3f 75 1b 2e 3f 89 86 d3 3e 73 c1 e1 3d
       0.5496044 0.68010646 0.4131358 0.11023226
000290 5c 07 d8 be b8 9e 89 bd 5f f7 8f be 9b be b8 bf
       -0.42193115 -0.06719726 -0.28118417 -1.4433168
0002a0 bd cf f5 3d 82 d9 4a be 35 17 03 bf 9d be a8 bd
       0.120025136 -0.19809535 -0.51207286 -0.082394816
0002b0 42 3f c1 be db 70 c8 3d 02 9f bf 3e 3e 34 a8 3e
       -0.37743574 0.097871505 0.37426 0.32852358
0002c0 74 8e ed 3e 18 9a ac 3d 51 08 b1 be d3 81 3c 3f
       0.46397746 0.084278286 -0.34576657 0.73635596
0002d0 a5 b6 85 be ab 3f bb 3d 74 da b0 3e 72 89 b0 be
       -0.2611591 0.09143003 0.34541667 -0.34479862
0002e0 39 f0 96 bd 9d 79 ef 3e d3 f6 a3 3e f1 93 71 3e
       -0.073700376 0.4677247 0.3202425 0.23591591
0002f0 f8 41 0f be 66 07 12 bf a5 06 14 3e ad 45 9c be
       -0.13990009 -0.5704254 0.1445566 -0.30521908
000300 a8 09 b5 bf 67 3e 87 3b b7 dc 18 3e 92 08 3d 3e
       -1.4143572 0.004127312 0.14927946 0.184603
000310 c1 d5 ed 3d 09 b5 14 3f c5 47 36 bf 98 d7 d1 bc
       0.11613036 0.5808874 -0.7120326 -0.025615498
000320 e0 a9 d3 3e 2c 83 5d 3d 9a c2 61 be 84 f0 ff be
       0.41340542 0.054080173 -0.22046891 -0.49988186
000330 3a fa 06 3e 45 45 01 bc 24 df b6 bd fd f2 ff 3d
       0.13181391 -0.00789005 -0.089292794 0.12497518
000340 dc 1d 99 be 90 8a 35 3e a3 e2 d0 be 17 94 c9 bd
       -0.29905593 0.17728639 -0.4079791 -0.09842699
000350 6f f1 7d 3e 0d e0 7b 3d 94 dc 8a bf ee 5e a8 bf
       0.24799131 0.06149297 -1.0848565 -1.315397
000360 6f 3a 37 bf 44 e3 16 bf fb 83 06 be 5e d4 71 3f
       -0.7157354 -0.5894053 -0.13136284 0.9446467
000370 74 8d 88 3f a2 bd 8f 3e 59 34 27 3f 68 c4 8f 3f
       1.0668168 0.28074366 0.6531425 1.1231813
000380 10 62 f2 3e 9b 89 63 3e 79 7d 05 bf 07 28 06 3e
       0.4734044 0.22220461 -0.5214458 0.13101207
000390 0f 22 ea 3d 83 30 b0 3e 52 8f 16 3f f5 ab 2d be
       0.114322774 0.34412012 0.5881244 -0.16960128
0003a0 a8 89 22 3e f8 36 0e be b9 2e df 3e 7b bf 38 bf
       0.15872824 -0.13888156 0.43590334 -0.72167176
0003b0 fe 2c bf be ca 21 7c 3c 33 bf 8a ba 23 6a 84 be
       -0.37339014 0.015388915 -0.0010585546 -0.25862226
0003c0 7a db 07 be 44 2e 4c be f9 19 b9 bf 4b f7 49 3e
       -0.13267317 -0.19939524 -1.4461051 0.19723241
0003d0 1e ae b8 bd 23 6e 97 be 32 71 4f 3e 40 53 28 be
       -0.09017585 -0.29576215 0.20258024 -0.16438007
0003e0 3b 1e c9 3d a0 d6 bc 3d db 48 8c bd 5f c7 f9 3d
       0.09820219 0.09220624 -0.068498336 0.1219623
0003f0 07 9d dc bd b2 38 18 bb ba e3 72 3c ee b0 02 3e
       -0.10772138 -0.0023227152 0.014824802 0.12762806

net.0.bias f4 [128]
000000 a6 ad 3e bd 3f fb 88 bb d1 12 a9 3e c2 0b 9b 3e
       -0.046552323 -0.0041803415 0.33022168 0.30282408
000010 40 42 3b 3e 33 fe 02 bd d0 de 31 3e cc d0 2d bd
       0.18286991 -0.031980705 0.17370152 -0.042435452
000020 15 5e a4 3e 6a 78 57 3e d0 b5 0a bb 1f 70 97 3e
       0.3210303 0.21042028 -0.0021165498 0.2957773
000030 fa 7c b2 bd d9 f8 9b bd 59 96 0a 3e db e1 57 3e
       -0.08715244 -0.07615823 0.13533916 0.21082251
000040 f3 d8 24 3e 7a 5d 40 3d 05 2d 1c 3e 3e 53 b2 3d
       0.16098385 0.046964146 0.15251549 0.087072834
000050 3e 0b 66 bc 67 1c 9b 3e bb c3 1c bd 79 fc 84 3e
       -0.014040766 0.30295107 -0.0382726 0.2597387
000060 02 31 3c 3d cd b6 8a 3e 6f 0f ad 3d 29 bc a7 3e
       0.045945175 0.2709259 0.08450209 0.32760742
000070 f1 45 eb 3e 1f 87 d6 3d da 79 fa 3d cc 1b db 3e
       0.459518 0.10474991 0.122302726 0.42794645
000080 b1 fd 9a 3d b7 67 4b 3e 20 43 75 3e 20 bb 03 bd
       0.07567919 0.19863783 0.23951387 -0.03216088
000090 4d dd 89 3e 54 bf 5c 3e e0 16 96 3d 5f 85 d2 bd
       0.26926652 0.21557361 0.07328582 -0.10279345
0000a0 0a d9 ad 3d 6c 4c 6b 3e 01 42 87 3e 3b 5b 99 3e
       0.084886625 0.22978371 0.26417544 0.29952416
0000b0 fc 27 bf 3d 73 46 0c be 1d c5 9b 3e c5 2c 79 bd
       0.09333798 -0.13698749 0.30423823 -0.06083371
0000c0 b4 56 79 3e fa b5 c3 3b ab 9b 94 bd 45 09 c3 3e
       0.24349481 0.005972621 -0.07256254 0.3809301
0000d0 1f e2 0a 3d 35 26 fd 3d 5c 17 cc 3e 6f c9 f2 3e
       0.033907052 0.12360803 0.39861572 0.47419307
0000e0 a2 63 c3 3d fb 27 e5 bd ca 0e 7c 3d 49 cd 46 3d
       0.09540488 -0.11189266 0.06153754 0.04853562
0000f0 e2 da a5 3c 98 01 10 3e 34 05 a6 3e 2d fa cc 3e
       0.020245973 0.14063108 0.32425845 0.4003462
000100 fe d2 0d 3e 0b 08 ec 3e 9e 61 11 3e 05 d0 7f 3e
       0.13850018 0.46099886 0.14197394 0.24981697
000110 61 6f ae 3c b0 39 a5 3d ae e8 01 3e 5a b3 cf bd
       0.021293344 0.08067644 0.12686417 -0.101416305
000120 54 bc 77 3d c4 2e f6 3c 75 12 45 3d 1f a4 25 3e
       0.060482338 0.030051596 0.048113305 0.16175888
000130 8b 99 8d 3c 30 7d d8 bc e3 55 4d 3c a9 22 8c bc
       0.017285129 -0.026426882 0.012532684 -0.017106371
000140 90 87 86 3c aa ce 3b be 75 c7 ee 3c 91 1b 1e bd
       0.016422063 -0.18340555 0.029147843 -0.038600508
000150 dc 24 d5 3e 75 ad 9d 3e bb 68 4e 3c 9d d3 2b 3e
       0.41629684 0.307964 0.012598212 0.16779943
000160 d4 25 1e 3e 33 0c b5 3e 36 28 11 bd 87 7c de 3e
       0.15444118 0.3536087 -0.03543874 0.43454382
000170 f8 08 23 bd 2c a6 d7 3e 62 74 ef 3d 01 15 fc bc
       -0.039803475 0.42118967 0.1169212 -0.030771734
000180 d3 84 5c 3d 4a ee f7 3e 3b 40 2a 3e 1b 7c 1d bd
       0.05383761 0.48423988 0.16626064 -0.038448434
000190 22 01 28 be 88 a0 6e 3e 49 2a 43 3e a8 e9 5f 3e
       -0.16406682 0.23303425 0.190591 0.21866477
0001a0 9f 95 53 3e 98 20 d3 bd e2 7f d2 bc 67 79 13 bd
       0.20662545 -0.10308951 -0.025695745 -0.03600445
0001b0 51 93 48 3d 34 cf 01 3f e8 8f 15 3e 7d fd d2 3d
       0.048968617 0.5070679 0.14605677 0.10302255
0001c0 a7 c7 3f be b2 5f ca 3e ae 87 97 3e 01 bf 4c 3e
       -0.18728505 0.39526135 0.29595703 0.19994737
0001d0 f3 a0 e2 3d e3 2d 8a 3e 0d 7c 07 3e 1d 45 64 3e
       0.11065855 0.26988134 0.13230915 0.2229199
0001e0 39 1f 9a 3e 7f 4b 41 be e9 0f 82 bc ff 6d 09 be
       0.30101946 -0.18876456 -0.015876727 -0.13420866
0001f0 d4 bf a0 bd 21 bb 75 3e f0 85 4f bd 2a 25 c2 3e
       -0.07849088 0.23997165 -0.050664842 0.3791898

net.2.weight f4 [128, 128]
000000 0c 20 2f be 5d 39 9a bf 37 85 9b bd 1e e5 a2 3e
       -0.17102069 -1.2048756 -0.07593768 0.31815428
000010 46 81 91 3e b4 d7 80 3d 6d 08 5b 3d ae d0 6d be
       0.2841894 0.06291142 0.053474832 -0.23224136
000020 31 c1 10 3f a8 4e 02 3f fa 36 1e ba a3 05 16 3f
       0.56544787 0.5090127 -0.0006035414 0.5860235
000030 4a 0b eb be 81 16 62 3e b5 1f 16 3f dc 93 23 3e
       -0.4590705 0.22078897 0.5864213 0.15974373
000040 25 13 1d be 64 a0 5f 3e 4c bc d6 bb b4 e3 f0 be
       -0.15339334 0.21838528 -0.0065532085 -0.47048724
000050 a6 2f a7 be ca 2e 1f bf 64 0a 75 be 51 e0 e5 3d
       -0.3265354 -0.6218077 -0.23929745 0.112244256
000060 46 cf 23 3f a8 9b de be e7 ce 45 be 8b 4b 25 3f
       0.6398815 -0.4347813 -0.19317208 0.64568394
000070 ce 96 f1 3e ce 4f f3 be a3 dc 56 3e 7b 03 b8 3e
       0.47185367 -0.47521824 0.20982604 0.35940155
000080 e5 ab 17 3f a2 53 cd be 6f 6d c5 bc 98 5e e4 be
       0.59246665 -0.4010287 -0.024100034 -0.4460342
000090 49 96 57 bf 17 e5 32 be e9 7f de be fc 52 45 39
       -0.8421369 -0.17470203 -0.43456963 0.00018818298
0000a0 04 96 8f bf c8 da 0d 3d d2 ed 40 3f 87 dd c4 3e
       -1.1217656 0.034632474 0.75362885 0.38450262
0000b0 59 84 87 be 09 36 e0 3d 21 ef 24 bf 51 e1 68 be
       -0.2646816 0.109478064 -0.6442738 -0.22742201
0000c0 68 48 17 3f 6e 7f 01 bf 21 e4 41 bd ca 17 87 3d
       0.5909486 -0.5058507 -0.0473367 0.06596334
0000d0 09 ad 13 be 14 94 6e 3e c7 d6 53 3f 18 99 13 3e
       -0.14421476 0.23298675 0.827496 0.1441387
0000e0 a0 a6 d8 3d da 29 45 bd 0b 53 0e 3c 1f 18 cd be
       0.10578656 -0.048135616 0.008686791 -0.40057465
0000f0 1d 04 f1 be e4 e4 20 3f 4a 94 5b be f0 dd 77 3e
       -0.4707345 0.6284926 -0.21443287 0.24205756
000100 9d 84 88 be 7c 06 3a 3e 1b 83 9e be 18 41 3f 3e
       -0.26663676 0.18166536 -0.309594 0.18677175
000110 e1 56 09 3e 80 74 8b 3d aa 89 98 3d 51 b2 05 be
       0.13412048 0.0680933 0.07448132 -0.13056304
000120 15 c0 49 bf a8 98 0b bf 29 e6 65 bf ed c7 c8 3d
       -0.7880872 -0.5452981 -0.8980432 0.09803758
000130 0c 15 2d bf 87 51 31 3f 58 c0 19 3e 39 c4 de 3d
       -0.6761024 0.69265026 0.1501478 0.1087727
000140 ad af 63 bf b3 db 5b bf d4 6f 1e 3f 27 6c 4e be
       -0.88939935 -0.8588211 0.61889386 -0.20158444
000150 1c e4 d1 3e 2f f8 a4 3c 34 af c9 be 43 f2 68 3e
       0.40994346 0.020137874 -0.39391482 0.22748666
000160 6d f0 70 be 01 4e d8 be da 7b 26 3f ce 81 81 3e
       -0.23529215 -0.42247012 0.6503273 0.25294346
000170 86 b1 b8 3d a4 82 1c 3f f5 5e 92 bd 67 0d 8c be
       0.09018235 0.6113684 -0.07147018 -0.27353975
000180 04 6e 4a be 59 c8 40 3e fc 5c 24 be 6b 22 5e 3d
       -0.1976853 0.18826427 -0.16051096 0.054232042
000190 e8 bb 9c be fd 1f 81 be 27 4f d0 3d c2 8d 9b bf
       -0.3061211 -0.25219718 0.10171347 -1.2152636
0001a0 62 1a d1 3d e8 15 bd bd e8 10 89 3f 91 e8 22 be
       0.1021011 -0.09232694 1.0708284 -0.1590903
0001b0 dd e6 47 bf 47 fe 95 3e 95 7f 1c bc fe 97 5e bd
       -0.78086644 0.2929556 -0.009551902 -0.05434417
0001c0 ee ca e9 3a d3 29 74 bd cb 46 17 3f f4 06 b8 3f
       0.0017836967 -0.0596102 0.59092396 1.4377122
0001d0 2f bd 39 3f 8e 73 3d be ab df 97 3d 80 cb 88 3e
       0.72554296 -0.18501112 0.07415708 0.26717758
0001e0 52 e9 7b be 6a bc 97 bd e2 3d 72 bf f8 f8 22 3f
       -0.24600723 -0.07408984 -0.94625676 0.63661146
0001f0 6f 95 eb 3a 76 33 a5 3d f2 1a ce 3e ac 80 7f 3e
       0.0017973612 0.08066456 0.40254933 0.24951428
000200 15 ea d4 3f d4 24 e5 bf f4 04 c8 3e f4 ef e1 3e
       1.6633936 -1.7901864 0.3906628 0.44128382
000210 f9 c5 75 3e 4a 49 7f 3e f0 e3 45 3e a5 66 67 bf
       0.24001302 0.24930301 0.19325233 -0.90391
000220 0b d7 b6 3d f0 13 fa bd 95 42 02 3f 26 ee ec 3d
       0.08927735 -0.12210834 0.50882846 0.11568861
000230 53 d7 91 be 92 c5 0e be 5b 88 35 bd 39 96 32 bf
       -0.28484592 -0.13942555 -0.04431949 -0.6976047
000240 6c c0 af bd c2 96 cd 3d 2d df 07 be e0 9a 62 bd
       -0.085816234 0.100385204 -0.13268729 -0.05532348
000250 f1 00 b3 3d 38 4e 60 3f 0e ea cf bd 54 62 f7 3e
       0.08740414 0.8761935 -0.10152064 0.48317206
000260 56 83 aa 3e 8d d2 69 bf fb 88 d4 be 30 d2 07 bd
       0.33303326 -0.913369 -0.41510758 -0.033159435
000270 53 89 2b 3f 72 2c 96 3e db f9 3c 3e f7 d5 65 3e
       0.67006415 0.29330784 0.18454687 0.22444902
000280 b5 1d 39 3e 3a 34 f1 3d 14 c1 1b be 17 a5 19 bf
       0.18077739 0.117775396 -0.15210372 -0.6001753
000290 53 1b 73 3f c1 c9 b7 be ec a5 b0 3c 43 21 50 bd
       0.9496357 -0.35896114 0.021563493 -0.05081297
0002a0 b3 2b c5 3e 16 66 db 3e 34 69 9d ba 20 bb 42 3f
       0.38509902 0.42851323 -0.0012009502 0.7606678
0002b0 25 c3 8a 3d 3c 78 b4 3e 16 fa 57 3f b3 2d a3 be
       0.06775502 0.35247982 0.84365976 -0.31870803
0002c0 7f db c2 3e 21 a5 11 bf a0 cc 08 be 67 f7 3f 3e
       0.38058087 -0.5689259 -0.13359308 0.1874672
0002d0 35 4e 73 bc 02 a8 e1 3d 46 35 36 3f 06 29 2d be
       -0.014850189 0.11018373 0.7117504 -0.1691018
0002e0 fe 23 4a be 94 f9 22 be 42 b2 a0 3b 81 45 fb be
       -0.19740292 -0.15915519 0.0049040625 -0.49076465
0002f0 c2 bb a2 be 81 72 7d bf d9 58 17 3e cc 1a 12 3c
       -0.31783873 -0.99002844 0.14779986 0.008917522
000300 31 ed 2c bd 62 59 92 3e 75 5c ca be c4 7b 41 3e
       -0.04221839 0.2858382 -0.39523664 0.18894869
000310 70 79 f9 3e c9 ef 6f bd ce 23 c5 3e 69 fe bb be
       0.48725462 -0.058578286 0.3850388 -0.36717537
000320 82 b2 96 3f 21 a6 72 bf 25 af 96 be ac 26 1f 3e
       1.1773226 -0.9478474 -0.294305 0.15542096
000330 a1 4b e6 be 23 45 ab 3b 71 3d 06 bc 81 53 ba bd
       -0.44979575 0.0052267476 -0.00819336 -0.09097958
000340 33 b8 ff bd 32 70 ca bf 3b c2 03 bf 62 5d 9b bf
       -0.12486305 -1.5815489 -0.5146825 -1.2137873
000350 32 ea 89 3e 6f c7 84 3c 92 21 28 3e 04 76 5a 3e
       0.2693649 0.016208379 0.16419056 0.21334082
000360 82 ec a1 3e 2f da 4d bf 73 78 18 3e bb c3 88 3e
       0.31625754 -0.80411047 0.14889698 0.2671183
000370 ec 47 29 3d 7e 20 b2 3e f8 8a a1 be fc f4 1c bf
       0.041328356 0.34790415 -0.31551337 -0.61311316
000380 e5 2d c2 bf 8b 38 ba 3e 20 73 82 bf 1e 20 95 3d
       -1.5170256 0.36371264 -1.0191383 0.072815165
000390 73 14 44 be d3 e5 94 bd 7e 79 b1 3e 29 fc ba 3e
       -0.19148426 -0.07270398 0.34663004 0.36520508
0003a0 f1 38 e2 3e b5 8d 4f be a1 82 8e bd b4 e2 b2 3e
       0.44184068 -0.202689 -0.06958509 0.34938586
0003b0 35 cc 1e 3e 08 0e 95 3e cc aa 44 be ee 0e b3 3e
       0.15507586 0.29112267 -0.19205779 0.34972328
0003c0 c9 73 2b 3d ab 7d 5f 3e 45 1e 0a 3f e5 e8 72 bf
       0.04185847 0.21825282 0.5395244 -0.9488662
0003d0 0a 11 ae 3d 91 16 09 bf 7e 72 49 be 80 0f a1 bf
       0.08499344 -0.5355006 -0.19672582 -1.2582855
0003e0 7b 91 e0 3f 04 f3 e9 bc 27 82 43 be 59 0c 1d bf
       1.7544397 -0.028558262 -0.19092618 -0.61346966
0003f0 bd c4 27 bf e1 0b 83 bd d4 31 3a 3e bf 46 b7 3e
       -0.65534574 -0.0639875 0.1818307 0.35796162

net.2.bias f4 [128]
000000 4e bd 2e 3e 80 7e cd 3d 19 44 f3 bc 23 e7 e0 bd
       0.17064402 0.100338936 -0.029695557 -0.10981586
000010 14 6d ce 3d 5e 04 d8 3c 7a 4c 53 3e e5 38 e2 3c
       0.10079399 0.02636927 0.20634642 0.02761502
000020 1b 30 3a 3e d6 d3 9e 3e 73 59 43 3d 14 2e b5 3d
       0.18182413 0.31020993 0.047692727 0.08846679
000030 9a 0c 45 3e cf ee 76 3e 99 34 0f be 7e ad 07 be
       0.19243088 0.24114536 -0.13984908 -0.13249776
000040 c7 73 5c bc 78 b1 2c 3e d7 19 4c bd 4c d9 b9 3d
       -0.013455338 0.16864574 -0.04982933 0.09074649
000050 3c 84 b6 3e 80 01 21 bd b8 46 b3 bd ff 41 36 bd
       0.35647762 -0.03930807 -0.08753723 -0.044496533
000060 27 71 51 3e b2 07 69 3e 07 9b 8f 3e 45 33 f8 3d
       0.2045332 0.22756842 0.28047964 0.12119154
000070 46 f0 08 3e 0a 5a ee 3d a2 bc 0e 3e dc 4a 5c 3e
       0.13372907 0.11638267 0.13939145 0.21512932
000080 aa 29 e2 3d a2 fe d2 bb 44 9e e5 3d 70 98 83 bd
       0.11043103 -0.006439046 0.112118274 -0.064255595
000090 8d 58 89 3d 1f be 90 bd f8 c1 f2 3d 1a 6d df 3b
       0.06706343 -0.07067513 0.11853403 0.006818426
0000a0 b5 ce 6c 3d 8e 80 bc bd a8 3f 30 3e a4 53 03 3d
       0.05781432 -0.09204207 0.17211783 0.032062188
0000b0 88 23 c1 3c 0d 68 55 3d 4b bc 5d bd 10 40 b5 bd
       0.023576513 0.052101184 -0.05413465 -0.088501096
0000c0 23 f1 5c 3e 17 d5 f3 bb 11 1a d6 3c 12 bf 05 3c
       0.21576361 -0.007441174 0.026135476 0.0081632305
0000d0 0b 39 dd 3c 6b 52 83 3e 0d 47 df 3d 3d 4a f9 3d
       0.02700474 0.25648817 0.10902224 0.12172363
0000e0 80 b8 79 3e 9c 80 7f 3d 64 fa fe 3c 87 7d 4b 3c
       0.24386787 0.06237851 0.031125255 0.012420065
0000f0 38 cf 09 3e c5 c8 36 3e 99 32 cd 3d 50 25 3c 3e
       0.13457954 0.17850025 0.10019416 0.18373609
000100 7c 7a a2 3d 1d 87 d4 3c 79 eb 96 bd 78 f4 61 3d
       0.07933518 0.025943333 -0.073691316 0.055164784
000110 72 df 0b bd 1c 1c 9e bc a6 a1 7e 3e d7 ba 0a 3b
       -0.03414864 -0.019300513 0.24866351 0.0021168494
000120 ee 25 91 3d 81 06 87 bd 38 ef c6 3e 0b e3 93 3c
       0.07087313 -0.065930374 0.38854384 0.018052598
000130 1c 1d 28 3e e4 ea 63 3e 31 2a 35 bc ea 2f d0 3d
       0.16417354 0.22257572 -0.0110574225 0.10165389
000140 18 65 9c bc 00 26 dc 3d 41 a2 76 3c dc 43 59 3e
       -0.019091174 0.107494354 0.015053333 0.21217293
000150 20 8c a2 3d 84 ba 71 bc 72 2e ca 3d 9a c6 73 3c
       0.07936883 -0.014753941 0.0987214 0.014878893
000160 68 10 4b bd 52 20 48 3c 7a 5d 7c 3e 1e ed b4 bd
       -0.049576193 0.012214737 0.24645033 -0.08834289
000170 d7 29 34 3d 0a 9b 9c 3e df ff 49 3d 5d ba 6c 3d
       0.043985214 0.30587035 0.049316283 0.057794917
000180 09 6d 30 3e 7d 84 9d 3e 19 ae 68 3d 80 14 f4 bd
       0.17229094 0.30765143 0.056806657 -0.119179726
000190 e9 ea 5d bd 7f 5f 00 bd 58 b8 87 3e 09 62 35 3d
       -0.054179106 -0.031341072 0.2650783 0.044282947
0001a0 c6 8d 23 3e c9 3e 48 3e df 60 d9 bd 1e 5c cd 3d
       0.15972051 0.195552 -0.1061418 0.100273356
0001b0 87 30 86 bd a9 e4 8b 3e 10 88 4b 3e f1 04 ae bd
       -0.065522246 0.2732289 0.19876122 -0.08497036
0001c0 03 e8 72 3a cf 36 1c bd df de e5 bd f4 52 6a 3e
       0.000926614 -0.038138207 -0.1122415 0.22883207
0001d0 46 21 81 3d 4a 9a a7 3c c7 e0 25 3e 98 7a 39 bc
       0.063051745 0.020459313 0.16199027 -0.0113207325
0001e0 7b b4 95 bd f8 9b b0 bd 45 8d e2 3d 8d 3c bf bb
       -0.073098145 -0.08623499 0.11062101 -0.0058360756
0001f0 d2 cb a1 3d 20 d9 83 3e f0 1a 92 3d 97 b3 42 3e
       0.07900204 0.2575159 0.07134044 0.1901382

net.4.weight f4 [7, 128]
000000 20 77 72 bd a8 3e 04 3e 58 b2 72 bf e6 ad 9d 3f
       -0.059195638 0.12914526 -0.9480338 1.2318695
000010 39 91 3a 3f 82 7a 39 3f 8b 54 14 3f b0 f5 2b 3f
       0.7287784 0.7245256 0.579415 0.67171764
000020 94 79 4e 3f 11 56 f1 3c 03 73 88 3f 83 3f 99 3e
       0.80654263 0.029459985 1.0660099 0.29931268
000030 ae ef 3f 3f 8d af 0a 3f 29 7f ae 3f e7 bf 05 bf
       0.749751 0.5417412 1.3632556 -0.52245945
000040 69 22 b7 be 0b a2 c1 3e a5 d8 51 3f a6 7f 60 3f
       -0.3576844 0.3781894 0.819712 0.87694776
000050 2b b7 50 3f e8 4f 59 3f fe 04 23 3f 1c 9e 1c 3f
       0.8152949 0.8488755 0.6367949 0.61178756
000060 7f ca c4 be fd cd 2e 3f 3f 55 47 3f ae 2f 46 3f
       -0.38435742 0.68283063 0.7786445 0.77416503
000070 da fa 1c 3f 09 3e 09 3f 4e 2f 00 be b6 7d 4d 3c
       0.6132027 0.53610283 -0.12518045 0.012542179
000080 e2 99 96 be 49 f7 9c 3f d2 35 8b 3e 33 37 8b 3f
       -0.29414278 1.2262965 0.271895 1.087622
000090 aa 9e 60 bd a0 ea 41 3f 19 7d 74 bf 72 02 15 3f
       -0.054838814 0.75748634 -0.95503384 0.58206856
0000a0 5c a2 eb 3d b7 f2 eb 3e 22 a5 46 3e 30 67 7d 3f
       0.11505577 0.46083614 0.1939893 0.98985577
0000b0 90 02 36 bc 5c 99 b3 3e f0 71 96 bf 05 d6 c9 3e
       -0.011109009 0.3507794 -1.1753521 0.39421096
0000c0 87 c3 85 3f 81 1d ef 3e 6d 8d 66 3f 50 eb 2b 3f
       1.0450295 0.46702197 0.9005955 0.67155933
0000d0 a6 0b 95 bd 5d 1b 6d 3f fd 3c 18 3f 30 8b 9e 3f
       -0.072776124 0.9261988 0.5946806 1.2386227
0000e0 3e 50 52 3c 85 32 33 3f 91 6f 00 3f aa 2f 9d bd
       0.012836514 0.6999896 0.50170237 -0.07675107
0000f0 0e 92 22 3f 7f ad 8d 3f cc c2 49 3f ed 36 2c be
       0.6350411 1.1068572 0.7881286 -0.16817828
000100 fc bc e8 bf b4 ae 78 3f 05 d7 f1 be 65 4e 4e 3f
       -1.8182673 0.97141576 -0.4723436 0.8058837
000110 84 44 ce bc 38 da 42 3f 4a 01 70 3c 47 84 23 bf
       -0.025179155 0.76114225 0.014648745 -0.63873714
000120 d7 7e 40 3f 92 f7 87 3f 02 8a d4 3e 09 3a cc 3f
       0.7519354 1.0622427 0.41511542 1.5955211
000130 a0 51 93 3f 28 91 85 bd 0f 5f d2 3e 7e f9 1c 3f
       1.1509285 -0.06521827 0.4108815 0.61318195
000140 a7 26 2a 3f 72 44 53 3f 67 76 5d 3f 7d 84 12 3f
       0.6646523 0.82526314 0.8650879 0.5723341
000150 b0 bf f5 3e 2c 55 71 3f a3 aa 3c 3f 16 1c a0 3e
       0.47997808 0.94270587 0.7369787 0.31271428
000160 9f 1e 31 bd 48 12 7f 3f fa ad 23 3f 46 74 9a 3d
       -0.043242093 0.9963727 0.6393734 0.07541709
000170 7f 3b 88 3d 31 97 52 3e 21 5e 05 3f c6 4c c2 be
       0.06651973 0.20565487 0.52096754 -0.37949198
000180 7e 3d 8e 3f f6 35 76 3f d3 ef a0 3f 8a 94 a9 3e
       1.1112516 0.9617609 1.2573189 0.3312114
000190 db 9e 37 3f 97 f5 cf 3e 71 6d 26 3f 8c 8c 73 3f
       0.7172677 0.40617058 0.65010744 0.9513633
0001a0 20 19 4a be 5d d6 92 3f e1 37 29 bf e2 24 a4 bf
       -0.19736147 1.1471668 -0.6610089 -1.2823756
0001b0 cb 90 51 3f 30 12 86 be 39 20 33 be 02 a0 44 3e
       0.8186156 -0.2618575 -0.1749276 0.19201663
0001c0 ab c7 46 3f 4c 39 38 bf ea ce ab be e4 16 30 3f
       0.7764842 -0.7196243 -0.335563 0.6878493
0001d0 e0 60 98 be 3f 3b 61 3f 46 87 e0 3d bc 64 53 3f
       -0.2976141 0.8798103 0.10963301 0.82575583
0001e0 dc 51 82 3f 67 48 7c 3f 04 ef 2f 3f 68 29 67 3f
       1.0181231 0.9854798 0.68724084 0.90297556
0001f0 f5 55 17 3f a3 ed 21 3f 25 97 6a be 29 07 be 3d
       0.59115535 0.6325323 -0.2290922 0.092787094
000200 d6 4e c7 bc 6f 4c 69 3e 7e 45 ad be 24 47 9f 3f
       -0.024329584 0.22783063 -0.3384208 1.2443585
000210 44 16 33 3f 80 1e 44 be e4 4e 9b 3e 2b 38 6c 3f
       0.6995585 -0.1915226 0.30333626 0.92273206
000220 9b 33 2f 3f a2 3f 25 bd ab b0 23 3f 19 57 3c 3f
       0.6843812 -0.040343888 0.6394145 0.735704
000230 b5 7b 13 3f 5f 89 f1 3e 4b 86 91 3f d7 27 d0 3e
       0.57610637 0.47175118 1.1369108 0.40655395
000240 83 21 da 3e b2 97 78 3e 16 55 92 3f 4b 9b a8 3e
       0.42603692 0.24276617 1.1432216 0.3293098
000250 8f f1 b7 3e da a6 5f 3f 90 f3 87 3e ad 6b 8a 3f
       0.35926482 0.8736397 0.2655301 1.081411
000260 b4 d3 39 bf da 33 d2 be 3a 5f 0b 3f 99 b7 1a 3f
       -0.7258866 -0.41055185 0.5444218 0.604364
000270 d1 1e 22 3f eb 46 db 3e 9d 4f fa 3e 2d 46 06 bf
       0.6332827 0.42827544 0.48888865 -0.5245083
000280 95 3f a0 3d a1 bb 93 3f 1e 21 05 3e 42 23 86 3f
       0.07824627 1.1541635 0.13000914 1.047951
000290 7e 2a 57 3e e3 74 68 3f be 02 82 bf e1 67 5f 3f
       0.21012303 0.90803355 -1.0157087 0.8726788
0002a0 53 83 b4 be 1e 49 b9 3e ef ca 51 bd 7b 94 49 3f
       -0.35256442 0.36188596 -0.051218923 0.7874219
0002b0 85 86 f4 3c c0 45 5e 3c 55 ca 9c 3e 81 fb fd 3e
       0.0298493 0.013566434 0.30623117 0.49605945
0002c0 48 2f b7 3e b6 b2 38 3f f8 8e 0f 3f ed 48 69 3f
       0.3577826 0.7214769 0.5607753 0.911269
0002d0 ae 0b 50 bd 34 1b 35 3f 54 63 0f bf bb 37 25 3f
       -0.05079239 0.70744634 -0.5601094 0.6453816
0002e0 52 52 88 3d fe 1b 05 3f 9c 7b 7c 3f c9 16 13 3d
       0.06656326 0.5199584 0.9862611 0.0359104
0002f0 93 34 0c 3f 0d 07 58 3f ce 10 38 3f 8c dc 6d be
       0.5476772 0.8438576 0.7190064 -0.23228663
000300 1b e8 c8 bf 11 0d 49 3f 54 f2 16 3e 1a d9 6d 3f
       -1.5695833 0.7853556 0.14740878 0.92909396
000310 32 46 84 3b 60 eb e9 3e 8f 9c a2 3d 6a de c8 3f
       0.0040366882 0.4568739 0.079400174 1.5692875
000320 49 06 94 3e 1d bb 8f 3f 3c 16 c4 3e 9a 07 9f 3f
       0.28911045 1.1228977 0.38298213 1.2424195
000330 88 1f 4f 3f 8f c0 a9 be 0f e6 47 3f ce c0 be 3e
       0.8090749 -0.33154723 0.78085417 0.37256473
000340 5e 05 28 3f d7 05 7a 3f bb e9 26 3f f2 11 b6 3d
       0.6563319 0.9766516 0.65200394 0.088901415
000350 c7 f8 15 3f af 77 17 3f 62 98 06 3f 8a 77 d0 3e
       0.5858273 0.59167 0.5257627 0.407162
000360 69 ca 0b 3d 94 b7 49 3f 82 a9 8b 3e f7 8a 1c bc
       0.03412858 0.78795743 0.27277762 -0.009554616
000370 06 f6 ff 3c a7 33 88 be b0 b0 4e 3f 1a c8 26 bf
       0.031245243 -0.26601908 0.80738354 -0.6514908
000380 b5 64 67 3f a3 15 4b 3f 16 5b 1e 3f 4a 56 cf 3e
       0.9038804 0.7932989 0.61857736 0.4049552
000390 83 d0 44 3f 92 d7 b3 3e 3d f2 f4 3e 7e 9d 7a 3f
       0.76880664 0.35125405 0.47841063 0.97896564
0003a0 5b 4d 6a 3e 09 0f 75 3f ca da c9 bd 61 e8 f0 be
       0.22881071 0.95726067 -0.09856184 -0.4705229
0003b0 be 36 80 3f 45 b5 65 3b 4d 66 ee be bb 98 34 3f
       1.0016706 0.0035050672 -0.46562424 0.7054555
0003c0 e0 e9 21 3f de 57 97 3e 90 3d 9f 3c 6f 08 c2 3e
       0.6324749 0.29559225 0.019438535 0.3789706
0003d0 0e fd c7 3f 22 ba 18 3f 90 fb 0b be 44 66 43 3f
       1.5624101 0.59659016 -0.13670182 0.7632792
0003e0 96 9a 1d 3f 19 a4 49 3f 6d f4 40 3f c4 90 5b 3f
       0.61564004 0.7876602 0.75372964 0.8576777
0003f0 17 43 0c 3f 1c e6 b7 3c 2f 83 a0 be aa ff 90 be
       0.5478987 0.022448592 -0.31350085 -0.28320056

net.4.bias f4 [7]
000000 f8 53 51 3e 5c 54 74 3d be 40 a4 3e 8b e5 c6 bc
       0.20442188 0.059650764 0.32080644 -0.024279376
000010 ea 21 3f bc 28 02 9e 3c 1d 7f f3 bd
       -0.011665801 0.019288138 -0.11889479
