coup_nsfp/nfsp_coup_demo_best_agent_block.pt (torch, 84341 bytes, 6 tensors)

net.0.weight f4 [128, 26]
000000 ec 08 af bd c3 2f 5e 3e 48 af c9 3d 55 96 0d 3c
       -0.085466236 0.21697907 0.09847885 0.008641799
000010 81 87 2d 3d 3e fb bf 3d ba d0 15 be b5 72 04 be
       0.042365555 0.093740925 -0.14630404 -0.12934382
000020 ea ac 12 be ac fd da bd 7d ea 09 be 34 a9 94 3d
       -0.14323774 -0.10692915 -0.13468356 0.072588354
000030 ec f2 7a be 2d 24 9d bd 2f a5 6c 3e 12 5b 0d bd
       -0.2450673 -0.076729156 0.23109888 -0.03451068
000040 ee 7f c9 3d a1 50 01 3e c7 e8 5b 3d 7b d2 24 be
       0.09838854 0.12628414 0.05368879 -0.16095917
000050 f1 98 98 bd dd 08 18 be 4b 75 77 be 3b fc 08 3e
       -0.07451046 -0.14847131 -0.24165837 0.13377468
000060 f1 70 d9 3d 9b b4 a2 bb d5 42 27 3e 65 3c a4 3d
       0.10617245 -0.0049653775 0.16334088 0.08019332
000070 e5 10 21 3e 63 52 a3 3d 88 6c 41 3d 83 5b a6 3c
       0.15729101 0.079746984 0.047222644 0.020307308
000080 78 7f 36 bd 00 b3 93 3d 17 70 18 3e cc 0c 41 be
       -0.044555157 0.07211876 0.14886509 -0.18852538
000090 13 70 91 3e 3e 5b 27 be e7 52 24 be c1 aa 00 be
       0.28405818 -0.163434 -0.1604725 -0.12565137
0000a0 b7 f4 55 bc 27 d2 4e 3e 69 6d 30 3e 2d cc e3 bb
       -0.013058833 0.20197354 0.17229237 -0.00695183
0000b0 eb 33 88 bd 14 95 46 3e 40 3c 6e bd c6 f2 1f 3e
       -0.066505276 0.19392806 -0.058162928 0.15619954
0000c0 94 1b 39 3e 97 8e 93 be 9d 36 fb bd e2 3a 52 3d
       0.18076926 -0.28819725 -0.12266276 0.051325686
0000d0 f5 fd 62 be 22 98 1a be f5 be ac bd 6c 04 09 be
       -0.2216719 -0.15097097 -0.0843486 -0.13380593
0000e0 e4 a2 ff bd a5 ed d9 3c 8a 42 34 3d 07 4e 05 be
       -0.12482241 0.026602576 0.04400877 -0.13018046
0000f0 ec e4 21 3e bc 36 d2 bd 55 57 39 be c7 0f 1e be
       0.15809983 -0.10264346 -0.18099721 -0.15435706
000100 fb c4 89 3d 1b 78 77 bd 7a d2 c4 3d c2 dd 0b 3e
       0.06727024 -0.060417276 0.09610458 0.13658813
000110 5d a7 d6 3d 80 b6 9f be 86 30 a5 bb f1 90 22 3d
       0.10481141 -0.31193924 -0.005041185 0.03968901
000120 c8 60 aa 3d 6d c3 5e be f4 06 c0 3d a6 94 5b 3d
       0.08319241 -0.21754237 0.09376326 0.05360856
000130 ab 47 d0 bd e2 80 08 be 41 47 9c bd ac 10 82 bc
       -0.101699196 -0.13330415 -0.07630778 -0.01587709
000140 38 cc 21 3e 7c b2 b5 3a 7c 45 98 3d 20 59 62 3e
       0.1580056 0.0013862397 0.07435128 0.22104311
000150 0a 81 11 3d 5e 44 0e 3e 31 96 9b bd 29 2c de 3b
       0.035523452 0.13893268 -0.07597006 0.0067801666
000160 4d 4a 41 bd ca 39 12 be 1f df 5e be 52 b4 ba bd
       -0.04719 -0.14279857 -0.21764801 -0.091164246
000170 9a 99 1c 3e 4b 02 01 3e 3b 9c 7a 3c 01 fe 41 3c
       0.1529297 0.12598531 0.015296037 0.011840344
000180 fb 8b 7f 3d e5 f2 ab bd cd 7f 30 3e 3a 7d 49 3e
       0.062389355 -0.08395938 0.17236252 0.19676676
000190 a6 80 0e 3e b9 41 2d be 9e 3c a4 bd 0e 8a 0b 3d
       0.13916263 -0.16919602 -0.08019374 0.034067206
0001a0 da f4 19 3e 83 f6 45 3e 3c d9 ea 3d c9 d1 38 3d
       0.1503481 0.19332318 0.114672154 0.04512194
0001b0 1d 0e 94 bd 40 96 5c 3e 84 6f 6b 3d 01 4e 96 bd
       -0.072292544 0.21541691 0.057479396 -0.07339097
0001c0 e0 5b c3 3c 2f 7c be bd 5c 2d e8 bd cc f5 40 3d
       0.02384752 -0.0930103 -0.113367766 0.04710941
0001d0 f0 f8 87 bd 69 c2 1c be 8d 11 9a 3c d3 6c 4c 3e
       -0.06639278 -0.15308537 0.018807197 0.19963388
0001e0 2d 9b 1b 3e cf e2 9b bd 4f 2f 15 3e 3a 6b 3c be
       0.15195914 -0.0761162 0.14568828 -0.18400279
0001f0 64 d4 85 3d 88 b7 36 be 21 c4 5d 3e 9f 92 7c 3e
       0.06534651 -0.17843449 0.21656848 0.24665307
000200 fe 50 4c 3e 85 bf bf bd c2 04 e0 3d 7c dd c3 bd
       0.19952771 -0.09362701 0.109384075 -0.09563729
000210 bd ef 0c be 66 8e d4 bb c5 0b 62 3d ef 3d 71 3d
       -0.13763328 -0.006486702 0.055187006 0.058896955
000220 23 8e d3 3c f1 8f 9c bc 4e 7c 17 bd aa 93 0f be
       0.025824612 -0.019111605 -0.03698378 -0.14021173
000230 be 55 88 3d 6e cd 74 bc a8 58 15 3e 58 f6 40 3d
       0.06656979 -0.014941556 0.14584601 0.04710993
000240 93 f0 88 bd 8c 94 89 3e 43 2c af bc 49 d6 14 3e
       -0.06686511 0.26871145 -0.02138341 0.14534868
000250 cc 02 e5 bd ef c3 0a be 70 76 1e 3e bb 06 03 3e
       -0.11182174 -0.13551305 0.15474868 0.12795536
000260 fa a3 4f be 35 5f 91 3d c6 30 93 3d b5 f2 86 bd
       -0.20277396 0.070982374 0.07187037 -0.065892614
000270 f2 ba b3 3d 39 ff 2a 3e a0 38 a6 bd f6 b4 9b 3d
       0.08775891 0.16698922 -0.08116269 0.07602875
000280 56 ad aa bd ab b0 a0 bc d7 db 7c 3d f1 c9 95 3d
       -0.083338425 -0.019615492 0.061733093 0.07313908
000290 29 15 f8 3d a2 fd b2 3d 78 5e 59 be 12 7a 51 3e
       0.12113411 0.08739783 -0.21227443 0.20456722
0002a0 7e 11 93 bd 5a c6 12 3e 6d 17 0f 3e 92 8b 72 be
       -0.07181071 0.14333478 0.1397378 -0.23686054
0002b0 32 68 1f bc 11 f5 c0 3d 16 3a 3e be 72 29 05 bd
       -0.009729432 0.09421743 -0.18576846 -0.03251023
0002c0 dc 95 cb 3d 14 47 71 be 3c 66 d2 3c 41 2e 43 3c
       0.09940693 -0.2356227 0.025683515 0.011912883
0002d0 1e e1 ac 3b 50 4b 32 3e bb ec 3f be 41 5b 5e 3d
       0.0052758595 0.17411542 -0.1874265 0.054286245
0002e0 3d 3c 87 3e e9 0c 2b be c0 3c f0 3d 77 af 3e be
       0.26413146 -0.16704144 0.11730337 -0.18621622
0002f0 9d fc 3f be c8 08 af 3d 8d b6 16 be 20 6e 03 3e
       -0.18748708 0.08546597 -0.14718075 0.12834978
000300 31 b2 51 3e a3 d9 55 3e 40 0f 85 3c cf 58 41 be
       0.20478131 0.20883803 0.016242623 -0.18881534
000310 23 3f 2b 3e a9 16 8e bd 05 a8 72 3e 97 28 4f be
       0.16723303 -0.06937916 0.23696907 -0.20230328
000320 36 dd a7 bd ae e8 08 3e ca 9e ea bd dd 84 be bc
       -0.081964895 0.1337001 -0.11456068 -0.023256714
000330 9b 94 3c 3e 4b 11 8c bd 06 7a 00 be de 25 80 be
       0.18416063 -0.06839236 -0.12546548 -0.2502889
000340 8b a3 a7 3a 0d 66 b5 bc d2 95 21 3e f5 09 ae bd
       0.0012789828 -0.022143388 0.15779808 -0.08497993
000350 e1 a4 a0 3d f7 b5 a4 3d 5b 3e e2 bc 35 d2 3e be
       0.07843948 0.080425195 -0.027617624 -0.18634875
000360 7b 79 ed 3d 03 c5 8e bc 56 0c 70 be 5c 09 17 be
       0.11595436 -0.017427927 -0.23442206 -0.14749664
000370 4d 34 5f 3e 5b 82 dd bd f7 f6 03 be 5f 62 81 3d
       0.21797295 -0.10815879 -0.12887178 0.06317591
000380 53 78 74 3e eb 4d b3 3c 69 17 53 3d 13 17 96 3d
       0.23874025 0.02188774 0.051535998 0.0732862
000390 1c 78 14 3e 88 20 0c 3e 22 07 31 be d6 93 1b be
       0.14498943 0.13684285 -0.17287877 -0.15193114
0003a0 8d 32 c8 3d 63 83 28 3d 2d a4 37 3e 0e 89 26 be
       0.09775267 0.041140925 0.17933722 -0.1626322
0003b0 53 ff cc bd 9c f3 8e 3d 26 7e f3 3d 8c 94 8f bc
       -0.10009637 0.069800586 0.11889295 -0.017526887
0003c0 de a6 0f bd d8 ef a7 bd 62 a8 9c bd 60 1a 80 b9
       -0.035071246 -0.082000434 -0.07649304 -0.00024433713
0003d0 2f 16 25 be 0c 41 9c 3d 08 44 a5 be b4 e0 54 3d
       -0.16121744 0.07629594 -0.32278466 0.051972106
0003e0 55 c9 18 bd 3a df 5b be e6 b6 b3 ba 24 fc 63 3d
       -0.03730138 -0.21471873 -0.0013711124 0.055660382
0003f0 d3 ee fb bd 07 65 55 3e ad d6 90 be 3e a3 17 bc
       -0.123014115 0.2083932 -0.28288785 -0.009255229

net.0.bias f4 [128]
000000 05 e3 af 3d 8c 52 d5 bd 97 06 d8 3d eb fd 03 be
       0.085882224 -0.10416135 0.10548132 -0.12889831
000010 17 a4 89 bd b8 d6 f5 bd b7 b1 b0 bd ac 7b cb 3d
       -0.06720751 -0.12003845 -0.086276464 0.09935698
000020 22 90 09 3e 81 a1 09 be 31 f0 ae bc b8 f3 14 3c
       0.13433889 -0.13440515 -0.021354767 0.00909131
000030 47 4e 58 bc 23 81 6a bd ca e3 72 bd f2 69 f4 bc
       -0.0132022565 -0.05725206 -0.059299268 -0.029835675
000040 38 89 9b bd 26 e8 0c 3e cc bd 14 be 0f d9 b5 bd
       -0.07594532 0.13760433 -0.14525527 -0.08879291
000050 9b fa f8 3d c4 98 24 be 59 d3 df 3d 29 b7 a4 3d
       0.12157174 -0.160739 0.10928983 0.080427475
000060 06 d1 28 be 3d 49 81 3d a4 3e a3 bd 09 da 7c 3d
       -0.16485986 0.06312797 -0.07970932 0.061731372
000070 47 ec 10 be 23 97 12 3e 65 8d 14 bd d9 0e 0d 3e
       -0.14152633 0.14315467 -0.036267657 0.13775195
000080 9a 06 dd 3d d2 9b c8 bd 0e 04 5a 3e dd 04 1c 3e
       0.10792275 -0.09795345 0.21290609 0.1523623
000090 ca c6 43 be 8a ba 96 bc 6e 7b b2 3c 37 99 0a be
       -0.19118801 -0.018399496 0.021787371 -0.1353501
0000a0 94 53 67 3e 61 85 23 be 28 c3 0c be 64 c6 3e 3e
       0.22590476 -0.15968849 -0.13746321 0.18630368
0000b0 29 6c 9a 3d 66 98 8a 3c f6 bf ca 3d 45 24 60 3d
       0.07540161 0.016918372 0.09899895 0.05472209
0000c0 ac 45 41 be a5 82 04 bc 4f 7c ce 3d cc db e0 3d
       -0.18874234 -0.008087789 0.10082304 0.10979423
0000d0 2a ef 8d 3d 9c cf d1 3d 69 7d 17 be f9 17 b3 3d
       0.069303825 0.102446765 -0.14793934 0.08744807
0000e0 ed 54 ed 3d 95 ae ae 3d 00 11 68 3d c3 92 02 3d
       0.11588464 0.08529393 0.056656837 0.031878244
0000f0 27 db fe 3b a1 9a bc 3d 8f db f6 3d 64 8c f4 3d
       0.00777759 0.092091806 0.12053596 0.1194084
000100 45 f8 30 3d 28 0c 77 3d 17 3e 52 bd 34 81 16 be
       0.04320552 0.060314327 -0.051328745 -0.14697725
000110 1a b5 22 3e 1e f6 53 3d d0 64 b2 bc 4a fb 12 3e
       0.15889397 0.051748388 -0.021776587 0.14353672
000120 62 df 94 3d 0f 17 70 bd 49 9b 26 be 97 b8 1e 3e
       0.072691694 -0.05861574 -0.16270174 0.15500103
000130 0c 10 a3 3d dd c7 df 3d 0d 6c e6 bd 8f 4e 20 be
       0.07962045 0.10926793 -0.11251078 -0.15654968
000140 6c ba 30 bd f4 3a 3a 3e b0 85 bd bd b2 22 6d 3d
       -0.043146536 0.18186551 -0.092540145 0.057894416
000150 23 e3 e9 bd d2 65 24 3e b2 7e 09 be 78 c7 88 bd
       -0.11420276 0.16054466 -0.13427237 -0.06678671
000160 61 43 42 3e 8c 90 1a be cd 1a a2 bd 8f d7 09 3e
       0.18971016 -0.15094203 -0.07915268 0.13461135
000170 97 c7 86 bc a9 33 32 3e 1c 3b 1c be 96 7c 8c 3d
       -0.016452594 0.1740252 -0.15256923 0.068597004
000180 4a 43 23 be c9 d3 a7 3c 72 22 1a bd 17 78 2c 3d
       -0.15943637 0.02048673 -0.037630506 0.042106714
000190 e8 28 24 be 23 ce 93 3d 4e bc 00 3c 2f 18 3e bd
       -0.1603123 0.07217052 0.007857395 -0.046409782
0001a0 2b cf 26 3e 23 d9 e8 3c d5 8e 73 3d e5 6a 22 3e
       0.16289966 0.028423851 0.059462387 0.1586109
0001b0 c9 06 85 bd c8 6e f5 bc 86 92 12 be df 6a 2b 3d
       -0.06495435 -0.029960051 -0.14313707 0.041849967
0001c0 f8 10 2a bd 38 be 86 3d 9b 92 6e 3d 6e 87 1e be
       -0.04152009 0.0657925 0.058245283 -0.1548135
0001d0 26 4c 79 bd f4 82 b0 3d 6b 32 56 3e 9f 1b c4 3d
       -0.060863636 0.08618727 0.2091767 0.09575581
0001e0 f1 d3 bc bd 94 35 e2 bd 13 e2 89 bd 33 a8 49 3d
       -0.09220112 -0.110453755 -0.06732573 0.049232673
0001f0 f1 e1 b0 bd 85 27 1f 3e ed bf ad 3c d8 d8 82 bc
       -0.08636845 0.15542419 0.021209681 -0.01597254

net.2.weight f4 [128, 128]
000000 1a 00 2f be c0 ce da bc fc d2 34 3d 78 fc e8 bb
       -0.17089882 -0.026709914 0.044146523 -0.0071101747
000010 ac 89 a1 3d 44 a8 9d bd 6c e4 7f 3c 02 ac 91 3d
       0.07887587 -0.0769811 0.015618425 0.07112886
000020 6c 49 fb bc 56 3e 48 3e c3 b5 1f 3d da 3e bb bd
       -0.030674659 0.1955503 0.0389917 -0.09142847
000030 58 c5 7c 3d d0 68 17 bc b5 25 67 3d 4e f7 78 3c
       0.06171164 -0.009241298 0.056432445 0.015195681
000040 55 60 a2 3c ef 23 7b bd 50 78 fd 3d fb 58 63 bd
       0.019821325 -0.061313566 0.123764634 -0.05550478
000050 5f 2d 1d bc 45 d9 1b 3e f1 24 c4 3d 83 0f bb 3d
       -0.009593337 0.152196 0.095773585 0.09133818
000060 ac 22 d8 3d 97 4b fe 3d ec c4 0f bd 7c 0a 2c 3e
       0.10553488 0.12416761 -0.03509991 0.16800874
000070 15 80 58 3c 3c 22 3b bd 78 a9 b0 bd aa 8d 83 bd
       0.013214131 -0.045686945 -0.086260736 -0.06423505
000080 ab dc c2 bd ea 1a c0 3d ed 62 74 bd 42 2e 27 bd
       -0.09514745 0.093801335 -0.059664655 -0.0408156
000090 56 c2 01 bd 32 4d ba bd df f8 17 3c 4a 5a b1 3d
       -0.031679474 -0.09096755 0.009275644 0.086597994
0000a0 c0 09 5e 3d d2 da 9f bd 92 1d 6e bd 95 7b 4d 3d
       0.054208517 -0.078054085 -0.05813367 0.050166685
0000b0 4a 18 ad bd 85 e7 1f bd 5a 7a 0c 3e a1 51 67 be
       -0.084518984 -0.039039154 0.13718548 -0.22589733
0000c0 28 ad c2 bc fe 2d 40 bd 89 f9 df 3d b6 42 7e 3e
       -0.023764208 -0.04691886 0.10936267 0.24830136
0000d0 85 13 4b bd 64 58 38 3c 2f 3b 5f 3d 69 e1 36 3c
       -0.049579162 0.011251543 0.0544998 0.01116214
0000e0 fa eb 82 bd ac 34 3e bd 8f 8e c5 3c 46 7b bb bd
       -0.06392665 -0.04643695 0.024115829 -0.09154372
0000f0 fe 05 c9 3d c7 23 85 bd 88 54 64 bb 19 13 ad bb
       0.09815596 -0.065009646 -0.0034840424 -0.0052818176
000100 0a 6d b4 bd ea dd c8 3d a0 11 cb 3d e0 43 c9 bd
       -0.0880986 0.09807952 0.09915471 -0.09827399
000110 52 7c d9 bd 84 59 0a be 8b 2f 78 bc ea 79 9b 3b
       -0.10619415 -0.1351071 -0.015148054 0.004744758
000120 05 d5 b1 bc 73 63 21 bd 3b d7 8e bd 30 3c 27 bd
       -0.021708021 -0.039401483 -0.06974646 -0.040828884
000130 52 68 de bc cb e4 9b bc de b0 28 3d 6c 39 d4 bc
       -0.027149353 -0.019029995 0.0411843 -0.025906287
000140 a3 49 e1 bc 49 13 3e 3d a9 e4 06 be ce 1b 93 3d
       -0.027500933 0.04640511 -0.13173164 0.07183038
000150 63 c7 48 bd 2c 82 49 3d 40 2a bd 3d d3 68 01 3e
       -0.049018275 0.049196407 0.09236574 0.12637644
000160 21 65 be 3b 0a 3f 2c bd 47 b7 88 bd 65 4c 8e bc
       0.0058103953 -0.042052306 -0.066755824 -0.017370412
000170 47 a6 9d 3c 10 cb 9b 3d 30 2f df bd 3e 15 ef bd
       0.019244326 0.076070905 -0.10897672 -0.116739735
000180 68 4e c8 3d 48 fd 96 3d 7a 83 44 be 59 5d 98 bd
       0.0978058 0.07372528 -0.1919078 -0.0743968
000190 79 e2 5c 3d 9c c4 30 bb b3 79 29 3e 49 45 f2 bc
       0.05392692 -0.0026972657 0.16550331 -0.029574053
0001a0 06 54 46 bd 52 cf 81 3d 36 89 89 bd df 26 94 bd
       -0.048419975 0.06338371 -0.06715624 -0.072339766
0001b0 70 c1 00 3e 40 00 92 bd 9b e6 97 3d 26 ad 49 bd
       0.1257379 -0.07128954 0.074170314 -0.049237393
0001c0 20 b2 01 3e 04 e2 f9 3d 81 61 89 3d b5 ac 95 bc
       0.12665606 0.12201312 0.067080505 -0.01827083
0001d0 76 76 99 3b 78 ad 8d 3c 61 37 b2 bd d1 cc 8f 3d
       0.004683311 0.01729463 -0.08701969 0.070214875
0001e0 38 e2 ea bd b3 b1 ba 3b 6f 19 13 be f4 43 14 3e
       -0.11468929 0.005697453 -0.14365171 0.14479047
0001f0 8b 18 0b bd 96 3f d8 bb fb 61 ec 3c ef 75 38 bc
       -0.033958953 -0.006599377 0.028855314 -0.011258586
000200 51 f1 f4 bd da 27 f8 3c 37 43 fd bc 8f 1e 31 3d
       -0.1196009 0.03029244 -0.03091584 0.043242034
000210 ef 84 0f 3d 3a 56 96 3d f6 96 5c 3d 7a c5 30 3d
       0.035038885 0.07340665 0.053854905 0.04315708
000220 68 ef 90 bc e6 77 2d bd a4 9e 67 3d c1 4d 87 3d
       -0.017692283 -0.042350672 0.056547776 0.06606627
000230 8a c1 a2 3d a3 f4 be bd ac 2e ab bd 3d 07 37 be
       0.07947071 -0.093240045 -0.08358511 -0.17873855
000240 3d 7e 7a bd 3b f4 86 bd b9 45 34 be f5 d8 ae 3c
       -0.061155546 -0.06589552 -0.17604722 0.021343688
000250 e4 1a 93 3d d6 56 bf bd 98 39 b6 3d 6f 97 ff 3c
       0.07182863 -0.093427345 0.08897704 0.031200139
000260 49 dc 8b 3d 51 6d 0c be f4 19 14 3e 67 1f 5c 3d
       0.068291254 -0.13713576 0.14463025 0.053740885
000270 c1 5e 02 3d 3c 6b 40 be 0b 82 fa bb dc 0f 86 3c
       0.031828646 -0.18790907 -0.007644897 0.016364984
000280 45 90 1e bd 46 83 c1 3d 7b 5f 61 bd 40 46 66 3d
       -0.038711805 0.094488665 -0.055022698 0.05621934
000290 53 8c 2d bd a5 91 05 3e 02 4a a5 bd 4e 78 a0 b9
       -0.04237015 0.1304384 -0.080707565 -0.00030607212
0002a0 1d 03 00 be f8 ed cb 3c e7 f6 a8 3d f7 93 cf 3d
       -0.12501188 0.024893746 0.08250218 0.10135644
0002b0 b7 9a 97 bd f6 9b 9b bc 62 d6 06 bd a6 4c f8 bd
       -0.074025564 -0.018995266 -0.032919295 -0.121239945
0002c0 0a 19 85 3d 69 e3 76 3d 45 d8 c9 ba 23 ab 39 3d
       0.064989164 0.06027547 -0.0015399536 0.045329224
0002d0 15 50 53 bd d6 bb 3d bd b9 a3 62 3d 50 ab eb 3c
       -0.051590044 -0.046321712 0.05533192 0.028768212
0002e0 6e c0 9f bd 5a 40 9b bc ef 72 9b bc 70 33 96 bc
       -0.07800375 -0.018951584 -0.018975703 -0.018335074
0002f0 f9 e0 2d bd 8a d9 14 3c 09 b8 c3 3a 7e 92 95 bc
       -0.04245088 0.0090850685 0.0014932166 -0.01825833
000300 df 95 d3 3d cb 31 49 3d 31 f3 d9 bd 2f f0 e7 3d
       0.1033132 0.049119752 -0.10642088 0.11325108
000310 63 2d 67 bd 07 fe 6d bd 9a 5f a6 3c 58 20 8e bb
       -0.05643977 -0.058103587 0.020309258 -0.004337352
000320 4b 2e 88 3c 83 e1 c5 3c d4 7d 05 3d ac 93 07 3d
       0.016623637 0.024155384 0.032590702 0.033099815
000330 ea 66 d2 3b 10 a6 68 3d 60 0b fa 3d a8 64 c9 3d
       0.0064209597 0.056798995 0.12209201 0.09833652
000340 bf 00 0f 3e 65 02 a8 3d bf f7 81 3d bc c5 45 bc
       0.13965128 0.08203582 0.06346082 -0.012071069
000350 3e 08 60 3d f8 cb 52 39 a8 28 97 bd 32 62 0e 3b
       0.05469536 0.00020103145 -0.073808014 0.002172601
000360 c5 3e 54 3d c4 e1 24 bd 18 71 5c bd 48 62 04 3e
       0.051817674 -0.04025437 -0.053818792 0.12928116
000370 22 5f 9d 3d 22 48 9e bc e9 f2 33 bd e8 0f b2 3c
       0.07684161 -0.019321505 -0.04393283 0.0217361
000380 93 19 c0 3c ea d4 a4 bd ca 3b 61 be de 90 8d 3c
       0.023449695 -0.08048423 -0.21995464 0.017280992
000390 81 42 64 3d 3d df c6 3d 65 38 e5 bc 12 06 e6 3d
       0.055727486 0.09710548 -0.027980993 0.112316266
0003a0 ac a0 0b 3c d6 56 d7 bd 31 2b 0a bd 6e 47 8f bd
       0.008522194 -0.105146095 -0.033732597 -0.06996046
0003b0 cb dd f0 bc d6 95 ee 3c 18 1b 55 bd cb 55 fe 3c
       -0.029402634 0.029124182 -0.05202779 0.031046769
0003c0 05 bf c9 3d 1b 31 81 3d 43 bb a5 3d 39 22 53 bd
       0.09850887 0.06308194 0.08092358 -0.05154631
0003d0 43 04 cc bc aa 6f d1 bc 45 ea 0f be f3 1d 96 3e
       -0.024904376 -0.02556594 -0.1405421 0.29319724
0003e0 ab 95 94 bc b1 2f 69 bd 6b 82 77 3d 51 1d f8 3d
       -0.018137773 -0.056930248 0.06042711 0.12114967
0003f0 b4 2f 9b 3c 7d 48 a3 3d 40 8e 87 3d 2e 94 a3 3d
       0.018943645 0.079728104 0.06618929 0.079872474

net.2.bias f4 [128]
000000 69 eb f2 39 31 9b 98 3c e3 09 8d 3d 6c c5 fe bc
       0.0004633323 0.018628689 0.06886651 -0.031099997
000010 27 0b 9b bd 4a 0f 68 bd 86 41 88 3d d5 f2 91 3d
       -0.075704865 -0.056655206 0.066531226 0.07126395
000020 4c 0e 14 bd 69 bf b6 bd 5b 32 93 bd 44 81 73 3d
       -0.036146447 -0.08923227 -0.07187339 0.05944945
000030 40 a3 a6 3b 6e e4 96 3c 56 59 43 3d 44 ab 14 bd
       0.005085379 0.01841947 0.04769262 -0.036296144
000040 3c b5 39 3d 0c b0 9a 3c 94 00 f2 bc bc 6d 65 bc
       0.045338854 0.018882774 -0.029541291 -0.0140032135
000050 ea 94 88 3b da 2d b4 3c 48 2c 8f bd c8 33 f1 3c
       0.0041681426 0.02199452 -0.06990868 0.029443637
000060 d8 d6 c4 bc 39 3c ec bc 8a 1c 77 bd a8 2b 07 bd
       -0.024028227 -0.02883731 -0.06032995 -0.03300062
000070 d8 28 64 bc 37 67 f0 3c 70 c3 c8 bc 46 09 50 bd
       -0.0139257535 0.029346092 -0.024507254 -0.050790094
000080 69 2e 84 bd 20 70 67 3d 4e 8a a1 3d b9 86 8a bc
       -0.064541645 0.056503415 0.07887708 -0.016909944
000090 e7 3b 7b bd 16 c2 38 bd 00 fa 8a bd 7b c4 53 39
       -0.061336424 -0.04510697 -0.06785965 0.00020195723
0000a0 0d c3 9d bd a6 28 ad bc c0 ad a7 bd 96 0c 3f bd
       -0.077032186 -0.021137547 -0.08187437 -0.046642862
0000b0 b0 84 0d 3d 06 29 63 bd c4 2d 7c 3d 5f 8e f0 bc
       0.03455037 -0.055459045 0.061567083 -0.029364763
0000c0 88 40 a9 3c 7e 1d 35 bc 01 3e ac 3d e2 cc 83 bc
       0.020660654 -0.011054395 0.08410264 -0.016088907
0000d0 f2 ba ab 3c 64 a8 8e bd 78 9a 55 3d 37 f0 e1 3c
       0.020963166 -0.06965712 0.052149266 0.027580364
0000e0 99 64 6f 3d 4c 49 af 3c fa ee 97 bc 82 77 cf bb
       0.058445547 0.021397255 -0.01854657 -0.006331385
0000f0 a2 f6 a8 bd ef 7a 95 bd a0 9e bc bd 0c fb 89 bd
       -0.082501665 -0.07298838 -0.09209943 -0.067373365
000100 8a 61 af 3d 83 17 20 bd 0c 94 84 bd 2f 37 3c bd
       0.08563526 -0.039084923 -0.0647355 -0.045951065
000110 dd 8b 2f bd 0c 3a e1 bc ab 76 d6 bc df 24 23 bd
       -0.042857993 -0.0274935 -0.026179632 -0.039830085
000120 4c df f6 3a d7 68 79 bd e4 a7 d5 3d 28 9b db bc
       0.0018834858 -0.060891 0.10432413 -0.026807383
000130 66 9a b7 3d bd be cf 3b 69 64 76 ba c9 56 ac bd
       0.08964996 0.0063398764 -0.00093991176 -0.084149905
000140 d7 a0 82 bc dd f6 92 3d 7c 87 39 bc 0e a7 15 3d
       -0.015945835 0.07175992 -0.011323806 0.03653627
000150 53 7a 95 bd 51 75 88 bd 75 d5 98 bd 9b 80 85 3d
       -0.07298722 -0.06663001 -0.07462589 0.0651867
000160 f9 11 8e 3d 30 55 97 3c 89 5b 90 3b 7e c5 b8 3c
       0.06937022 0.018473238 0.004405443 0.02255511
000170 49 d1 e1 ba e0 be 8c bd a0 fc dc bb 07 6f 48 3d
       -0.001722851 -0.06872344 -0.0067439824 0.04893401
000180 b8 6a 87 bc da e0 94 bd 85 b2 01 bb d4 f8 63 bd
       -0.01653038 -0.072694495 -0.0019790244 -0.055657223
000190 47 e3 44 3d da 81 ae 3c c0 8f 88 3d c0 0d 0d 3d
       0.04806831 0.021302152 0.06668043 0.03443694
0001a0 59 e7 41 3c ba ae 56 bd 57 70 7f 3d 01 6c 93 bd
       0.011834943 -0.052412726 0.062362995 -0.071983345
0001b0 16 12 2e 3c 5c 69 1b 3c fd 41 23 3d f1 52 86 bd
       0.010624429 0.009485569 0.039857853 -0.065587886
0001c0 fe 64 c9 3b a3 10 4a 3c a8 8f ae bc 1e 2b 21 bd
       0.0061460724 0.012333068 -0.021308735 -0.03934776
0001d0 d3 c6 8a bd 57 c8 91 bd 81 91 87 bd e5 ba d8 3c
       -0.06776204 -0.0711829 -0.066195495 0.026456306
0001e0 ae b6 d1 3c b4 0b 23 3d 88 f9 e4 bc 04 3d a0 3b
       0.025599804 0.039806083 -0.027951017 0.004890086
0001f0 66 61 91 bd 61 37 5e bd 5c d4 9f bd 27 10 29 bd
       -0.070986554 -0.054252032 -0.07804176 -0.04127517

net.4.weight f4 [2, 128]
000000 f2 fc ab 3e 69 69 1d 3e e4 68 95 3d 96 36 71 3e
       0.3359142 0.15372242 0.07295397 0.23555979
000010 6a 73 7d 3d fa d8 c3 be c4 fc e0 3c 1e ac f0 3d
       0.061877646 -0.38251477 0.027464278 0.11751579
000020 ac 11 d0 3d ed e7 53 bd 26 d2 11 3e 73 9d 82 be
       0.10159621 -0.051734854 0.14240322 -0.2551075
000030 6c 1f 52 be b3 d0 e0 3d 07 c0 1a 3d 8e 54 ff 3d
       -0.20519799 0.10977306 0.037780788 0.124672994
000040 fe 6a 0c be ce 70 de bd 42 0e 8d be f0 bc 56 be
       -0.1371269 -0.108613595 -0.2754994 -0.20970511
000050 a3 4b c6 bd ad ef 30 3d 0b 2d c5 be a3 a0 40 3e
       -0.09682395 0.043197323 -0.38510928 0.18811278
000060 0f 07 12 be 01 08 14 be b6 1b 84 3c a9 0b b7 3e
       -0.14260505 -0.14456178 0.016126495 0.35751083
000070 c6 10 ed 3d ea 2a 75 be 73 e2 ae 3e 0b 20 3b be
       0.11575465 -0.23942152 0.34157142 -0.18273942
000080 db 0e 04 be 7e 5c be 3d eb f8 8a be f0 d6 79 3e
       -0.12896292 0.09294985 -0.27143034 0.24398398
000090 f3 68 90 bd ce fc 05 3c 43 b8 3d be 50 7a 17 bd
       -0.070512675 0.008177949 -0.18527322 -0.03698188
0000a0 02 00 84 3e 5b 9f a3 bd 1c b0 1c be 8d 67 86 be
       0.25781256 -0.07989379 -0.15301555 -0.26250878
0000b0 26 cd 12 3e b0 f4 bc 3e c2 f2 39 3e 6a 62 91 be
       0.1433607 0.36905432 0.18159011 -0.28395396
0000c0 15 b7 77 3e 9a bd b1 be cd c8 13 be b0 0f 8e 3e
       0.24190934 -0.34714967 -0.14432068 0.27746344
0000d0 9e bd 02 3e 2f 6a 9d 3e 72 84 b4 bd 81 61 29 3d
       0.12767646 0.30745074 -0.088143244 0.041352753
0000e0 74 c4 39 3e 76 02 42 be 69 5c a9 3e 46 74 3b 3e
       0.18141347 -0.18946251 0.33078316 0.18306074
0000f0 c6 e0 ee 3b 55 4c dd be 53 12 9d be c9 4c a0 be
       0.0072899787 -0.432223 -0.30678043 -0.31308582
000100 f4 2c 29 3e 78 58 84 be da b9 93 3b f1 98 4d be
       0.16521055 -0.25848746 0.004508239 -0.20077874
000110 1c d4 05 3c 2d a1 6f 3e 29 b5 97 3d 40 7c 98 be
       0.008168247 0.23401327 0.074076004 -0.29782295
000120 8f 80 5d 3e 82 13 77 3e fc 85 c0 3e 0c 9f a1 be
       0.21631072 0.24128535 0.37602222 -0.31566656
000130 7e 39 5d 3d 47 d8 bc be 2d 86 79 be 78 9e 1e 3e
       0.054009907 -0.36883757 -0.2436759 0.15490139
000140 80 86 6d be 2c 33 01 3e 56 1e 45 3e 9e 6f 15 be
       -0.23195839 0.12617177 0.19249853 -0.1459336
000150 2c 54 c5 3d 2b c7 92 be aa a7 8b be 77 4a 80 be
       0.09635195 -0.28667578 -0.27276355 -0.25056812
000160 31 0b 1c be 2a 71 af 3d c5 a7 b3 3d b0 8b 2f 3e
       -0.15238644 0.08566506 0.08772234 0.1714313
000170 8b 4a c9 3d 53 6d 58 be c5 c4 e9 be b1 fc 3b 3e
       0.09828671 -0.21135454 -0.45657936 0.18358113
000180 93 18 11 be d1 52 9c 3d 67 9c 21 3e 88 b1 34 3d
       -0.1416953 0.076329835 0.15782319 0.04411462
000190 24 98 2f 3e 3b 94 1e 3e 10 70 1b 3e 32 9f 6b be
       0.17147881 0.15486233 0.15179467 -0.23009947
0001a0 b6 c3 7f be 9b 5c 8a 3e 34 6b 8f 3d 95 3f 41 3d
       -0.24977002 0.27023777 0.07002869 0.047179777
0001b0 65 49 76 3e 66 dd 34 3e 8a bd e4 3d 84 5d a4 3e
       0.24051435 0.17662582 0.11168964 0.32102597
0001c0 59 2d 7c 3e a6 16 8e 3d 24 f0 5f bc ab 64 47 be
       0.24626674 0.069379136 -0.013668094 -0.19471996
0001d0 f8 b7 33 3e af 17 04 3e 4e bd b5 3d b2 f8 1a 3e
       0.17550647 0.1289966 0.08873998 0.15133932
0001e0 3b b1 82 be f6 ec 8d be 14 f4 a5 3d 89 5f d2 be
       -0.2552584 -0.2771985 0.08103195 -0.41088513
0001f0 01 f7 8a be 28 6c b3 3d dd fc 66 3e b7 f2 12 3e
       -0.27141574 0.087608635 0.22557397 0.14350401
000200 13 78 d9 be fd d5 a9 bd 38 f3 a9 bb 20 e5 44 be
       -0.42474422 -0.08292768 -0.0051864646 -0.19228029
000210 c3 cd 17 be dc a3 83 3e 0d 51 03 be be 79 01 3a
       -0.14824586 0.25710952 -0.12823887 0.00049391005
000220 40 cf d1 bb 42 c8 44 bc b5 d1 0f be e9 4e 29 3e
       -0.00640288 -0.012010636 -0.1404484 0.16534008
000230 5b 83 2a 3e 59 4b da bd ea cb 53 be e8 fb 3c be
       0.1665167 -0.10658903 -0.20683256 -0.1845547
000240 ca ae 8c 3d 06 6f 2b 3e 49 50 87 3e 24 a4 64 3e
       0.06869276 0.16741571 0.2642844 0.2232824
000250 78 be 31 3e b1 a1 31 be 81 e8 ec 3e 72 fc 00 be
       0.17357814 -0.17346837 0.46271136 -0.125963
000260 61 d1 51 3e 07 66 30 3e d6 51 2e be 89 7a aa be
       0.20490028 0.1722642 -0.17023405 -0.33296612
000270 26 34 95 bd 05 df 7f 3e fc 04 cc be a8 25 6f 3e
       -0.07285337 0.24987419 -0.39847553 0.23354208
000280 f5 61 22 3e 51 12 c3 bd ec 8e ff 3d ee ea 89 be
       0.1585768 -0.09524978 0.12478432 -0.2693705
000290 44 da 60 bd 1e 7e f0 bd 55 88 2d 3e 3f 4a 45 3e
       -0.054895654 -0.11742805 0.16946538 0.19266604
0002a0 72 a1 88 be a0 0d 60 3d 45 de f5 3d 4f f2 48 3e
       -0.26685673 0.054700494 0.12005285 0.19623683
0002b0 35 00 e3 bd 4a 3e b3 be 9d df 05 bd 69 74 5d 3e
       -0.11084024 -0.3500846 -0.032683957 0.21626438
0002c0 24 ea 2d be 56 81 48 3e 7a f3 0d 3e 12 30 74 be
       -0.16983849 0.19580588 0.1386241 -0.23846462
0002d0 89 63 9c bd ba d4 88 be b2 1c fd 3d c4 f2 97 bd
       -0.07636172 -0.26724797 0.12358989 -0.07419351
0002e0 2b 04 35 be 6d 7b 19 3e 0f ba ca be 79 e3 25 bd
       -0.17677371 0.1498849 -0.39595076 -0.040500138
0002f0 c7 03 40 3c 1c e3 b1 3e 01 d1 83 3e 35 1e a0 3e
       0.011719651 0.34743583 0.25745395 0.31273046
000300 5e 81 36 bd 44 79 8d 3e 23 44 27 be 21 2f 90 3e
       -0.044556968 0.2763158 -0.16334586 0.28160957
000310 79 b1 3b be bc 19 a6 be a4 f2 0d be f5 3c d0 3e
       -0.18329419 -0.3244151 -0.13862091 0.40671507
000320 7a 23 8b be 66 c5 1b be 18 ab d0 be e6 d3 59 3e
       -0.27175504 -0.1521202 -0.40755534 0.21272239
000330 98 d7 99 bd a6 49 9f 3e 40 4f 51 3e e2 99 31 be
       -0.07511824 0.31110877 0.20440388 -0.17343858
000340 60 1f 93 3e 5a 70 54 bd 3e b1 4f be fd 3b c6 3d
       0.28734875 -0.05186496 -0.20282456 0.096794106
000350 fe 62 48 bc aa 69 90 3e d7 46 81 3e b9 77 80 3e
       -0.012230633 0.28205615 0.2524936 0.2509134
000360 8c 71 d1 3d 68 fe 45 be e0 f7 e0 bd 84 1d 18 be
       0.102267355 -0.1933533 -0.109847784 -0.1485501
000370 82 11 87 bc bb f1 45 3e 65 e3 c1 3e a2 8f 2f be
       -0.01648784 0.19330494 0.378688 -0.17144635
000380 5e 42 0c 3e 9f b3 6c be c2 66 a7 bd d9 46 20 be
       0.13697192 -0.23115395 -0.08173896 -0.15652026
000390 7d e5 c2 bd 11 58 37 be 78 cd cb bd b3 33 be 3d
       -0.09516428 -0.17904688 -0.099512994 0.092872046
0003a0 7d 60 5e 3e 0f 18 a6 be f8 80 12 be 2f 91 cb bd
       0.21716495 -0.3244023 -0.1430701 -0.09939801
0003b0 7d 8c 94 be e4 2d 3f be 68 76 07 be f1 4e 2d be
       -0.29013434 -0.1866985 -0.13228762 -0.16924645
0003c0 05 e1 d7 bd 52 bf 6d bd 41 3d 1b be 12 d0 83 3e
       -0.10540966 -0.058043785 -0.15160085 0.25744683
0003d0 90 97 4e be 81 6b 68 be 8c 1f 80 be 27 89 4b be
       -0.20175004 -0.2269726 -0.25024068 -0.19876538
0003e0 14 23 55 3e 6f 2e 6c 3e 14 11 40 3d 7c 6b a0 3e
       0.20814162 0.23064588 0.046891287 0.31332004
0003f0 b2 e2 be 3e 09 da ce bd 66 74 17 be 2d 65 1a be
       0.3728233 -0.10100181 -0.14790496 -0.15077658

net.4.bias f4 [2]
000000 fc 49 d5 bc 01 97 19 3d
       -0.026036255 0.037497524
