coup_nsfp/nfsp_coup_demo_challenge.pt (torch, 84257 bytes, 6 tensors)

net.0.weight f4 [128, 26]
00000000: 1a10 afbd d038 403e 695b ea3d 04ba 8d3c
00000010: 84b6 1cbc cb20 5ebe 4951 1d3e 58db e93d
00000020: 9ac0 023e a61f ba3d b83f 3dbd 57ba 39be
00000030: 8f34 943d c0af debd 7d7a febd fa57 c83d
00000040: 1f55 ed3d 6d2c 21be 4c55 3b3e 493f ecbd
00000050: 6e9e d03d c546 073e dd66 bebd 11f5 09be
00000060: 6756 c73d 0997 093e 8f38 46be eddd 04be
00000070: 1591 20be c7bb f23d 2cd4 773c e793 efbd
00000080: 14cf 1c3e 4582 acbd b0e6 2e3e 586c ffbd
00000090: e4ef 6bbc 5148 aabc d868 b83d b4e5 85bd
000000a0: 9ea5 fd3d a8e2 1abd 3f75 8cbd 1887 203e
000000b0: 469a c6bc 4b47 52be 9813 43be 0186 3ebd
000000c0: b2a2 83ba 7fce 043e 303a 593c 1730 c53c
000000d0: 147a 333e 21cc 4dbe bb90 e2bd b7b2 1ebb
000000e0: 4879 c3bd eed2 afbd c474 57be 7c88 f23d
000000f0: 3a49 0d3e 2d20 bdbd 5d17 3d3e 8e32 543d
00000100: 413b 2dbe e3f7 063d 371f 47be 2026 b43d
00000110: d01e b5bd 9d79 3dbd a3b6 a43d 0eeb 2e3e
00000120: 9b1c bebd 760c a53d 7793 37be 3b73 133e
00000130: 6bc0 acbd f4af 283e 5d0e 1e3e 6aa1 ef3d
00000140: f5b7 443e 789c b8be 7036 583e e25f c2bd
00000150: d95c 4abe 093d d53d a57d c43d 8cc4 753e
00000160: bf7d 1e3e 16ce 03bd 10c6 d23d 6561 d8bc
00000170: f42e 723c 7099 a8bd 6213 183e a657 b7bd
00000180: 2af3 163e e7b5 e5bd ff32 d1bd e6d9 29be
00000190: 348c c23d c660 583e 15c0 34be d8bd f039
000001a0: e736 bfbd fe40 c6bd c119 81be ee17 5bbd
000001b0: 9619 0cbe b8f6 433e 1d50 52bd bd8c 0e3e
000001c0: 09ff 433e f388 b53c 1656 363d 0c21 2f3d
000001d0: 1095 33be 13f5 35be f567 36be 6b45 363e
000001e0: de75 2ebe b95c 0bbe 4756 f0bd a8d1 913d
000001f0: a088 f2bd 5cfc de3b 2dda 61be 5bbc fc3d
00000200: ba53 10be d4cc fb3d fec5 b83d 4f46 dbbc
00000210: fd12 15be 063d 843d 5d38 a23c 8dfa 0dbe
00000220: 4ea8 bd3c d2e1 acbd f96f 033e a389 9fbd
00000230: b66c f63d 697c bb3d 51cf b13d 324e 0e3e
00000240: 0e42 f9bc c868 d7bd 8b5a 353b 56a2 d8be
00000250: f0fc 813d f863 f63c c9bd 53bd ff46 c93d
00000260: 1489 b8bd b4a8 bfbc a9b0 483d 1fe8 b03c
00000270: 0814 cd3d 08da f43d d943 36bc ce4c a73d
00000280: 17f7 3e3e 7e0a 3cbe e6ac 563e eaa6 05be
00000290: b293 cc3d 7e56 05bc be90 313e 01b8 e53d
000002a0: d3e9 6ebe 697b 29bd 300c 063e 367c a1bc
000002b0: 2880 543c 33d1 2a3e 6146 d8bd 8757 7ebd
000002c0: 1ec4 40bd 694a ffbd 867f 173e a9c4 6cbe
000002d0: 7b18 25bc 71fc 9ebd 7370 aabd 5686 80be
000002e0: 5be2 ca3d 89e3 ebbd af4c 063e 45e7 5a3e
000002f0: 4414 0f3e ce45 ae3d 4d4c 1ebd e312 433e
00000300: 5e3c 61be 22d6 83be 48a7 babd 7d33 f73c
00000310: df4b 0d3e 728f 8f3d 0307 14be 8a61 663d
00000320: 7ef7 61bc f452 33bd 5770 253d 0566 513e
00000330: a652 8bbd c9ce 313e 17b9 b33d 2bcb 063d
00000340: 6b0a 833d e99e 973c e164 0ebe 9d21 46bd
00000350: 89ab 0ebe b394 16be 9a53 27bc 73a6 c73d
00000360: 6811 b13d 9d6c 1c3e 7672 e5bb 7e40 5c3e
00000370: 2aeb aabd 17f0 043e 5b51 7b39 e945 a2bd
00000380: 4a93 0ebe 4e31 eabd a4f7 743d b4c8 a33b
00000390: ea94 403e f1d4 523e 1470 633d 238a c43c
000003a0: f7c7 6d3e 9ca7 1abe a904 f83d 5a84 babd
000003b0: 5931 edbc edac 00be 9ae2 ec3d 39d2 f53c
000003c0: 8e2a 94bc 8809 1fbb 0971 16bd 3a8e 643e
000003d0: c239 3c3e 8089 593d 9014 ecbc a5ed 843d
000003e0: b30f 233c 1186 163e 9d09 363d 2120 d3bd
000003f0: e354 883d 761f 263c 2709 453e 4df9 09be
-0.08547993 0.18771672 0.11443216 0.017300613 -0.0095649995 -0.21692197 0.15363039 0.114187896
0.12768784 0.09088068 -0.046203345 -0.1813749 0.07236587 -0.108733654 -0.124257065 0.09782405
0.11588501 -0.15739603 0.18294257 -0.11535508 0.10186468 0.1321059 -0.09296963 -0.13472392
0.09733277 0.13436522 -0.19357513 -0.12975283 -0.15680344 0.11852222 0.015126269 -0.11698132
0.15313369 -0.084232844 0.17080188 -0.12471837 -0.014400456 -0.020786436 0.09004372 -0.06537953
0.123851046 -0.037813812 -0.068583004 0.15676534 -0.024243485 -0.20535009 -0.19050443 -0.046514515
-0.0010042994 0.12969397 0.013258502 0.024070783 0.17527038 -0.200974 -0.110627614 -0.002421541
-0.09544617 -0.085851535 -0.21040636 0.118424386 0.13797465 -0.09234653 0.18465944 0.051806025
-0.16917135 0.032951247 -0.19445501 0.08796334 -0.08843768 -0.046258558 0.08042648 0.17081854
-0.092828 0.08059017 -0.17927347 0.14399426 -0.08435138 0.16473371 0.15435167 0.11700709
0.19210799 -0.36056876 0.21114516 -0.094909444 -0.19761981 0.10412032 0.09594277 0.24000758
0.15477656 -0.03217896 0.10291684 -0.026413629 0.014781702 -0.08232391 0.14851144 -0.089522645
0.14741197 -0.11216336 -0.10214805 -0.16587028 0.09499398 0.21130666 -0.17651398 0.00045917812
-0.09336644 -0.09680365 -0.2521496 -0.053489618 -0.13681635 0.19137084 -0.051345933 0.13920875
0.19140257 0.022160029 0.04451569 0.042756125 -0.17537332 -0.1776927 -0.17813094 0.17799918
-0.1703715 -0.1360959 -0.11735206 0.07120067 -0.118424654 0.006804986 -0.22055884 0.123406135
-0.14094439 0.12294927 0.09022139 -0.026766924 -0.14558025 0.06456952 0.019802267 -0.13865109
0.023151543 -0.08441509 0.12835683 -0.07789924 0.12032454 0.09154589 0.086821206 0.13897017
-0.030427005 -0.10518032 0.0027672376 -0.42311352 0.06347072 0.030076966 -0.051694665 0.098279946
-0.090105206 -0.023395874 0.0489966 0.021595059 0.10013586 0.11955649 -0.011124575 0.08168946
0.18648945 -0.18363377 0.20964393 -0.13051954 0.09989108 -0.008138297 0.17340371 0.112167366
-0.23331384 -0.04137746 0.13090587 -0.019712549 0.012970008 0.16681366 -0.10560299 -0.06209519
-0.047062032 -0.124653645 0.1479474 -0.23121895 -0.010076637 -0.07762993 -0.08322229 -0.2510249
0.09906455 -0.11518008 0.1311519 0.21377285 0.13972574 0.08509408 -0.038646985 0.19050173
-0.21995685 -0.25749308 -0.091139376 0.030175919 0.13798474 0.07009782 -0.144558 0.056245364
-0.013791917 -0.043780282 0.04039034 0.20449074 -0.06802873 0.17364039 0.087755375 0.0329086
0.063984714 0.018508391 -0.1390567 -0.0483719 -0.13932623 -0.14705162 -0.010212803 0.097485445
0.08645898 0.15275808 -0.00700217 0.21508977 -0.08345635 0.12982212 0.00023967533 -0.079234906
-0.13923374 -0.114351854 0.05980648 0.004998291 0.18806806 0.20589043 0.055526808 0.02399165
0.23220812 -0.15103 0.12110264 -0.09107275 -0.028954195 -0.12565966 0.11566658 0.030007469
-0.018086698 -0.0024267156 -0.036728892 0.2231988 0.18381408 0.053109646 -0.028818399 0.064906396
0.009952473 0.1469958 0.04444276 -0.103088625 0.06656816 0.010139337 0.19241773 -0.13474007

net.0.bias f4 [128]
00000000: 7b19 213e e62e 3f3d 41fb 07bd 8a09 873c
00000010: e434 62bd b23d 28be 6ac1 f1bd 909a 233e
00000020: 73af e3bd c727 e8bc b1f4 d5bd 6968 1f3e
00000030: d3ae 8bbd c970 213b 906c 19be 8ba5 ec3d
00000040: 0d62 4f3e 2240 92bc 4513 3c3d 75a7 143d
00000050: 7681 09be 3703 fdbd 5343 b93d 09e8 2abe
00000060: 4720 34bc 94c9 12bd 3e39 2fbe fbe6 8abd
00000070: 4cd7 23be a053 5ebd b2e7 663d 78bd 043e
00000080: e8cb 103e 27da 973d ea59 953d ae38 d2bd
00000090: 6117 4ebd c014 c43d 1846 a6bd fed9 c5bd
000000a0: 282f ad3d 0600 d23c 8bc5 1d3e 40f6 8dbd
000000b0: 1728 3b3e 45a6 cbbd 4c71 22be 02f0 433d
000000c0: 0bf6 163e 39ca 8fb9 d055 f8b9 526d 00be
000000d0: 91bf f2bd e3c8 2ebe 8500 9238 f8ec eebd
000000e0: 2826 903c 34f2 a73d 86d4 f6bd c718 863d
000000f0: 9906 933c 50ec f0bd bf1d 393e 254b 31bd
00000100: 1e88 ecbd d5f1 1d3e b2f5 fabb cb93 4a3e
00000110: 08ba 82bd a9a8 07be c4e2 11bc cf8d 20be
00000120: f282 22bd 92bc e63d 3259 093d 8bfc 7c3d
00000130: 767e fd3d 2beb 343e 3a84 1b3c 10ea 1f3d
00000140: 8239 aa3d 9f7e 303e da2e 9cbd e667 3e3c
00000150: 9113 9fbd 10f9 30bd 51b5 e2bd ad9f 333e
00000160: 6f93 343e 94ea 9e3d 01b0 7fbd 4b3b 793d
00000170: 267b 2cbe 53b5 3e3e 5c14 333d 9799 993d
00000180: be7a bc3c e18f 273e 1f12 cb3c 3e10 20be
00000190: 6a02 d8bd 96d8 893d a1b7 2f3d ac35 d53d
000001a0: d9f0 1e3e 19d9 a23d d324 6d3d 83ec d5bc
000001b0: c390 f13d d9ee aabd a63d 0a3e ce28 a13d
000001c0: 6f4a dbbd aab3 bdbd 9ec4 e93d bd82 533e
000001d0: fa03 0d3e d0bf f4bb dde1 dc3c ec5c c5bd
000001e0: e155 c2bd b718 2a3d 100f 8c3d 949d 303d
000001f0: 9b15 373e 7b3d 0bbe f08d 03be 200b 6f3a
0.15732376 0.046675585 -0.0331986 0.01648404 -0.05522622 -0.16429785 -0.11804469 0.1597693
-0.11117449 -0.02833928 -0.10447062 0.15567173 -0.068204544 0.0024633876 -0.1498282 0.11555012
0.20252247 -0.017852847 0.045916814 0.036292512 -0.13428292 -0.12354129 0.09046044 -0.16690077
-0.010994024 -0.03583677 -0.1711168 -0.06782337 -0.16000098 -0.05427897 0.056373306 0.12962902
0.14140284 0.07414656 0.0729254 -0.10264717 -0.050315265 0.0957427 -0.08118838 -0.09660719
0.0845626 0.025634777 0.15407388 -0.06931734 0.18277012 -0.09943823 -0.15863532 0.04783631
0.14742295 -0.00027425753 -0.0004736618 -0.12541702 -0.11852945 -0.1706882 6.961919e-05 -0.11666292
0.01759632 0.082004935 -0.120522544 0.06547695 0.017947482 -0.11763823 0.18077753 -0.043284554
-0.115494 0.15424283 -0.0076586837 0.19782941 -0.06383139 -0.13247932 -0.008904163 -0.15679096
-0.03967566 0.11266436 0.03353233 0.06176428 0.12377636 0.17667834 0.0094919745 0.03904158
0.0831175 0.17235802 -0.07626124 0.011621451 -0.07767404 -0.043206275 -0.110697396 0.1754138
0.17634366 0.07759586 -0.06242371 0.06084756 -0.16843852 0.18623857 0.043720588 0.07499998
0.023007747 0.16363479 0.024788914 -0.15631196 -0.105473354 0.067307636 0.04289973 0.10410628
0.15521564 0.07951564 0.057896446 -0.026113754 0.11795189 -0.08346338 0.1350008 0.07869111
-0.107075565 -0.09262784 0.11414455 0.20655341 0.13771048 -0.007469155 0.026963169 -0.09636864
-0.09489036 0.041527476 0.068388104 0.04311903 0.17879336 -0.13597672 -0.12847114 0.0009118784

net.2.weight f4 [128, 128]
00000000: 24fc 313d 1154 33be 8b0f 5bbd 8103 923d
00000010: ebe4 bd3b 3980 01be 0532 c73b 7783 3dbd
00000020: 314e 4e3d 1ab3 58bd d356 90bb 13c1 9dbd
00000030: 48e8 453e 37fa 7d3e f121 653d 9069 d33d
00000040: bf58 5dbb bbf0 323d b33e a23c edee cf3d
00000050: 42aa fdbd 8a05 1d3b c39d 7a3d 026b aabd
00000060: 381a 12be f8d8 4abe 8cc3 e8bd 284d a8bc
00000070: be73 74bd d62c 76bd f34d 013e f9a1 0bbd
00000080: 32aa 513d dc93 bcbc 855a c93c 8d44 453c
00000090: cc95 23bd 7c5f d2bd a3d2 793d 521f febd
000000a0: 4a4c b63d bdfd 85bd fde0 df3d c7c0 b2bb
000000b0: bfd8 68bd bf54 cbbd 6ad3 0d3e 8fa0 643c
000000c0: b165 b03d c85d 853d 28bd 11be 75dc 85bc
000000d0: b9a2 413e 8379 4dbc 1f36 07be 9465 e5bd
000000e0: cd6e 10be df5b e0bd d5d8 f23c 0f6a 073e
000000f0: 0963 bbbd fe02 5c3e cc21 193d 6170 06bc
00000100: 760e a03d f4f7 d93d 01d6 f13d 22ea d03c
00000110: a127 3f3d cf5b f8bd 38e8 24bd dd71 e93d
00000120: a4cd 033e 103b 033e fb87 eabc df33 21bc
00000130: f1a5 25bd e0bb 8c3c 4657 c6bd 8efb eb3c
00000140: c880 0c3b ace6 ba3c 2da1 b03d d66f 85bd
00000150: d40a 213e 05c7 973c feb2 753a 5a3c 95bd
00000160: c4c4 02bd 4713 fc3c 15fd edbd 3586 01bb
00000170: 720b df3d b7f5 6b3d cd6b acbd 4404 b73d
00000180: 0153 00bd 2249 7bbd 4847 3bbd ec78 4dbe
00000190: 1b85 25be c885 f3bd 243c 913c 26f5 043e
000001a0: 77e7 3bbc 1b82 d2bc 72df adbc c83d 8c3d
000001b0: 9f99 593d 2633 39bd f238 e93c 4e3d d43c
000001c0: a95b e43d 4beb 9bbd 59d8 4b3d 5545 a93c
000001d0: a8f4 8fbc e806 66bb dab7 30be f79f b03c
000001e0: c9cd 4ebe 61bb aa3d 22aa 9f3d 139c 20bd
000001f0: fbd5 793d cfc5 c73d 2b5f 43be 01d4 d0bc
00000200: def3 9d3d 7b0e 66bd e58f 06be 7ad2 94bd
00000210: 9fdf babd 9359 39be 7f62 d43c c4a0 fd3a
00000220: 893b 983d ba1c a0bc f6b1 ce3b 522c 3e3e
00000230: 85dc 293c cd79 fbbc 5552 d13d 800c f63d
00000240: 3634 1a3e 78f9 d5bc 0bc6 f93d fcb3 2d3d
00000250: 37f8 07bd a252 103e 4c24 1dbd 0c14 28bd
00000260: c5fc ba3d cb14 e1bc 04cb d33c da32 7b3d
00000270: efe2 c73d f9ee 70bd 3122 0bbd 5e2e bd3b
00000280: 5648 c33d 51e2 24be 9c58 b1bc c868 29bc
00000290: ed36 e4bd d2c9 063d ef8e bcbd a63f 1ebd
000002a0: f38c c4bd f601 b03d d6a1 1f3e e8d6 6eb8
000002b0: 47e6 8c3d 334f 6fbd 4605 ebbc a251 473d
000002c0: 7194 813d dc91 0ebd 518d 9dbd 27f0 60be
000002d0: c64a 8a3d 8131 b6bd b826 76be 070b 8bbe
000002e0: 18dd 22bd 2a3a 10be 3994 d2bd 7229 86bd
000002f0: 7a13 d6bd a391 f73c f526 14bd 29ac bcbd
00000300: 18bf 70bd 1a4c f23c 980f dcbd 7542 15bd
00000310: 0dce 08be b85a 69bd a8da 99bc 0846 2cbd
00000320: 15d3 5e3c 5dc7 6d3c 6671 ffba 3d6e 2d3d
00000330: 133b d2bd 018b c33d 05eb 86bd 4f87 743d
00000340: b0ab 643d db29 e13d 9b42 dfbc 9991 803c
00000350: 4964 3f3e c66a 273e 616d f2bd 91b5 b83d
00000360: a39e 9abd 28ee b73d 28bc 1bbd 6750 a63d
00000370: 49ad 46be 028e 3a3d 46bd d9be e19c eebb
00000380: 68de 00bd 1ac8 783c d238 28be ee45 85bb
00000390: 846c 883d 5a8e ce3a c73e eebc 6fc1 9dbd
000003a0: 7a7a a43d 058f 16bd 1de9 86bd 0118 01bd
000003b0: b428 53bd 987f 0ebd c6fa 093d 2fb7 853d
000003c0: 556c 99bc 6482 44bb d619 193e 277a e43d
000003d0: 45b6 823d cef5 cb3d 2c97 d1bc e58e 973d
000003e0: 360c 2dbd 8ea3 363c 985f 9e3d 96fd f3bd
000003f0: 1813 a83c 0350 8bba 6ab0 f5bd 0c96 1bbe
0.04345335 -0.17512538 -0.05348162 0.071295746 0.0057951114 -0.1264657 0.006078961 -0.046267953
0.050367538 -0.05290518 -0.0044048815 -0.077028416 0.1932689 0.2480248 0.055940572 0.10322869
-0.003377482 0.04368661 0.019805288 0.10152993 -0.1238599 0.00239596 0.06118561 -0.08321191
-0.14267814 -0.1980933 -0.113654226 -0.020544603 -0.059680693 -0.060101353 0.12627392 -0.034090016
0.0511877 -0.023019724 0.024579296 0.01204027 -0.03993778 -0.102721184 0.060991894 -0.124083176
0.0890127 -0.06542537 0.10931585 -0.0054551098 -0.05684733 -0.099282734 0.1385018 0.013954296
0.08613146 0.06512028 -0.14232314 -0.016340474 0.1890973 -0.012541178 -0.1320424 -0.11201015
-0.14104767 -0.10955023 0.02964441 0.13224052 -0.09149749 0.21485516 0.037385747 -0.008205504
0.07815258 0.106429964 0.11808396 0.025502268 0.046668652 -0.12126886 -0.040260524 0.11398671
0.12871414 0.128155 -0.028629294 -0.009839027 -0.040441457 0.01717943 -0.09684615 0.028806474
0.0021439064 0.022815071 0.08624492 -0.06515472 0.15726787 0.018527517 0.000937268 -0.07286902
-0.03192593 0.03077091 -0.11620537 -0.0019763832 0.10890855 0.05760738 -0.08418999 0.089363605
-0.03132916 -0.06134904 -0.045722276 -0.2006566 -0.16164057 -0.11890751 0.017728873 0.12984142
-0.01146876 -0.025696805 -0.021224711 0.06847721 0.05312502 -0.045214795 0.028469536 0.025908139
0.11150295 -0.07613238 0.049766872 0.020662943 -0.017572716 -0.0035099331 -0.17257634 0.021560652
-0.20195688 0.08336521 0.07796122 -0.039211344 0.060995083 0.09754526 -0.19079272 -0.025491716
0.077125296 -0.056166153 -0.13140829 -0.07266708 -0.091246836 -0.18100576 0.025925873 0.001935028
0.074332304 -0.019544948 0.0063078357 0.18571594 0.010367517 -0.030697728 0.10220782 0.12014103
0.1505898 -0.026119933 0.12195977 0.042407975 -0.0331957 0.14094022 -0.038364694 -0.041034743
0.09130243 -0.027475735 0.025853641 0.061327793 0.09760081 -0.058821652 -0.033968154 0.0057733497
0.09535281 -0.16101958 -0.021648698 -0.010339923 -0.11143289 0.032907315 -0.0920695 -0.03863492
-0.095971964 0.08594124 0.1558908 -5.694377e-05 0.068798594 -0.05842514 -0.028689038 0.048661835
0.06327141 -0.03480707 -0.076929696 -0.21966611 0.06752543 -0.08896161 -0.24038208 -0.2715685
-0.039761633 -0.14084688 -0.102821775 -0.06550874 -0.104529336 0.030220812 -0.036169965 -0.092125244
-0.05877599 0.029577304 -0.10745162 -0.03644033 -0.13359852 -0.05697128 -0.018781021 -0.042058975
0.013600131 0.014512864 -0.0019488751 0.04234146 -0.10265174 0.09547997 -0.06587795 0.059699353
0.055827796 0.109943114 -0.02725344 0.015694426 0.186906 0.16349325 -0.118372686 0.09019006
-0.07549789 0.089809716 -0.038021237 0.08120804 -0.1940204 0.045545585 -0.42527217 -0.007281885
-0.031462103 0.015184427 -0.16427925 -0.004067174 0.06661323 0.0015758977 -0.029082669 -0.0770291
0.08031173 -0.036757488 -0.065874316 -0.031517033 -0.05155249 -0.03478965 0.03368642 0.0652908
-0.018728415 -0.0029984945 0.14951262 0.11156111 0.063824214 0.09958993 -0.02558478 0.07400302
-0.042247973 0.011147393 0.07733077 -0.11913602 0.020516917 -0.0010628704 -0.11996539 -0.15193957

net.2.bias f4 [128]
00000000: 08b9 3bbd ba9c afbd 4535 e53b 3275 8b3c
00000010: cc4f 3a3d cfed 9e3d f239 93bd f3b9 e8ba
00000020: c38c 353d 62ac 0b3d 8273 293d 3ebc 793d
00000030: 0716 b93d ce37 13bd 1993 953d f103 18bc
00000040: 204b 4ebd 9650 163d b21c 9fbc b3f2 6ebd
00000050: 63f3 f13c c381 3dbc 3efb d2bc 01fd 35bd
00000060: c79a a2bc a95a 34bd 6da8 89bd 1539 613c
00000070: f9f7 79bd 08cd cb3d 135a 7e3c a4fb aa3c
00000080: 1352 da3b 4643 95bc d34f 323d c894 b13d
00000090: 99bb a93d 31e1 3ebb 2d5f f73c f85c 99bd
000000a0: d95f 81bb 8fca 113d 1961 4f3c ec2a 72bd
000000b0: 5dc9 51bd 0330 453d 4244 82bb 2f34 b23d
000000c0: 21f2 c43d a9cc 993c 8ae7 cc3d 5003 933d
000000d0: 6af2 aa3c a3dc ad3d 0aea 9a3d 7736 74bc
000000e0: a413 80bc 767a 66bd 05f6 83bd af65 843d
000000f0: 9575 9abd 0882 8f3d 36ba 963d 4f13 903d
00000100: fa88 39bc 016c a73d e717 913d 9f1f ccbb
00000110: c72e a0bc 0b61 cd3c c7fb 9e3d 0252 a33c
00000120: 8a04 3b3d 8769 803d 501b 4cbd bd0a d8bc
00000130: 749d 18bb 1a57 993d 1b2e 63bc 5936 a23d
00000140: 66ec 4e3d 0bea b13d d97b febb e35b 24bc
00000150: eed2 0cbd 0cb6 78bd f51c c63c bba6 3bbd
00000160: 6cd0 14bd c929 063b 0301 353d ebb4 353d
00000170: e9a4 d83c d9b3 25bc 2cdb e7bc 6c39 8c3d
00000180: 8e3c 60bd fd87 fbbc 2965 c93d 9d49 373c
00000190: 1dc8 dfbc 0e8b 0439 b67a 24bd bac7 febb
000001a0: a41f 083d 8fc4 02bd 7b73 a8bd ddaf 1abb
000001b0: 8d08 30bd accd e7bc 1dd4 b03c b282 2fbd
000001c0: e1bf 3dbc 9f45 d5bc 8660 93bd cd65 123d
000001d0: 5e2f 59bd 37ed f0bc 1a45 bf3d 08ff 833d
000001e0: dbe5 35bd b859 89bd 6040 ce39 f6ac 82bb
000001f0: 86c5 87bd 06a0 89bd ca92 c93c 4aa7 ba3d
-0.045830756 -0.08574815 0.0069948756 0.017023657 0.045486256 0.07760202 -0.071887866 -0.0017755612
0.044323694 0.034099944 0.041369922 0.060970537 0.090374045 -0.03594189 0.07303447 -0.009278283
-0.050364614 0.036697946 -0.019422863 -0.058336925 0.029535001 -0.011566582 -0.025754567 -0.044430736
-0.019849194 -0.044031773 -0.06721578 0.01374652 -0.0610275 0.09951216 0.015524405 0.020871945
0.006662616 -0.018220555 0.043533158 0.08670956 0.082877345 -0.0029125924 0.03019675 -0.074884355
-0.0039481935 0.035593566 0.012657427 -0.059122965 -0.051217426 0.04814149 -0.003975422 0.087013595
0.09616495 0.018774347 0.100051 0.07178366 0.020867545 0.08489349 0.07564171 -0.014905564
-0.015634365 -0.05626913 -0.06443409 0.06464707 -0.07541958 0.07007223 0.07359736 0.07034933
-0.011324162 0.08174897 0.07084637 -0.0062293555 -0.019553555 0.025070688 0.077628665 0.019936565
0.045658626 0.06270128 -0.049830735 -0.026372308 -0.0023287209 0.074873164 -0.013865973 0.07920522
0.050518416 0.08687218 -0.0077662286 -0.010031673 -0.034380846 -0.06072049 0.02418373 -0.045813303
-0.03633158 0.0020471683 0.044190418 0.04436199 0.026445823 -0.01011368 -0.028302751 0.0684689
-0.05474525 -0.030704493 0.09833748 0.011186984 -0.027317101 0.00012640303 -0.04015609 -0.007775274
0.0332333 -0.031925734 -0.08225151 -0.0023603358 -0.042976905 -0.028296314 0.021585518 -0.04284925
-0.011581392 -0.026034174 -0.07196145 0.035741616 -0.05302369 -0.029409988 0.09339352 0.06445128
-0.04440866 -0.067065656 0.00039339345 -0.0039879037 -0.066294715 -0.06719975 0.024606127 0.09113939

net.4.weight f4 [2, 128]
00000000: f755 843e e222 9e3e 7aac 323d 622d b53e
00000010: 1123 7cbe 9b7d ae3d df9a c03e 7cff b93b
00000020: 9b77 1c3e dfee 3f3e e8b1 00be 251d 30be
00000030: 672e 89be 4e03 863e a56d f03d ee05 003e
00000040: 1eda 87be 2b02 85be dfa8 313e f8ed 78be
00000050: 16c4 033e 4d31 16be f256 c93e e0b7 08be
00000060: cefd c33e afce eebd 6f92 543d bd38 8b3e
00000070: a408 603e 8327 5abe 4c29 e7bc cdf3 2f3e
00000080: 66b1 09be 1ef8 933e ec4d b63d e3aa 01be
00000090: cadc 3bbe 68a2 13be 1506 a6bd 22a2 323e
000000a0: d058 be3e 3545 12be 3f51 753d 7ec9 60be
000000b0: 5c86 8abe 1056 5cbe ac03 43be 6d08 4d3e
000000c0: 8795 3fbe 41ad 8dbe 8f78 25be c2f1 7bbe
000000d0: 7797 2e3e 933a 6b3e 38b7 e13c feb9 57be
000000e0: a44d cebd eadb 6dbe bd14 553e 9667 86be
000000f0: 1387 073e cf51 8abe d067 283e 739c f4bd
00000100: 788f d13d 34b0 243e 3cd5 303e 3fe6 1d3e
00000110: f6c2 8e3e 2b95 4f3d 6dfc 583e d44d e1bd
00000120: bd21 94bd a2e3 07be 26f4 a83e 20f3 373e
00000130: 9b40 813e 2f2f 403e 3c33 853e 5c52 2cbe
00000140: de43 28be 1794 6fbd 5a66 efbd f2e8 48be
00000150: 9271 84be a4d2 9f3e 7e42 de3c bbe1 62be
00000160: b0fd a5be 2c99 ab3d 94a1 36be d383 d93d
00000170: a44d cc3d 43df b63e f01f 6e3e 63a5 a83e
00000180: 25e3 b6be b3b8 c13d 614b fbbd f1b0 98be
00000190: 62ee c43e 0074 083e 0b0f acbd 49a0 0abc
000001a0: 6bc8 fcbd eaf9 0a3e 0261 b33b b7c5 be3c
000001b0: 0965 363e 18e4 14be fbb0 89bd bebf 21be
000001c0: c345 bf3e 7c43 6dbe 4010 8f3e 7c15 473e
000001d0: 53e0 01be 8b97 d93e 183d 26be 2e3a a53e
000001e0: d4a9 14be 32d9 cfbe 1004 0e3e 254b 9f3e
000001f0: 23d7 b2be 3dc6 303e c0e1 e03d 272a 073d
00000200: dc41 49be c7f1 cdbe afd4 d4bd 1901 a1be
00000210: bdad 1a3e 3891 45be 0a17 b6be c4a2 d93d
00000220: dbfe 3abe ad8b 68be 4cfe ce3d 09c2 823e
00000230: 1fbe 9f3e 233a 46be a370 52bd 1df4 87be
00000240: 59d4 bb3e 41ef 0f3e 26f7 79bd 40c5 953e
00000250: dc45 19bd 8e59 dd3d 634a 80be a39e 233e
00000260: 3ffd a5be bc2a af3d a0a1 f13c b7db 89be
00000270: df08 a9bd 7a80 533e d281 ff3d badf a0be
00000280: 7788 573e 5ff5 d1be b6cb 57be 9bf3 073e
00000290: b5c0 193e 23e7 373e b6d0 e23c 1036 1cbe
000002a0: bf14 bbbe e9e5 b03d 69d0 d5bd e263 773e
000002b0: 243e 133e 9b38 703e 3979 413e 0805 04be
000002c0: 47ac 273e 41cc 7e3e 1b5d 1e3e 37c0 993e
000002d0: 6d31 30be 880b abbd 50b3 93bd cc0a 2a3e
000002e0: 4327 b23d f25e 713e 2d5b 4dbe dfae e13d
000002f0: 0c50 dbbc 20c1 103e c55c 3bbe e6e9 fb3d
00000300: d728 35be 8bc1 4dbe 82b2 44bc a265 67bd
00000310: e8fe bcbe 985b 31be 0599 c8bd 0fdd ee3d
00000320: f7e2 763d b797 443e 8ad9 bcbe c44b 15be
00000330: 47ee 28be 2526 64be 144f c0be c1de 3c3e
00000340: 27d7 853e 3a3c 233c a0b2 8f3d f28b 293e
00000350: d21b 203e d286 77be 2c93 ebbd 00d4 993d
00000360: fa5a 273e 802f d3bd 95a5 3a3e ecee 7cbd
00000370: 2aec 24bd 7e3e cdbe 5bbf 86be fb21 d8be
00000380: b385 ac3e 683d cebd 40a0 e53d 3b35 b93e
00000390: 9bf4 a1be c96f 28be d008 fd3d 704c 02be
000003a0: f098 abbc 81f3 5dbe 722a bcbd 09ef 1bbe
000003b0: a0a9 37be dbf7 763e 1c24 6d3e c50a 4c3e
000003c0: b5a0 81be 3e67 1b3e 43ea 13be bd85 6cbe
000003d0: ca8d 4d3e 7272 b0be 82cb 673d 050a eabe
000003e0: 5829 5e3e b5ce c23e b82a b1bd 821a 99be
000003f0: 6238 ba3e 2609 3abe f9ca c7bd 0152 f83d
0.25846836 0.30885988 0.043621518 0.35386187 -0.24622752 0.08520051 0.37618157 0.005676208
0.15280001 0.18743466 -0.12567866 -0.17198618 -0.26793215 0.26174396 0.11739663 0.12502262
-0.26533598 -0.25978217 0.17349575 -0.24309528 0.1286777 -0.14667244 0.39324147 -0.13351393
0.38279575 -0.116605155 0.051897462 0.27191725 0.21878296 -0.21304135 -0.028217934 0.17182846
-0.13446578 0.28900236 0.08901581 -0.12662844 -0.18345943 -0.14417422 -0.08106629 0.17444661
0.37177134 -0.14284213 0.059891935 -0.21951863 -0.27055633 -0.21517205 -0.1904437 0.20022745
-0.18709384 -0.27671245 -0.1615927 -0.24603942 0.17049967 0.22971563 0.027553186 -0.21067044
-0.100734025 -0.23228422 0.20808692 -0.26250905 0.1323512 -0.2701554 0.16445851 -0.11943903
0.102324426 0.16082841 0.17268842 0.15419863 0.27883118 0.050679367 0.21190043 -0.11001173
-0.072329976 -0.13270429 0.3299877 0.17963839 0.25244603 0.18767999 0.2601565 -0.16828293
-0.1643214 -0.05849084 -0.11689444 -0.19620112 -0.25867897 0.31215394 0.027131315 -0.22156422
-0.3242011 0.083788246 -0.17835075 0.106208466 0.09975746 0.3571721 0.2325437 0.3293868
-0.35720173 0.09459057 -0.12270237 -0.29822496 0.38463122 0.133255 -0.08401307 -0.0084610665
-0.12342914 0.13571897 0.0054742107 0.023287637 0.1781198 -0.14540136 -0.067232095 -0.157958
0.3735791 -0.23170274 0.27942085 0.1944179 -0.12683229 0.4249843 -0.16234243 0.3227095
-0.1451791 -0.40595394 0.13868737 0.31112018 -0.3492976 0.17263122 0.109805584 0.032999184
-0.1965403 -0.40223524 -0.10392129 -0.3144615 0.15105338 -0.19293678 -0.35564452 0.10626748
-0.18261282 -0.22709532 0.10107097 0.25538662 0.31199738 -0.19358115 -0.05137695 -0.2655343
0.36685446 0.14056112 -0.061026715 0.29252052 -0.03742014 0.10808097 -0.25056753 0.15978484
-0.32419774 0.08553073 0.029496014 -0.26925442 -0.08253645 0.20654479 0.12475933 -0.3142069
0.21048151 -0.41007516 -0.21073803 0.13276522 0.15014918 0.17959265 0.027687412 -0.15254998
-0.36539266 0.08637602 -0.10440142 0.24159196 0.14379174 0.23459093 0.18893899 -0.12892544
0.16374312 0.24882604 0.15465204 0.3002946 -0.17206354 -0.08351809 -0.072119355 0.16605681
0.08698895 0.23571375 -0.20054312 0.11019682 -0.026771568 0.14136171 -0.18297108 0.12300472
-0.1769136 -0.20093362 -0.01200545 -0.05649341 -0.36913228 -0.17320096 -0.09794811 0.11663257
0.060275044 0.191985 -0.3688472 -0.14579684 -0.16497146 -0.22280176 -0.37560332 0.18444349
0.2614071 0.00996309 0.07016492 0.16557291 0.15635613 -0.24172524 -0.1150268 0.07511139
0.16343299 -0.10311794 0.18227227 -0.06175129 -0.040264286 -0.4008674 -0.26317868 -0.42213425
0.33695754 -0.10070306 0.11212206 0.36173424 -0.31631932 -0.16448893 0.123551965 -0.12724471
-0.02094695 -0.2167492 -0.09187783 -0.15227903 -0.179358 0.24117987 0.23158306 0.19925983
-0.25317922 0.15176103 -0.14444833 -0.23097892 0.2007362 -0.34462315 0.056590565 -0.4571077
0.21695459 0.3804833 -0.08650726 -0.29903036 0.36371142 -0.18167552 -0.09755511 0.12125016

net.4.bias f4 [2]
00000000: 3523 443d fa59 81bd
0.04788514 -0.0631599
