coup_nsfp/nfsp_coup_demo_best_agent_challenge.pt (torch, 84389 bytes, 6 tensors)

net.0.weight f4 [128, 26]
0	0x3dc971f7	0.0983619
1	0x3e55aeb3	0.20867424
2	0x3d77dc1f	0.06051266
3	0xbd904e29	-0.07046158
4	0xbd995542	-0.07486965
5	0xbdf47e65	-0.1193817
6	0x3bd8a113	0.0066109984
7	0x3af08daa	0.0018352766
8	0x3c0d2abf	0.0086161485
9	0xbdfc8d15	-0.12331597
10	0x3d21e10b	0.03952126
11	0x3e2857b9	0.16439714
12	0xbde9d82b	-0.11418184
13	0x3d75d007	0.060012843
14	0x3cc50768	0.024051383
15	0xbe92cf0e	-0.28673595
16	0x3e38252c	0.1798293
17	0xbc08d15b	-0.0083506955
18	0xbe1b8efe	-0.15191266
19	0xbe39c1ca	-0.18140331
20	0xbca32608	-0.019915596
21	0x3d328d77	0.043591943
22	0xbdf5a99d	-0.11995242
23	0xbe16667a	-0.14687529
24	0xbdfd49f2	-0.123676196
25	0x3dfa3431	0.12216986
26	0x3e3683f3	0.17823772
27	0x3e22529a	0.15851822
28	0x3d61d828	0.055137783
29	0x3dc4cbe3	0.09609201
30	0x3d4c7569	0.04991666
31	0xbde7ecec	-0.11324486
32	0x3c5c3bbe	0.013441978
33	0x3d8a74b2	0.06760539
34	0xbd3f28df	-0.046669837
35	0x3a91b7f9	0.001111745
36	0x3c913a99	0.017728137
37	0x3e47196f	0.19443296
38	0xbda5a6b8	-0.0808844
39	0xbd345f9e	-0.0440365
40	0xbe09c15a	-0.13452664
41	0x3e303202	0.17206576
42	0x3e170af5	0.14750274
43	0xbcd9133c	-0.02649843
44	0x3e33eac0	0.17570019
45	0x3e1c17a9	0.152434
46	0xbda00740	-0.07813883
47	0xbd1ec050	-0.038757622
48	0x3c21079f	0.009828477
49	0xbe5414a1	-0.20710994
50	0xbd8e2fd6	-0.06942718
51	0x3e2f6413	0.17128019
52	0xbbf6b9d4	-0.0075294767
53	0xbd767857	-0.06017336
54	0x3e3a026f	0.18164991
55	0x3d11b307	0.035571124
56	0x3dfe9f8e	0.124327764
57	0x3e30f05f	0.17279194
58	0xbdfb6804	-0.12275699
59	0x3db03c44	0.08605245
60	0xbce3b12f	-0.027794449
61	0x3dd5df1a	0.10442944
62	0xbe231df0	-0.15929389
63	0x3cebc044	0.028778203
64	0xbdf814bb	-0.12113329
65	0xbd0a829b	-0.03381596
66	0xbd2f3728	-0.04277721
67	0xbd6a0b62	-0.05713976
68	0x3e2a3724	0.16622597
69	0x3d196561	0.037450198
70	0x3dc4bef6	0.096067354
71	0xbe567afa	-0.2094535
72	0x3d3c54a5	0.04597916
73	0x3e710d59	0.23540248
74	0x3e25dc3f	0.16197298
75	0x3dece6f0	0.11567485
76	0xbe155ae1	-0.14585449
77	0x3de4f8ed	0.11180291
78	0xbbff21d2	-0.007786014
79	0x3cc0bb0c	0.02352669
80	0xbe49584b	-0.19662587
81	0xbe50e683	-0.20400433
82	0x3ce23fa5	0.027618239
83	0xbdb83028	-0.0899356
84	0xbe246db7	-0.16057478
85	0x3e1564af	0.14589189
86	0xbd7130e3	-0.058884513
87	0xbda411a2	-0.08011176
88	0x3e0aa352	0.13538864
89	0xbe67249f	-0.22572564
90	0x3d27808d	0.04089408
91	0x3e316a5a	0.17325726
92	0x3d21f108	0.039536506
93	0xbe753074	-0.23944265
94	0xbd9e718a	-0.077364996
95	0x3e366440	0.1781168
96	0x3d23d3ed	0.03999703
97	0xbe4a11ba	-0.19733325
98	0x3e10172b	0.14071338
99	0x3e5a213b	0.21301739
100	0xbcccc913	-0.024998223
101	0xbd9faf2b	-0.077970825
102	0xbe03f92a	-0.12888017
103	0x3d091b91	0.033473555
104	0x3e3d1e97	0.184687
105	0xbd89c904	-0.06727794
106	0xbdf06ee3	-0.117399
107	0xbe311733	-0.17294006
108	0x3dfe41bd	0.12414882
109	0x3e365471	0.1780565
110	0xbd798d67	-0.060925867
111	0x3e19dce0	0.15025663
112	0x3e068dc3	0.13140015
113	0x3e33b3c0	0.17549038
114	0x3d54bf05	0.051939983
115	0xbe34c3d4	-0.17652828
116	0x3ddebf02	0.108762756
117	0xbc4bd1f9	-0.012440198
118	0x3de410f5	0.11136047
119	0xbd798415	-0.06091698
120	0x3c727622	0.014798673
121	0x3c999640	0.018748403
122	0x3d8e740a	0.069557264
123	0xbe3465b1	-0.17616917
124	0xba9fa655	-0.0012180308
125	0xbe10c9b2	-0.1413944
126	0x3e30347d	0.17207523
127	0x3e7436ea	0.23849073
128	0x3a62a18e	0.00086452893
129	0x3e392a11	0.18082453
130	0x3e289b59	0.1646551
131	0xbe4331e1	-0.19061996
132	0x3dd42c2f	0.1035999
133	0xbd52ab4f	-0.051432904
134	0x3c126b39	0.008936697
135	0xbe28e07b	-0.16491883
136	0xbe286777	-0.16445719
137	0x3dc66ac4	0.09688333
138	0x3e391a8f	0.18076538
139	0xbcbc4b44	-0.022985108
140	0xbdb4226f	-0.0879563
141	0xbe40cab3	-0.18827324
142	0x3da662d0	0.08124316
143	0xbdc0a0ca	-0.09405668
144	0x3e302be3	0.17204241
145	0x3d892687	0.06696802
146	0xbd806273	-0.06268778
147	0xbdcd8069	-0.10034258
148	0xbe107f33	-0.14111023
149	0x3e1f582e	0.15560982
150	0xbe5f9cb5	-0.21837123
151	0x3c277a41	0.010222019
152	0xbd9d8878	-0.07692045
153	0xbd9cde68	-0.07659608
154	0xbcc6e052	-0.024276886
155	0xbd245939	-0.04012415
156	0x3dce573a	0.10075231
157	0xbdf7e565	-0.121043004
158	0x3da44d6e	0.08022581
159	0xbdf35fc4	-0.118835
160	0x3e02cf88	0.1277448
161	0xbb9c755c	-0.0047747325
162	0xbcd77abe	-0.026303645
163	0xbde2b4e8	-0.110696614
164	0xbcd5e117	-0.026108308
165	0x3e0e7a5f	0.13913868
166	0xbd0ca6ad	-0.034338642
167	0x3e4f08a8	0.20218146
168	0x3e0b09be	0.13577935
169	0x3e10fb91	0.14158465
170	0xbe85c224	-0.2612468
171	0xbcdcfaca	-0.026975054
172	0x3e5317ff	0.20614623
173	0xbdb767fe	-0.08955382
174	0xbe3d8b8b	-0.18510263
175	0xbe7a326f	-0.24433301
176	0xbe11e52d	-0.1424758
177	0x3e18714a	0.14886966
178	0x3e4045e7	0.18776666
179	0x3e2346c4	0.15944964
180	0x3df0e948	0.11763245
181	0xbd227978	-0.039666623
182	0x3c91f09a	0.017814923
183	0x3e56efd2	0.20989922
184	0x3e5585e0	0.2085185
185	0xbe1f0122	-0.15527776
186	0x3df576a0	0.119855165
187	0x3d36fb7e	0.044673435
188	0xba1349ae	-0.0005618584
189	0x3e061602	0.13094333
190	0xbdcf33db	-0.101173125
191	0xbe1dbca9	-0.15404
192	0xbe4bcb5a	-0.19901791
193	0x3dd7a1d3	0.105289124
194	0xbe3b7393	-0.18305807
195	0xbcb762de	-0.02238601
196	0xbd6b97e5	-0.057517905
197	0xbe497ca3	-0.19676451
198	0x3e03b606	0.12862405
199	0x3c14a922	0.0090735275
200	0x3e34f02b	0.17669742
201	0x3e5b99f2	0.21445444
202	0xbe503f50	-0.20336652
203	0x3e0a1ad2	0.13486794
204	0x3e12730f	0.14301704
205	0xbdea10d4	-0.11428991
206	0x3c1d43d3	0.00959869
207	0x3de21abe	0.11040257
208	0x3c55f8d3	0.013059813
209	0x3e26cdcb	0.16289441
210	0xbdb58fb9	-0.088653035
211	0xbe05eb5d	-0.13078065
212	0x3d9b409e	0.07580684
213	0xbdd57cc4	-0.10424188
214	0xbca59473	-0.020212388
215	0x3d94c29e	0.07263683
216	0x3c9205be	0.017825004
217	0xbdb11a71	-0.086476214
218	0xbe7d00a8	-0.24707282
219	0x3d9b7e8a	0.07592495
220	0xbe316002	-0.1732178
221	0xb9f1d914	-0.00046128838
222	0x3e434c40	0.19072056
223	0x3e4ec623	0.2019277
224	0xbe2047f5	-0.1565245
225	0xbe31caa8	-0.17362463
226	0x3e1e2a1a	0.15445748
227	0xbe363bf6	-0.17796311
228	0xbd952428	-0.07282287
229	0x3daee444	0.08539632
230	0xbe3d28ed	-0.18472643
231	0x3ca36355	0.019944826
232	0x3dcafe6d	0.09911809
233	0xbe0ea1b7	-0.13928877
234	0xbd8f3b93	-0.06993785
235	0xbcd6cfd6	-0.02622215
236	0x3cb3ea7c	0.021962397
237	0xbd2e64fa	-0.042576768
238	0x3e3c8c37	0.18412863
239	0xbe2353d7	-0.15949951
240	0x3c8e1d21	0.017347874
241	0x3dc361af	0.09540116
242	0x3e169ff0	0.14709449
243	0x3db5b3fc	0.0887222
244	0x3d82e1cd	0.06390724
245	0xbe048dbb	-0.12944691
246	0xbe46735e	-0.19379947
247	0xbdb6d297	-0.089268856
248	0x3c24092d	0.010011953
249	0x3d992b45	0.07478956
250	0x3e693829	0.2277533
251	0xbd8a61c2	-0.06756927
252	0xbdabaa7a	-0.08382125
253	0x3d8659c3	0.065600894
254	0x3e0ef7f2	0.13961771
255	0xbdb407ff	-0.08790588

net.0.bias f4 [128]
0	0xbd3340d8	-0.04376301
1	0xbd55a84a	-0.052162446
2	0x3cff95a9	0.031199293
3	0xbd926877	-0.07148831
4	0x3e08b778	0.13351238
5	0xbe341ad5	-0.1758836
6	0xbe096186	-0.13416108
7	0x3ca34c56	0.01993386
8	0xbd3dac85	-0.046307106
9	0x3dbece11	0.09316648
10	0x3d6aa392	0.0572849
11	0x3e161d30	0.14659572
12	0xbe2f295d	-0.17105623
13	0xbc9cfa3d	-0.019162292
14	0xbc84189c	-0.016125016
15	0xbc8aa7ee	-0.016925778
16	0xbcef869b	-0.02923899
17	0x3e2814f5	0.16414244
18	0xbdf15005	-0.11782841
19	0x3e22b57e	0.15889546
20	0x3e27c48f	0.16383575
21	0x3e064f38	0.13116157
22	0x3cf8e2b1	0.030381532
23	0x3defb63f	0.117046826
24	0xbdf58dd6	-0.11989944
25	0x3e0a48f4	0.13504392
26	0xbd6f0b8f	-0.058360633
27	0xbda0d3e1	-0.07852913
28	0x3d857cb0	0.06517923
29	0x3d751a78	0.059839696
30	0xbdf17432	-0.117897406
31	0xbcdd3f4d	-0.027007723
32	0x3e2c0474	0.16798574
33	0x3ddf85e6	0.10914211
34	0xbd9aa91a	-0.07551785
35	0xbded95a3	-0.116008066
36	0x3dc342c8	0.09534222
37	0xbdd5fff3	-0.10449209
38	0xbd36cb26	-0.04462733
39	0xbccaf50d	-0.024775052
40	0x3e4befd6	0.19915709
41	0x3e39ebfb	0.18156426
42	0x3d39ab8a	0.045329608
43	0x3cbbde71	0.022933217
44	0x3e1e7f5d	0.15478273
45	0xbd3c314e	-0.045945458
46	0x3e5f8e70	0.2183168
47	0xbdd3123a	-0.10306211
48	0x3d529b19	0.051417444
49	0x3d9b685f	0.075882666
50	0xbd815b97	-0.063162975
51	0x3db71cc1	0.08941031
52	0x3d83719b	0.06418153
53	0x3dee7da5	0.116450585
54	0x3e3a1b24	0.18174416
55	0xbe0c3466	-0.13691863
56	0xbd9bd654	-0.07609239
57	0x3d27e228	0.040987164
58	0x3d8910c0	0.06692648
59	0xbe470c64	-0.1943832
60	0x3dbbe16e	0.09173857
61	0xbd4d7a58	-0.050165504
62	0xbd781009	-0.060562167
63	0xbdafdfed	-0.08587632
64	0xbcc07878	-0.023494944
65	0x3d80f5a9	0.06296856
66	0x3d8f8102	0.07007028
67	0x3e331eb7	0.17492186
68	0xbe00c502	-0.12575153
69	0x3cba08a4	0.022709198
70	0x3dfa5afd	0.12224386
71	0x3e352fbb	0.17693989
72	0x3e06b6ca	0.13155666
73	0x3ca86287	0.020554794
74	0xbde18d86	-0.110133216
75	0xbc476083	-0.012169006
76	0xbe089f91	-0.1334212
77	0xbd958844	-0.07301381
78	0x3d2c6b59	0.042094562
79	0x3ace5ccf	0.0015744212
80	0x3e1ad5f8	0.15120685
81	0xbda07346	-0.07834487
82	0x3e2fa820	0.17153978
83	0x3b55367c	0.0032533696
84	0xbdd14a29	-0.10219223
85	0x3dd3cc22	0.103416696
86	0x3e0b007b	0.13574402
87	0x3d6de06f	0.058075365
88	0x3d680f16	0.056655012
89	0xbd09b469	-0.03361932
90	0x3cf17976	0.029476862
91	0x3dca0b22	0.09865405
92	0x3d8bc354	0.06824365
93	0x3e029171	0.12750794
94	0x3d49d085	0.049271125
95	0x3e3802de	0.17969844
96	0xbe14de0f	-0.14537834
97	0x3da27c68	0.07933885
98	0xbbfff8b9	-0.0078116325
99	0x3de1e61f	0.1103022
100	0xbdc8ec92	-0.09810747
101	0x3e38e814	0.18057281
102	0x3d723ca2	0.059139855
103	0x3e32a033	0.17443924
104	0xbdaecc6e	-0.085350856
105	0x3c62f994	0.013853449
106	0x3e24e2d3	0.16102152
107	0x3e2fa858	0.17154062
108	0xbcc9e884	-0.024647005
109	0xbe1b64e6	-0.15175208
110	0x3ddf3951	0.10899604
111	0xbdf716f9	-0.120649286
112	0xbd264f98	-0.04060325
113	0x3e1df995	0.15427239
114	0xbe27830b	-0.16358583
115	0x3d1828b6	0.0371482
116	0x3e20f07a	0.15716735
117	0xbd8d4a43	-0.0689893
118	0x3d2b8211	0.041872088
119	0x3dcc4c59	0.099755
120	0xbde252e6	-0.11050968
121	0xbd1a3291	-0.03764588
122	0x3dfc2d28	0.123133
123	0xbe2fbaaf	-0.17161058
124	0xbce2e410	-0.02769664
125	0xbe25b55e	-0.16182467
126	0xbe0d7061	-0.138124
127	0x3dcb95e4	0.09940699

net.2.weight f4 [128, 128]
0	0xbcd82758	-0.026385948
1	0x3d973b6d	0.073843814
2	0x3d182ae8	0.037150294
3	0x3d81e2b0	0.06342065
4	0x3da0f3ef	0.07859027
5	0x3dc8535d	0.09781525
6	0x3d22fd8e	0.03979259
7	0x3d69afe3	0.057052504
8	0x3dcd690e	0.10029803
9	0x3d921835	0.071335234
10	0x3d4f5cbb	0.050625544
11	0xbbfb156c	-0.007662466
12	0xbd46500f	-0.048416194
13	0xbd77f980	-0.060540676
14	0xbdae6292	-0.085148945
15	0xbe2a3e5d	-0.16625352
16	0x3cdcd232	0.026955698
17	0x3d97018e	0.073733434
18	0x3e3b8a5a	0.18314496
19	0xbcc3f216	-0.023919147
20	0x3d4e2e5d	0.050337184
21	0xbdb547b2	-0.088515654
22	0x3dd5e041	0.10443164
23	0xbd3c7045	-0.046005506
24	0x3e0a152e	0.13484642
25	0xbe041c46	-0.1290141
26	0x3dcac967	0.09901696
27	0x3d64bbfd	0.055843342
28	0x3d741c88	0.059597522
29	0x3d61d8d9	0.055138443
30	0xbd2c6381	-0.04208708
31	0xbb8826fe	-0.004155039
32	0x3d34f4c7	0.04417875
33	0x3bf7b9d1	0.007559993
34	0xbc16d1fe	-0.0092053395
35	0xbd59ee28	-0.05320564
36	0xbe2db23d	-0.16962524
37	0xbd2efeb5	-0.042723376
38	0x3d6d4e60	0.057936072
39	0x3dc2f728	0.095197976
40	0x3d91daf6	0.071218416
41	0xbce2f546	-0.027704846
42	0xbd722cb2	-0.059124656
43	0x3c8485dd	0.016177112
44	0x3d8d7391	0.06906808
45	0x3d93adb0	0.07210863
46	0xbced28f0	-0.028950185
47	0x3dc1ab44	0.094564945
48	0x3d27e27b	0.040987473
49	0xbdf18d70	-0.11794555
50	0x3c38ed9c	0.011287119
51	0xbc56a13b	-0.013099964
52	0x3d4483a5	0.04797711
53	0x3cd5fef5	0.02612255
54	0xbc5ddfe6	-0.013542151
55	0x3e0fac4a	0.14030567
56	0x3d76a80c	0.060218856
57	0x3d6ae5a3	0.057347905
58	0x3da8744d	0.082253076
59	0xbd51d678	-0.051229924
60	0xbdeb2422	-0.11481501
61	0xbb679d75	-0.0035341654
62	0xba98f71d	-0.0011670325
63	0x3db9ad43	0.0906625
64	0xbbbedd71	-0.0058247377
65	0x3c80f9ab	0.015744051
66	0x3dafebab	0.08589872
67	0xbdfa3ee7	-0.12219029
68	0x3d988dc7	0.07448917
69	0xbd8ad05e	-0.06778024
70	0x3d03c8f4	0.032174066
71	0x3d20e9f1	0.039285604
72	0xbd1c045a	-0.038090087
73	0xbcd85a18	-0.026410148
74	0x3d55fe51	0.05224449
75	0x3d841107	0.0644856
76	0x3df902a8	0.1215871
77	0xbd30d5a9	-0.043172512
78	0xbb74720c	-0.0037299423
79	0x3d61cb54	0.05512555
80	0x3d94026d	0.07227025
81	0xbd91773b	-0.071028195
82	0x3d761e3d	0.06008743
83	0xbdafa70d	-0.08576784
84	0xbd3fa961	-0.04679239
85	0xbd824c53	-0.06362214
86	0x3d879eb0	0.06622064
87	0x3d2f437b	0.042788964
88	0xbd3b3501	-0.045704845
89	0x3d78d34b	0.06074838
90	0x3d11720d	0.035509158
91	0xbd922d78	-0.07137579
92	0xbd422bf7	-0.04740521
93	0x3d8f059f	0.06983494
94	0xbd3539d5	-0.044244606
95	0xbb4729aa	-0.0030389824
96	0x3da6a281	0.08136464
97	0xbc0d2c07	-0.008616454
98	0xbd691843	-0.056907903
99	0xbcc157c9	-0.02360143
100	0x3dbf55ea	0.09342559
101	0x3d412c26	0.047161244
102	0xbc84b2e2	-0.01619858
103	0xbd007fa6	-0.031371735
104	0x3d623388	0.055224925
105	0x3dcb7566	0.09934501
106	0x3ca59d2b	0.020216545
107	0xbd8ad604	-0.067791015
108	0xbca54776	-0.020175677
109	0x3d903e4e	0.07043134
110	0xbbb7f42a	-0.0056138234
111	0x3e0be297	0.13660656
112	0xbc98021d	-0.018555695
113	0x3c172ee2	0.009227486
114	0x3ce1eb2f	0.027577965
115	0x3cb66688	0.022265688
116	0x3a89c0b1	0.0010509697
117	0xbcb51598	-0.022105023
118	0xbbc37a1b	-0.005965484
119	0x3d03aee3	0.032149207
120	0x3d0af5f2	0.033925958
121	0xbd4f0a62	-0.05054701
122	0x3d543457	0.051807728
123	0xbd68248a	-0.05667547
124	0x3b411bb8	0.0029465985
125	0xbdafa7e3	-0.08576944
126	0xbd9482ab	-0.072514854
127	0x3a5b39b3	0.0008362785
128	0xbd72e20c	-0.059297606
129	0xbc9142a1	-0.017731966
130	0x3dbe617a	0.09295936
131	0xbb99ab94	-0.004689643
132	0xbccce03a	-0.025009263
133	0x3dcffe10	0.101558805
134	0xbbc85353	-0.0061134486
135	0x3dc83c84	0.097771674
136	0xbada4010	-0.0016651172
137	0x3d08c42a	0.0333902
138	0x3ddde6ce	0.10835038
139	0xbcff7d65	-0.031187722
140	0x3d5ac829	0.053413544
141	0xbca14a9b	-0.019688895
142	0xbdf34ddf	-0.11880087
143	0xbc8873cc	-0.016656779
144	0xb9c4ce15	-0.00037537576
145	0x3d834bdb	0.06410953
146	0x3e5575e6	0.20845756
147	0xbd7902c5	-0.060793657
148	0x3d732bda	0.059367992
149	0x3cdd39fb	0.027005186
150	0x3ddc36bf	0.107526295
151	0x3dc2caa0	0.09511304
152	0x3e029daf	0.12755464
153	0xbde28dd8	-0.11062211
154	0x3e0edefd	0.13952251
155	0xbd05f6ab	-0.032705944
156	0x3d640950	0.055672944
157	0xbcbce9d1	-0.023060711
158	0x3d25e235	0.04049893
159	0xbd8b44f4	-0.06800261
160	0xbb3c6148	-0.0028744508
161	0x3e34721c	0.17621654
162	0xbc5acbc6	-0.013354247
163	0x3a8f24d3	0.0010921009
164	0xbdc55b96	-0.09636609
165	0x3d132b6b	0.03593008
166	0xbdc03f9c	-0.093871325
167	0xbcf24191	-0.02957228
168	0xbcc93848	-0.02456297
169	0xbd010ec2	-0.031508215
170	0x3d605b74	0.054774716
171	0x3da4326e	0.08017431
172	0x3d8f679a	0.07002182
173	0x3d233c35	0.03985234
174	0xbdce8e96	-0.1008579
175	0x3c684326	0.014176166
176	0xbcdc0f0e	-0.026862647
177	0x3bc72fed	0.0060787112
178	0xbd7b6805	-0.061378498
179	0x3d632cf8	0.055462807
180	0x3d8d27a2	0.06892325
181	0xbd25df10	-0.040495932
182	0x3da699c5	0.08134798
183	0x3cb58316	0.022157233
184	0x3d873f39	0.06603856
185	0xbc99bfbf	-0.01876819
186	0xbd35c940	-0.04438138
187	0xbd85d8bc	-0.065354794
188	0x3b6b71d6	0.0035926006
189	0x3c92281f	0.017841397
190	0x3cbb4fe6	0.022865247
191	0x3c1de362	0.009636732
192	0x3d3dadb0	0.04630822
193	0x3cc18be2	0.023626272
194	0xbb2ec55d	-0.002666793
195	0xbdc233d0	-0.09482539
196	0x3d8de1ab	0.069278084
197	0x3dc02dc1	0.09383727
198	0xbd92f071	-0.07174767
199	0x3d5ae282	0.05343867
200	0xbaed8631	-0.0018121657
201	0x3d55d3c8	0.052203923
202	0x3baa32e2	0.005194054
203	0x3d33c0b8	0.043884963
204	0x3e2df3a0	0.16987467
205	0x3dbfe398	0.09369582
206	0xbe109ae2	-0.14121583
207	0x3c42670c	0.011865389
208	0xbd14f73c	-0.036368594
209	0xbda80380	-0.082037926
210	0xbd74be3b	-0.05975173
211	0xbd1c1b52	-0.038111992
212	0xbd8e87fd	-0.069595315
213	0x3d1557fc	0.03646086
214	0x3d82274e	0.06355153
215	0x3c368c99	0.0111419195
216	0xbc7e1be9	-0.015509584
217	0x3e00161c	0.12508434
218	0xbd9bdbd0	-0.07610285
219	0xbd983d1b	-0.0743353
220	0x3d91a7f1	0.071121104
221	0x3da7156d	0.081583835
222	0x3cbf7db9	0.023375379
223	0xbc23b7b2	-0.009992527
224	0x3d85c396	0.06531446
225	0x3c5ba3fd	0.013405797
226	0x3d4295f7	0.0475063
227	0x3caaec59	0.020864652
228	0x3d0f8281	0.035036568
229	0x3e4d0074	0.20019704
230	0xbdee45e3	-0.116344236
231	0x3cb231c5	0.021752248
232	0x3ca54591	0.020174773
233	0x3db385d9	0.08765764
234	0x3d895776	0.06706135
235	0x3dbb5c40	0.09148455
236	0xbd8b7f89	-0.06811435
237	0xbd071283	-0.03297664
238	0x3d197800	0.037467957
239	0x3e5fb653	0.21846895
240	0x3d8f17ce	0.06986962
241	0xbb281e24	-0.002565273
242	0xbc2d7c46	-0.010588711
243	0xbd862c7d	-0.06551454
244	0xbcb7d0e2	-0.02243847
245	0x3d5a967b	0.053366166
246	0xbc9bbe1c	-0.01901155
247	0xbca15124	-0.019692011
248	0xbd987618	-0.074443996
249	0x3cb8a139	0.022537814
250	0x3dcbbb63	0.099478506
251	0xbd2e803a	-0.042602755
252	0xbd8864ab	-0.06659826
253	0xbd83d2ef	-0.06436717
254	0xbcd17ea3	-0.02557308
255	0xbdc0583a	-0.09391828

net.2.bias f4 [128]
0	0x3d9a9972	0.075487986
1	0xbd6214a3	-0.055195462
2	0xbd23aa53	-0.039957356
3	0xbcde2bfa	-0.027120579
4	0x3d87a40d	0.06623087
5	0xbda9b8a3	-0.0828717
6	0x3d366592	0.04453046
7	0xbce3cde1	-0.027808132
8	0xbc9fedf5	-0.019522646
9	0x3d029be7	0.03188696
10	0xbd99ebf7	-0.0751571
11	0xbd974efc	-0.07388112
12	0x3cb1067c	0.021609537
13	0xbd253bf8	-0.040340394
14	0xbd94af6d	-0.07260022
15	0x3d07c18d	0.03314357
16	0xbdae476f	-0.085097186
17	0xbc2a9f76	-0.010413995
18	0xbd6e0c8f	-0.058117446
19	0x3d8f625c	0.070011824
20	0x3cf0b6c2	0.02938402
21	0xbd0c9174	-0.034318402
22	0x3b94bd91	0.0045391996
23	0xbcf22ce1	-0.029562416
24	0x3d604fdf	0.05476367
25	0x3cc0c315	0.023530522
26	0xbd4905cf	-0.049077805
27	0xbd768447	-0.060184743
28	0x3be28942	0.006913335
29	0x3b9e59ad	0.0048324675
30	0xbd225159	-0.03962836
31	0x3da76a8f	0.08174621
32	0xbd1c4339	-0.038150046
33	0xbcbf14cf	-0.023325352
34	0x3c4da2d7	0.012551031
35	0x3db364d8	0.08759469
36	0xbc67b252	-0.014141636
37	0xbc5f8c0d	-0.013644231
38	0x3d6dd8ab	0.05806796
39	0x3cf62cc5	0.030050645
40	0xbcd764a8	-0.026293114
41	0xbcfe276d	-0.031024659
42	0xbd0614b4	-0.032734588
43	0x3d43e434	0.047825053
44	0x3a108aec	0.0005513865
45	0xbdb50871	-0.08839501
46	0xbd3f5acc	-0.04671745
47	0xbdc93e97	-0.09826391
48	0xbd9537b9	-0.07286019
49	0x3caf039e	0.02136403
50	0xbd133182	-0.035935886
51	0xbdb82e85	-0.08993248
52	0x3d428473	0.047489595
53	0xbd194d7a	-0.037427403
54	0xbd75b887	-0.059990432
55	0xbd7e037f	-0.062015053
56	0x3d86b066	0.06576614
57	0xbc403012	-0.011730211
58	0x3cd5921d	0.026070649
59	0xbd17e9e0	-0.037088275
60	0x3d366bb9	0.044536326
61	0x3cf67557	0.030085249
62	0xbd82fa69	-0.06395418
63	0xbcb9e526	-0.022692274
64	0xbc7b6cfc	-0.015345808
65	0xbd2fe4d5	-0.04294284
66	0x3c85b2c8	0.016320601
67	0xbd663067	-0.056198504
68	0x3c538e0d	0.0129122855
69	0x3bcd7d4d	0.0062710405
70	0x3d050007	0.03247073
71	0xbb9de830	-0.0048189387
72	0x3d860298	0.065434635
73	0xbcadc6b4	-0.021212913
74	0x3c0b7843	0.008512559
75	0xbdba8d73	-0.091090105
76	0x3cb818db	0.02247279
77	0xbd3f9800	-0.046775818
78	0x3db79e71	0.08965767
79	0xbd15e15b	-0.03659187
80	0x3cf78a3d	0.030217284
81	0x3c6a9cf9	0.014319652
82	0x3db8f73c	0.09031531
83	0xbcd2b0be	-0.025719043
84	0xbd2062d5	-0.039156754
85	0x3d820fdb	0.063506804
86	0xbd2b0d0d	-0.041760493
87	0xbc92e882	-0.017933134
88	0xbd1f2f15	-0.03886326
89	0xbd2ef7c9	-0.042716775
90	0x3b1eb436	0.00242163
91	0x3d862628	0.065502465
92	0xbda8315d	-0.0821254
93	0xbd963ed1	-0.073362
94	0xbd93dbe1	-0.07219673
95	0xbca2c512	-0.019869361
96	0xbd6cf8a2	-0.057854302
97	0x3c35d471	0.011098013
98	0x3d3f5c36	0.0467188
99	0x3d667ee5	0.05627336
100	0xbd5cd2f0	-0.053912103
101	0x3bb5d1d5	0.0055486956
102	0xbd7804da	-0.0605515
103	0xbc5ca90d	-0.013468039
104	0x3db30079	0.087403245
105	0x3da019fa	0.07817455
106	0x3d1206a1	0.035650853
107	0xbcddbf45	-0.027068743
108	0xbd834ed5	-0.064115204
109	0x3c05e808	0.008172996
110	0x3d89d80e	0.06730662
111	0xbc96943e	-0.018381234
112	0x3d1f76b6	0.03893157
113	0xbd4982e2	-0.049197085
114	0xbc334c29	-0.010943451
115	0xbcbe6177	-0.023239834
116	0x3d9f3497	0.077737026
117	0xbcb70661	-0.022341909
118	0x3d6fae3c	0.058515772
119	0xbd9e78d4	-0.0773789
120	0x3d0d1a34	0.034448817
121	0x3b6dff92	0.0036315662
122	0x3d801375	0.06253711
123	0x3d571152	0.052506752
124	0xbd9572d5	-0.07297293
125	0xbd0cd3d4	-0.034381703
126	0x3cef9887	0.029247535
127	0xbd5c5fd4	-0.053802326

net.4.weight f4 [2, 128]
0	0xbb94090c	-0.00451768
1	0x3d764686	0.06012585
2	0xbe83f3cc	-0.2577194
3	0xbda17545	-0.078836955
4	0xbdc7e9c4	-0.09761384
5	0xbdcaa27c	-0.09894273
6	0x3d82ffeb	0.06396469
7	0x3e562b3c	0.2091493
8	0xbe67e8c0	-0.22647381
9	0xbdd75368	-0.10513955
10	0x3e0763db	0.13221686
11	0xbe6269fc	-0.22110742
12	0xbe3e1f0c	-0.18566531
13	0x3e712d4e	0.23552439
14	0x3ce51139	0.027962314
15	0x3d001314	0.031268194
16	0x3ddb1e81	0.106991775
17	0x3e15377d	0.14571948
18	0xbe12904c	-0.14312857
19	0xbdcd7732	-0.100325
20	0xbe1ba169	-0.15198292
21	0x3da428ee	0.08015619
22	0xbe2effc0	-0.17089748
23	0x3e0ea2ec	0.13929337
24	0x3dbc7cd9	0.092035
25	0x3d434350	0.047671616
26	0xbe4bdc60	-0.19908285
27	0xbe65187f	-0.22372626
28	0xbd3dd98e	-0.046350054
29	0xbe4f45f3	-0.20241527
30	0x3e933d27	0.28757593
31	0x3ccc6eb7	0.024955137
32	0xbdf6472c	-0.12025294
33	0x3dcf5be8	0.101249516
34	0x3ddf1061	0.10891796
35	0x3dc21092	0.09475817
36	0xbe2820f4	-0.1641882
37	0xbc584642	-0.0132003445
38	0xbe204dee	-0.15654728
39	0x3e30e6ab	0.17275493
40	0x3ca67efb	0.02032422
41	0xbde1301a	-0.10995503
42	0x3d9f35ca	0.07773931
43	0x3dc72e37	0.09725612
44	0x3dd7f7f9	0.10545344
45	0x3e667c1b	0.2250828
46	0x3d7ead57	0.06217703
47	0x3d2a766c	0.041616842
48	0xbd2ab50b	-0.041676562
49	0xbb805d16	-0.0039173467
50	0x3e639eb4	0.22228509
51	0xbd815ff7	-0.06317132
52	0x3dfdebed	0.12398515
53	0xbe112da2	-0.14177564
54	0x3e4878eb	0.19577377
55	0x3db2c883	0.08729651
56	0xbe130fee	-0.14361545
57	0x3e6e1ee1	0.23253967
58	0x3d9f22e3	0.07770326
59	0x3e17ade1	0.14812423
60	0x3e4e8e41	0.20171453
61	0xbe3d4dd4	-0.1848672
62	0x3e4690be	0.19391152
63	0x3d6c4485	0.057682533
64	0xbe390dcc	-0.1807167
65	0x3c07291b	0.008249546
66	0x3ea4de6d	0.32200947
67	0x3ea9bf66	0.33153838
68	0x3d7b2b96	0.061320864
69	0x3e25247c	0.16127199
70	0xbe690450	-0.22755551
71	0xbe147704	-0.14498526
72	0xbe05e03b	-0.13073818
73	0x3c5c7de6	0.013457751
74	0x3e4b54b0	0.19856524
75	0xbe21732c	-0.15766591
76	0xbcf86cf6	-0.030325394
77	0xbd8708c8	-0.06593472
78	0xbe87feb5	-0.26561514
79	0x3e55adc7	0.20867072
80	0xbde26303	-0.11054041
81	0xbe2124c5	-0.15736683
82	0xbcc2b8ad	-0.0237697
83	0x3d102735	0.03519364
84	0x3e4e1d44	0.20128351
85	0x3d92431a	0.07141705
86	0x3e2a4905	0.16629417
87	0xbdc1cd8d	-0.09463034
88	0xbe96d2de	-0.29457754
89	0x3e0f4252	0.13990143
90	0x3d2044d5	0.039128143
91	0xbdaeaca9	-0.08529026
92	0x3e3e4339	0.18580331
93	0x3d887d2c	0.066645
94	0x3dec9ea2	0.11553694
95	0x3e11cc8f	0.14238189
96	0x3b5199f9	0.0031982644
97	0x3e111704	0.14168936
98	0xbe1e2855	-0.15445073
99	0xbe39a2d5	-0.18128522
100	0xbe64a083	-0.22326855
101	0xbe59a927	-0.21255933
102	0xbe8d93f5	-0.27651945
103	0xbe288012	-0.16455105
104	0x3e2d79db	0.16941015
105	0xbdd80196	-0.105471775
106	0x3e16e2ff	0.1473503
107	0xbe854881	-0.2603188
108	0x3d4d8502	0.050175674
109	0x3e6d1d2c	0.2315566
110	0x3d937515	0.07200066
111	0xbd6ffcab	-0.058590572
112	0x3ddf39f3	0.10899725
113	0xbe533185	-0.20624359
114	0x3ac77daa	0.0015219946
115	0xbe31f327	-0.17377912
116	0xbbcee642	-0.00631407
117	0x3e4e6fba	0.20159808
118	0xbdb83343	-0.089941524
119	0xbe7e0859	-0.24807872
120	0xbe7c2ca5	-0.24626406
121	0xbe001873	-0.12509327
122	0xbddd90f4	-0.10818663
123	0x3d1250d9	0.035721634
124	0xbe172241	-0.1475916
125	0xbd63d2f0	-0.055621088
126	0xbddb7e6a	-0.10717471
127	0xbdd8f455	-0.10593478
128	0xbdab0d97	-0.083522014
129	0xbd70a83e	-0.0587542
130	0x3e171005	0.14752205
131	0x3de4493b	0.1114678
132	0xbd3d7f44	-0.046263948
133	0x3e24097d	0.16019244
134	0xbd93b297	-0.07211798
135	0xbe01db7a	-0.1268138
136	0x3e9134ce	0.283606
137	0x3dcb4077	0.09924405
138	0xbdef7745	-0.11692671
139	0x3e736e22	0.23772481
140	0x3e329682	0.17440227
141	0xbe5abfe2	-0.2136226
142	0xbe019dfe	-0.12657925
143	0xbdd9a6d3	-0.10627522
144	0xbe3cadb3	-0.18425636
145	0xbd3b196f	-0.045678552
146	0x3d338acf	0.04383355
147	0x3e481ef9	0.19543065
148	0x3d49b6f2	0.049246736
149	0xbde4a2e3	-0.11163881
150	0x3e60f79e	0.21969458
151	0xbe379599	-0.1792816
152	0x3d5797ae	0.052634887
153	0xbdba51ac	-0.09097609
154	0x3e03f9f3	0.12888317
155	0x3e2fdee3	0.17174868
156	0x3d3fe41d	0.046848405
157	0x3e12d261	0.14338066
158	0xbe9a8ddd	-0.30186358
159	0xbdb4add9	-0.08822221
160	0x3e4a83b4	0.19776803
161	0xbdfa1465	-0.12210921
162	0xbe042164	-0.12903363
163	0xbdccaf0f	-0.09994327
164	0x3cd34d4c	0.025793694
165	0xbc753280	-0.014965653
166	0x3de012bf	0.109410755
167	0xbe87365f	-0.2640867
168	0x3def6333	0.116888426
169	0x3dad315c	0.0845668
170	0xbcc16c3f	-0.023611186
171	0xbc58aa1f	-0.013224154
172	0xbdf3fe74	-0.119137675
173	0xbdf6cc46	-0.12050681
174	0x3d8e6015	0.0695192
175	0x3c5fc480	0.013657689
176	0x3d2098ec	0.039208338
177	0xbdd9ec5a	-0.106407836
178	0xbe5be037	-0.2147225
179	0x3e30bdc3	0.17259888
180	0xbdbe9bb5	-0.093070425
181	0x3de32586	0.110911414
182	0xbe7c5f2b	-0.24645679
183	0xbe1dbdec	-0.1540448
184	0x3dcf9a03	0.10136797
185	0xbe957a17	-0.2919471
186	0xbe073fe3	-0.13207965
187	0xbe405f8c	-0.18786448
188	0xbdfd282c	-0.12361178
189	0x3e71922f	0.23590921
190	0xbe642f3e	-0.22283646
191	0xbe2c74a5	-0.16841371
192	0x3e2eef05	0.17083366
193	0xbddc0578	-0.107432306
194	0xbea65762	-0.32488543
195	0xbe911d52	-0.28342682
196	0xbde3efb5	-0.11129705
197	0xbd5b6195	-0.05355986
198	0x3e81b6bf	0.25334737
199	0xbbc93b1f	-0.006141081
200	0x3e2ad236	0.16681752
201	0xbd7671f5	-0.06016727
202	0xbe45b724	-0.19308144
203	0x3e15daa7	0.1463419
204	0xbdd53381	-0.10410214
205	0x3e32b9a0	0.17453623
206	0x3e7af4c2	0.2450743
207	0xbde68aa1	-0.1125691
208	0x3da253dc	0.07926151
209	0x3e69cc56	0.22831854
210	0x3e13af08	0.14422238
211	0xbd7035b2	-0.058644958
212	0xbd96f3c3	-0.073707126
213	0xbd8d290d	-0.068925954
214	0xbe04ce17	-0.12969242
215	0x3d66ace7	0.056317236
216	0x3e9d360f	0.30705306
217	0xbde9ce57	-0.11416309
218	0xbd51d886	-0.051231883
219	0x3da4ac3a	0.08040662
220	0xbdea765e	-0.11448358
221	0xbe138ed0	-0.14409947
222	0xbd5290b0	-0.051407516
223	0xbdfdf5ae	-0.12400375
224	0xbdf9c83f	-0.12196397
225	0xbe28b5cb	-0.16475599
226	0x3e617a70	0.22019362
227	0x3ddbf4ca	0.10740049
228	0x3ddf1159	0.10891981
229	0x3e838b7c	0.25692356
230	0x3e974c1a	0.29550248
231	0x3e232e30	0.15935588
232	0xbd7753ea	-0.06038276
233	0x3ddebbfc	0.10875699
234	0xbe2a8957	-0.16653953
235	0x3e912c4a	0.28354102
236	0xbd067afc	-0.03283213
237	0xbe2a52a1	-0.16633083
238	0xbe2eceee	-0.17071125
239	0x3d6af836	0.05736562
240	0xbd0bf14f	-0.034165677
241	0x3e5be11e	0.21472594
242	0xbe1465d6	-0.14491972
243	0x3d3cb215	0.04606827
244	0x3df9cdc7	0.12197452
245	0xbe9cdf89	-0.30639294
246	0x3e204911	0.15652873
247	0x3df11c4c	0.11772975
248	0x3e53cc9b	0.2068352
249	0x3dff1b43	0.12456372
250	0xbbd65c4d	-0.006541765
251	0xbe2194c3	-0.15779404
252	0x3df82fbb	0.12118479
253	0x3e37bc68	0.17942965
254	0x3dc080f3	0.09399595
255	0x3d5f0441	0.054447416

net.4.bias f4 [2]
0	0x3bc33f4f	0.0059584747
1	0x3c4c0728	0.012452878
