coup_nsfp/nfsp_coup_demo_q.pt (torch, 86145 bytes, 6 tensors)

net.0.weight f4 [128, 25]
0.11841054 0.0829699 -0.01987587 -0.19722003 -0.04954421 -0.10915973 0.16937658 -0.18016951
-0.087590165 0.34074685 0.06582779 0.3580039 0.022554614 -0.14924912 0.14071903 -0.11357764
0.16902518 0.34289703 -0.08212104 0.20820516 0.24924088 0.22456215 -0.21629067 0.11631698
0.21596347 0.3211604 -0.6539012 -0.21164358 -0.25524876 -0.117656454 0.23054285 0.24745968
-0.046643727 -0.053165425 0.1296175 0.22502628 -0.08668825 0.19948849 -0.17421226 -0.18378644
-0.04190881 -0.107846156 0.025020808 -0.027382446 -0.3818261 0.34873867 0.15005413 0.23679681
0.14756139 -0.10423771 0.14995678 -0.0034440563 0.17977102 -0.3137257 -0.16941936 0.3739192
0.15077102 -0.14528237 -0.13489245 -0.023515256 0.16246103 0.28227833 -0.14080493 -0.11303883
0.037114944 0.018127877 -0.030974371 -0.11290724 0.064779095 0.27210042 -0.033268068 -0.17109686
0.30059046 0.039287977 0.19761485 0.123268686 -0.09539968 0.12821765 -0.0031876466 -0.048084687
0.1113014 0.23675899 -0.2830078 0.21140629 0.043071896 0.18924369 0.41202074 0.01991178
-0.07890933 -0.18973884 -0.06221942 -0.05799968 0.13629672 0.026975442 0.15309425 0.10071307
0.123577565 0.27492166 0.037379052 0.029182833 0.18519686 -0.19126113 -0.0692255 -0.14883994
0.15365733 0.13508137 0.26366478 -0.09662562 0.13990511 -0.23631229 -0.14009337 -0.33763224
0.33827093 -0.056336667 -0.062439486 0.23771283 0.107223794 0.15491238 -0.06883814 -0.14703709
0.54190785 -0.029584825 -0.3327861 -0.14775828 0.07550796 0.15216601 -0.25648776 -0.1561788
0.037761822 0.41753805 -0.020581478 -0.08400461 0.08113097 -0.14338423 -0.19381104 0.08031439
0.2263995 0.31760183 0.16466697 -0.10503383 0.108439386 0.20027493 -0.07393496 -0.13278559
0.2555718 -0.16911718 0.38709185 -0.21222426 0.047398172 -0.084585555 -0.054150596 -0.015179378
0.11286215 -0.0049311775 0.05900641 0.22573525 0.085704364 0.28960472 0.1480043 0.05445879
-0.20196913 0.2313455 0.083098345 0.15921655 -0.26862973 -0.24019349 -0.11502721 0.20003113
0.17632079 -0.26541272 -0.12917511 0.15493463 -0.028039847 -0.026540592 0.31093866 -0.24713099
-0.08103538 -0.22736268 -0.08654599 -0.011230457 -0.37543574 0.046064414 -0.011052309 0.2647513
0.23184453 0.1086618 -0.13255379 -0.49092874 0.19097546 -0.1508438 0.15080689 0.0146972295
0.17090027 0.15571456 -0.10403977 0.33670637 0.1701256 -0.032427665 -0.19855742 0.10371317
0.012552927 0.16332349 0.11156237 -0.074746445 -0.10438103 0.16685131 0.075569585 0.19604595
0.25130153 0.09224639 0.006692271 0.026607782 0.11431331 -0.1413713 -0.04583607 0.07708948
-0.116722144 -0.10009404 -0.19705836 0.08423216 0.15562877 0.059566475 -0.0134741515 0.23190898
0.25274798 0.066725686 0.00790999 -0.18585247 0.08577724 0.09258929 -0.19286269 0.044208076
0.20318827 0.14074871 0.26028565 -0.19385372 0.32336846 -0.16487604 0.13964231 -0.10141174
-0.16615348 -0.027061127 0.10412636 0.08489054 -0.028962044 0.21539877 -0.036168516 0.0992408
-0.08556595 0.12974039 0.2256522 -0.15383658 -0.036431663 0.07332501 -0.01686022 -0.08881188
00000000: 3a81 f23d 1fec a93d b8d2 a2bc 0cf4 49be
00000010: dfee 4abd 238f dfbd 0e71 2d3e 5b7e 38be
00000020: 7962 b3bd 5f76 ae3e b8d0 863d 4a4c b73e
00000030: 74c4 b83c c3d4 18be a618 103e 659b e8bd
00000040: f014 2d3e 3390 af3e 132f a8bd bc33 553e
00000050: 0039 7f3e 9ff3 653e 4d7b 5dbe 9937 ee3d
00000060: 8725 5d3e 236f a43e 1266 27bf 18b9 58be
00000070: f7af 82be def5 f0bd 6d13 6c3e 1266 7d3e
00000080: 7e0d 3fbd fdc3 59bd 73ba 043e 4a6d 663e
00000090: 9c89 b1bd b646 4c3e b364 32be 8332 3cbe
000000a0: 93a8 2bbd 72de dcbd 70f8 cc3c 2751 e0bc
000000b0: b67e c3be e08d b23e caa7 193e dd7a 723e
000000c0: 551a 173e 957a d5bd 458e 193e adb5 61bb
000000d0: e515 383e a8a0 a0be 457c 2dbe 5672 bf3e
000000e0: b863 1a3e e7c4 14be 3f21 0abe 11a3 c0bc
000000f0: 2f5c 263e c986 903e 2b2f 10be e780 e7bd
00000100: d705 183d ea80 943c f7bd fdbc e93b e7bd
00000110: e7aa 843d bf50 8b3e 1944 08bd 0434 2fbe
00000120: fee6 993e 6eec 203d 8c5b 4a3e 4b74 fc3d
00000130: e860 c3bd 7d4b 033e d6e7 50bb 73f4 44bd
00000140: fdf1 e33d f370 723e 66e6 90be e47a 583e
00000150: 286c 303d 19c9 413e 62f4 d23e 071e a33c
00000160: 379b a1bd e64a 42be cad9 7ebd 1391 6dbd
00000170: 5e91 0b3e 9afb dc3c bdc4 1c3e a742 ce3d
00000180: 3c16 fd3d 88c2 8c3e c71a 193d d610 ef3c
00000190: 3fa4 3d3e f5d9 43be 19c6 8dbd 7f69 18be
000001a0: 5958 1d3e c552 0a3e 12ff 863e a7e3 c5bd
000001b0: 4943 0f3e d9fb 71be a374 0fbe 22de acbe
000001c0: d931 ad3e 47c1 66bd 8cc0 7fbd fe6a 733e
000001d0: 2698 db3d 5aa1 1e3e 03fb 8cbd e490 16be
000001e0: 79ba 0a3f e05b f2bc f162 aabe f24d 17be
000001f0: eba3 9a3d 68d1 1b3e 5d52 83be 56ed 1fbe
00000200: 24ac 1a3d 8cc7 d53e 7d9a a8bc 9c0a acbd
00000210: fe27 a63d 51d3 12be 6776 46be df7b a43d
00000220: 45d5 673e b59c a23e 759e 283e fa1b d7bd
00000230: 7815 de3d df14 4d3e 366b 97bd f2f8 07be
00000240: 4fda 823e 0e2d 2dbe e730 c63e 5151 59be
00000250: 9624 423d 313b adbd 04cd 5dbd edb2 78bc
00000260: 4524 e73d b795 a1bb b5b0 713d 2427 673e
00000270: c585 af3d 1247 943e 708e 173e 2e10 5f3d
00000280: ffd0 4ebe d6e5 6c3e 772f aa3d aa09 233e
00000290: d689 89be 48f5 75be 6393 ebbd f6d4 4c3e
000002a0: 708d 343e 2de4 87be 7b46 04be 2fa7 1e3e
000002b0: d2b3 e5bc a86b d9bc 5a33 9f3e e80f 7dbe
000002c0: e1f5 a5bd c3d1 68be 063f b1bd f3ff 37bc
000002d0: 1d39 c0be 0aae 3c3d be14 35bc 7b8d 873e
000002e0: a768 6d3e 148a de3d 2ebc 07be 035b fbbe
000002f0: 128f 433e cc76 1abe 1f6d 1a3e a6cc 703c
00000300: 7b00 2f3e a373 1f3e ce12 d5bd c764 ac3e
00000310: 6835 2e3e dfd2 04bd a352 4bbe 9267 d43d
00000320: cbaa 4d3c 463e 273e d07a e43d aa14 99bd
00000330: b9c5 d5bd 12db 2a3e 3ac4 9a3d 45c0 483e
00000340: 98aa 803e adeb bc3d d74a db3b 90f8 d93c
00000350: 191d ea3d a3c3 10be 9abe 3bbd 17e1 9d3d
00000360: 050c efbd 1bfe ccbd abc9 49be e981 ac3d
00000370: 265d 1f3e fafb 733d b0c2 5cbc 8c79 6d3e
00000380: 2f68 813e 7aa7 883d e798 013c 1c50 3ebe
00000390: faab af3d 749f bd3d cc7d 45be 8713 353d
000003a0: 9610 503e 6e20 103e 2944 853e 9781 46be
000003b0: 8d90 a53e 44d5 28be 65fe 0e3e f5b0 cfbd
000003c0: 2324 2abe 4caf ddbc 3340 d53d 17db ad3d
000003d0: cf41 edbc 7f91 5c3e 7025 14bd c33e cb3d
000003e0: 333d afbd aada 043e 5f11 673e 5687 1dbe
000003f0: 5e39 15bd 6c2b 963d 721e 8abc 01e3 b5bd

net.0.bias f4 [128]
0.10359369 0.22122851 0.22123213 0.05133281 -0.03594437 -0.05733144 -0.004137774 0.018452233
-0.10442088 -0.015792161 0.07968714 0.25547975 0.045068096 0.046022203 -0.026402691 -0.10713913
-0.07521572 0.029166203 -0.03417702 0.0171207 -0.15305863 0.20393078 0.1704029 -0.18617615
-0.099820085 0.14980966 0.0070815873 0.14226095 0.25579232 -0.14700086 0.13952446 0.19882795
-0.11575986 0.15389593 -0.01066609 0.09676416 -0.16088146 -0.17223193 -0.100229554 0.2590071
0.07657773 -0.14288434 -0.110469654 -0.0064976895 -0.05872355 -0.004260196 0.13512503 -0.15981717
-0.007786153 0.21992913 0.15914163 -0.08970584 0.055495143 -0.13667147 0.27196163 -0.0619001
-0.048115186 0.25194645 -0.05562128 -0.14326113 -0.034589577 0.1410736 -0.0085377 0.15973644
0.1629887 0.14875118 0.07674995 0.29856434 -0.042457636 0.12579428 0.030274477 0.13202529
-0.077289365 0.20597024 0.13153623 -0.026247146 0.21323813 -0.021207977 0.16659477 0.16314569
-0.13585125 0.04654931 -0.05157877 0.24867383 -0.19510521 0.040085826 0.27957734 0.2228994
-0.07597603 -0.22888215 0.027071737 0.008196186 0.14585157 0.18391418 0.27394897 0.08822458
0.027497903 0.059478126 0.017113337 0.11682411 0.18156734 0.08321753 0.23586458 -0.024826886
-0.0029617143 0.17099372 0.055300474 -0.025701175 0.044315875 0.029103799 0.13895008 0.16491137
0.23871799 -0.16911106 -0.09818336 -0.11418457 0.23294581 0.18832804 0.025493635 -0.13758406
0.07107638 0.03761478 -0.12881482 -0.14600086 -0.021057796 -0.072572745 -0.083897814 0.27122468
00000000: ee28 d43d ba89 623e ad8a 623e 5a42 523d
00000010: 673a 13bd 5fd4 6abd 2a96 87bb 2329 973c
00000020: 9dda d5bd 905e 81bc 0333 a33d 3ece 823e
00000030: 5399 383d c781 3c3d 754a d8bc c36b dbbd
00000040: b30a 9abd f6ed ee3c 34fd 0bbd b640 8c3c
00000050: 67bb 1cbe 3bd3 503e 197e 2e3e f6a4 3ebe
00000060: 796e ccbd b467 193e a90c e83b dbac 113e
00000070: 36f7 823e 6587 16be 80df 0e3e 8e99 4b3e
00000080: 8113 edbd e596 1d3e d3c0 2ebc 4a2c c63d
00000090: 1cbe 24be 915d 30be 2745 cdbd 949c 843e
000000a0: c9d4 9c3d 4650 12be ea3d e2bd 92ea d4bb
000000b0: 1b88 70bd 1d99 8bbb 375e 0a3e 1da7 23be
000000c0: fc22 ffbb 1a35 613e 06f6 223e b2b7 b7bd
000000d0: e04e 633d 9bf3 0bbe 8e3e 8b3e f68a 7dbd
000000e0: 6e14 45bd 20ff 803e 24d3 63bd 0cb3 12be
000000f0: cdad 0dbd 9975 103e b6e1 0bbc f391 233e
00000100: 83e6 263e 3b52 183e 142f 9d3d 6ddd 983e
00000110: 0fe8 2dbd 37d0 003e 2e02 f83c a331 073e
00000120: e349 9ebd dde9 523e 6fb1 063e 4104 d7bc
00000130: 195b 5a3e 5abc adbc d297 2a3e aa0f 273e
00000140: 971c 0bbe 7daa 3e3d 4344 53bd 5aa4 7e3e
00000150: a9c9 47be 0931 243d c324 8f3e be3f 643e
00000160: 5299 9bbd 1560 6abe 8cc5 dd3c 4c49 063c
00000170: 1d5a 153e 0054 3c3e 0a43 8c3e 17af b43d
00000180: 4843 e13c 569f 733d 4531 8c3c 7b41 ef3d
00000190: caec 393e f46d aa3d 7c86 713e c161 cbbc
000001a0: 5219 42bb fa18 2f3e c082 623d 458b d2bc
000001b0: 9084 353d 176b ee3c ee48 0e3e 87de 283e
000001c0: 7d72 743e 732b 2dbe 5c14 c9bd 9ad9 e9bd
000001d0: 5989 6e3e 11d9 403e 07d8 d03c d6e2 0cbe
000001e0: 7e90 913d f511 1a3d 08e8 03be 4081 15be
000001f0: 6681 acbc 05a1 94bd 9ed2 abbd f6dd 8a3e

net.2.weight f4 [128, 128]
-0.172183 0.3564707 -0.11760351 0.08640506 -0.075800136 0.110682465 0.0082684215 -0.13851222
-0.045374896 -0.0041392446 -0.0067951162 0.0941453 0.16784082 -0.17638414 0.107437156 0.111137934
-0.035600543 -0.24951999 0.039064325 -0.03922372 0.1234039 -0.033944283 0.04134919 0.122515835
-0.10558258 0.08122614 0.25347528 -0.09916923 0.084391065 -0.054639626 0.15491234 0.06260207
0.10640477 0.038636047 -0.3147618 -0.016151927 -0.18471576 -0.11885986 0.025640566 0.283326
0.009031493 0.3362669 -0.04149114 0.06448309 -0.081180006 0.010358885 -0.114901096 -0.13805477
0.08289464 0.21150859 0.14322752 0.27329248 -0.43651223 0.065503664 0.08217069 0.046445325
0.54205656 0.14357245 0.038975075 0.07032998 -0.14320576 -0.03704171 -0.12745987 0.17335057
0.09921498 0.08758223 0.05404137 0.01968534 -0.028130518 0.016154561 -0.03763609 0.082199916
-0.019513147 -0.0076503227 0.43863466 -0.039568245 -0.21941881 0.06061764 0.13861172 0.017364016
0.48605925 0.05968947 0.040492464 0.054737613 0.04750559 -0.3055994 -0.03676999 0.1030397
-0.0027066844 -0.52402645 -0.1688167 -0.02156118 0.072254345 -0.074663416 0.09331123 -0.11070372
0.056928005 -0.09351215 -0.2801466 0.09471168 -0.17114796 0.08579191 0.11230365 -0.07761934
0.038999718 0.0809964 -0.15370867 0.11370141 0.10009074 -0.02487687 0.032549977 -0.014252618
0.13910852 -0.22541818 0.08319326 -0.116073 -0.21728812 0.3267449 -0.4732831 0.02609081
0.27164003 -0.006420191 -0.014634397 -0.026002428 0.069984525 -0.027839618 -0.15716803 -0.057398822
0.026332056 0.41435274 0.069407135 0.039647833 -0.039174248 -0.1530725 -0.028622014 0.03240987
0.0912042 -0.04128897 -0.060302746 0.10206633 -0.16442639 -0.046121523 -0.0017030445 0.5410426
0.068610445 -0.15183371 -0.3665318 0.29806766 -0.5010162 -0.3617814 -0.08319834 -0.0071219425
-0.31784707 0.04132512 0.11128547 0.013651494 0.08936998 0.071935 0.061180208 0.01841899
0.04033592 0.11569471 -0.110350884 -0.015767535 0.14735751 0.05812803 0.22382459 -0.022086203
-0.008884281 -0.05792266 -0.073093906 -0.17164148 0.098624736 0.113159604 0.19929278 0.0629638
-0.25252712 -0.12182299 0.06667127 0.26317862 0.029990418 0.12778233 0.06321195 -0.052191984
-0.06597184 0.0880829 0.16484495 0.26065618 -0.08535045 0.0503121 -0.5501845 0.028863987
0.03333621 0.014611841 0.15310572 0.07332788 0.109112866 0.061731283 0.24726033 0.07615152
-0.14524542 0.27582252 -0.13424507 -0.44321555 -0.4709665 -0.0032689369 0.011067456 0.011608014
0.33182287 0.049125098 0.064409226 0.35837027 -0.025737066 0.036108293 -0.12550825 0.018205114
-0.05567004 0.1670597 0.11531468 0.10304278 0.13855183 -0.0770979 0.079303585 -0.1638985
0.0859063 0.35193363 0.08484748 -0.05115527 0.012033264 0.2793162 -0.24246378 -0.15463188
-0.18197945 0.08749777 0.016672466 -0.062523045 0.30593038 0.03500079 -0.30583733 -0.077233225
-0.03931572 -0.38685724 -0.059642598 -0.19333391 0.11763273 0.32253417 0.16268453 0.0694366
0.113743074 0.09921158 -0.007199124 0.041119386 -0.19581987 -0.2596388 -0.059013125 0.08033045
00000000: be50 30be 5483 b63e 1cda f0bd 23f5 b03d
00000010: 1a3d 9bbd 7dad e23d 4678 073c 26d6 0dbe
00000020: 07db 39bd 80a2 87bb 91a9 debb 40cf c03d
00000030: 77de 2b3e 0b9e 34be 0308 dc3d 499c e33d
00000040: e0d1 11bd 2b82 7fbe ea01 203d 0da9 20bd
00000050: 2fbb fc3d 2909 0bbd c55d 293d 95e9 fa3d
00000060: ae3b d8bd e459 a63d 83c7 813e 3d19 cbbd
00000070: 39d5 ac3d cdcd 5fbd 57a1 1e3e 8435 803d
00000080: beea d93d d540 1e3d 7528 a1be 0c51 84bc
00000090: 2126 3dbe cc6c f3bd 2a0c d23c 1b10 913e
000000a0: d4f8 133c 2d2b ac3e 9df2 29bd b60f 843d
000000b0: b441 a6bd 50b8 293c 4451 ebbd 3b5e 0dbe
000000c0: aac4 a93d b595 583e 3caa 123e feec 8b3e
000000d0: 887e dfbe c926 863d 1b49 a83d 743d 3e3d
000000e0: 38c4 0a3f a804 133e 54a4 1f3d 2a09 903d
000000f0: 88a4 12be 0cb9 17bd d784 02be d082 313e
00000100: 3931 cb3d 505e b33d 7c5a 5d3d 2643 a13c
00000110: f971 e6bc 9256 843c 4d28 1abd 6e58 a83d
00000120: 09da 9fbc 8faf fabb b994 e03e 5012 22bd
00000130: 53af 60be 344a 783d 3bf0 0d3e fb3e 8e3c
00000140: c2dc f83e f27c 743d 6ddb 253d 8c34 603d
00000150: 3995 423d 8677 9cbe 219c 16bd 7a06 d33d
00000160: a162 31bb 9926 06bf 49de 2cbe 12a1 b0bc
00000170: 16fa 933d 22e9 98bd f519 bf3d a2b8 e2bd
00000180: 572d 693d 4c83 bfbd 606f 8fbe 33f8 c13d
00000190: 6941 2fbe abb3 af3d 75ff e53d e3f6 9ebd
000001a0: 2bbe 1f3d 71e1 a53d ce65 1dbe 49dc e83d
000001b0: 60fc cc3d 94ca cbbc 2053 053d d083 69bc
000001c0: 7772 0e3e 06d4 66be 3a61 aa3d aeb7 edbd
000001d0: c780 5ebe 1c4b a73e 2a52 f2be 65bc d53c
000001e0: 6714 8b3e 7760 d2bb 1cc5 6fbc 0b03 d5bc
000001f0: 0c54 8f3d e90f e4bc a8f0 20be 071b 6bbd
00000200: 53b6 d73c 0b26 d43e 5425 8e3d c465 223d
00000210: 2d75 20bd 0abf 1cbe b778 eabc 36c0 043d
00000220: 45c9 ba3d 9f1e 29bd 0300 77bd 2708 d13d
00000230: 645f 28be ece9 3cbd b138 dfba c581 0a3f
00000240: a283 8c3d 4c7a 1bbe 0eaa bbbe 539c 983e
00000250: 9942 00bf 693b b9be e463 aabd 2f5f e9bb
00000260: dabc a2be 8744 293d a3e9 e33d 84aa 5f3c
00000270: 9c07 b73d a852 933d 1998 7a3d 6ce3 963c
00000280: 4737 253d 59f1 ec3d a5ff e1bd eb2a 81bc
00000290: e3e4 163e a817 6e3d 4632 653e 20ee b4bc
000002a0: 608f 11bc 5040 6dbd 42b2 95bd c9c2 2fbe
000002b0: c4fb c93d 39c0 e73d 6813 4c3e 2af3 803d
000002c0: 3c4b 81be 557e f9bd f28a 883d 59bf 863e
000002d0: 77ae f53c 5fd9 023e 4475 813d 43c7 55bd
000002e0: 3e1c 87bd cf64 b43d 1dcd 283e ba74 853e
000002f0: 37cc aebd 1014 4e3d e4d8 0cbf 2b74 ec3c
00000300: 8d8b 083d 8166 6f3c bfc7 1c3e ed2c 963d
00000310: 9176 df3d f1d9 7c3d d031 7d3e 54f5 9b3d
00000320: 37bb 14be 9c38 8d3e 8a77 09be 26ed e2be
00000330: 8522 f1be a93b 56bb 4654 353c 8a2f 3e3c
00000340: b0e4 a93e 6637 493d fce8 833d 4f7c b73e
00000350: 8ad6 d2bc 4ae6 133d 3c85 00be e422 953c
00000360: 4506 64bd b311 2b3e 1a2a ec3d 1808 d33d
00000370: 88e0 0d3e 81e5 9dbd eb69 a23d 02d5 27be
00000380: a4ef af3d a530 b43e 84c4 ad3d 3088 51bd
00000390: 2b27 453c 8802 8f3e 6d48 78be d257 1ebe
000003a0: d258 3abe 0832 b33d b294 883c 150c 80bd
000003b0: e8a2 9c3e fd5c 0f3d b696 9cbe 742c 9ebd
000003c0: 8509 21bd 2712 c6be cc4b 74bd 53f9 45be
000003d0: 6ee9 f03d 3323 a53e c696 263e c734 8e3d
000003e0: 21f2 e83d 712f cb3d a1e6 ebbb cd6c 283d
000003f0: 0185 48be 60ef 84be bfb7 71bd 4a84 a43d

net.2.bias f4 [128]
-0.07928588 0.048794564 0.12012611 -0.010847661 -0.041904546 0.07480918 0.09586407 0.10064186
-0.04174433 0.08705428 -0.00862451 0.017790621 -0.020628098 0.04923224 0.038425975 0.107171774
0.13503453 0.12396325 -0.010076629 0.09561966 0.035715666 -0.011035177 0.047545843 0.053831983
-0.025369693 0.11101471 0.07399067 -0.08789873 0.014111417 0.056720927 0.056627106 -0.0252647
-0.079260424 0.020757804 0.085801594 -0.0599575 0.044491738 0.0021232748 0.12245088 0.03940556
-0.0409079 -0.043614473 0.07836941 0.089476675 0.06921027 0.091066375 0.054375198 -0.07091203
0.051654767 0.044639368 0.00067804987 0.031020312 0.113918036 -0.07629483 -0.036375973 0.11254966
0.0603892 0.029264348 -0.00912729 0.024622764 -0.041935667 0.1534072 0.12496338 0.06267016
0.058365263 0.00063735846 -0.00025461963 0.096971884 -0.019055616 -0.011427676 0.08141323 -0.014555283
0.0469821 -0.017481072 0.030697113 0.05255525 0.09039946 0.04618925 -0.002705878 -0.03402215
0.13422929 0.05436813 -0.04300646 0.06727782 0.03389457 -0.073234975 0.15099151 0.077826336
0.007284758 -0.052714348 0.036427252 -0.023124766 0.018616742 0.04670526 -0.05992633 -0.024291985
-0.05459151 0.0057743243 -0.024358988 0.06546052 0.013571672 0.025033211 -0.034489788 -0.087072685
0.13900611 0.054799043 0.109362304 0.12899806 -0.04549912 0.13747631 0.034492433 0.07805972
-0.035065934 0.067363776 0.086589865 0.12528256 -0.012075716 -0.01517496 0.103706695 1.6658538e-05
-0.05376839 0.051897872 0.025856473 0.108218744 0.12495871 0.030410722 0.048238117 -0.0696878
00000000: a360 a2bd cfdc 473d ae04 f63d 63ba 31bc
00000010: 1aa4 2bbd 8e35 993d 6254 c43d 521d ce3d
00000020: 1afc 2abd 8449 b23d d14d 0dbc a3bd 913c
00000030: 42fc a8bc bfa7 493d 8e64 1d3d e07c db3d
00000040: 7e46 0a3e 72e0 fd3d 7218 25bc 3ed4 c33d
00000050: 974a 123d e3cc 34bc 6ebf 423d ed7e 5c3d
00000060: 1ad4 cfbc ae5b e33d 6c88 973d 4004 b4bd
00000070: 9333 673c 3454 683d d3f1 673d ebf7 cebc
00000080: 4a53 a2bd 450c aa3c bfb8 af3d ff95 75bd
00000090: f83c 363d a426 0b3b 87c7 fa3d b967 213d
000000a0: 0b8f 27bd 17a5 32bd 2480 a03d 8c3f b73d
000000b0: 1dbe 8d3d 0281 ba3d 87b8 5e3d 543a 91bd
000000c0: f393 533d c5d7 363d 28bf 313a 4f1e fe3c
000000d0: dc4d e93d 7740 9cbd f9fe 14bd 7080 e63d
000000e0: aa5a 773d c9bb ef3c a18a 15bc aeb5 c93c
000000f0: bcc4 2bbd c716 1d3e cdec ff3d 3659 803d
00000100: 6a10 6f3d 6714 273a 787e 85b9 3299 c63d
00000110: 861a 9cbc 263b 3bbc fbbb a63d 4879 6ebc
00000120: 4d70 403d 7734 8fbc 8378 fb3c 2c44 573d
00000130: 5a23 b93d f030 3d3d 1a55 31bb cf5a 0bbd
00000140: 6773 093e 1eb1 5e3d 8b27 30bd f4c8 893d
00000150: 08d5 0a3d 38fc 95bd 859d 1a3e 6a63 9f3d
00000160: fbb4 ee3b 00eb 57bd be34 153d 2670 bdbc
00000170: 2382 983c 044e 3f3d 5075 75bd fcff c6bc
00000180: 599b 5fbd 8b36 bd3b 808c c7bc 2a10 863d
00000190: b85b 5e3c 7312 cd3c 2a45 0dbd 2a53 b2bd
000001a0: 9e57 0e3e f674 603d 58f9 df3d 1118 043e
000001b0: 495d 3abd 97c6 0c3e f047 0d3d c6dd 9f3d
000001c0: 4ca1 0fbd 05f6 893d 0756 b13d 124a 003e
000001d0: 39d9 45bc 65a0 78bc 2d64 d43d f0bd 8b37
000001e0: 3e3c 5cbd dd92 543d f4d0 d33c caa1 dd3d
000001f0: 5aea ff3d e81f f93c 5595 453d 7ab8 8ebd

net.4.weight f4 [7, 128]
0.22467981 0.090306774 0.05200272 0.07593834 0.21376605 0.046768565 0.025359625 -0.005363503
0.34521666 0.18221757 -0.054074604 0.08639201 0.16435874 0.16011819 -0.03890233 0.13254339
-0.027868753 0.18289824 0.33689994 0.08754045 0.06952118 -0.26591796 0.1719772 -0.0971886
-0.028783508 0.14811732 0.12713242 0.19003984 0.05898195 0.09422123 0.066497184 0.07486339
0.022281868 0.18683428 0.07112904 0.17896682 0.23676822 0.06331046 0.04306935 -0.15716656
-0.079886 -0.031595565 0.11758465 0.23238276 0.06187014 0.004372627 -0.12278339 -0.03588938
0.40819415 0.21631081 0.063012876 0.13213612 0.021741329 -0.11361103 -0.5065683 0.23045439
0.1811753 0.07814036 0.0005164326 0.117955714 0.21255048 0.14842553 0.014374353 0.113059536
-0.28600797 0.20328552 0.081642404 0.07352963 0.24660254 0.13975714 0.19843088 0.16964786
0.11256309 -0.03323556 -0.048209358 0.25168434 0.06741569 0.20335558 0.0010892198 0.07901668
-0.079755954 0.21180749 -0.38272703 -0.035179455 0.1696166 0.04839184 -0.040477656 0.11202821
0.10542054 0.018271925 -0.05921848 -0.28182083 -0.053021353 0.0973879 -0.0045193187 0.14258708
0.102664456 0.020730363 0.095245875 -0.039727982 0.20462015 0.20390734 0.05508619 -0.021394204
0.052585118 0.22020534 0.16753636 0.07907149 0.20130573 0.01634398 -0.046305098 0.15821013
-0.07266644 -0.055357356 0.14555547 0.1325313 -0.0983942 0.035062518 0.077928275 0.00063634745
-0.22739035 0.1467609 0.009161829 0.15354446 0.1508924 0.13910775 0.5792783 -0.0762343
-0.12739836 -0.050272424 0.06054024 0.0109937 -0.03695649 -0.44428796 -0.03586031 0.11214931
0.28982547 -0.1433385 0.0048196604 0.100623086 0.12591077 0.14284799 -0.086832106 0.20811997
0.19213298 0.15574515 0.21205388 0.1509767 0.20999834 -0.6582604 0.11108569 -0.013323666
0.012159585 -0.091748245 0.15681916 0.12566113 0.008386664 -0.1187256 0.25548333 0.21288641
0.016580116 -0.057598453 0.19319434 0.023827653 0.19358261 0.14188737 0.2153186 0.16778286
-0.15774079 0.51088256 0.15673847 -0.1450311 -0.13210702 0.12595728 0.05248636 -0.1857741
-0.3413399 0.2017697 -0.0505444 -0.17804131 0.1430507 0.1397665 0.39683226 0.044000804
0.28975523 0.092539154 -0.06465995 0.101796664 -0.05224816 0.18978778 0.09501209 0.12096972
-0.1776337 -0.037733473 -0.02125024 0.21686856 -0.017004257 0.112747885 0.14149664 0.15970744
0.09937641 0.15538047 -0.028115956 0.23409532 0.21173973 0.035156544 0.20352535 -0.291186
0.13911955 -0.15779614 -0.7023394 -0.3280761 0.1853676 -0.07039921 0.14039999 -0.020563578
0.2785035 -0.0019686974 0.17860521 -0.5871885 0.05708738 0.116452165 -0.35518497 0.06114392
0.14075026 0.17494084 0.04808291 0.09640251 0.15684907 -0.5893527 0.020770146 0.0024290492
-0.03719369 -0.030979302 0.14658315 0.15796193 0.21145687 0.14456965 -0.036421914 0.20915087
-0.35910434 0.053291082 0.21641426 0.11429997 -0.17763314 -0.06815892 0.1804456 0.1642268
-0.22557826 0.1724225 0.16276377 0.0940525 0.044670314 0.08761039 0.3310408 0.041807733
00000000: 7712 663e c2f2 b83d ce00 553d 8f85 9b3d
00000010: 7de5 5a3e 6590 3f3d fdbe cf3c 53c0 afbb
00000020: 3dc0 b03e 3e97 3a3e 557d 5dbd 4bee b03d
00000030: a84d 283e 06f6 233e 0d58 1fbd 74b9 073e
00000040: 034d e4bc ad49 3b3e 267e ac3e 6848 b33d
00000050: 1f61 8e3d 6626 88be cb1a 303e d10a c7bd
00000060: 64cb ebbc 11ac 173e 002f 023e ce99 423e
00000070: 0f97 713d 0ff7 c03d ad2f 883d fa51 993d
00000080: 7788 b63c 7c51 3f3e 1aac 913d 1443 373e
00000090: 5e73 723e eaa8 813d 7d69 303d 45f0 20be
000000a0: 459b a3bd 5a6a 01bd 39d0 f03d bff5 6d3e
000000b0: 8b6b 7d3d 4148 8f3b dc75 fbbd be00 13bd
000000c0: d3fe d03e 9580 5d3e e50c 813d b14e 073e
000000d0: df1a b23c e6ac e8bd 76ae 01bf 3cfc 6b3e
000000e0: 0586 393e 0e08 a03d 3561 073a c492 f13d
000000f0: d5a6 593e ddfc 173e 6882 6b3c c28b e73d
00000100: a36f 92be 142a 503e 2234 a73d b496 963d
00000110: 6085 7c3e 7f1c 0f3e 7731 4b3e 2bb8 2d3e
00000120: 7a87 e63d 0322 08bd 2d77 45bd c5dc 803e
00000130: 3d11 8a3d 723c 503e 27c4 8e3a 7fd3 a13d
00000140: 1757 a3bd 10e4 583e ccf4 c3be 5518 10bd
00000150: f9af 2d3e 8636 463d e6cb 25bd 0c6f e53d
00000160: b9e6 d73d 01af 953c 148f 72bd d24a 90be
00000170: eb2c 59bd 4f73 c73d cb16 94bb 5902 123e
00000180: be41 d23d b9d2 a93c 4510 c33d cfb9 22bd
00000190: f287 513e 16cd 503e 0fa2 613d e642 afbc
000001a0: 7e63 573d 827d 613e a78e 2b3e 3cf0 a13d
000001b0: 1723 4e3e cfe3 853c 6aaa 3dbd d601 223e
000001c0: 24d2 94bd 65be 62bd 7e0c 153e 49b6 073e
000001d0: e682 c9bd b79d 0f3d dc98 9f3d 8ed0 263a
000001e0: 04d9 68be 7d48 163e 7f1b 163c c23a 1d3e
000001f0: 8a83 1a3e 4372 0e3e 954b 143f bb20 9cbd
00000200: b774 02be 75ea 4dbd 0bf9 773d eb1e 343c
00000210: b05f 17bd b679 e3be 43e2 12bd 8aae e53d
00000220: 0164 943e 54c7 12be 3eee 9d3b 7a13 ce3d
00000230: c1ee 003e be46 123e 08d5 b1bd 671d 553e
00000240: 82be 443e a87b 1f3e a724 593e a399 1a3e
00000250: ce09 573e c183 28bf e580 e33d 814b 5abc
00000260: ff38 473c 81e6 bbbd 3495 203e 50ad 003e
00000270: 3868 093c 6826 f3bd b6ce 823e e5fe 593e
00000280: 06d3 873c 5bec 6bbd bdd4 453e 3632 c33c
00000290: 853a 463e ec4a 113e 7b7c 5c3e 45cf 2b3e
000002a0: cd86 21be 33c9 023f 0d80 203e 0883 14be
000002b0: 1047 07be f2fa 003e f0fb 563d 913b 3ebe
000002c0: 1ac4 aebe b79c 4e3e a507 4fbd 7650 36be
000002d0: e27b 123e f31e 0f3e 992d cb3e 303a 343d
000002e0: cc5a 943e 2b85 bd3d 706c 84bd c57a d03d
000002f0: 2b02 56bd ba57 423e b395 c23d f9be f73d
00000300: 9ce5 35be 6a8e 1abd fc14 aebc cb12 5e3e
00000310: 834c 8bbc 5de8 e63d 7fe4 103e 598a 233e
00000320: dc85 cb3d 0f1c 1f3e 6f53 e6bc afb6 6f3e
00000330: 4dd2 583e 4f00 103d f368 503e 5516 95be
00000340: 5b75 0e3e 5095 21be 84cc 33bf 97f9 a7be
00000350: 01d1 3d3e 762d 90bd 04c5 0f3e f374 a8bc
00000360: 0398 8e3e 4305 01bb 49e4 363e fc51 16bf
00000370: 75d4 693d 797e ee3d ceda b5be 0c72 7a3d
00000380: d620 103e b123 333e 96f2 443d ae6e c53d
00000390: 0b9d 203e d2df 16bf 2726 aa3c af30 1f3b
000003a0: 6958 18bd 4ec8 fdbc e519 163e c6c0 213e
000003b0: 2688 583e 110a 143e 252f 15bd a52b 563e
000003c0: 86dc b7be c047 5a3d b39b 5d3e 1a16 ea3d
000003d0: 76e5 35be e796 8bbd bbc6 383e 122b 283e
000003e0: fdfd 66be 868f 303e 8cab 263e 999e c03d
000003f0: 38f8 363d 136d b33d 2e7e a93e 963e 2b3d

net.4.bias f4 [7]
0.016522978 0.1419805 -0.043477032 -0.02355901 0.005775951 -0.045871064 0.054299302
00000000: 325b 873c 5663 113e f914 32bd d3fe c0bc
00000010: 3044 bd3b 4ce3 3bbd f268 5e3d
