coup_nsfp/nfsp_coup_demo_block.pt (torch, 84145 bytes, 6 tensors)

net.0.weight f4 [128, 26]
000000 25 df 27 3e a5 5e 4e bd 36 39 9c bd 7d f9 43 bd
       0.16393717 -0.05038323 -0.076280996 -0.047845352
000010 a7 45 58 3e cf f8 3d be c0 06 3c 3e c0 87 2a be
       0.2112032 -0.18551944 0.1836195 -0.16653347
000020 9b 91 e6 bd ba 24 1a 3e c1 75 f2 bd 4d 0d bd 3d
       -0.11258241 0.15053073 -0.11838866 0.092310525
000030 71 ac be 3d 57 d8 10 3e bf ed 46 be 6c 2a 03 be
       0.09310234 0.14145027 -0.1942663 -0.12809151
000040 93 54 3a bc 77 56 3f 3e cc 00 0e 3e d0 12 56 3d
       -0.011372703 0.18685327 0.13867491 0.052264035
000050 07 ed 9c bd 5d b8 5a be 17 5f 26 bd d4 31 0c 3e
       -0.07662397 -0.21359392 -0.04061803 0.13690883
000060 d0 d6 57 be 7f 36 03 3e 81 6c b4 3d 38 cf ea bd
       -0.21078038 0.12813757 0.08809758 -0.11465305
000070 06 6a b9 bd f9 c7 3b 3e 18 45 09 be f6 c8 c1 bc
       -0.090534255 0.18338002 -0.13405263 -0.023655396
000080 ac da 13 bc 2b d6 da 3d a8 d5 e2 bd fc 7a c5 bb
       -0.009024303 0.106853805 -0.11075908 -0.006026624
000090 99 1d ed 3c 83 c3 4d be 37 c6 42 bd 89 cd 5e bd
       0.028944777 -0.20094113 -0.047552314 -0.054395232
0000a0 7f 23 9c 3c 5d 17 3e 3e 9b de 0a be 7b bd 1c be
       0.019059895 0.185636 -0.1356148 -0.15306656
0000b0 39 76 ab bc d6 0e 37 be 93 c5 ae bd f5 a5 1c 3e
       -0.020930396 -0.17876753 -0.08533778 0.15297683
0000c0 21 aa 1c 3d 39 78 ad 3c d2 a9 92 3d e5 73 3a be
       0.038248185 0.02117549 0.07161297 -0.18208273
0000d0 26 61 c4 3c 99 d8 30 be 0e ab cb 3d 30 df 61 3e
       0.023972105 -0.17270125 0.099447355 0.22057796
0000e0 bd 05 3c be ab e8 2d bd 0b 49 b2 bd 2e f9 4d 3e
       -0.18361564 -0.042458218 -0.08705338 0.20114586
0000f0 75 cf 07 be 43 19 a1 3d d5 55 1e 3e 01 b5 2f be
       -0.13262732 0.078661464 0.1546243 -0.17158891
000100 05 98 41 3e 60 91 91 3d 70 29 2a bd f3 95 0e 3e
       0.18905647 0.07107806 -0.041543424 0.13924389
000110 7a 14 12 be 35 27 40 3e a2 09 10 bd dd bd 41 be
       -0.14265624 0.18764956 -0.035165437 -0.18920083
000120 53 4e 22 be 99 30 b5 bc bb 08 11 bc 20 32 ec 3d
       -0.15850191 -0.0221179 -0.008852179 0.11532998
000130 df 13 bf 3d 86 65 33 3d 62 f6 d6 bc e9 fd 17 3e
       0.09329962 0.043797992 -0.026240531 0.14842953
000140 ff 80 19 be 16 08 07 3e a9 a9 eb bd 9c 86 5f be
       -0.14990614 0.13186678 -0.115069695 -0.21828693
000150 40 d6 cc 3c c6 ff 91 3d 54 c1 12 be 0c e3 24 bd
       0.025004506 0.07128863 -0.14331561 -0.04025559
000160 c4 3e 51 bd b1 9a d2 3d da 36 04 3e e5 bb 43 be
       -0.05108525 0.10283411 0.12911549 -0.19114645
000170 be 3f c2 bd 24 77 6a 3d 65 58 33 3e 65 d8 71 3e
       -0.09484814 0.057242528 0.17514189 0.23617704
000180 be 9e 39 3c 0e eb ba 3d 11 ac 31 bd c0 21 24 3e
       0.011329351 0.091268644 -0.043376986 0.160285
000190 6f 8b 22 be 38 73 34 3e b5 03 0d be b2 4a 3f bd
       -0.15873502 0.17622077 -0.13770945 -0.046702094
0001a0 27 eb 09 be 7f 28 05 be 30 21 34 3e 59 d1 7b bd
       -0.1346861 -0.1300373 0.17590785 -0.061478946
0001b0 9e 50 49 be 91 7b 80 bd ab 74 bc bd c8 7b 57 3d
       -0.1965966 -0.062735684 -0.0920194 0.05260828
0001c0 f7 5c 22 3e be 6c 11 3d fa 2b 4d 3d 94 de 9a be
       0.15855776 0.035504095 0.050090767 -0.3024794
0001d0 ec b1 1e 3d 6a 4f e7 bd 56 2d 36 be 20 48 2f be
       0.0387439 -0.11294444 -0.17790732 -0.17117357
0001e0 06 bc 16 3e c4 e0 fc bd 60 7b a7 bd 98 b9 50 bd
       0.14720163 -0.12347558 -0.08177829 -0.050958246
0001f0 3c 8f f6 bd 66 62 02 be 08 f0 0c 3e 91 92 01 bd
       -0.120390385 -0.12732849 0.1376344 -0.031633917
000200 a7 ab 0b 3e a6 da 0c 3b 41 bc a0 3d 87 9f ce bb
       0.13639699 0.002149263 0.078484066 -0.0063056382
000210 ce 15 a5 3d 35 e2 7a bb 59 c3 ee bd fd 44 48 3d
       0.080607995 -0.0038281803 -0.11658353 0.048893917
000220 33 1b 07 be 4e 90 b8 3d 61 75 a3 bd 52 67 4f 3e
       -0.1319397 0.09011899 -0.079813726 0.20254257
000230 04 72 d0 bd ff 60 dc bd 60 ee c7 bd 6a 84 d1 3d
       -0.10177997 -0.10760688 -0.09762263 0.10230334
000240 f1 cb 39 be 58 14 eb bc 53 89 b5 bc 23 8b 00 bd
       -0.18144204 -0.028696224 -0.022160208 -0.03138269
000250 f4 c7 13 be 74 e8 6c 3e 16 54 22 be 09 7d 96 bc
       -0.14431745 0.23135549 -0.15852389 -0.018370168
000260 f4 c0 02 bd c1 2e a7 bd cb 33 3d 3d 07 ef 9c bc
       -0.031922296 -0.081632145 0.04619197 -0.019156946
000270 8c ab 12 3e bb 0c 16 3e ef c9 9f bd cc 51 74 ba
       0.14323252 0.14653294 -0.07802188 -0.000932005
000280 ac 04 ce 3d 6f 02 a4 3d 1f 9f 9f bc 81 99 52 3d
       0.10059485 0.08008277 -0.019485055 0.051415924
000290 a3 d0 e6 3d f0 ae 06 be a8 8d 40 be 0a 85 4b 3e
       0.11270263 -0.13152671 -0.18804038 0.19874969
0002a0 23 e6 20 be 82 f3 b5 3d 62 4b 01 3c 1d ed 69 3d
       -0.1571279 0.08884336 0.007891508 0.057110894
0002b0 c5 71 e1 3d 5e cb d1 bc 11 dc 14 3e 46 c2 01 be
       0.11008028 -0.025609668 0.14537074 -0.12671766
0002c0 02 9a 2e 3e d3 82 0f be 65 37 1c be 30 55 03 3d
       0.17050937 -0.14014749 -0.15255506 0.032063663
0002d0 46 85 34 be 3e d9 ad bc 90 9e 77 3c f0 39 3b be
       -0.17628965 -0.021221753 0.015113488 -0.1828382
0002e0 d0 04 2d 3e 69 5c c7 3d b4 4e f3 bd 1c f2 23 be
       0.16896367 0.09734423 -0.11880246 -0.16010326
0002f0 36 fc 2e be 50 85 0f 3e 5d 62 8e 3d 4e 79 a5 3d
       -0.17088398 0.14015698 0.06952355 0.08079778
000300 9d bd dc bd 9a cf 0c be d4 c4 0c 3e ae 0b a1 bd
       -0.10778353 -0.13751069 0.13746959 -0.07863556
000310 67 f1 07 3e b8 6f a6 bd 4b 84 fe bd ea 63 d8 bd
       0.13275681 -0.081267774 -0.12427577 -0.10565932
000320 9c e8 3b be fd ab df bd cc 4f 39 3d f9 aa 35 3e
       -0.18350452 -0.10921476 0.045242116 0.17741002
000330 a0 d2 61 3c c5 25 14 3e bc db d5 3d 9e d1 ab bd
       0.013783127 0.14467533 0.10442302 -0.08389591
000340 ee 4c 10 be 5b 98 3f 3e 80 d9 cb 3d 1d 55 04 be
       -0.14091846 0.18710463 0.09953594 -0.12923093
000350 46 ff 2d 3e 73 f8 15 3e 6f b1 1a be 59 dd e8 3d
       0.1699191 0.14645557 -0.15106748 0.11370344
000360 4c fc 0a bd d0 07 18 be 0b bd 8d bc 0a 1e 1c 3e
       -0.033932015 -0.1484673 -0.017302057 0.15245834
000370 31 d5 2b 3d c3 1b 47 bc 8f d2 3c 3e 9f cf 0e be
       0.041951362 -0.012152615 0.18439697 -0.13946389
000380 18 1e 5d be f5 55 01 be 99 27 8a 3d 74 66 53 3e
       -0.21593511 -0.12630446 0.06745834 0.20644552
000390 b2 f9 16 3e a2 1f 3d bc 59 7e 60 be 4e 96 45 3e
       0.14743689 -0.011543186 -0.21923198 0.19295618
0003a0 56 1b ec bd 5b 40 4c be 81 2f 66 3e b3 4d 42 bd
       -0.115286514 -0.19946425 0.22479059 -0.04743738
0003b0 4b 43 03 3d 5c 21 ef 3d 5c e1 27 be 46 9a 65 be
       0.032046597 0.11676285 -0.16394562 -0.22422132
0003c0 3a 49 08 3e 23 a4 24 3c ef 9c fe bd 55 a2 0b be
       0.13309184 0.010048899 -0.124322765 -0.13636144
0003d0 3a 42 19 3d a8 86 22 3e 53 66 8c bd bd 10 7e 3b
       0.037416674 0.1587168 -0.06855454 0.00387673
0003e0 f5 21 47 be a4 ca e7 3c b1 12 cd 3d 99 61 69 3e
       -0.19446547 0.028294869 0.10013331 0.22791137
0003f0 0e 3f 07 bd 41 fe ff bd b6 d1 11 be db 84 84 3c
       -0.033019118 -0.12499667 -0.14240155 0.016176632

net.0.bias f4 [128]
000000 5f 62 52 be 98 85 3a 3e a6 12 d1 bd 65 e7 7b 3d
       -0.20545338 0.18215024 -0.10208635 0.061499972
000010 3d 64 b2 3d 4e 84 d7 3d 95 60 b8 bd 1b 47 07 bd
       0.08710525 0.10523282 -0.090027966 -0.033026796
000020 5d 12 b0 3c 25 40 34 be 32 d3 18 be 4d d9 a4 bd
       0.021493131 -0.17602594 -0.14924315 -0.08049259
000030 b3 05 1e 3e bd ea 3b 3e 0c b7 e6 bd 29 36 c8 bc
       0.15431862 0.18351264 -0.11265382 -0.024439888
000040 34 33 e3 3c a1 a5 53 3d be 94 bf bd 3f dc f6 3d
       0.027734376 0.051671628 -0.09354542 0.12053727
000050 02 0a 00 be db f3 23 be 57 69 55 bd 0b f8 86 3d
       -0.12503818 -0.16010992 -0.052102413 0.06590279
000060 a9 8e 1b 3e e6 78 71 3b 98 82 db 3d 89 76 9b 3d
       0.1519114 0.0036845743 0.10718268 0.07590968
000070 ce 44 15 3e 3c ff 69 3d ac 6f 97 bd b2 e6 b9 3d
       0.14577028 0.057128176 -0.073943466 0.09077205
000080 0c 75 73 bd 22 26 10 3e 3e 8b 63 3c a8 51 c3 bb
       -0.059437796 0.14077047 0.013888178 -0.005960662
000090 c8 4d f5 bd da 04 b7 3d ed a5 04 3a 73 11 a1 3d
       -0.11977726 0.08936472 0.0005060125 0.07864656
0000a0 a3 51 42 bd 83 d9 57 bd c3 3f e4 3d 7d a5 45 3e
       -0.047441136 -0.05269767 0.11144974 0.1930141
0000b0 8a 46 88 bc 6e 24 2b 3e 90 c1 cd bd 71 83 53 bd
       -0.016635198 0.16713116 -0.10046685 -0.051639024
0000c0 ec f8 95 3c b4 aa 67 3d 80 80 a4 bd 4f 1e da bd
       0.018307172 0.05655928 -0.08032322 -0.10650312
0000d0 5b 9a 15 3e 7b 4b 51 3d 6e 69 84 3d b5 ae 48 3e
       0.14609663 0.051097374 0.064654216 0.19597895
0000e0 c3 0c 2d be 2b 89 04 bd 6c 09 c2 bc e6 c7 ff 3d
       -0.168994 -0.032357376 -0.023686133 0.124892995
0000f0 65 cf ea 3d 83 2b 7c bd 02 ce aa 3d 78 7e 0a 3e
       0.114653386 -0.061564934 0.08340074 0.13524806
000100 ed a6 56 bc c7 d5 a6 bd 1c c5 e5 3c 40 6b 3e 3e
       -0.013101322 -0.081462435 0.02804809 0.185956
000110 03 4d 6a 3d db 77 99 3d 68 b2 4d 3e dd 35 ba 3c
       0.05720235 0.07493564 0.20087588 0.022730762
000120 3b 43 06 3e b3 3a 28 be 17 ef 0a 3e c4 dc 0f be
       0.13111584 -0.16428642 0.13567768 -0.14049059
000130 0a cb 82 3d ae 35 f8 bc d1 a7 1b be 73 50 29 be
       0.06386383 -0.030299034 -0.15200736 -0.16534595
000140 fb 12 4c 3e 89 7d 63 3d 40 52 7e 3d fd 28 15 bc
       0.19929115 0.05553964 0.06209016 -0.009104011
000150 9b f3 94 bd 0e d5 a6 bd d9 55 6b 3d 92 5d 9f bd
       -0.072730266 -0.08146106 0.057454918 -0.07781519
000160 d5 25 ea bc 23 20 6c bd cc 2b e5 3d 7e c3 42 be
       -0.028582493 -0.057647835 0.11189994 -0.19019887
000170 d0 84 df bd 6c a5 6b 3d 6e cf 91 bd 3a 2d 8f bd
       -0.10914004 0.057530805 -0.07119642 -0.06991048
000180 5b 97 a5 bd cf 87 6a bc dd 2f 2e bd 73 f4 b1 bd
       -0.080855094 -0.014314606 -0.042526115 -0.08689203
000190 2a 7e 45 ba 2e 4a 50 3d fa fa 9f bc 73 a3 11 3e
       -0.00075337535 0.050851993 -0.019528855 0.14222507
0001a0 5f f7 11 3e 8b 2a ba 3c 03 63 11 be 76 2f f8 bd
       0.14254521 0.022725364 -0.14197926 -0.121184275
0001b0 75 d5 17 3d 65 56 e8 bd 0a 0b 0d be 86 2d 53 bd
       0.037068803 -0.113446034 -0.13773742 -0.051557086
0001c0 c3 5d 08 3c 17 0b 2b 3e 9c 02 e3 3b 96 12 8a 3d
       0.008323136 0.16703449 0.0069278013 0.06741826
0001d0 e7 ca 6e bd 5f df e5 bd e4 36 08 3e 53 0a 41 be
       -0.05829897 -0.11224245 0.13302189 -0.18851595
0001e0 f5 43 3d 3e 63 d8 34 3d b2 5d ca 3d 47 4a 9d bd
       0.18482955 0.044151675 0.09881152 -0.07680183
0001f0 76 f1 02 3e 7b 53 0c be 8f ed 66 3d 47 97 f1 bb
       0.12787423 -0.1370372 0.056378897 -0.00737277

net.2.weight f4 [128, 128]
000000 ec 95 62 3e ef 87 d8 bd 93 47 18 bc be 26 a5 3d
       0.22127503 -0.10572802 -0.009294408 0.0806403
000010 e3 d8 fb 3b 0c 49 15 be 1e ee a6 3c 65 7f 3b bd
       0.007685767 -0.14578646 0.020377215 -0.04577579
000020 29 0c 52 3d 77 39 14 3d b4 2b 1f 3d 13 b8 00 3e
       0.051281128 0.036187615 0.038860038 0.12570219
000030 31 90 cb bc 61 40 06 bd 50 48 e1 bb bc 62 fe bb
       -0.02484903 -0.03277624 -0.0068750754 -0.007763235
000040 f0 75 69 bd 3a 22 0f bb 6e 8c e6 3d 7e 08 9d bc
       -0.05699724 -0.002184047 0.112572536 -0.019169088
000050 46 c4 63 bd 95 8d c3 3d 84 0e de bc 84 6a 8d bb
       -0.055607103 0.09548489 -0.027106531 -0.004315676
000060 ba 97 1c be c1 da dc bd b2 8f b2 3d ed 1f 3d 3d
       -0.15292254 -0.107839115 0.08718814 0.046173025
000070 40 67 29 3d d9 45 80 3d 8d ce c0 3b 71 81 75 3d
       0.041358232 0.062633224 0.005883998 0.059937898
000080 27 56 b4 bc 2b 7a 0c 3c 49 65 4f bb a8 c5 ec 3c
       -0.022013737 0.008574049 -0.0031646064 0.028902844
000090 de 7c 40 ba 23 87 26 3a 18 0f 29 3b 44 78 5d 3d
       -0.00073428254 0.00063525344 0.002579635 0.054069772
0000a0 15 cc 6f bd 21 b8 05 3d 4c 03 e1 bd 4d 3f 0c be
       -0.058544237 0.032646302 -0.10986957 -0.13696022
0000b0 7b 49 95 3c b2 b7 88 3d 28 3a 45 bd f9 04 7f bd
       0.018223515 0.06675662 -0.048151165 -0.0622606
0000c0 21 b9 38 be d8 53 b4 3b 94 be 91 bd 36 cb f2 3c
       -0.18039371 0.005503159 -0.07116428 0.029637914
0000d0 68 b9 5b 3d d2 57 54 bd 20 2f 8d 3d 78 61 c6 bd
       0.053643614 -0.051841564 0.06893754 -0.096865594
0000e0 03 ef 42 bd a2 29 e2 3d ea 62 e6 bc 9c 7c 05 be
       -0.04759122 0.11043097 -0.028123338 -0.13035816
0000f0 27 06 bc bb 7d 82 ee bd 89 3a 25 bd 88 e9 7a 3c
       -0.005738038 -0.116459824 -0.040339027 0.015314467
000100 d2 af 51 3d 04 6d 9a bd 37 8d b2 3c 21 e4 f0 bc
       0.051193066 -0.07540324 0.021795852 -0.029405655
000110 6d 15 26 bd b3 6f 45 bd 00 af c8 bb 5b 35 10 bd
       -0.040547777 -0.048202228 -0.0061243773 -0.035207134
000120 2d 55 38 bd f5 60 ff bd 71 2f f2 3c f0 41 0d bd
       -0.045003105 -0.12469665 0.029563637 -0.03448671
000130 af c6 3a bd c1 30 55 be 04 b7 c5 bd d1 79 d6 3d
       -0.045599636 -0.2081938 -0.09654048 0.104724534
000140 07 e4 55 bd e4 8c c8 3d 71 49 18 be ec 39 b5 3d
       -0.052219417 0.09792498 -0.14871766 0.08848938
000150 90 4e 96 ba cf 8a a3 3c 25 57 3c bd 96 fa 30 3d
       -0.0011467505 0.01996365 -0.045981545 0.043207727
000160 7b f1 4f bc 4a 92 b3 bd 84 30 01 3e 76 de 1a 3d
       -0.012691851 -0.08768137 0.12616163 0.03780981
000170 25 15 c4 3c 04 1e ce bb 38 2f 3b bd 91 e0 cc bd
       0.023935864 -0.0062901992 -0.04569933 -0.1000377
000180 19 8c 88 bd 9a f1 c5 3d 3a 6d 8e bd cd 3d c7 3d
       -0.066673465 0.096652225 -0.06954427 0.097285844
000190 9b e8 4e 3d a8 0a 16 bd 6a 2a 16 bd 2c e2 62 bd
       0.0505148 -0.036631256 -0.036661543 -0.055391476
0001a0 94 7a 14 bd 90 fc 52 3c 19 93 84 3d f3 4e b9 3d
       -0.036249712 0.012877598 0.06473369 0.090482615
0001b0 fb 34 71 bd 77 c6 79 bc 8c 73 c0 3d a9 cd 5a 3d
       -0.058888417 -0.015245072 0.09397039 0.05341879
0001c0 2a b8 7e bc 27 15 4b 3d ae d8 bd bd 7e 0e 0f 3d
       -0.015546838 0.04958072 -0.09269844 0.03492593
0001d0 f6 58 c6 3d 41 d9 39 bd c2 b9 18 be 08 3e ef 3c
       0.09684937 -0.045373205 -0.14914611 0.029204383
0001e0 e6 b6 9f 3d cd 19 3f bc 4f 33 1a 3c 37 79 b1 bd
       0.07798557 -0.011663866 0.009411647 -0.08665698
0001f0 08 55 6d bd 68 15 51 3e f3 7f 59 bd 10 d5 a8 3c
       -0.05794242 0.20418322 -0.053100538 0.020609409
000200 f9 cb eb 3d 4f d6 8c 3d df f2 4e bc 03 eb d0 3d
       0.11513514 0.068768136 -0.012631147 0.10201075
000210 c0 c7 5a 3d 97 12 a4 3d a0 c8 b8 bd bb 6e 1a bd
       0.053413153 0.08011358 -0.09022641 -0.037703257
000220 2c fd f5 bc 7a 8a 18 3e 60 dd bd bd 50 d6 35 3d
       -0.030027948 0.14896575 -0.092707396 0.044393837
000230 b9 4d d7 bd c1 32 07 bd b8 da 42 bb db e7 a2 bc
       -0.10512871 -0.033007387 -0.0029732417 -0.019885948
000240 35 39 10 3d bd a2 a4 3d 4b 85 e9 bc cc 06 92 3d
       0.035210807 0.08038852 -0.028505942 0.07130203
000250 df e1 85 3c e2 0f a1 3d 10 4b 09 bc 31 1f 4b bc
       0.016343055 0.078643575 -0.008379713 -0.012397573
000260 f6 cc 2d 3c cf d7 03 bb ce c1 e2 bd 42 08 22 be
       0.0106079485 -0.0020117646 -0.110721216 -0.15823463
000270 cf af 88 bd cc fe bc 3d 8f 58 16 bd f9 c9 3e bc
       -0.06674158 0.09228286 -0.03670555 -0.011644834
000280 4d bf b1 bd ad 21 18 3d a5 db 3b bd 78 c7 48 3c
       -0.08679066 0.03714149 -0.045863766 0.012254588
000290 b3 be cd bc 68 ab 19 bd 55 8e 19 3c da 0b 83 3d
       -0.025115347 -0.03751698 0.0093723135 0.06398745
0002a0 23 72 44 3d 31 86 30 3c 44 0a 82 3a 66 01 41 3d
       0.04796041 0.010774181 0.0009921272 0.047120474
0002b0 86 71 b6 bc d5 81 47 ba 3b c2 4e bd d9 2d c1 bd
       -0.022270929 -0.0007610594 -0.0504782 -0.09432573
0002c0 68 e7 c3 bc 0a 75 e7 3b 1f 71 9c bd da 32 d3 3d
       -0.023914054 0.0070635127 -0.07638764 0.103124335
0002d0 9c 29 35 3d e9 c4 45 bd 8a a8 97 3c 49 cb bd b8
       0.044229135 -0.04828349 0.018512983 -9.050087e-05
0002e0 31 25 f8 3d 52 c3 07 be ff bc 2f bd 15 5e 14 bc
       0.12116469 -0.13258103 -0.04290485 -0.009055634
0002f0 42 8c a9 3c ec 10 4c 3d 3e e1 61 3d 93 12 c3 bd
       0.020696763 0.049820825 0.05514645 -0.09525027
000300 b4 60 5d bd b5 d8 24 3d 70 c5 9e 3d 96 5f 0b bd
       -0.0540473 0.04024573 0.07752502 -0.034026705
000310 c6 f4 24 bd c0 de b2 bd d1 d2 6a bc cd 7c 24 3d
       -0.040272497 -0.087338924 -0.014332489 0.04015808
000320 ac 11 1c bc 4a 61 6c bd 1c 19 d6 3c 50 7b 82 3d
       -0.009525698 -0.05770997 0.02613502 0.06371176
000330 58 12 7b bd dc 8b 38 bc a1 71 b5 3c 03 42 f2 bc
       -0.06129679 -0.011263814 0.022148909 -0.029572492
000340 ff 89 7d bd 3a f8 cd 3c 84 17 db 3c f7 89 1e bb
       -0.06189918 0.025142778 0.026744612 -0.002419112
000350 6c 82 6f 3c 79 b9 bc bc cc 79 4e 3d b9 82 b4 3d
       0.014618497 -0.023037659 0.050409123 0.08813996
000360 38 1a 84 3c e9 02 d4 bc c6 80 0f bd 54 36 04 3d
       0.016125783 -0.025880294 -0.035034917 0.032278374
000370 fe e0 d8 bd a6 56 49 bd be 85 c0 3d e6 a3 3d 3d
       -0.10589789 -0.0491549 0.09400509 0.046298884
000380 70 8d 3f be 9f 5e 50 bc 8b 29 df 3d a9 8d 78 bd
       -0.18706298 -0.012717872 0.108965956 -0.060681973
000390 57 63 a9 bb 27 a5 5e 3d d6 4c 0f bd 09 4f 40 bd
       -0.005169313 0.05435672 -0.034985386 -0.046950374
0003a0 a9 d7 80 3d b5 c8 78 3c 8b 7e c3 3d 96 4e db bc
       0.06291134 0.015184571 0.095456205 -0.026770871
0003b0 3b 3a 3d bd f6 1d db 3d 08 6c 8b bd 27 87 04 3e
       -0.04619811 0.10699074 -0.06807715 0.12942182
0003c0 49 2b 50 3d 7f 4d 9e bc 9c c3 4d bd 08 63 bc 3d
       0.05082253 -0.019324062 -0.050235376 0.09198576
0003d0 d4 47 84 bc 09 d4 8a bd 66 65 9a bd 64 ae 06 3e
       -0.016147532 -0.06778724 -0.075388715 0.13152462
0003e0 5f 86 3b 3d 3a 02 3e 3d 7d 8e 79 3b fb 00 27 bd
       0.045782443 0.046388842 0.0038079314 -0.04077242
0003f0 64 cd 30 bc 21 8a 95 3d 6c 5f 91 bd 73 5a b7 bd
       -0.010791156 0.073017366 -0.070982784 -0.08952799

net.2.bias f4 [128]
000000 15 54 9e bd 4c b4 26 3c d4 11 23 3c f0 72 05 bd
       -0.07730881 0.010174822 0.009952981 -0.032580316
000010 ce 10 d3 3b 86 69 7c 3d 66 a1 5a bd df 0c 6d bc
       0.0064412123 0.061624072 -0.053376578 -0.014468401
000020 32 f1 30 3d 6e 51 17 3d 96 27 9b bd 95 e3 8e 3d
       0.04319877 0.03694289 -0.0757591 0.069770016
000030 bb b7 7f bd 12 17 29 bd c7 15 ba bc f1 68 6a 3d
       -0.06243108 -0.041281767 -0.022715462 0.057228986
000040 2e 79 a4 bb 91 5a 53 bc b3 cd 5a 3d 70 10 c6 bd
       -0.0050193286 -0.012900011 0.053418826 -0.09671104
000050 58 88 c7 3c 11 65 a4 3d 19 f3 9d bd c3 97 5b bb
       0.024357006 0.080270894 -0.07712383 -0.0033507205
000060 1c e6 ad 3d 13 e8 74 3d 72 15 31 bd e9 8c 92 3d
       0.084911555 0.059791636 -0.043233342 0.07155783
000070 9f 4f c0 3d 12 d3 0d 3d 96 37 2c bd cc 8c 84 bd
       0.093901865 0.03462512 -0.0420452 -0.064721674
000080 4f 9c 4e bd de 61 1f bd 39 69 39 bd ed cb 8e bd
       -0.050442036 -0.038911693 -0.045266364 -0.069724895
000090 a0 74 9c 3d c0 2a 85 3d 35 9a 27 bd f3 2a 17 bd
       0.07639432 0.065022945 -0.040918548 -0.036906194
0000a0 e3 41 47 bc 43 c2 76 3c a2 4b 2c 3d d1 ee 98 bd
       -0.012161705 0.015060964 0.042064317 -0.074674256
0000b0 e0 20 53 bd 2e 17 b9 3d 1e 28 2c 3d 59 7e 9c bc
       -0.051545024 0.09037624 0.042030446 -0.019103216
0000c0 f4 47 5e 3d f1 52 66 3d 83 bd d8 3c a3 26 37 3d
       0.05426784 0.056231443 0.026457554 0.04471458
0000d0 69 3c 58 bd 91 37 84 bd 8b 9f 4b bc 7c a9 de 3c
       -0.052791987 -0.06455911 -0.012428175 0.027180426
0000e0 ee 83 76 3d 1e 8f 54 3d 0a 60 3d 3d 46 92 76 3c
       0.06018441 0.0518943 0.046234168 0.015049523
0000f0 1c b4 66 3d 58 ca 89 3d 52 f8 1e 3d 21 83 1f 3d
       0.05632411 0.06728047 0.038811035 0.038943414
000100 1c fb 91 bd 75 72 30 bd b9 52 e3 bc e3 da c2 3d
       -0.071279734 -0.043077905 -0.027749406 0.095144056
000110 a7 3c 9a 3c 54 a2 8d bc 42 6e 96 b8 b6 f0 00 3d
       0.01882775 -0.017289318 -7.1730945e-05 0.03147956
000120 91 b3 1e 3d 3d ff c5 3d da e8 2a bd 9d 35 a7 3d
       0.038745467 0.096678235 -0.04172597 0.08164523
000130 40 97 68 3d be 95 b8 3d 1e 84 66 bc 9e c9 96 3d
       0.05678487 0.09012936 -0.014069585 0.07362674
000140 bd 83 3b 3d 20 d6 87 3c 1f 5f e2 bc b1 b4 b7 3c
       0.045779932 0.016581595 -0.027633248 0.022425028
000150 39 43 8e bd b1 5c 92 bd 73 f4 5e 3c 26 bb 04 bc
       -0.069464155 -0.07146586 0.013608086 -0.00810126
000160 8e 42 11 bc 90 d7 7e 3d db 51 30 3c d1 87 aa 3c
       -0.0088659655 0.062217295 0.010761703 0.020816715
000170 26 13 68 bc 57 00 1d bd 29 ae 83 3d b9 05 7a bd
       -0.014164722 -0.038330402 0.06429703 -0.061040614
000180 2b 12 15 bd d9 53 13 3d 3e 78 6b bc 37 8b d0 3d
       -0.03639428 0.035968635 -0.01437193 0.10182803
000190 b7 74 b2 bd 7f 23 8f bd 0b 5b c5 3c cf 2e 1c 3c
       -0.08713668 -0.06989192 0.024091264 0.009532644
0001a0 53 4d 50 bd d0 5d 98 bd 5a 9b 55 bc 77 75 32 bc
       -0.050854992 -0.07439768 -0.013037527 -0.010892264
0001b0 24 c3 4c 3d 7a da 1b bc 41 12 be 3c e7 7e 80 3c
       0.049990788 -0.009512538 0.023202064 0.015685512
0001c0 3f 8d e7 3b c3 ee 92 bb 9c f9 63 3d 16 ff 96 3d
       0.0070663984 -0.004484029 0.055657968 0.073728725
0001d0 e7 ea 2b 3d 81 30 73 bd 6e da 05 bd 30 3a 81 bc
       0.041972067 -0.05937243 -0.032679014 -0.015774816
0001e0 81 1b aa bc a8 86 6f bb 5c b6 c1 bc 68 b5 6d bd
       -0.020765068 -0.0036548767 -0.023646526 -0.05803433
0001f0 ed 5a dd bb cd e7 aa 3d 14 c1 46 bd 12 35 06 bd
       -0.006755224 0.08344994 -0.048523977 -0.032765456

net.4.weight f4 [2, 128]
000000 90 86 04 3e eb 9f 9b 3d 5a f9 2c 3e aa 2a 00 3e
       0.12941957 0.07598861 0.16891995 0.12516275
000010 2c ff cb 3d 5d 6f 5f 3a ee 06 cc 3d f6 2b 99 bd
       0.099607795 0.00085233693 0.09962259 -0.07479088
000020 b4 3c 88 bc 73 62 a7 3d b1 b6 ab bc 9d 3f 21 3e
       -0.016630508 0.081730746 -0.020961137 0.15746923
000030 ea 91 36 be b6 c8 15 be 89 bf a3 3d 5f aa 4e 3e
       -0.178291 -0.14627346 0.07995517 0.20182179
000040 80 48 35 3e b1 d2 08 3e 1d a9 b6 3d a6 a0 28 3d
       0.17703438 0.13361622 0.089189745 0.04116883
000050 ff f7 f3 3d 0a cb fb 3d 75 04 ba bd b8 02 d0 bd
       0.11912536 0.12294586 -0.09082881 -0.101567686
000060 08 5c 11 3e 7a 4a cc 3d 8b aa 40 bd 33 5d cd bd
       0.14195263 0.09975143 -0.047037642 -0.10027542
000070 a6 55 b9 3c 42 26 a1 3d 7e da 16 3e 22 03 2d 3e
       0.022623848 0.07868625 0.14731786 0.16895726
000080 cc 13 fa bc 90 45 b6 3d 96 8d c0 bd 40 8b 92 3d
       -0.030527018 0.08899987 -0.094020054 0.07155466
000090 82 d9 fa bd 1e 39 c6 bd 77 6c b3 bd 11 75 08 3e
       -0.122485176 -0.09678863 -0.087609224 0.13325907
0000a0 90 b4 a5 bd b0 46 b8 3d b2 ff 08 be bd 44 fb 3d
       -0.0809108 0.089978576 -0.1337879 0.1226897
0000b0 c2 11 47 3d 3a dd f1 3d d0 4b 44 3e d6 57 a3 bd
       0.04860092 0.11809774 0.19169545 -0.07975738
0000c0 49 a9 2b 3e 70 46 12 3e 6a 05 98 3d e4 d1 9d bd
       0.16763796 0.14284682 0.07422908 -0.07706049
0000d0 a6 e2 0d be 44 10 37 3e 14 0d 45 be 5b b8 50 3e
       -0.13855991 0.17877299 -0.1924327 0.20382826
0000e0 0e 03 b7 bb 4c 3d df 3d 2a ea b4 3d d2 68 d6 bd
       -0.005585081 0.10900363 0.08833726 -0.10469212
0000f0 d7 d2 09 be 01 2a 57 3e a5 f3 9e 3d 97 6a f4 3d
       -0.13459335 0.21012117 0.07761315 0.11934393
000100 42 af c8 3d 1e 5f 06 be dc fc d9 ba c3 d1 66 bd
       0.09799053 -0.13122222 -0.0016631144 -0.056352388
000110 02 37 2d be 04 16 d9 bd b1 2c 44 bc be d5 16 be
       -0.16915515 -0.10599902 -0.011973546 -0.14729974
000120 93 01 da 3d 6d 95 d9 bd 6f d7 1e be c5 12 a7 bd
       0.106448315 -0.10624204 -0.15511869 -0.08157877
000130 39 a1 d7 3d b5 b4 dd 3c af 30 99 3d 06 54 18 3e
       0.10528798 0.027063707 0.07479989 0.14875802
000140 54 62 b7 bd ee 08 f0 3d 2f 27 82 3d 76 ac 24 3e
       -0.089543015 0.11720453 0.0635513 0.16081414
000150 48 7c 3b 3e e7 41 4f be 0e 5f 16 be 08 2a f2 bd
       0.18309128 -0.20239983 -0.14684698 -0.11824423
000160 d1 5f e0 3d 28 8d 2a 3d c4 28 3d 3e 3a eb bf bd
       0.109557755 0.041638523 0.18472582 -0.09371038
000170 3f 6f 50 3e c6 af 28 bd 75 b4 e2 bd d3 87 46 bd
       0.20354937 -0.041183256 -0.11069576 -0.048469376
000180 55 23 8f bd 6b 9d 52 bc 10 5b 13 3d ab ef 0f 3e
       -0.06989161 -0.012854914 0.035975516 0.1405627
000190 ce 88 b7 bd ba a9 62 be 71 58 cd 3d 81 7d 12 3e
       -0.0896164 -0.22135058 0.100266345 0.14305688
0001a0 f4 b5 51 be cf 8a 09 3e 79 34 e4 3d 63 5a 62 3c
       -0.20479566 0.13431858 0.11142821 0.013815495
0001b0 a7 81 b1 3d 4a 89 1f be 9a 00 02 be 5d 2a a5 bd
       0.08667307 -0.15579715 -0.12695542 -0.08064721
0001c0 c4 6f 88 3d 8b 7e b3 3d 97 e6 d0 bd 18 8c 16 be
       0.066619426 0.087643705 -0.102002315 -0.14701879
0001d0 de ff 0c 3e bc 0d 06 3e 9a 08 98 bc ee 10 f1 3d
       0.1376948 0.13091177 -0.018558789 0.11770807
0001e0 19 d6 db bd f1 e7 b4 3d fa cb 17 3e 58 8f b8 bd
       -0.10734195 0.08833302 0.14823905 -0.09011716
0001f0 34 19 ea 3d 10 fd 91 3d 8c 3c ad 3d 09 6d 45 3d
       0.11430588 0.07128346 0.08458814 0.048199687
000200 36 67 69 be f6 9e 19 be f7 39 d2 bd ba ce 5e bd
       -0.22793278 -0.15002045 -0.10264962 -0.05439637
000210 d5 e0 03 be 8e 82 ba 3d ba 23 b0 bd eb 2b 74 3d
       -0.12878735 0.091069326 -0.08600564 0.059612196
000220 42 60 89 3d 84 62 8f bd 62 bd 02 3e 9f 26 89 bd
       0.06707813 -0.07001212 0.12767556 -0.066968195
000230 ef a7 fa 3c 6d 40 a7 3d c8 31 d6 bd ae 75 23 be
       0.030597655 0.08166585 -0.10458714 -0.1596286
000240 35 20 06 be 37 c8 ca bd c3 9f d6 bd 3f f0 ac bd
       -0.13098224 -0.09901469 -0.10479691 -0.08444261
000250 92 a6 37 be e0 c8 3b be 40 b7 31 3e 27 16 e5 3d
       -0.17934635 -0.18338346 0.1735506 0.11185866
000260 32 98 08 be 72 66 84 bd 5e 7c a9 3d f3 b6 37 3e
       -0.13339308 -0.064648524 0.08275674 0.17940883
000270 f2 d6 b8 3d e8 9d 0a be e4 03 17 be 0c 5c 46 bd
       0.090253726 -0.13536799 -0.14747578 -0.048427626
000280 e4 dc 04 3e 03 8f 05 bc a5 ec fb 3d 6d 5a 00 be
       0.12974888 -0.008151772 0.12300996 -0.12534495
000290 85 09 ff 3c 72 eb 0b 3e 9c 77 00 3e cd 26 ef bd
       0.031132469 0.13664034 0.12545627 -0.116773225
0002a0 01 27 a6 bd fc ad 4f be d2 a9 a4 3c 7f 5c 65 bd
       -0.08112908 -0.20281214 0.020100508 -0.055996414
0002b0 1f b4 02 be 61 b4 19 be 56 c8 2e be ea dd ee 3d
       -0.12764023 -0.15010215 -0.1706861 0.116634205
0002c0 2c c8 1a be a8 c9 51 3c f7 a4 1a be 4a 97 ba 3d
       -0.15115422 0.012804426 -0.15101992 0.09110887
0002d0 a3 66 83 3d e8 4d d2 bd 1a 24 be 3d 8d a7 4f be
       0.06416061 -0.10268766 0.092842296 -0.2027876
0002e0 3b 5d a2 3d d1 b8 91 bc 53 94 8b bd 6c ce 87 3d
       0.079279386 -0.017788323 -0.068154 0.06631169
0002f0 79 9a 9a 3c 69 1e 52 be 5c d0 c1 bd 5d 33 f1 bd
       0.018872486 -0.20519413 -0.094635695 -0.11777375
000300 3c 60 08 be f1 95 b2 3d b0 13 df bd 5c b9 60 3d
       -0.1331796 0.08720005 -0.10892427 0.054864272
000310 b0 05 fc 3c c2 90 e7 3d 9c df d9 3d 01 61 f1 3d
       0.03076443 0.11306907 0.10638353 0.1178608
000320 5b fd 0b be 77 b6 e0 3d 8e e2 dd 3c 77 29 6e 3d
       -0.13670866 0.109723024 0.027085569 0.058145013
000330 fe f5 e3 bd a4 28 0c 3e de 97 9b bd 72 fb 14 be
       -0.11130904 0.13687378 -0.07597326 -0.14549044
000340 5d cf 59 bd e3 f2 21 be 61 6f 6b bd 2d c9 08 be
       -0.053176273 -0.1581531 -0.057479266 -0.13357992
000350 b8 9b 14 be 62 f8 2f 3e 36 0d 0c 3e 28 1e 1c 3e
       -0.14512527 0.17184594 0.13676915 0.15245879
000360 e7 f0 2e 3b 50 48 db 3d 86 0d 09 be 47 45 c6 3c
       0.0026693882 0.10707152 -0.13384065 0.024202956
000370 29 95 43 be 77 0e 64 3d 61 61 dc 3b c0 47 fd 3d
       -0.19099869 0.055677857 0.0067254757 0.12367201
000380 eb 85 96 3d 24 8f 9a 3d fd a1 d4 bd 7f 43 d3 bc
       0.073497616 0.07546833 -0.10382459 -0.02578902
000390 9f 8b 2d 3e cf 93 0d 3e 36 1d 1e bd 64 da 63 bd
       0.16947792 0.13825916 -0.038602076 -0.055628195
0003a0 eb 0c 79 3e d5 35 ba bd 52 15 14 be 84 cb 00 3e
       0.24321334 -0.09092299 -0.14461258 0.12577635
0003b0 16 ad ec bd 46 64 3f 3e d1 6e 09 3e 19 9f 06 bc
       -0.11556451 0.18690595 0.1342118 -0.008216643
0003c0 1c 31 44 be e3 ce 2d be 17 73 58 3c e5 75 bf 3d
       -0.19159359 -0.16973452 0.013211033 0.093486585
0003d0 c5 3f 85 bd 6a a1 86 bd f1 1b 0a be 91 16 18 be
       -0.06506304 -0.06573756 -0.13487221 -0.14852358
0003e0 bb 99 a5 3c 47 cf c6 bd 77 32 30 be 22 66 19 3e
       0.020214906 -0.09707504 -0.17206751 0.14980367
0003f0 58 64 01 be 16 c2 f2 bd a9 cd dd bd c0 cf 42 be
       -0.12635934 -0.11853425 -0.10830242 -0.19024563

net.4.bias f4 [2]
000000 bd 51 3c bd 1e ed 8c 3d
       -0.04597639 0.06881164
