coup_nsfp/nfsp_coup_demo_q_target.pt (torch, 86293 bytes, 6 tensors)

net.0.weight f4 [128, 25]
0.11663212 0.081466556 -0.016416198 -0.19786543 -0.056182247 -0.11383567 0.16676368 -0.1814765
-0.08498824 0.3430252 0.061290234 0.35672376 0.011817591 -0.14924912 0.13627622 -0.116744004
0.17084575 0.3326813 -0.08212104 0.20535664 0.24210778 0.2238275 -0.21507321 0.11942143
0.21599622 0.32081178 -0.6438467 -0.21548742 -0.24994774 -0.115064755 0.22136274 0.24201594
-0.04576717 -0.051728584 0.1517222 0.21235043 -0.08526808 0.19367251 -0.17421226 -0.1684805
-0.03780877 -0.1068795 0.019777618 -0.027382446 -0.37405434 0.33260852 0.15843825 0.23450902
0.1529796 -0.10438379 0.15302971 -0.004549374 0.17615722 -0.31294176 -0.1674428 0.36385652
0.1476918 -0.14649591 -0.13516241 -0.0268984 0.16072617 0.28251567 -0.14490525 -0.11303883
0.03659333 0.024095105 -0.03718419 -0.10203544 0.064779095 0.26721323 -0.035421815 -0.15596424
0.29338264 0.04320867 0.19590212 0.12865838 -0.09460458 0.12911247 -0.0045592054 -0.04070615
0.10861874 0.24195848 -0.27936485 0.20834143 0.039113514 0.1786128 0.41350725 0.021976454
-0.07890933 -0.2006939 -0.05941654 -0.058483873 0.12717825 0.026975442 0.15588383 0.10605859
0.13008678 0.2739395 0.022744726 0.029270966 0.18964116 -0.18578647 -0.07198484 -0.15359035
0.14877567 0.1333768 0.25574073 -0.098319605 0.13746037 -0.24534096 -0.1422483 -0.33235684
0.33483675 -0.056336667 -0.06790964 0.23836188 0.11296878 0.15521376 -0.06883814 -0.14859103
0.54378456 -0.021961601 -0.33359155 -0.14396675 0.07424876 0.15577783 -0.2514181 -0.156141
0.036600027 0.41552702 -0.015243255 -0.08296136 0.08172702 -0.14550154 -0.19644769 0.0942114
0.22358958 0.32347715 0.16466697 -0.10321092 0.10986807 0.20261179 -0.070350744 -0.13278559
0.24776018 -0.16690385 0.38621354 -0.2010728 0.046869535 -0.08559814 -0.05324012 -0.016089227
0.11400946 -0.008302794 0.05648178 0.23485874 0.09260484 0.2889223 0.14745596 0.05050344
-0.20200612 0.22767588 0.08150477 0.15921655 -0.27618647 -0.23957428 -0.1187164 0.20146441
0.17632079 -0.2657498 -0.12501049 0.15300357 -0.025986647 -0.0268684 0.31082937 -0.24570663
-0.08733963 -0.22571158 -0.08911925 -0.01602642 -0.3729146 0.049165122 -0.0147317005 0.26185304
0.2479473 0.10479837 -0.13071409 -0.4813555 0.19097546 -0.14447136 0.1466449 0.015216164
0.17182082 0.15571456 -0.10383188 0.33262873 0.16937733 -0.035222325 -0.19119304 0.10086568
0.010991894 0.15948045 0.11377887 -0.077947915 -0.10525838 0.1737735 0.080260985 0.19445524
0.25134706 0.09738852 -0.0029549848 0.024218678 0.113828056 -0.1413713 -0.053026877 0.07883381
-0.11895032 -0.09987801 -0.19705836 0.09291055 0.15782078 0.059291553 -0.017898018 0.2277357
0.2523009 0.07190367 0.006128983 -0.18193597 0.0810314 0.08881682 -0.18063541 0.05304699
0.20408002 0.14133091 0.25931665 -0.19935106 0.3225364 -0.16471611 0.13964231 -0.10379218
-0.164092 -0.036240257 0.10784499 0.08489054 -0.023225158 0.21365418 -0.032695644 0.096868284
-0.08848971 0.13078342 0.22496794 -0.1593001 -0.038592335 0.071779214 -0.016627204 -0.080952674
00000000: d2dc ee3d f0d7 a63d 437b 86bc 3c9d 4abe
00000010: 5b1f 66bd ad22 e9bd 19c4 2a3e fad4 39be
00000020: 500e aebd 00a1 af3e 780b 7b3d 7fa4 b63e
00000030: 929e 413c c3d4 18be fe8b 0b3e 7b17 efbd
00000040: 30f2 2e3e 3455 aa3e 132f a8bd 0349 523e
00000050: 1aeb 773e 0933 653e 273c 5cbe 3993 f43d
00000060: 1d2e 5d3e 7141 a43e 23d3 24bf bca8 5cbe
00000070: 4df2 7fbe 12a7 ebbd eaac 623e 07d3 773e
00000080: 5b76 3bbd 5ae1 53bd 105d 1b3e 6472 593e
00000090: 08a1 aebd 1652 463e b364 32be 2786 2cbe
000000a0: 5edd 1abd a4e3 dabd ac04 a23c 2751 e0bc
000000b0: 0d84 bfbe aa4b aa3e a33d 223e 2223 703e
000000c0: afa6 1c3e 2bc7 d5bd d2b3 1c3e ea12 95bb
000000d0: 8f62 343e e739 a0be 2076 2bbe 674b ba3e
000000e0: 853c 173e 0603 16be 0468 0abe 095a dcbc
000000f0: 6795 243e e5a5 903e 0b62 14be e780 e7bd
00000100: e3e2 153d 1963 c53c 734e 18bd f5f7 d0bd
00000110: e7aa 843d 2cd0 883e 7716 11bd 17b5 1fbe
00000120: 4036 963e 93fb 303d 919a 483e 06bf 033e
00000130: 0cc0 c1bd 0f36 043e 6365 95bb 7ebb 26bd
00000140: 8173 de3d f7c3 773e e908 8fbe 7557 553e
00000150: 7e35 203d 46e6 363e 39b7 d33e f707 b43c
00000160: 379b a1bd b482 4dbe c25e 73bd c98c 6fbd
00000170: 043b 023e 9afb dc3c 03a0 1f3e 3f35 d93d
00000180: 7835 053e cc41 8c3e 2653 ba3c aac9 ef3c
00000190: 4b31 423e cf3e 3ebe ca6c 93bd ca46 1dbe
000001a0: a658 183e ee93 083e 73f0 823e ca5b c9bd
000001b0: 69c2 0c3e a93a 7bbe 8aa9 11be ad2a aabe
000001c0: b96f ab3e 47c1 66bd 3614 8bbd 2315 743e
000001d0: 2d5c e73d 5bf0 1e3e 03fb 8cbd 3f28 18be
000001e0: 7735 0b3f d1e8 b3bc 83cc aabe 056c 13be
000001f0: bc0f 983d 3984 1f3e e0b9 80be 6de3 1fbe
00000200: e9e9 153d f5bf d43e d8be 79bc a5e7 a9bd
00000210: 7f60 a73d 5bfe 14be 9529 49be e8f1 c03d
00000220: abf4 643e cc9e a53e 759e 283e 3f60 d3bd
00000230: 8302 e13d 7779 4f3e 0d14 90bd f2f8 07be
00000240: d8b4 7d3e d8e8 2abe c8bd c53e 07e6 4dbe
00000250: 45fa 3f3d 144e afbd 5012 5abd 8ecd 83bc
00000260: cb7d e93d 7108 08bc 7059 673d cf7e 703e
00000270: 9ba7 bd3d a0ed 933e b2fe 163e b2dc 4e3d
00000280: b1da 4ebe de23 693e f9eb a63d aa09 233e
00000290: 5068 8dbe f652 75be 9521 f3bd b04c 4e3e
000002a0: 708d 343e 5c10 88be c002 00be f8ac 1c3e
000002b0: f3e1 d4bc 1e1b dcbc 0725 9f3e 859a 7bbe
000002c0: 1fdf b2bd f020 67be 2784 b6bd d749 83bc
000002d0: aaee bebe 5e61 493d 3b5d 71bc 9a11 863e
000002e0: e6e5 7d3e 87a0 d63d ead9 05be 3a74 f6be
000002f0: 128f 433e 4df0 13be 152a 163e 384d 793c
00000300: ccf1 2f3e a373 1f3e cfa5 d4bd 504e aa3e
00000310: 4071 2d3e 4945 10bd 1cc8 43be aa92 ce3d
00000320: 5817 343c d84e 233e e504 e93d 28a3 9fbd
00000330: b591 d7bd aef1 313e df5f a43d 461f 473e
00000340: 90b0 803e a273 c73d 6ba8 41bb 4066 c63c
00000350: af1e e93d a3c3 10be b632 59bd 9f73 a13d
00000360: 3a9c f3bd d88c ccbd abc9 49be e347 be3d
00000370: c59b 213e b3db 723d dd9e 92bc 8c33 693e
00000380: 952d 813e 3b42 933d a3d5 c83b 6c4d 3abe
00000390: caf3 a53d 98e5 b53d 7df8 38be cd47 593d
000003a0: 5afa 503e 0db9 103e 27c5 843e af22 4cbe
000003b0: 7e23 a53e 57ab 28be 65fe 0e3e ff90 d4bd
000003c0: bc07 28be aa70 14bd d6dd dc3d 17db ad3d
000003d0: b042 bebc 29c8 5a3e deeb 05bd e162 c63d
000003e0: 183a b5bd 17ec 053e ff5d 663e 911f 23be
000003f0: ff12 1ebd fb00 933d c635 88bc 84ca a5bd

net.0.bias f4 [128]
0.10343073 0.22121717 0.2197021 0.051419992 -0.036968205 -0.058083486 -0.0042950264 0.01562281
-0.10496832 -0.014909565 0.07859605 0.25526232 0.04367493 0.043598272 -0.02846959 -0.10612808
-0.07572521 0.02916398 -0.03610301 0.016807437 -0.15474938 0.20347044 0.17025392 -0.18695879
-0.10198389 0.14883976 0.0067791296 0.14237352 0.25663528 -0.14700086 0.13856694 0.19820967
-0.11503536 0.15154038 -0.014612692 0.097247444 -0.15940654 -0.169982 -0.095363215 0.26154882
0.07578011 -0.14115815 -0.14615679 -0.0055309 -0.057076566 -0.0044537787 0.13555774 -0.15833825
-0.009810141 0.221021 0.15902798 -0.09040121 0.05461339 -0.13560757 0.27220833 -0.06257862
-0.047523543 0.25111234 -0.05505807 -0.14493637 -0.033704836 0.14192417 -0.008865756 0.16082056
0.16281892 0.15010035 0.07438136 0.29898548 -0.041952524 0.124814264 0.029576732 0.1322447
-0.07701002 0.20559427 0.1308147 -0.025019448 0.21116203 -0.021682028 0.16640282 0.16301137
-0.13436802 0.04982388 -0.050865114 0.24676022 -0.19501759 0.04202652 0.27840686 0.2197953
-0.07623876 -0.2278414 0.026667317 0.008919856 0.14355677 0.1843395 0.2730107 0.09019735
0.025738051 0.06010653 0.017260438 0.116527 0.18349966 0.0845074 0.23414981 -0.02587582
-0.0038209278 0.17203055 0.05998787 -0.024082305 0.04281313 0.027591318 0.13628015 0.16444567
0.23914129 -0.167961 -0.09959956 -0.11726467 0.23233818 0.18975605 0.024546033 -0.13858135
0.070316456 0.037517812 -0.12881482 -0.14826216 -0.021359066 -0.07517028 -0.08498635 0.2702737
00000000: 7ed3 d33d c186 623e 96f9 603e c59d 523d
00000010: f96b 17bd f3e8 6dbd 4bbd 8cbb d1f6 7f3c
00000020: a1f9 d6bd 4047 74bc f7f6 a03d beb1 823e
00000030: 7ce4 323d 1a94 323d 0f39 e9bc ae59 d9bd
00000040: d215 9bbd 4de9 ee3c c0e0 13bd c0af 893c
00000050: 9f76 1ebe 8e5a 503e 0b57 2e3e 2072 3fbe
00000060: eedc d0bd 7369 183e 7623 de3b 5dca 113e
00000070: b365 833e 6587 16be 7ee4 0d3e 7af7 4a3e
00000080: a997 ebbd 672d 1b3e 136a 6fbc ab29 c73d
00000090: 783b 23be c30f 2ebe ca4d c3bd bae9 853e
000000a0: 9a32 9b3d c38b 10be 20aa 15be 8d3c b5bb
000000b0: 1ec9 69bd 01f1 91bb a6cf 0a3e 6c23 22be
000000c0: b7ba 20bc 5453 623e 3bd8 223e 4524 b9bd
000000d0: 4ab2 5f3d b6dc 0abe e45e 8b3e 3829 80bd
000000e0: 0ca8 42bd cc91 803e 9284 61bd 336a 14be
000000f0: 150e 0abd 9254 113e ad41 11bc 25ae 243e
00000100: 01ba 263e e8b3 193e 4155 983d a014 993e
00000110: 69d6 2bbd 9f9e ff3d e74a f23c 286b 073e
00000120: 6eb7 9dbd 4e87 523e 4af4 053e 96f5 ccbc
00000130: dc3a 583e 829e b1bc 8065 2a3e 74ec 263e
00000140: c597 09be 2014 4c3d f057 50bd b6ae 7c3e
00000150: b1b2 47be 0024 2c3d 588b 8e3e 0512 613e
00000160: 1123 9cbd 424f 69be 6b75 da3c 9624 123c
00000170: 8c00 133e 7ec3 3c3e 0fc8 8b3e 63b9 b83d
00000180: 9bd8 d23c 4432 763d c365 8d3c b5a5 ee3d
00000190: 56e7 3b3e 3712 ad3d f8c4 6f3e 87f9 d3bc
000001a0: 8868 7abb c728 303e d7b5 753d 4148 c5bc
000001b0: d25c 2f3d 3007 e23c 068d 0b3e 7264 283e
000001c0: 74e1 743e f8fd 2bbe dbfa cbbd 7628 f0bd
000001d0: 0fea 6d3e 694f 423e c314 c93c 45e8 0dbe
000001e0: 1302 903d 47ac 193d 08e8 03be 09d2 17be
000001f0: 35f9 aebc e0f2 99bd 530d aebd 5061 8a3e

net.2.weight f4 [128, 128]
-0.16575408 0.34805468 -0.119029544 0.08193369 -0.07685972 0.11093924 0.010357705 -0.12993564
-0.04354533 -0.0027275905 -0.004318192 0.094415836 0.16728197 -0.17569257 0.1059907 0.12261079
-0.034583163 -0.24867028 0.024815755 -0.037696205 0.14025268 -0.017619321 0.039350916 0.12343013
-0.10687225 0.08187812 0.25282684 -0.09374592 0.08468738 -0.054639626 0.15284869 0.063758165
0.10912381 0.03553011 -0.3131356 -0.018069556 -0.16832818 -0.10688855 0.023500001 0.27383035
0.008511059 0.32782617 -0.069158964 0.052457534 -0.079996444 0.01210423 -0.1108163 -0.1378388
0.087272495 0.20821896 0.14564466 0.2760868 -0.42806384 0.06246981 0.08469738 0.04103553
0.52923644 0.14479373 0.035423215 0.08012486 -0.15999086 -0.040491894 -0.13072832 0.17223813
0.09764338 0.08775238 0.053625766 0.021378843 -0.026234616 0.010059076 -0.031398244 0.08265476
-0.01429291 -0.0033100834 0.43273434 -0.046194024 -0.21369511 0.0631218 0.1397299 0.012800678
0.49627575 0.06192226 0.041216053 0.058354273 0.04622641 -0.3037863 -0.03604186 0.10301627
-0.0024859016 -0.5251392 -0.17495632 -0.019396573 0.08300804 -0.06605529 0.093976125 -0.11247652
0.06281227 -0.09370083 -0.27210003 0.096556604 -0.16369317 0.083311915 0.11317447 -0.08021008
0.046418928 0.08479723 -0.14755796 0.11604454 0.09989364 -0.02100082 0.03269429 -0.014200405
0.13851982 -0.23861851 0.08345535 -0.12148475 -0.20671828 0.33006898 -0.47004762 0.030491283
0.25723612 -0.003948633 -0.014634397 -0.031011561 0.07327181 -0.024639063 -0.15899058 -0.05653482
0.03151743 0.4034091 0.062337257 0.037384875 -0.039042283 -0.15179355 -0.028920617 0.03169818
0.0914454 -0.041024584 -0.060504034 0.10173338 -0.16514091 -0.04095734 -0.0041030017 0.5343102
0.066952154 -0.1499314 -0.37252638 0.2963837 -0.48285958 -0.3540374 -0.083039165 -0.007825725
-0.31747654 0.040977813 0.11162122 0.014504397 0.089169316 0.071935 0.05944699 0.018721336
0.041631825 0.11874565 -0.110916264 -0.013846638 0.14802404 0.049815357 0.22210743 -0.024164498
-0.00948629 -0.055141993 -0.06176888 -0.16484031 0.09586532 0.11487312 0.19152717 0.05992913
-0.25300688 -0.11852236 0.063198246 0.26109833 0.028662033 0.12756404 0.063826784 -0.05321845
-0.07342744 0.08869242 0.16609755 0.2633098 -0.08707244 0.05505686 -0.54864424 0.02942633
0.034027107 0.014728851 0.15331349 0.073393255 0.10905562 0.054406773 0.24675445 0.076158084
-0.14219043 0.2707313 -0.13872913 -0.43291643 -0.46940485 -0.003955485 0.012516151 0.012284301
0.32632294 0.04990963 0.06411416 0.35756382 -0.023789216 0.03374514 -0.1254833 0.0184898
-0.05350381 0.15820074 0.116365865 0.10277763 0.13918026 -0.07591169 0.07893318 -0.16261493
0.08738703 0.3492186 0.088013396 -0.049770672 0.017583247 0.27593085 -0.24388061 -0.14379199
-0.18275534 0.0908861 0.017665733 -0.059216212 0.30444974 0.03615481 -0.3007858 -0.07768106
-0.038952097 -0.3826205 -0.059100624 -0.19587666 0.11249211 0.3172262 0.15810317 0.06878698
0.11267179 0.10106321 -0.007199124 0.03721868 -0.19532737 -0.25901163 -0.058816507 0.07989349
00000000: 70bb 29be 3934 b23e c3c5 f3bd dacc a73d
00000010: a168 9dbd 1d34 e33d 5db3 293c d90d 05be
00000020: 975c 32bd 60c1 32bb 9f7f 8dbb 175d c13d
00000030: f74b 2b3e c1e8 33be a711 d93d 5e1b fb3d
00000040: 13a7 0dbd 6ca3 7ebe 694a cb3c 5667 1abd
00000050: 669e 0f3e 6556 90bc 6d2e 213d f0c8 fc3d
00000060: d7df dabd b7af a73d 8572 813e dcfd bfbd
00000070: 9470 ad3d cdcd 5fbd 5e84 1c3e a493 823d
00000080: 4e7c df3d 0588 113d 4f53 a0be 9b06 94bc
00000090: 395e 2cbe 62e8 dabd 1383 c03c 7e33 8c3e
000000a0: f871 0b3c d5d8 a73e 37a3 8dbd b6dd 563d
000000b0: 2dd5 a3bd d250 463c a8f3 e2bd 9d25 0dbe
000000c0: ecbb b23d 5a37 553e e023 153e 405b 8d3e
000000d0: 2f2b dbbe 58e0 7f3d d275 ad3d df14 283d
000000e0: 0a7c 073f cf44 143e ef17 113d 8118 a43d
000000f0: a5d4 23be d4da 25bd a5dd 05be 315f 303e
00000100: 41f9 c73d 85b7 b33d b1a6 5b3d af22 af3c
00000110: fae9 d6bc d3ce 243c 729b 00bd e646 a93d
00000120: cf2c 6abc fced 58bb 5b8f dd3e f235 3dbd
00000130: e4d2 5abe 0146 813d 5b15 0f3e efb9 513c
00000140: db17 fe3e 32a2 7d3d 2ad2 283d e404 6f3d
00000150: e757 3d3d e189 9bbe a1a0 13bd 32fa d23d
00000160: 82ea 22bb 866f 06bf c027 33be 90e5 9ebc
00000170: 1f00 aa3d ff47 87bd 8e76 c03d 175a e6bd
00000180: b8a3 803d 39e6 bfbd b250 8bbe 78bf c53d
00000190: 2f9f 27be 709f aa3d 04c8 e73d 2f45 a4bd
000001a0: c621 3e3d 2caa ad3d 6f19 17be c3a8 ed3d
000001b0: 0995 cc3d e909 acbc 73ea 053d d1a8 68bc
000001c0: 24d8 0d3e 6958 74be a3ea aa3d ffcc f8bd
000001d0: f5ad 53be cdfe a83e 15aa f0be dbc8 f93c
000001e0: 74b4 833e 8963 81bb 1cc5 6fbc f50b febc
000001f0: 880f 963d dcd7 c9bc 6dce 22be 0e91 67bd
00000200: 6c18 013d a38b ce3e 5a55 7f3d e220 193d
00000210: cdea 1fbd c56f 1bbe eeea ecbc f3d5 013d
00000220: ba47 bb3d 6509 28bd 14d3 77bd 9759 d03d
00000230: b31a 29be e2c2 27bd 7972 86bb 8ec8 083f
00000240: 361e 893d 9e87 19be c7bb bebe 9bbf 973e
00000250: 5f39 f7be 6444 b5be 7010 aabd 7837 00bc
00000260: 498c a2be 5ad8 273d ab99 e43d daa3 6d3c
00000270: 679e b63d a852 933d b07e 733d 7d5d 993c
00000280: 2286 2a3d eb30 f33d 1128 e3bd 02dd 62bc
00000290: 9d93 173e 300b 4c3d 2170 633e a0f4 c5bc
000002a0: 626c 1bbc 92dc 61bd 5d01 7dbd e6cb 28be
000002b0: 0955 c43d 9942 eb3d b31f 443e 3f78 753d
000002c0: 1e8a 81be dabb f2bd 156e 813d aeae 853e
000002d0: a4cc ea3c 26a0 023e 9eb7 823d 97fb 59bd
000002e0: 2061 96bd 5fa4 b53d 7a15 2a3e 8bd0 863e
000002f0: 0953 b2bd 4d83 613d f373 0cbf 7d0f f13c
00000300: 0260 0b3d 4751 713c 36fe 1c3e 344f 963d
00000310: 8e58 df3d a3d9 5e3d 33ad 7c3e c5f8 9b3d
00000320: 5e9a 11be 4b9d 8a3e 020f 0ebe 39a7 ddbe
00000330: d555 f0be 039d 81bb 8b10 4d3c 1844 493c
00000340: cd13 a73e 0a6e 4c3d 494e 833d 9b12 b73e
00000350: 9ae1 c2bc 5838 0a3d b27e 00be ec77 973c
00000360: d026 5bbd 60ff 213e 3a51 ee3d 147d d23d
00000370: 4585 0e3e 9777 9bbd b8a7 a13d 8784 26be
00000380: f9f7 b23d c8cc b23e 5e40 b43d 55dc 4bbd
00000390: be0a 903c cf46 8d3e d7bb 79be 353e 13be
000003a0: 3724 3bbe 7e22 ba3d bab7 903c b38c 72bd
000003b0: d6e0 9b3e 1117 143d 9900 9abe 3f17 9fbd
000003c0: 3c8c 1fbd d6e6 c3be 7f13 72bd e493 48be
000003d0: 4362 e63d 796b a23e cce5 213e 30e0 8c3d
000003e0: 78c0 e63d 3afa ce3d a1e6 ebbb 9d72 183d
000003f0: e603 48be 2c9d 84be 94e9 70bd 339f a33d

net.2.bias f4 [128]
-0.07781938 0.04880642 0.119270526 -0.010847661 -0.041887093 0.07548474 0.095637284 0.100811884
-0.042463906 0.08549004 -0.00862451 0.017535426 -0.021325393 0.048503064 0.038157173 0.107218474
0.13438551 0.12405808 -0.010716476 0.09607587 0.035635132 -0.010700766 0.047732573 0.05619114
-0.025610162 0.11235431 0.07325833 -0.08677739 0.014111417 0.054806802 0.056071468 -0.025086435
-0.079260424 0.020686936 0.086610146 -0.0603497 0.043819867 0.0012603464 0.122477144 0.03889868
-0.0406286 -0.04431533 0.0776903 0.08868184 0.06882551 0.09084313 0.0550317 -0.07088243
0.051842142 0.045338653 0.00072316226 0.02962999 0.11365125 -0.08067044 -0.03608705 0.11119924
0.058189876 0.028404724 -0.010129918 0.024415297 -0.040778093 0.15289938 0.12670156 0.062604114
0.057005096 0.001960432 -0.00025461963 0.09630512 -0.013675772 -0.012133166 0.08115274 -0.014677023
0.046577122 -0.01679274 0.030638684 0.05201814 0.090225734 0.044688724 -0.0023803464 -0.033647697
0.13390431 0.054244414 -0.04368138 0.0684884 0.036188606 -0.073234975 0.15089278 0.07773927
0.0067747175 -0.05197244 0.034836695 -0.022059426 0.01775608 0.044463422 -0.05763636 -0.024875885
-0.05390171 0.006381766 -0.024067266 0.0656009 0.013215033 0.024765817 -0.034489788 -0.087072685
0.13925077 0.054794747 0.10931456 0.1286958 -0.045500956 0.13713086 0.034492433 0.07772806
-0.035628304 0.06781246 0.08562611 0.12456878 -0.011806087 -0.0138683 0.10301955 -0.00022258375
-0.054016918 0.051203895 0.025931515 0.10717281 0.12337163 0.030218985 0.048287 -0.0696878
00000000: c45f 9fbd 3ee9 473d 1b44 f43d 63ba 31bc
00000010: cd91 2bbd be97 9a3d 7bdd c33d 7676 ce3d
00000020: a2ee 2dbd 6715 af3d d14d 0dbc 74a6 8f3c
00000030: 97b2 aebc 26ab 463d b24a 1c3d 5c95 db3d
00000040: 5b9c 093e 2a12 fe3d 2894 2fbc 6dc3 c43d
00000050: 25f6 113d 4452 2fbc 3b83 433d ae28 663d
00000060: 67cc d1bc 041a e63d 7708 963d 58b8 b1bd
00000070: 9333 673c 197d 603d 32ab 653d 1182 cdbc
00000080: 4a53 a2bd a677 a93c a960 b13d 3f31 77bd
00000090: 767c 333d 3532 a53a 4cd5 fa3d 3954 1f3d
000000a0: 2d6a 26bd fe83 35bd 181c 9f3d d39e b53d
000000b0: 64f4 8c3d f70b ba3d eb68 613d cf2a 91bd
000000c0: 6d58 543d 06b5 393d 9992 3d3a 98ba f23c
000000d0: fdc1 e83d 8b36 a5bd 04d0 13bd 6dbc e33d
000000e0: 8258 6e3d 06b1 e83c f5f7 25bc 9702 c83c
000000f0: ee06 27bd a891 1c3e 0ebe 013e 9636 803d
00000100: 2d7e 693d 977a 003b 787e 85b9 9e3b c53d
00000110: 5810 60bc 30ca 46bc 6833 a63d e577 70bc
00000120: a7c7 3e3d ee90 89bc fafd fa3c f910 553d
00000130: 45c8 b83d 860b 373d 96ff 1bbb 2bd2 09bd
00000140: 361e 093e 642f 5e3d 3feb 32bd a543 8c3d
00000150: 813a 143d 38fc 95bd a383 1a3e c435 9f3d
00000160: 73fe dd3b 0ee1 54bd ecb0 0e3d f8b5 b4bc
00000170: 3375 913c 471f 363d 1b14 6cbd 83c8 cbbc
00000180: 0ac8 5cbd 221e d13b b728 c5bc c459 863d
00000190: de83 583c afe1 ca3c 2a45 0dbd 2a53 b2bd
000001a0: c197 0e3e 7570 603d 50e0 df3d d5c8 033e
000001b0: 365f 3abd 086c 0c3e f047 0d3d e42f 9f3d
000001c0: fcee 11bd 42e1 8a3d be5c af3d eb1d ff3d
000001d0: 516e 41bc de37 63bc eafb d23d 5f65 69b9
000001e0: d840 5dbd 2dbb 513d 546e d43c 6b7d db3d
000001f0: 44aa fc3d ce8d f73c 97c8 453d 7ab8 8ebd

net.4.weight f4 [7, 128]
0.2235891 0.089972086 0.051593162 0.07593834 0.20925339 0.048321385 0.0247598 -0.007683369
0.334895 0.18361318 -0.054074604 0.08493761 0.15682742 0.15813404 -0.036838148 0.13098703
-0.029580671 0.18104729 0.33023706 0.08608187 0.068404004 -0.27946037 0.16984142 -0.09333826
-0.029781478 0.14384134 0.12616155 0.18026876 0.05898195 0.092187054 0.06433197 0.070365064
0.022281868 0.18331933 0.068211466 0.17871423 0.23472664 0.06123448 0.04072716 -0.1538664
-0.0787366 -0.032456335 0.11580313 0.23034206 0.06580968 0.0039248257 -0.11739246 -0.035728496
0.39566028 0.21624571 0.06566524 0.12440681 0.019169424 -0.11907236 -0.49159223 0.22641057
0.17523059 0.07641536 0.0014134212 0.113738246 0.20247635 0.14747526 0.009952713 0.11109902
-0.28841662 0.20502596 0.081642404 0.070810154 0.24074222 0.13769507 0.19666232 0.16764107
0.10703033 -0.034269303 -0.04663274 0.24827361 0.06695325 0.17753324 -0.00044394922 0.07712428
-0.082720555 0.21288204 -0.3765679 -0.032944094 0.1662586 0.04839184 -0.039810654 0.11061246
0.099965714 0.016853955 -0.061091527 -0.26808605 -0.047704987 0.09564317 0.00060437416 0.13975056
0.10030897 0.020556204 0.094600454 -0.042611785 0.20316133 0.19058727 0.05508619 -0.021394204
0.052778244 0.22035302 0.16665256 0.078767546 0.19855413 0.013805643 -0.046305098 0.15523465
-0.07086337 -0.05687715 0.14284138 0.13064447 -0.09479231 0.035327394 0.07762578 -0.002105585
-0.21667843 0.1445006 0.012227829 0.15073402 0.1488546 0.13781628 0.56834835 -0.0762343
-0.1284517 -0.049666166 0.059032243 0.0109937 -0.035134163 -0.4428837 -0.037931506 0.10919129
0.27772567 -0.14253859 0.0048196604 0.09957428 0.12317491 0.1403323 -0.08560487 0.20596987
0.18778868 0.15202653 0.19810005 0.14895128 0.21013314 -0.6496249 0.10990957 -0.016692795
0.011500685 -0.089883335 0.15555646 0.1334674 0.008386664 -0.11338078 0.24926561 0.20855281
0.016580116 -0.056293737 0.18788871 0.022954244 0.19215621 0.14106193 0.21315913 0.16827475
-0.15301675 0.4945275 0.15497519 -0.14382817 -0.12624674 0.12453646 0.05259874 -0.18335247
-0.33820328 0.19830754 -0.04775869 -0.17451599 0.14057457 0.13543093 0.39229617 0.042751413
0.2847075 0.09252234 -0.06326358 0.10035007 -0.05349587 0.18755206 0.092212446 0.12034146
-0.17612788 -0.036470387 -0.02125024 0.213581 -0.021862654 0.110314116 0.13931268 0.15755826
0.09831744 0.15142618 -0.029334432 0.23205593 0.21058969 0.013034531 0.20209819 -0.28894824
0.1357301 -0.15822403 -0.6918013 -0.32264912 0.18345837 -0.07039921 0.14111333 -0.019843167
0.27003738 -0.0014109067 0.16642103 -0.580217 0.057378683 0.11391776 -0.34916937 0.059804406
0.13430159 0.17483717 0.046904158 0.09385616 0.155939 -0.5762609 0.020770146 0.0024290492
-0.0346203 -0.03184807 0.1474526 0.15779017 0.20941532 0.14262775 -0.036421914 0.2056568
-0.35881752 0.0515198 0.21414758 0.11314822 -0.17687096 -0.0700179 0.17927918 0.16274706
-0.22343045 0.17222087 0.15629159 0.093118176 0.04222999 0.08694195 0.3233191 0.041807733
00000000: 8bf4 643e 4943 b83d 5a53 533d 8f85 9b3d
00000010: 8546 563e a5ec 453d 10d5 ca3c c5c4 fbbb
00000020: 5c77 ab3e 1805 3c3e 557d 5dbd c5f3 ad3d
00000030: 5e97 203e e4ed 213e 99e3 16bd 7721 063e
00000040: 2a53 f2bc 7664 393e d514 a93e b14b b03d
00000050: 6617 8c3d 6e15 8fbe e9ea 2d3e 2128 bfbd
00000060: 49f8 f3bc 254b 133e 7e30 013e 6098 383e
00000070: 0f97 713d 91cc bc3d 7bc0 833d 8f1b 903d
00000080: 7788 b63c 10b8 3b3e 74b2 8b3d dd00 373e
00000090: 2e5c 703e 02d1 7a3d 86d1 263d 278f 1dbe
000000a0: a840 a1bd eff0 04bd 312a ed3d cade 6b3e
000000b0: 3ac7 863d d39b 803b 756b f0bd 0b58 12bd
000000c0: fc93 ca3e 846f 5d3e 7f7b 863d ffc8 fe3d
000000d0: 3209 9d3c 36dc f3bd fab1 fbbe 2cd8 673e
000000e0: a66f 333e a87f 9c3d 8c42 b93a 99ef e83d
000000f0: f655 4f3e c103 173e b410 233c e287 e33d
00000100: 58ab 93be 53f2 513e 2234 a73d ea04 913d
00000110: 2185 763e f0ff 0c3e d961 493e 1aaa 2b3e
00000120: b832 db3d f85d 0cbd f901 3fbd 703b 7e3e
00000130: c91e 893d 46cb 353e dbc1 e8b9 56f3 9d3d
00000140: 6569 a9bd c0fd 593e 82cd c0be 63f0 06bd
00000150: b23f 2a3e 8636 463d 7f10 23bd c988 e23d
00000160: d3ba cc3d 4e11 8a3c 1c3b 7abd 9342 89be
00000170: 4e66 43bd 91e0 c33d dd6e 1e3a c51a 0f3e
00000180: ca6e cd3d 7c65 a83c e2bd c13d b289 2ebd
00000190: 8609 503e 4f29 433e 0fa2 613d e642 afbc
000001a0: 002e 583d 39a4 613e f8a6 2a3e e150 a13d
000001b0: c651 4b3e 1031 623c 6aaa 3dbd d5f5 1e3e
000001c0: d120 91bd 04f8 68bd 0345 123e aac7 053e
000001d0: 7822 c2bd 75b3 103d 44fa 9e3d dbfd 09bb
000001e0: f3e0 5dbe f7f7 133e 3b57 483c 055a 1a3e
000001f0: 576d 183e b61f 0d3e 477f 113f bb20 9cbd
00000200: d888 03be c06e 4bbd cbcb 713d eb1e 343c
00000210: d7e8 0fbd a7c1 e2be 115e 1bbd af9f df3d
00000220: 0f32 8e3e a3f5 11be 3eee 9d3b 9aed cb3d
00000230: 2143 fc3d 45b3 0f3e 9b51 afbd c4e9 523e
00000240: ad4b 403e d8ac 1b3e bdda 4a3e af86 183e
00000250: 242d 573e d14d 26bf 4518 e13d 54bf 88bc
00000260: 5e6d 3c3c c114 b8bd 314a 1f3e aeab 083e
00000270: 3868 093c 2f34 e8bd 7c3f 7f3e de8e 553e
00000280: 06d3 873c 4394 66bd e665 403e 8a0a bc3c
00000290: 99c4 443e 8a72 103e 6346 5a3e 3750 2c3e
000002a0: 6cb0 1cbe b532 fd3e d1b1 1e3e b147 13be
000002b0: d346 01be f90c ff3d c771 573d c0c0 3bbe
000002c0: fb28 adbe 2211 4b3e 9e9e 43bd 52b4 32be
000002d0: c8f2 0f3e 68ae 0a3e 0bdb c83e 1b1c 2f3d
000002e0: 2ec5 913e 5a7c bd3d 5690 81bd 5684 cd3d
000002f0: 7c1e 5bbd a60d 403e e1d9 bc3d 9575 f63d
00000300: de5a 34be f961 15bd fc14 aebc fab4 5a3e
00000310: 4f19 b3bc 5eec e13d fca7 0e3e f456 213e
00000320: a75a c93d 770f 1b3e c34e f0bc 12a0 6d3e
00000330: d3a4 573e c98e 553c d4f2 4e3e 06f1 93be
00000340: d5fc 0a3e 7b05 22be e419 31bf 4432 a5be
00000350: 83dc 3b3e 762d 90bd 0380 103e 238e a2bc
00000360: 5742 8a3e 2cee b8ba 466a 2a3e 1a89 14bf
00000370: e905 6b3d b74d e93d 54c6 b2be 77f5 743d
00000380: 5b86 093e 8408 333e 931e 403d a937 c03d
00000390: 79ae 1f3e d685 13bf 2726 aa3c af30 1f3b
000003a0: 04ce 0dbd 1f73 02bd d0fd 163e bf93 213e
000003b0: f870 563e 020d 123e 252f 15bd b297 523e
000003c0: eeb6 b7be 6d06 533d 8149 5b3e 41ba e73d
000003d0: a91d 35be 8b65 8fbd f694 373e 2aa7 263e
000003e0: f4ca 64be ab5a 303e e70a 203e beb4 be3d
000003f0: 5bf9 2c3d 9f0e b23d 158a a53e 963e 2b3d

net.4.bias f4 [7]
0.016111162 0.142082 -0.042388964 -0.023178102 0.005526538 -0.046665248 0.053113166
00000000: 8efb 833c f27d 113e 0da0 2dbd 01e0 bdbc
00000010: f617 b53b 0f24 3fbd 318d 593d
