coup_nsfp/nfsp_coup_demo_avg_strategy.pt (torch, 86341 bytes, 6 tensors)

net.0.weight f4 [128, 25]
00000000: b6f9 9f3d 3e37 77bd 650c 0c3c 25ac 92be
00000010: f31e 1ebd d9aa c23d fbaa eebd ef0a 1f3e
00000020: 7dbf 373e 4962 79be 5e18 973e 82bd 933d
00000030: f45d 213c 0f0f 2abe 5fe4 013c d8fc 3dbe
00000040: 9dcf 223e 4eb1 a3be 708a 9fbd e6b4 a43c
00000050: 3b55 04be 8c80 dabd 66b6 893e ddd0 c33d
00000060: 2b1e cbbd a708 84bd b98c 8abd f277 683e
00000070: 5253 01be 5058 133e 97ac af3e 4260 453e
00000080: c203 ea3c 817f 4ebd c283 493e b75b afbe
00000090: 0ede 81be 0e9e 3f3e 2d27 bbbd 02ba 623e
000000a0: d16b 1c3d f499 153e e95f 35be 131d 2b3e
000000b0: 8adb 44be e6a1 b53e 26cc a8be 59dc f63d
000000c0: 97a0 f43d 5634 84bd a18c 2a3e b23c 493e
000000d0: eaae 0e3e 1ad4 02be c385 e73c 84c8 b5be
000000e0: f51e 063d 1eb0 3e3e e3ae 4c3e f6f4 3dbe
000000f0: 966c 543e da09 323e d9d3 24be a048 e3bd
00000100: 717e 7a3e 718d 58bd dc1f 5b3d bd93 fc3d
00000110: 32c2 31be 9e96 1a3e 3594 14be bef0 2cbe
00000120: 1961 23be 7204 2dbd b117 a33d bdf9 703e
00000130: b57c 633e 8e04 413e 5ee1 143e 7331 bdbd
00000140: bd37 abbe 1b9e 2e3e 1ffe 753e d1d3 2bbd
00000150: 47a9 4d3d b77f d33e a860 04be ad2c 2a3d
00000160: 5ae7 b23c 2bf8 32be ce30 443c 349b 15bd
00000170: 42f0 45be cd6a 1abd 862e 1cbe 42aa ae3d
00000180: 63e8 7cbe 3b38 0c3d 8d60 96be d528 a4bb
00000190: 3e2c 053e f355 e53d 9b5c 89bd 6d57 f5bd
000001a0: 8ee9 4f3e f985 753e 95e8 00bc a90e 733e
000001b0: c97f 9b38 5b43 473d 3f48 5e3e 5e22 92be
000001c0: 7050 7c3d ca32 833d 5cbf f83d 3b84 273e
000001d0: 7874 22be 6c29 243e cacd 90bd 03db 1dba
000001e0: ba0d 19be 5977 223d 0309 b13c f389 1dbe
000001f0: 98bd dcbc 6af0 16bd 94f4 e83d 1090 45be
00000200: 231e 92be 70c6 683e 3c8c 0dbe cec5 b3bd
00000210: 15f4 053e 81e0 463e 3147 ad3d fd04 6b3e
00000220: a3d1 e33d 1115 203e 28a2 4bbe c82c 07be
00000230: 70d2 813d 1466 3a3d 1c85 c5bd a7e2 c33d
00000240: 350a f63d 8aa8 ec3d ec3f c7bd 2039 3abe
00000250: 3a56 66be f5d2 02be 9978 843e 891c d4bd
00000260: e52e e23d 8f97 fabc 71f1 0b3b 3a94 a2be
00000270: b414 a03d 5771 32bd 9b39 6a3e a56d 943d
00000280: 3e70 803e 95c4 6d3d 1ca8 cb3d 6537 053e
00000290: 7b53 f2bd 1a46 acbe 4f21 943c bb30 973e
000002a0: aaa5 3cbe 06f8 86be b848 33be 880b 823e
000002b0: 5d0a 803e a676 363e ff65 763e 6434 89be
000002c0: efca 533c d2a5 933d 666f a73d da4d 6d3e
000002d0: 7ed9 173e 57e8 743d d568 65bc b537 013e
000002e0: 457c fd3c 130a 393e 9497 f4bd 3947 4bbd
000002f0: 33c8 a6bc caeb cfbd 2267 a03c bf9c 34ba
00000300: 2c07 94be 572c 803d 1d72 d0bc 8c76 7c3e
00000310: 90e2 71be db11 6f3e 8532 1b3e e3d3 9f3d
00000320: a772 463e 2117 d23d 9e34 5a3c 7b70 1f3e
00000330: 2e08 1ebc b19a 0b3e c23c 86bd 34ce 5c3e
00000340: be9d d9bd e991 53be 0ec4 2cbe b2e7 20be
00000350: 0b9d 163c 70c1 0dbe af1f 093e 58ff 1f3e
00000360: fb14 213e 14fc 3abe c084 413d 1c81 56bd
00000370: 4a99 373e e03d 7d3e b40f 2d3e 561a a7be
00000380: 5dc7 06bd 9663 fcbd 56ed df3d 47c4 343e
00000390: 3272 0b3e 5458 8b3d 843f 473d e993 cf3d
000003a0: ea78 8bbb 5a30 163e 207b af3d 8ec2 c83c
000003b0: 5ef8 1b3d 197f 1bbe daa3 11bd 481b cfbd
000003c0: cebd 53bd 6997 0abe 52fd 283e 40ef fa3c
000003d0: ac1d 493e dd55 88be e9c6 9abd 2f2f 3d3e
000003e0: c893 a13d 1e6e 513d fcdb 253e 3b31 bfbd
000003f0: 1507 3a3d aa97 5a3e f93a 50bd a1f2 cbbe
0.078113005 -0.060355417 0.008547877 -0.2864696 -0.038603734 0.09505243 -0.11653706 0.15531515
0.1794414 -0.24353899 0.29510778 0.0721388 0.00984906 -0.16607307 0.007927983 -0.18553483
0.1589951 -0.3197121 -0.07790077 0.02010579 -0.12923138 -0.106690496 0.2689697 0.09561322
-0.099178635 -0.06446963 -0.06765122 0.22702006 -0.1262944 0.14389157 0.34311363 0.19275
0.028566245 -0.050414566 0.19679168 -0.3424966 -0.25364727 0.18712637 -0.091383316 0.22141269
0.03818876 0.1460951 -0.17712368 0.1671031 -0.19224373 0.3547508 -0.32968253 0.12053747
0.119446926 -0.06455295 0.16655208 0.1965206 0.13933912 -0.12776223 0.028262025 -0.35504544
0.032744367 0.18621871 0.19988589 -0.18550476 0.20744547 0.1738657 -0.16096438 -0.110978365
0.24462296 -0.052869264 0.05349718 0.12332866 -0.17359236 0.15096518 -0.14509661 -0.16888711
-0.15955009 -0.042240568 0.07963503 0.23532768 0.2221554 0.18849394 0.14539096 -0.09237947
-0.33440962 0.170525 0.24022721 -0.04195005 0.050210264 0.41308376 -0.12927496 0.041546512
0.021838833 -0.17477481 0.011974527 -0.036524966 -0.19329932 -0.03769951 -0.15252122 0.08528568
-0.24698023 0.034233313 -0.29370537 -0.0050097504 0.13005158 0.11198034 -0.06707116 -0.11979566
0.20303938 0.23976888 -0.007867952 0.23736061 7.414778e-05 0.04864822 0.21707247 -0.28541845
0.06160015 0.064061716 0.12145874 0.16359036 -0.15864742 0.16031426 -0.07070501 -0.000602171
-0.14946643 0.0396646 0.021610742 -0.15384655 -0.026945874 -0.03685037 0.113747746 -0.19293237
-0.28538617 0.22731948 -0.13823026 -0.087779626 0.13081391 0.19421579 0.08460844 0.22951122
0.111239694 0.15633036 -0.19886076 -0.13200676 0.06338966 0.045507506 -0.09644529 0.09564715
0.120136656 0.11555584 -0.09728989 -0.18185854 -0.2249383 -0.12775786 0.2587326 -0.10357005
0.11044101 -0.030589847 0.0021353627 -0.31753713 0.07816449 -0.04356512 0.22873537 0.072474755
0.25085634 0.058048803 0.09944174 0.13009413 -0.11832329 -0.33647233 0.018082289 0.29529366
-0.18422571 -0.26361102 -0.17508209 0.25399423 0.25007907 0.17818698 0.24062346 -0.26797783
0.012926801 0.07209362 0.081755444 0.2317423 0.1482906 0.05979189 -0.014002045 0.12618907
0.030943045 0.1807025 -0.11942974 -0.04962847 -0.020359134 -0.10152395 0.019580428 -0.0006889812
-0.28911722 0.06258457 -0.025445038 0.24654597 -0.23621583 0.23346655 0.1515599 0.07804086
0.19379674 0.10258318 0.013318209 0.15570252 -0.009645505 0.13633229 -0.065545574 0.21563035
-0.1062579 -0.20661129 -0.16871664 -0.15713385 0.009192715 -0.13843322 0.13390993 0.1562475
0.1573066 -0.18260223 0.04724574 -0.052369222 0.17929569 0.24730635 0.16900522 -0.3263728
-0.03290497 -0.12323682 0.1093394 0.17652999 0.13617781 0.06803957 0.048644558 0.101356335
-0.0042563574 0.14666882 0.08568406 0.024506833 0.03807866 -0.15185203 -0.03555665 -0.10112625
-0.051694684 -0.13534321 0.16502884 0.030631661 0.19640225 -0.26628008 -0.0755747 0.1847503
0.07889515 0.051130407 0.16197199 -0.09335562 0.04541691 0.21346918 -0.05083749 -0.3983355

net.0.bias f4 [128]
00000000: 04f1 ae3d 0c47 733d a9b2 a2bd addf 513d
00000010: 6801 2d3e 2893 eebd cf72 d9bd 4678 653c
00000020: d99a 0fbd 77a1 abbb ab72 683c 60e5 2a3e
00000030: 87a8 a5bd 6c0b a0bd fa89 863e d183 ffbd
00000040: fbeb c4bc d763 fdbd 0638 05be 4167 763e
00000050: cde9 40be 0659 40bd cee0 bc3d f5e5 1c3e
00000060: aa4f 1fbe a953 1cbe 5c51 e9bc d9da b2bd
00000070: 161a 843e 6818 c1bd 8798 843d f4cf 9f3d
00000080: 9a0e 02bd fe28 2a3e 51cb 44bd 6a9d bf3d
00000090: 6a6b b73d b230 f43d 6e6f af3d 57ee cfbd
000000a0: 8f95 0b3c 22a9 bfbd 612e 313e 5660 863d
000000b0: 30c4 7cbd 86ee 9c3d e806 ea3c ab21 a53d
000000c0: 0e9c e03d 5f83 ad3d efaa 933d 3912 073e
000000d0: f811 cf3d cebe 0cbd 2f7c 123d 32e9 8c3d
000000e0: 68a6 e4bd 854e c1bd 4eea 763b 8ae2 8fbc
000000f0: 5f8b 39bc be2e 1abc 8d8d 883d 1900 2fbe
00000100: 2fb2 0c3e aaa1 fbbd 2ebf 2c3e 0426 0c3e
00000110: eeb5 f4bd 2f21 79bd 327d 083d 8321 a0bd
00000120: 1824 08be 062b f93d 9116 df3b 6dac 7b3e
00000130: 165b a03c 6d6c 773e b228 d73d dec0 6a3c
00000140: c067 413d 37b5 0cbd 54c3 603d fa2f 543e
00000150: 729b dfbd b240 6d3e 095f 0e3e cfc0 553e
00000160: 1c70 1b3e d2a5 4e3e 4ca9 0fbe 512a cbbd
00000170: 9186 2d3d 4760 b23b cf9f 953d 3f3c e43d
00000180: 8eb9 933d f09e 643e 7522 303d a150 33bd
00000190: ad3b acbb 82fc dc3d 0b3b d9bd 8bff 153e
000001a0: 2674 203e efa1 703e a13a 8bbd e6d2 023e
000001b0: db9d 4e3e 8c7d 11bd 6eca 89bc c136 c83d
000001c0: 2eeb 883e 95e5 823e 5672 843d 684f 2f3e
000001d0: e503 973d 3aeb b73d 8263 58bd b768 143e
000001e0: 787c 8e3d 93b8 463d cb6e 2cbd 1318 2d3e
000001f0: c50c 693d f891 7abc 2244 113e 6d02 693d
0.08542064 0.059393927 -0.07944233 0.051238704 0.16895068 -0.116491616 -0.10617601 0.014005726
-0.035059784 -0.005237754 0.014187495 0.16689062 -0.08088785 -0.078146785 0.26277143 -0.12476314
-0.024038306 -0.123725586 -0.13009652 0.24062826 -0.18839188 -0.0469599 0.092225656 0.15322097
-0.15557733 -0.15266289 -0.028481178 -0.08733148 0.25801152 -0.09428483 0.06474405 0.07803336
-0.031752206 0.166172 -0.04804546 0.09356196 0.089560345 0.119233504 0.085661754 -0.101528816
0.008519544 -0.093584314 0.17302848 0.06561343 -0.061710536 0.07662682 0.028567746 0.08063062
0.10967265 0.08472323 0.07210337 0.13190545 0.10110849 -0.034361653 0.035762962 0.06880416
-0.11164552 -0.094388045 0.0037676278 -0.017564077 -0.011324733 -0.009410558 0.06667624 -0.17089881
0.13739847 -0.12286694 0.16869804 0.13686377 -0.11948763 -0.060822662 0.03332252 -0.07818892
-0.13295019 0.12166409 0.00680811 0.24577494 0.019574683 0.24162455 0.10505809 0.01432821
0.047218084 -0.034352507 0.05487378 0.20721427 -0.10918321 0.2316921 0.1390344 0.20874332
0.15179485 0.20180443 -0.14029425 -0.099201806 0.04236466 0.005443606 0.07305872 0.111443035
0.07213126 0.22326255 0.04300161 -0.043778066 -0.0052561373 0.107903495 -0.10606965 0.14648263
0.15669307 0.23499273 -0.06798292 0.12775764 0.20177405 -0.03552012 -0.016820159 0.097760685
0.26741928 0.25565782 0.0646712 0.17120135 0.0737379 0.08980413 -0.052829273 0.1449307
0.06957334 0.048515867 -0.042097848 0.16903715 0.056896944 -0.015293591 0.14186147 0.05688708

net.2.weight f4 [128, 128]
00000000: b30f 8d3d 1f98 92bd 71f5 f2bc ca0a 59bd
00000010: 571c 48bc 9a53 183e 7edc 133c c196 f5ba
00000020: d632 c93c c516 bb3c bfc2 eb3c f2fb 73bb
00000030: 9fc3 bd3d cb8e a53e 5cb0 223d 8f04 883d
00000040: ca10 0cbe 3030 33be 09fa b4bb 0ffb c83c
00000050: 27dc d73c 90e7 aa3d 029c 193c 2274 263d
00000060: d8b7 013d bcb1 923d 63e7 93bd c83d c3bb
00000070: d01b 96bd 4785 bf3c f146 223e f6fe 7dbd
00000080: 22a1 503e 0fa4 ce3d 066d b8bd 6fea 73bc
00000090: fb24 f13d 06ed 8c3c 960d 99bd d999 cbbd
000000a0: 3b3f 383e f0b2 f8bd 20a7 acbd 524f 023e
000000b0: 7d6c c53d a448 343d cc39 203c 03db ae3c
000000c0: 5db0 82bd edab 573d a63b ab3e f587 f2bd
000000d0: 01d0 2abe d38d f83b 791f 9e3c dd0d 0ebd
000000e0: 4ec9 793d 6a8a 55bd fb92 51bd ef6d 7d3d
000000f0: 7809 7b3d 4277 1cbd 7855 37bd 9cc0 c3bd
00000100: 9740 e9bc 1ec2 003e b9a6 3f3d 608b e03d
00000110: ad61 a23e 9d2e b23d ff06 dd3d 106a e23c
00000120: 7468 df3c dda8 673d 8c6d 763c 65a0 c83d
00000130: bb33 ca3c 3e01 093e 2f08 693e 622d 88bd
00000140: 6e2a 20bd d717 373a 4c91 223e 40f5 2f3d
00000150: 3e78 ed3d 5eea 9ebd e263 ab3d 6710 a93d
00000160: c2ce cebd 6c63 5b3d 9b10 f9bc de84 f43c
00000170: 3445 6ebc 2500 1e3e 114b 153e 01b3 abbd
00000180: f14b 4abd 18d6 0ebe c158 cd3d b3b1 e13b
00000190: 1bb5 a3bd 2eba 793b fb98 5b3e 8de0 f0bd
000001a0: 09f1 ed3d b933 743d be20 593c 6ecd 883c
000001b0: a04e 84bc 89e9 323c 8073 523e b2de 17bc
000001c0: c612 c1bd 0fbd e0bc 2b83 55bc d0b9 bc3e
000001d0: ff48 ce3c aa5e 1dbe 99f4 0a3e 8829 b33d
000001e0: 9617 523e d6c5 673c df40 3dbd 3d82 533d
000001f0: 4778 bfbd 9066 2fbe 3c5b 7f3d f59f 9b3d
00000200: 70a6 91bb 659c 743e 64cd a53c 259e 13bc
00000210: 9b3a a23d a74b bf3d b13f 39be 999f 093e
00000220: 8833 b4bd e84d 8c3d 05fb b5bc c9c4 083d
00000230: 3591 9b3e edb8 463e 982a e63d 9c7f 4e3d
00000240: f3e7 b9bb 0ed5 383e ecea 0fbd e92b f7bd
00000250: 46bc 4dbc 33a3 003d 8a3f 24be fa18 cfbc
00000260: 548f 7d3c 2fcf ed3d 727b cbbc 3a45 14be
00000270: 7714 8bbd e744 48bd 3537 943e d6b3 183e
00000280: 0f4d 313c 8d1b bbbd ccb9 b6bd 00be a2bd
00000290: 3888 c2bd f30d 353c 0da2 11bd 5ba3 95bc
000002a0: fe11 4a3e 4d23 213c 81f9 10bd 03f9 dcbb
000002b0: 8066 18bd 1258 133e d271 923d 21f8 bb3d
000002c0: ed6c c73c 36e3 8bbd b347 5f3e f31e 8abe
000002d0: 6230 9d3d 35da e3bd f81e c2bc 227c e83d
000002e0: b7fc c23c 100a 643d bcee a63b 1283 90bd
000002f0: 9768 653d 48d6 15be 24ea 973d 2a2a b2bd
00000300: a128 f0bd 816e 683e 2bc6 98bc 83de 7abc
00000310: fc43 823c f85e 2e3e afef 603e 33f8 7e3d
00000320: 3848 803d e890 cbbd 9eca 183e d635 a9be
00000330: 99aa bb3c 4ced a03c 1355 9e3d 5601 10bd
00000340: 2119 b4bd a142 0e3e 0a9d 343e 86c7 4ebd
00000350: 9f16 1fbe 81a1 c13e cf6f 3abd bca4 243e
00000360: 347a 19bd 54e0 1ebd f33d 32bd 24c4 783c
00000370: 3093 14bd 789f 1ebe 9848 8e3d 2740 3dbd
00000380: 06a2 a53c 4c1b a0bd dd7d 303e 9a16 37bb
00000390: 0bf2 983d 0eef e13c 5b2a 9b3e 421c f5bc
000003a0: b46a 8b3d 855e a13d aecc 10bd a0a1 87bd
000003b0: ce46 16be d41a 82bd a241 173e 7f8b f53d
000003c0: dafa 04be c014 853a 993b c63d d262 933d
000003d0: 4def 9cbd 42a8 903d 9688 e53d b244 18bd
000003e0: 1afc dc3d 1cde fb3c 2134 b53d 0b1d 653b
000003f0: 4233 3fbe f695 d6bd 8f38 bdba cfcd af3b
0.0688776 -0.07157921 -0.029658051 -0.052988805 -0.012213788 0.14875641 0.009024737 -0.0018736945
0.024560373 0.022838006 0.028779386 -0.0037229029 0.092658274 0.32335505 0.03971897 0.066414945
-0.1367828 -0.17498851 -0.0055229706 0.024533777 0.026350094 0.08344948 0.009375574 0.040638097
0.031669468 0.071628064 -0.07221868 -0.0059582926 -0.073295236 0.023378981 0.15847374 -0.062010728
0.20373967 0.100898854 -0.090051696 -0.014887436 0.117746316 0.017202865 -0.074732944 -0.099414535
0.1799287 -0.121435046 -0.08430314 0.12725571 0.09639833 0.044014588 0.009779405 0.021344667
-0.06381295 0.052654196 0.33443946 -0.11842338 -0.1668091 0.007585266 0.019302117 -0.03468119
0.060982995 -0.052133955 -0.051165562 0.06187242 0.061288327 -0.03819967 -0.044759244 -0.09558222
-0.028473182 0.1257405 0.04678986 0.10964084 0.31715146 0.08700297 0.1079235 0.027638465
0.027271487 0.056557525 0.015040766 0.09796218 0.02468287 0.1337938 0.22757028 -0.06649281
-0.039102964 0.00069844484 0.15875739 0.042958498 0.115952 -0.07759546 0.083686605 0.082550816
-0.1009803 0.053561613 -0.030403426 0.029848512 -0.0145428665 0.15429743 0.14579417 -0.08383752
-0.04938883 -0.13948858 0.10026694 0.0068876385 -0.079935275 0.0038105357 0.21445076 -0.1176158
0.116182394 0.05961964 0.013252435 0.016699519 -0.016150773 0.010919937 0.20551872 -0.009269403
-0.09427409 -0.0274339 -0.013031761 0.36860514 0.025181292 -0.15368143 0.13569869 0.08748156
0.2051681 0.014146289 -0.046204444 0.051637877 -0.09349113 -0.17128968 0.062342867 0.07598869
-0.0044448897 0.23887785 0.02023954 -0.009009873 0.07921334 0.093406014 -0.18090703 0.13439788
-0.08798891 0.06850797 -0.022214422 0.033390794 0.30384222 0.19406481 0.11238593 0.050414667
-0.0056734025 0.18050024 -0.03513615 -0.12068922 -0.012557095 0.03140564 -0.16039863 -0.025280464
0.015476067 0.11611783 -0.024839137 -0.14479533 -0.06791013 -0.048893835 0.2894837 0.14912352
0.010821595 -0.09136114 -0.08922157 -0.07946396 -0.09498638 0.011050689 -0.035554934 -0.01826637
0.19733426 0.0098350765 -0.035394195 -0.0067435517 -0.037207127 0.14389065 0.07150616 0.09178186
0.024343932 -0.068304464 0.21804695 -0.26976737 0.07675244 -0.11125604 -0.023696408 0.113518015
0.023802144 0.05567366 0.0050943773 -0.0705625 0.056007948 -0.14632523 0.07417706 -0.086994484
-0.11726499 0.22698404 -0.018649181 -0.01531184 0.015901558 0.17028415 0.21966432 0.06224842
0.06263775 -0.09939748 0.14921042 -0.33048886 0.022908496 0.019644402 0.0773107 -0.035157524
-0.087938555 0.13892604 0.1763803 -0.05048325 -0.15535973 0.3781853 -0.045516785 0.16078466
-0.037470058 -0.038788155 -0.04351611 0.015183482 -0.03627318 -0.1549052 0.0694744 -0.04620376
0.02021886 -0.078177065 0.17235513 -0.0027937056 0.07468041 0.02757981 0.30305752 -0.029920701
0.068074614 0.07879356 -0.035351448 -0.066226244 -0.14675447 -0.06352773 0.1477113 0.119894974
-0.12986317 0.0010153279 0.09679336 0.07196583 -0.076628305 0.07063343 0.11207692 -0.037174888
0.10790272 0.030745558 0.088478334 0.0034959938 -0.18671897 -0.104778215 -0.0014436411 0.0053651105

net.2.bias f4 [128]
00000000: e39c f4bc 4b5a 92bd 7517 843d 0688 dc3c
00000010: 4e53 d7bc 085a e73b c012 663d 6997 77bd
00000020: 8207 88bd 7bd5 003c cf04 863d 73f5 70ba
00000030: 901b 883c 561f 403c 6b07 c03d 763a b43d
00000040: 8561 c23d a6fa 35bd c63d b03c 677a 873d
00000050: 4ea8 6fbd 20d7 be3d 8d29 813d bd8a 4f3d
00000060: e527 9a3d 1e6a 6fb9 3c9c 2d3c 1324 bb3d
00000070: 2599 933d fc8e 99bd 2598 303d 5c17 ae3d
00000080: b808 aa3d 5a59 eebc 9b6a 44bd 6301 08bc
00000090: f891 7b3d 7cb0 0ebd a616 a3b9 17a5 5d3d
000000a0: 6f27 6dbc f974 763c 7279 89bd 525b d63d
000000b0: 47a2 bfbd c424 5e3d 7147 7e3d 03db 21bd
000000c0: 8dbe d3bc 36a9 023c 4511 893d 541d 823c
000000d0: 891a 0e3d d616 ad3c d3d8 d23d 53d1 483c
000000e0: f759 cbbc 978c 57bd 1972 00bd 8543 57bd
000000f0: a639 c03c a058 81bd 4d89 c43d 5abf 45bd
00000100: 8d94 46bd 9a99 08bd f573 4e3c 97be b33d
00000110: b523 13bd 326d 8f3d 430e 58bc a037 03bd
00000120: 8eb0 a4bc 86c0 b53c 6734 703d 36ec 5dbd
00000130: 6470 8bbd 521e 963d 5672 6bbd 1086 0dbd
00000140: 9715 18bc cf40 653d 3541 a83d f300 a1bd
00000150: 172b af3d c6d6 613d 9e4a 9c3b 6dc8 073d
00000160: 78e6 27bd 1c5b 9a3d d872 0bbd 4be1 6fbd
00000170: 9579 503b bdb9 073d f483 d83d a850 0a3c
00000180: bb28 063e 8f3f 9a3d 0418 753c c1c1 a63d
00000190: 86bc 07bb 1ec4 5dbd eaf4 93bd e940 62bd
000001a0: c653 8c3c 50e8 c33d f405 9bbd 26ab 163d
000001b0: ab49 2c3d 34a4 ea3b 987a 1d3d 517e 273d
000001c0: b309 603d ba96 b23d 2f39 78bc edcf 7cbd
000001d0: c123 9ebd 6285 c33d a998 2abd a5d0 d4bc
000001e0: f919 d93d 2f2e 71bd 7b65 f4bc da51 82bd
000001f0: b794 9bbd 92f9 94bc ed0b a6bd bd9d 00bd
-0.029859966 -0.07146128 0.064497866 0.02692033 -0.02628484 0.007060293 0.056170225 -0.06044713
-0.06642057 0.007863398 0.06543886 -0.0009191848 0.016614705 0.011726221 0.09376415 0.08800213
0.094912566 -0.04442849 0.02151383 0.06615143 -0.058510117 0.093183756 0.06306753 0.05066942
0.075271405 -0.00022832348 0.010596331 0.0913774 0.072069444 -0.07497975 0.043113846 0.08500549
0.08302444 -0.02909534 -0.04795323 -0.008301112 0.061418504 -0.034836277 -0.00031106657 0.05411252
-0.014474734 0.015042537 -0.06712617 0.10466637 -0.09357124 0.05423428 0.06207985 -0.039515506
-0.025847698 0.007974913 0.06692747 0.015883125 0.034693275 0.021129053 0.10295262 0.012256938
-0.024823172 -0.05262431 -0.031358812 -0.052554626 0.023464989 -0.06315732 0.095965005 -0.04827819
-0.048481513 -0.03334961 0.0126008885 0.087765865 -0.035922725 0.07003249 -0.013186994 -0.03203547
-0.02010372 0.022186529 0.058643725 -0.054180346 -0.06808546 0.07330002 -0.057482086 -0.03455168
-0.009282491 0.05597001 0.08215562 -0.07861509 0.085531406 0.055136465 0.0047696372 0.033150125
-0.040991277 0.07536909 -0.03404507 -0.058564465 0.003181075 0.03313612 0.10572043 0.0084420815
0.13101475 0.07531654 0.014959339 0.081424244 -0.0020711734 -0.05414211 -0.07224448 -0.055237684
0.01712979 0.095657945 -0.07569495 0.036784314 0.042062443 0.007160688 0.038446993 0.04089195
0.05469675 0.08720155 -0.015150352 -0.06172173 -0.07721663 0.09546925 -0.041649494 -0.025978396
0.10600657 -0.058881935 -0.029833546 -0.06363268 -0.075967245 -0.01818541 -0.081077434 -0.03140043

net.4.weight f4 [7, 128]
00000000: 3fde 073e f895 753d 3de3 1dbe a0e0 513e
00000010: 6a39 ed3d 57a9 ff3c d455 f43d 9bad be3d
00000020: 50fe cd3d 615a 693c 91ec 95be eb6c 633e
00000030: 539b 023e fe4b 1bbe 695d a5be 2bef c93d
00000040: 754e bfbe 8677 323e 9149 1dbd 2054 63be
00000050: a095 8abe 3ac3 353e 5e16 193e 63ce 75be
00000060: 38a0 373e e24c 43be 141d ab3d 3098 d4be
00000070: b05a b8bd 83eb 6e3e c6f3 333e 2ca4 5fbe
00000080: e986 003e 5e83 3b3d d6ed a4be 738d 3c3e
00000090: a1ad 7abe 741d 1a3e 40f6 243e 83de 243e
000000a0: f902 f13d 6d4c 9a3d 3f4e bebb 938a 103e
000000b0: d485 a5bd 7703 c23d 5bd2 933d 3e71 493e
000000c0: fa22 bebe 10fc 993d 6b6c 1dbe 7bec f63d
000000d0: 86e4 bcbd c6ed 043e 07e8 38bd 88ac 3f3e
000000e0: ea28 6fbe 7316 223d d5ef 043e afb2 393e
000000f0: d3b6 20be b191 fa3d 8798 663d ce72 633e
00000100: e6b2 203e dd81 84bd 3749 563b c902 493e
00000110: 422b 873d 7809 8a3d b33a cabe 356a 5b3e
00000120: b233 953d 2ed1 093e 1d39 4d3d 940d ccbe
00000130: 7cbb a5bd 3a91 903d d760 403e df91 2f3e
00000140: 175b 48bc bc17 393d 1c1a 103e 5ef3 98bd
00000150: d2d0 33be 29a3 1c3e 2ae3 2f3e 7020 8c3d
00000160: eefb da3d f89a 353d 9ff3 8b3d d7e9 ea3d
00000170: 5b75 273e 5781 2cbe 70a8 2f3e 75ca 7c3d
00000180: edf9 cabd 8284 cbbd 6f73 58be 01d3 d83d
00000190: 360d 103e b677 2f3e 914a 6e3e f59e 64be
000001a0: 5f04 8fbd 4de3 8abe 1161 99bd b6ce 57be
000001b0: 2634 f23d 592b 563e e252 95be 7694 e93c
000001c0: 0541 a5be d5b9 b9be 8b9c aabd 005d 0a3e
000001d0: 87ca e7bd d36d bdbe 7e17 2c3c 979d 39be
000001e0: ec00 4e3e a78d af3d 4d70 02bd d3f1 4fbd
000001f0: 1ca9 283d 38f8 65be 797a a33c 4e0f 1abe
00000200: 51f5 28be c69d 9cbe 7fcd df3d b77f 1f3e
00000210: 31b0 1c3e 8ba0 213e bba5 103e 45dd 093e
00000220: 6eee 9ebc 1ac4 2dbd b5f1 863e 857b 1fbe
00000230: fdce 1ebe 8d72 523e 3f78 893e 72c4 473e
00000240: c7f4 cd3e 5438 31be 8035 993d d558 39bd
00000250: 3f0f 4e3e 7cea a3be 5a7b b0be f38c eb3d
00000260: c6dd 9ebc 0c15 b0be dcbe 12bd 2906 a93d
00000270: d5ee cf3e 96f5 6fbe 3656 29be 301e 8f3e
00000280: 9a46 333e 1f12 3d3c eec4 afbe f612 a5be
00000290: 75fa b0bd 9042 a73d 9fde 28bd 381d da3d
000002a0: b0e7 293e 1d42 ecbb 13be 90bd 1559 7a3e
000002b0: 2a63 873d c0ac 0f3e 418f cabc 48f3 573d
000002c0: ca09 4cbd abaa bcbd 7ef0 87bd 3390 9abd
000002d0: 74da fbbe e0ab 6dbe 4784 bd3c e21f 17be
000002e0: e935 5a3e 89bb 61be ac78 81be 3111 1dbe
000002f0: 6c09 f43d 353f fe3c e3a2 5d3d a189 4bbe
00000300: 0613 9bbe 1480 893d 49e5 b2bd 83b8 833b
00000310: f4ed aebd beac 093e 479c 883e 7f98 bcbe
00000320: 4b49 ae3d f280 13bb 4744 8c3d e2e6 a93d
00000330: c9df 213d 5ff6 a73d fbb7 113c 246a 31be
00000340: 4c51 42be fa7c 56bd bb0a 883c 5d87 4f3d
00000350: d3e6 433e 88eb 31be bb22 333c 086f 45bd
00000360: deba b2be 94d0 ddbd b053 dc3c cdee 80be
00000370: 6d26 14bc 9e8e 08bd bd22 84bd fa1f 8fbb
00000380: 4c39 c6bd d7dc 093e 9db9 95be 4686 06be
00000390: 806b d93d 80ed f4bc d69f 0a3e 6bf2 f83d
000003a0: e180 a7bd d89e 2dbe d66a 20bd 8aa4 9d3e
000003b0: b20a 22be 3fd2 e1bc cfb0 a73e 27f6 01bd
000003c0: 0a4b 393d 4922 92bc 6285 863e 80d5 95be
000003d0: a48f 3f3e 6ad1 d53d bcfe 4abd 13e6 47be
000003e0: 9646 443d 7410 e8bd 0273 043e 4ae1 af3c
000003f0: 1efc 25bd 69aa 1fbe d6d9 aebd 7f31 25be
0.13268374 0.059957474 -0.15418716 0.20495844 0.115832165 0.031208677 0.11930433 0.09310456
0.10058272 0.014242739 -0.29282048 0.22209518 0.12754564 -0.15165707 -0.3229783 0.09860071
-0.37364545 0.17428407 -0.038400237 -0.2220006 -0.2706728 0.17750254 0.14949939 -0.24004512
0.17932212 -0.19072297 0.083551556 -0.4152236 -0.09001672 0.23332028 0.17573461 -0.2183997
0.12551464 0.04577958 -0.32212704 0.18413334 -0.24480297 0.15050298 0.16109562 0.16100506
0.11768145 0.07534108 -0.0058076675 0.14115362 -0.08082166 0.09473317 0.072178565 0.19672105
-0.3713606 0.0751878 -0.1537339 0.12056824 -0.09223275 0.12981328 -0.045143154 0.18718159
-0.23355451 0.03957219 0.12982114 0.18134569 -0.15694742 0.1223482 0.056297805 0.22211763
0.15693244 -0.06470082 0.0032697448 0.19629969 0.06600048 0.06740087 -0.3949791 0.21427234
0.07285251 0.13458702 0.050103296 -0.3985411 -0.080924004 0.0705895 0.18786941 0.17145489
-0.012228749 0.04518865 0.1407246 -0.074682936 -0.17560127 0.15296616 0.171765 0.068421245
0.10692583 0.044337243 0.068335764 0.11470383 0.16353361 -0.16846214 0.17154098 0.061716516
-0.09910951 -0.09937383 -0.21137784 0.10587121 0.1406754 0.1713551 0.23270632 -0.22326262
-0.069832556 -0.27126542 -0.07489217 -0.21074948 0.11826353 0.20914973 -0.29164797 0.028513175
-0.32276168 -0.3627459 -0.083306395 0.13512039 -0.11317926 -0.36997852 0.010503648 -0.18126522
0.20117539 0.0857194 -0.03184538 -0.05076773 0.0411769 -0.22457969 0.01995586 -0.15044901
-0.16499831 -0.30589122 0.10927867 0.15576063 0.15301587 0.15783899 0.14125721 0.13463314
-0.019400802 -0.042423345 0.26356283 -0.15574463 -0.15508647 0.2055151 0.26849553 0.19508532
0.40225813 -0.17306644 0.074809074 -0.045250732 0.20123003 -0.32014835 -0.3446911 0.11501493
-0.01939286 -0.34391057 -0.03582655 0.08253128 0.40611902 -0.23433527 -0.16536793 0.2795272
0.17507401 0.011539965 -0.34329933 -0.3224103 -0.08641521 0.08166993 -0.041227933 0.10650104
0.16592288 -0.0072100298 -0.07067504 0.24448045 0.06610711 0.14030743 -0.024726512 0.052722245
-0.049814023 -0.0921224 -0.06637667 -0.07547035 -0.49190104 -0.23210096 0.023134364 -0.14758256
0.21309628 -0.22044195 -0.25287378 -0.15338589 0.119158596 0.031035999 0.05411042 -0.1987672
-0.3028795 0.06713882 -0.08735139 0.0040197982 -0.0854148 0.13444802 0.2668173 -0.36835095
0.08510073 -0.0022507277 0.0684896 0.082959905 0.03952006 0.082012884 0.008893962 -0.17325646
-0.18976325 -0.05236528 0.01660668 0.0506662 0.19131021 -0.17375004 0.010933573 -0.04820159
-0.34908193 -0.10830799 0.026895374 -0.2518219 -0.009042365 -0.033339135 -0.06451938 -0.0043678256
-0.09678897 0.1346315 -0.29243174 -0.13137159 0.10616207 -0.029898405 0.13537535 0.121556126
-0.081788786 -0.16955125 -0.039164387 0.30789596 -0.15824392 -0.027566073 0.32752082 -0.03172889
0.04523758 -0.017838614 0.26273638 -0.2926445 0.18707138 0.10440333 -0.04955934 -0.1952136
0.04791888 -0.11331263 0.12934497 0.02146973 -0.04052364 -0.1559235 -0.08537643 -0.16132163

net.4.bias f4 [7]
00000000: 0cee 94bd 2b3a babd 3d04 8abc 7dcc 2bbd
00000010: a8eb 053d cbfa d23c 909a 693d
-0.07271966 -0.09093126 -0.016847724 -0.041943062 0.032695442 0.025754353 0.057032168
