coup_nsfp/nfsp_coup_demo_q_target.pt (torch, 86293 bytes, 6 tensors)

net.0.weight f4 [128, 25]
00000000: 4b0b 40bd 15ca 92be 12cd 79bd bb77 7a3e
00000010: 0984 52be 69d2 923d 0af7 943d 2a14 883d
00000020: e570 edbd a50a 68bd 2224 763d 0808 aa3d
00000030: f6ef b1bd f368 43bd 1bcc 0a3d 1c75 cdbd
00000040: 4f27 6fbe da53 93be 73e0 93bd d141 3a3e
00000050: b84a b7bd b21e 7ebd 7373 76bb 32a4 01be
00000060: 22ac 573e 31d1 913c 5b7d 423e 71c5 0abe
00000070: 1698 17bd 4dae 8dbc 1556 8b3d 63e2 2cbd
00000080: 8332 dfbd 4ad2 b5bd 6ab0 16bc b3fb c73d
00000090: 7bb2 5c3e 4d92 893d 97d0 0bbe c251 613d
000000a0: 4bbe 2d3e df83 1fbe ca21 76be 383a 47be
000000b0: 1c39 553c 377c 66bd 5b6e 753d e30c 73bd
000000c0: 53b4 fcbc f5a9 09be a85f b33d f784 05bd
000000d0: b967 0a3e 13d2 2abc 92d4 2c3e 5638 19be
000000e0: f985 413e 31a5 313e 7d1d 8dbd 17a2 abbd
000000f0: d8ef efbd 8dfd 6dbd 044f 9c3d 2036 15be
00000100: 3073 29be 3b17 d3bd 3658 33be 120c 09be
00000110: c7dd 7f3d 023a 613e 110d 213d b455 1e3e
00000120: 08a5 0a3e dbd6 0abe 0266 12be 758f 2e3e
00000130: 06f8 0abe 7963 c53d 5852 e9bd e352 43be
00000140: 4dde 813e d82f ed3b f1cd 593c becf 0ebc
00000150: 0765 9e3e e259 033c 7394 da3c d8da 4ebe
00000160: 9b61 4abe fd47 f5bd 5cca bbbd 72ca d1bd
00000170: a644 47be 6dde f7bd 788c 023e 429b 54be
00000180: e77d e2bd 9dfa 853e 02e2 89bd bbfa 803e
00000190: 8869 04be 8bac 3ebe 2457 3d3e ce9b 523e
000001a0: e60f 4a3e 2ffd 8e3d a171 c5bd 0b3a 423e
000001b0: 6d2f c83d 9003 59bd 9c57 5cbe 3096 2b3e
000001c0: 201e 243e 6d16 e1bd e20b 9c3d 56a1 2d3e
000001d0: c30b 21bd cf36 7e3d ca51 d1bd 5b3e 183d
000001e0: 0813 3e3e b70f ce3d 2e0f 093e 8823 3cbe
000001f0: f8c9 dabd 0426 34be 4a0a 1cbd a790 b8bd
00000200: 6ed3 783d 2fc4 94be ae19 173e 6f1a 683e
00000210: 31a1 c8bd 16d0 27bd c850 0f3e 2d70 66be
00000220: e679 393e e786 1bbe f59c 2cbe e18d c83d
00000230: 5de8 483e 3c9f d83d f4c5 fbbd 8046 a5bc
00000240: f7fb 0e3e c869 d13c 2f8d 093d f93a 163e
00000250: b5a5 f9bc 3301 9ebc 9b22 a9bd 5cc5 733e
00000260: 6f84 4bbe 4dc8 f73d 9ade 9bbd f9b8 2a3e
00000270: 6865 1abd 30ac abbd aba8 aebd e98e 43be
00000280: e766 973a 9829 b73c e423 d7bd b736 3a3e
00000290: 98ab 043d fead 07bd 41a8 323e 6c8c 60bd
000002a0: fd31 e83d 4721 c7bd f48d 77bd af03 43bd
000002b0: a754 943d 7751 243e bb15 883c b5ba 003c
000002c0: bbe5 7ebc df92 0fbe 3867 92bd 0a10 1f3e
000002d0: 5cd5 27be 0bb8 b2bd 8b34 98bc cbac e33c
000002e0: 06ac 82be 3736 8dbd 17ce 553c a993 823d
000002f0: 7332 ce3c c55a 283e 8f30 883e 6216 873e
00000300: 055d fcbb 4087 b8bd e102 3a3e 3d43 f33d
00000310: c73c 25be ac3a 1e3e 0ab1 713e 15d8 b9bd
00000320: 53bb 303e 2d1e d2bc a2de 893d cabc 6a3e
00000330: 412b 35bc 9f93 463e fb39 ba3d 17af 383e
00000340: 5b64 b83d e36f c03d 1612 013e e2c0 20be
00000350: c115 223e d25f 463e b241 33bd 8897 603e
00000360: 3d5a 5bbd c642 5abe d06d 3bbe 522e 4e3e
00000370: 8cd5 e93d b1d2 b13d 4d65 c03d 1a51 503e
00000380: c1da 043e f10f 22be e327 1c3e 1421 833e
00000390: e05c 103e 994e 44be eee9 a03d e45f f43c
000003a0: aaf5 283e 072b 853e 32f1 eebd c2c2 10bd
000003b0: c690 80be 6cc0 873d a06d 78bd 805f df3d
000003c0: c4bf 52bd 3445 0ebd 0322 89bc 1b06 153e
000003d0: 3bac 0abe b58a 52bc a84f e3bd df81 3dbe
000003e0: 6293 4fbe c2e4 143d 74d2 dc3d 35c7 a93d
000003f0: 62e5 ca3d da44 653d c434 433e b85d 013d
-0.04688577 -0.286698 -0.060986586 0.24459736 -0.2055818 0.07169039 0.072736815 0.06644471
-0.115937985 -0.056650776 0.060093053 0.08302313 -0.08688347 -0.04770751 0.033886056 -0.100321025
-0.23354839 -0.2877491 -0.07220545 0.1818917 -0.08949798 -0.062040992 -0.0037605434 -0.12660292
0.21061757 0.017799946 0.18993132 -0.1355188 -0.037010275 -0.017295027 0.06803528 -0.042208087
-0.10898306 -0.08878 -0.009197334 0.09764805 0.2155246 0.06717358 -0.1365379 0.05500961
0.16967122 -0.15577649 -0.24036327 -0.19455802 0.013014104 -0.056270804 0.059919696 -0.05933846
-0.030847704 -0.1344374 0.08758479 -0.03259751 0.1351613 -0.010426062 0.16877964 -0.14962897
0.18898763 0.17348172 -0.0689039 -0.083805256 -0.117156684 -0.058103133 0.076322585 -0.14571428
-0.16547847 -0.10307165 -0.17514119 -0.1338351 0.062467363 0.21994784 0.0393191 0.1546238
0.13539517 -0.13558523 -0.14296725 0.17046912 -0.13571176 0.096381135 -0.11392659 -0.19074588
0.25364915 0.0072383694 0.013293729 -0.008716522 0.30936453 0.008017035 0.026682114 -0.2020067
-0.19763796 -0.11976621 -0.09169456 -0.102436915 -0.19459781 -0.12102971 0.12748897 -0.20762351
-0.1105917 0.26167765 -0.06732561 0.25191292 -0.12930882 -0.18620507 0.18490273 0.20567247
0.19732627 0.06981885 -0.096408136 0.18967454 0.09774671 -0.052981913 -0.21517795 0.1675651
0.16027117 -0.109906055 0.07619454 0.16956076 -0.039317857 0.06206399 -0.10220678 0.03716884
0.18561947 0.10061591 0.13384697 -0.18372929 -0.10683054 -0.17592627 -0.03809575 -0.09011965
0.06074851 -0.29055926 0.1475589 0.22666334 -0.0979637 -0.04096993 0.1399566 -0.22503729
0.18112907 -0.1518818 -0.1685675 0.09792686 0.1961989 0.105772465 -0.12293616 -0.020175219
0.13963304 0.025563136 0.03358191 0.14670934 -0.030474523 -0.019287681 -0.082585536 0.23805755
-0.19874738 0.12098751 -0.07610817 0.16672124 -0.037694365 -0.083824515 -0.085282646 -0.19097485
0.0011551053 0.0223587 -0.105048925 0.18184935 0.032390207 -0.033124916 0.17446996 -0.054821417
0.113376595 -0.09723144 -0.06043811 -0.047610935 0.07242709 0.16046701 0.016611924 0.007857014
-0.015557702 -0.1402087 -0.07148594 0.15533462 -0.16389984 -0.0872651 -0.018579742 0.027792355
-0.25521868 -0.06895106 0.013049624 0.0637582 0.02517054 0.16440876 0.26599547 0.26384264
-0.0077015185 -0.09010172 0.1816516 0.11878059 -0.16136466 0.15452069 0.23602691 -0.090744175
0.17258959 -0.025649155 0.06731917 0.2292358 -0.011057676 0.1939225 0.0909309 0.18035541
0.09003516 0.09396341 0.12604555 -0.15698579 0.15828611 0.1937249 -0.043763824 0.21932805
-0.053552855 -0.21314535 -0.18303609 0.20134857 0.11417684 0.08682764 0.093943216 0.20343438
0.12974073 -0.15826394 0.1524959 0.25611174 0.14097929 -0.19170608 0.078571185 0.02983088
0.16499963 0.2600939 -0.11667098 -0.035341986 -0.25110453 0.066284984 -0.06065142 0.10906887
-0.051452413 -0.034733966 -0.01673985 0.1455311 -0.13542263 -0.012850453 -0.110991776 -0.18506573
-0.20271066 0.036350973 0.10782328 0.08289949 0.099070325 0.055973865 0.19063097 0.031583518

net.0.bias f4 [128]
00000000: 65d8 003d 7b06 873d dd45 6f3e ceed 0a3e
00000010: b094 d83c 5e13 223e 6949 2cbc 6738 233e
00000020: 8a7e 2cbe b935 12bd 5859 383e 8e48 6bbd
00000030: b1d2 edbd 4934 23be 689a 2d3d e066 b53d
00000040: 88cc 72bd c3a5 683e 5cfd 1fbe d8fa 5e3e
00000050: a283 c03c 50b5 af3d 2550 fe3c b084 c9bd
00000060: de46 8a3d da09 7c3d ec32 cc3c f790 83bd
00000070: 3955 94bd 333f 71bd 1619 6dba 92d5 fbbc
00000080: 0657 743d 3acd 81bd a934 4abd 078e c4bd
00000090: 5e96 3abe 7e33 163e ee35 5b3e 7d98 d7bd
000000a0: aa36 dd3c 4c38 7d3e 8668 cabc e745 4a3e
000000b0: f20c 163d 5c47 cbbd edd6 9abd 088e 673e
000000c0: 33d4 afbd c920 0abe 78c1 3bbc f953 023d
000000d0: 50b1 b9bd 67b9 b4bd 2f90 3e3e 2f2e e3bd
000000e0: 9429 563e df69 283c 63fe d93d 4f96 7dbd
000000f0: 8c40 153e 9347 a03c 2915 853d a3b5 21bd
00000100: 46c4 acbd be3e b63d 7b26 90bd ff50 633e
00000110: 0fc8 98bc fc58 c33d 7fce f23d e6c1 e6bc
00000120: e010 00bd 7b69 f13d c7fd 64bd 4bf7 263e
00000130: 1b76 ed3d 33fc a93d 0ad5 c3bc 0816 cdbd
00000140: ba78 d4bd 72fa be3d b9cf 68bd 48d1 1cbe
00000150: 4a9e 2c3e 8765 c63d 3650 b03c f887 ba3d
00000160: 78b9 9cbd e527 b7bd 9c8d 2bbe f92c 543e
00000170: 98e5 7bbd b5db bfbd b286 28bd dfe6 2a3e
00000180: 87ef 783e 7063 e53d a08b 1bbe 2b47 55bd
00000190: d165 d63c 4498 67bd 579b d53d 0e9f 8d3d
000001a0: d029 043e dd6c bdbd d5a8 09bc b81c 173e
000001b0: 1aec 603e 3a5f a0bc bdd0 0bbe 9c3c 12bd
000001c0: e2a7 fb3c 3922 ccbd b271 02be b092 043d
000001d0: 9a64 7a3c 078f 893d 90e0 2e3e 0bd6 92bd
000001e0: 58ee 763c e493 8dbd 1824 f4bc 7ade 143e
000001f0: 8bf9 db3d db01 bc3d f6c6 9f3d 63c1 3cbe
0.03145637 0.06593033 0.23366494 0.13567278 0.026438087 0.158277 -0.010515549 0.15939485
-0.16845146 -0.035695765 0.18002832 -0.05744224 -0.11612452 -0.15937914 0.04238358 0.088575125
-0.059277087 0.22719483 -0.15623993 0.21775377 0.023500267 0.085795045 0.031044075 -0.09839761
0.06751798 0.061532833 0.024926625 -0.06424134 -0.072428174 -0.058898162 -0.00090445706 -0.030741487
0.059653305 -0.06337972 -0.049366627 -0.09597402 -0.18221423 0.1466808 0.21407291 -0.10527132
0.027003605 0.24728507 -0.024708044 0.19753228 0.03663344 -0.0992572 -0.07560525 0.22612774
-0.08585396 -0.13489069 -0.011459701 0.031818364 -0.09067023 -0.08824425 0.18609689 -0.11092793
0.20914298 0.010279148 0.106442235 -0.061910924 0.14575404 0.01956538 0.064981766 -0.039479863
-0.08435874 0.08898686 -0.070385896 0.22198866 -0.018650083 0.09538457 0.11855792 -0.02816863
-0.031266093 0.11787697 -0.055906083 0.16305272 0.115947925 0.08300056 -0.023905296 -0.10013968
-0.10374589 0.093251124 -0.056838725 -0.1531421 0.16857257 0.096873336 0.021522623 0.09107965
-0.07652563 -0.08943156 -0.16753238 0.2072028 -0.061498255 -0.09368078 -0.04114408 0.16689633
0.24310122 0.11200607 -0.15189981 -0.052069824 0.026171597 -0.056541696 0.10430019 0.06915103
0.12906575 -0.0924928 -0.008402069 0.14757049 0.21965066 -0.019576658 -0.13653846 -0.035702333
0.030719701 -0.09967465 -0.12738684 0.032366455 0.015282774 0.067167334 0.17077851 -0.07169732
0.015071474 -0.069129735 -0.029802367 0.14537993 0.10740956 0.091800414 0.07801621 -0.18433146

net.2.weight f4 [128, 128]
00000000: 524f 9bbd bf20 e73d ccd5 413d a3ea e23c
00000010: 259a 11bd b1f0 a4bd 1c7a 043d e779 9d3d
00000020: 6d37 33bd 2f31 80bd 7668 fcbd 8691 553d
00000030: c458 5d3d ca45 7e3c ff1e 2bbd 0b96 9b3c
00000040: a78a ca3c 1b9f 923d 428b 1cba d3fb 61bd
00000050: 922c 31bc 1291 d8bd 4267 de3d 1d78 65bc
00000060: 6602 bebc ebbe e43d d555 7fbd 4231 48bc
00000070: e549 c73c 0b18 fc3c bae3 b63c 791c 423d
00000080: fdcc 3e3c c8a7 3e3d ff29 85bd 4f52 ac3d
00000090: 8093 9e3d 1d92 eb3d dfa9 adbd e14c 81bd
000000a0: 029a 4b3d b136 d63b 3957 803c a8e9 c63d
000000b0: 02ce 99bd e0b6 20be c8c4 9e3d ffd6 913b
000000c0: 6653 a73d 8925 9bbd 35c1 44be d96e f63c
000000d0: 855c a43d c17a e4bd da66 10bc aef0 783a
000000e0: 4084 5e3b 3ef8 80bd 0451 b9bd 4b8c 79bc
000000f0: bc7a e33d b7f7 f9bc 6c42 173e a3f7 5d3d
00000100: 56a5 c9bc 6ac7 4cbd 143a 8c3b 0c78 2b3a
00000110: 34ba 653d 7379 f6bc ecc3 963d bea8 d73d
00000120: 40c8 a73d 1004 70bd d526 2abd a49f 953d
00000130: 83e5 423d 4ef7 c4bd de84 12bd 51be 003d
00000140: 3450 08bc 22bf 29be 749d 413d a857 4b3c
00000150: 9aec 023e 3595 8e3d ecd7 343d 4910 edbd
00000160: 1585 ef3c efbe 7c3d d688 7dbc 85dd 74bd
00000170: 0757 2ebb 16fa 033d b9ff 7e3c 7291 fbbd
00000180: e96e 7fbd 23fb 95bc 48ca 04bc ce9c a6bd
00000190: 6a8c 00bd 8488 073e cb26 d2bc 4d9a 503d
000001a0: bd06 39bd 7029 1abd e6a8 98bd e41c 9f3d
000001b0: 5943 933d c003 aabc cee9 3f3d e8a0 0e3e
000001c0: cd4d 48bd 6221 d93c 2de5 5ebc 533a 85bc
000001d0: e903 05bd 838c 85bd 5bb4 92bd 7687 5bbe
000001e0: c0a0 613d 8612 593d 5ca3 41bd e894 44bc
000001f0: 70db 053e bd3b 1f3d 9f19 5ebc 49d3 b0bd
00000200: 61c2 813d c053 5a3d e551 b8bd 0e73 b63d
00000210: f1b0 0e3c e7e6 cd3c 71b7 463d abe0 d23d
00000220: 5048 933d 067e 6a3d da1b b1bd 71ab e23c
00000230: 1528 eebd 8689 04bd 091a b73b b058 1b3d
00000240: ec7f 07bd a87c 9a3d f54f 6bbd 032e 243d
00000250: 3f13 51bd af8a 0e3e 3ce1 0ebd d46f 11bd
00000260: 88a1 85bd 9e12 40bd e45a 9c3d 27ab af3c
00000270: 05bb b4bd ca5c ecbd ea92 5a3d eb78 febd
00000280: a8fd b0bd 1180 d8bc 1426 263e 52cf 79bd
00000290: 9a05 86bd a458 89bd dd08 84bb b8be 8d3d
000002a0: a780 dc3d 3759 6a3d 3963 683d eef5 afbc
000002b0: 95ad 053d 0641 b63b cb19 73bd 288f ee3c
000002c0: 62ae 7a3c ec15 383d 8c33 f63d defd 71bd
000002d0: 9e16 d33c 62ca fa3d 893b 91bd c07f fdbc
000002e0: 3b29 b5bc 6dcc 073b 1cdc 823d 1761 16be
000002f0: c9c2 febd a959 79bd f078 1ebd 9dfa 023c
00000300: 8272 8cbc 3d24 a63d 3044 a73c c49f cbbd
00000310: 7abe acbd 7004 983d 8c76 ebbd c647 17bc
00000320: 8f19 273d ef71 5d3c aab5 123d e6da 8ebd
00000330: 798a a43d 6ccc 1f3d 0e7d 943c c044 bdbd
00000340: ad38 ba3d c1bc 1f3d 3f21 d7bd a101 2dbc
00000350: c3f0 febc 183b 4a3d f396 163c 3183 923d
00000360: bce9 79be 3db8 8dbd 1666 903c 85b5 8abd
00000370: 466b f9bd 19c7 5a3b 4a84 2e3d 2360 a5bc
00000380: 76e7 bb3c 4aed 28bd ba9d 4d3d 3df4 18be
00000390: 6e58 1cbd 642f 21bd 63b6 6ebd 7755 80bb
000003a0: 881a fe3c 60b4 05bc cc71 7c3c a873 15bd
000003b0: 6f4e 393d 9694 463c 055d 923d 2bb7 ce3c
000003c0: 3af8 cdbc 4c2b 29bd fba3 85bd 80a4 9fbd
000003d0: 3e6d 61bd c9a9 99bd 9e32 eabc 33f7 1bbd
000003e0: f5df 73bd cec8 ddbc 66b4 87bd a9e1 e03c
000003f0: ce2c babd fd2a 493d f5c9 f13d 2aa8 21bd
-0.075834885 0.11285543 0.047323033 0.027699774 -0.035547394 -0.08053721 0.032343015 0.07689267
-0.04375403 -0.06259381 -0.12324612 0.052140735 0.05403973 0.015519569 -0.041777607 0.018992445
0.024724318 0.07159253 -0.0005971679 -0.0551718 -0.010813849 -0.10574545 0.108595386 -0.014005688
-0.023194503 0.11169227 -0.062337715 -0.012218775 0.024327228 0.030773183 0.022325385 0.047390435
0.011645553 0.046546727 -0.06502151 0.084141366 0.07742977 0.11502478 -0.08479666 -0.063134916
0.04970742 0.0065372814 0.015666591 0.09712535 -0.07509996 -0.15694761 0.07752377 0.0044506784
0.08170204 -0.07575519 -0.19214328 0.030082153 0.08025459 -0.11156226 -0.008813584 0.0009496313
0.003395334 -0.062973484 -0.09048656 -0.015231202 0.11107394 -0.030513627 0.14771432 0.054191243
-0.024614971 -0.049994864 0.0042793844 0.00065410207 0.05608578 -0.030087208 0.07361588 0.10530232
0.081924915 -0.058597624 -0.04154094 0.0730584 0.04758216 -0.09617482 -0.035771243 0.0314315
-0.008319903 -0.16576818 0.0472693 0.012411036 0.12785569 0.06962053 0.04415123 -0.11575372
0.029238263 0.061705526 -0.015474519 -0.05978157 -0.0026602165 0.032220922 0.015563899 -0.12283601
-0.06236163 -0.018308228 -0.008104868 -0.08135377 -0.03138391 0.1323567 -0.025653264 0.050928403
-0.04517244 -0.037637174 -0.0745409 0.07769182 0.0719058 -0.020753741 0.046853833 0.13928568
-0.04890232 0.026505176 -0.013604444 -0.016263163 -0.032474432 -0.06520941 -0.07163306 -0.21438393
0.055084944 0.05299618 -0.047274932 -0.011998393 0.1307199 0.03887533 -0.013555913 -0.086340494
0.06335903 0.053302526 -0.08999995 0.08908664 0.008709178 0.025134517 0.048514787 0.10296758
0.07191527 0.05724909 -0.086478904 0.02766964 -0.11628739 -0.032357715 0.0055878204 0.037926376
-0.03308098 0.075433075 -0.0574493 0.040082943 -0.051043745 0.13920091 -0.03488277 -0.03550704
-0.0652495 -0.046892755 0.076345235 0.021443916 -0.08824734 -0.115411356 0.053362764 -0.12425407
-0.08642131 -0.026428254 0.16225463 -0.06098873 -0.06544037 -0.0670636 -0.004029377 0.06921142
0.10766726 0.05721399 0.05673525 -0.021479573 0.032636244 0.0055619506 -0.05935077 0.029120997
0.015300365 0.04494278 0.120215505 -0.059079997 0.02576762 0.12245633 -0.070914336 -0.030944705
-0.022114387 0.0020721212 0.06389639 -0.14685474 -0.12439496 -0.060876522 -0.038689554 0.007994321
-0.017144445 0.08112381 0.020418257 -0.09942582 -0.08434768 0.074227214 -0.114972204 -0.009233421
0.04079586 0.013515933 0.03581778 -0.06975345 0.08034224 0.03901331 0.018126037 -0.09241629
0.09092841 0.03899837 -0.10504388 -0.01055947 -0.031120664 0.049372762 0.009191263 0.07153929
-0.24405569 -0.06919906 0.017626803 -0.06772903 -0.12178664 0.0033382832 0.04260663 -0.020187443
0.022937518 -0.04124192 0.050199248 -0.1493692 -0.03817027 -0.039351836 -0.058279406 -0.003916438
0.03101851 -0.0081606805 0.015407991 -0.03648725 0.045240816 0.012120387 0.07146648 0.025233826
-0.025142778 -0.041301057 -0.065254174 -0.07795048 -0.055035822 -0.07503087 -0.02858859 -0.038077544
-0.059539754 -0.02707329 -0.06626205 0.027451353 -0.09090577 0.049113262 0.11806098 -0.039467014

net.2.bias f4 [128]
00000000: a263 54bd 9194 d3bc 561b 303b 142f 6d3c
00000010: a340 8f3d b85f e53d c348 3d3d 0dc2 2fbd
00000020: 5ee6 ce3c fc76 143d f938 48bd 50c0 25bc
00000030: ec11 9f3d b957 9abd a4cb 693d 6530 743d
00000040: 7359 42bd 5fc5 863d 5aef 6c3c 8c3e a73d
00000050: 3864 c1bc 24a0 fe3b 31d7 31bc ab0c cb3d
00000060: 0bcd 433d b75f c4bd cf22 043d 9656 513d
00000070: d4e1 a6bd 3672 513d 5f7b aebd a8cf 2e3d
00000080: 9dcc 83bb f5b1 0fbd 72aa 483d f769 43bd
00000090: 6a2d 1f3d bc58 35bd 288a af3d 94dd 303d
000000a0: 18d4 3abd 0c0b 8f3d 9050 ad3d e7c0 87bd
000000b0: 2b95 9d3d 805c cb3d eb04 f93a 319f 28bd
000000c0: 2e77 413d a266 41bd f5c8 8fbd c603 86bd
000000d0: bba8 033d 01ef 8abc 2189 943d f513 5fbd
000000e0: cfe2 8ebd 2a92 763d 74de aa3d 601b 49bd
000000f0: c6ff 243d 9a88 8abc 22a3 5cbc 2f56 753d
00000100: 8e62 ef3c b8f4 08bd 3186 293d 5c76 d93a
00000110: 0402 923d 3db4 f1ba 5960 32bd f198 e73b
00000120: 49b8 9cbd 3a5c f53c 75d6 9d3d 6adb e43c
00000130: cc3f 4a3d 1050 bf3c 18bf 9c3d 604f 67bc
00000140: b9b3 b4bc 40dc a03d 328d 603d deda 7fbb
00000150: 7500 433c 253d 543c f371 2cbd 0779 173d
00000160: 86f5 363d 4389 fdbc a394 e43d db8d 7c3d
00000170: 0cfa 983d ef4f 0e3c 4247 633c 5db9 303d
00000180: 3d8a 8e3d e7f4 553d 886a 82bd 6f29 e43a
00000190: 8fed 643d 2796 6e3d 457f 703d c86b a3bd
000001a0: 75b6 b23d 8280 6bbd 033a 3abd dd19 963c
000001b0: 262a 943d 87d4 603d 5b42 88bc 9367 f83c
000001c0: efd0 823d c49d 013d 062e ad3d 9bfa 233d
000001d0: 0e24 c93d 96f3 1f3d 2a46 b13d 0a46 a13c
000001e0: 9003 51bd be5f 9f3d c4a4 873d 5761 b13d
000001f0: 8ca9 78bd 2aed 373d 0662 0f3c 6fa6 be3d
-0.05185283 -0.025827678 0.0026871762 0.014476556 0.0699475 0.111998975 0.04621197 -0.04290967
0.025256332 0.036246285 -0.04888246 -0.010116652 0.0776709 -0.07536263 0.057078972 0.059616465
-0.047448587 0.06580614 0.014461363 0.08166227 -0.023607358 0.007770555 -0.010854528 0.099145256
0.047802966 -0.09588569 0.03225976 0.051107965 -0.08148542 0.05113431 -0.08519625 0.042678505
-0.0040221945 -0.035081822 0.048990674 -0.047708478 0.03886167 -0.044274077 0.08571273 0.043180063
-0.045612425 0.06984529 0.08462632 -0.0662859 0.07694467 0.09929752 0.0018998658 -0.04116744
0.0472328 -0.04721702 -0.070207514 -0.065436885 0.032143336 -0.016959669 0.07252718 -0.054462392
-0.06976854 0.060197987 0.08343211 -0.049098372 0.040282987 -0.01691084 -0.013466628 0.059896644
0.0292218 -0.033436507 0.04138774 0.001659106 0.07129291 -0.0018440556 -0.043548916 0.0070677926
-0.07652337 0.029951204 0.0770692 0.027936656 0.049377248 0.023353606 0.07653636 -0.014118046
-0.022058355 0.07854509 0.054822154 -0.0039040367 0.011901964 0.012954031 -0.042100858 0.036980655
0.044667743 -0.03094924 0.11161163 0.06165872 0.07469568 0.00868605 0.01387197 0.043145526
0.069599606 0.05223551 -0.063679755 0.0017407368 0.055890616 0.058248665 0.058715124 -0.07979542
0.08726207 -0.0574956 -0.04546548 0.01832288 0.07234602 0.054890182 -0.016633203 0.030322826
0.06387507 0.031644598 0.08456044 0.040033918 0.0982133 0.03905066 0.08655961 0.019686718
-0.051028788 0.07781933 0.066232234 0.08661144 -0.060708568 0.04490391 0.008751398 0.093090884

net.4.weight f4 [7, 128]
00000000: 48b8 97bb 24ed 4ebe 08ce 993d 149e 663d
00000010: f4b0 3fbd 8d2b 3f3d e447 aebd 076e cd3d
00000020: b875 d63b 12fc 303c 353e 2dbe ab1c 90bc
00000030: e86f 03ba 5726 50bd c82c 4cbd 248d 653d
00000040: 64e2 c2bd 60d4 35bc 4872 bc3c 12d0 e8bd
00000050: 02c8 39bc 7ced a0bb eb07 373c a939 5d3d
00000060: 0153 ed3d 8149 aebd 307c b93d e1bd 773c
00000070: 4d35 103c 6bc5 433d 3939 413d f5c4 8e3c
00000080: 8e51 943c 1a5f bcbd 3764 6f3d cd14 e5bc
00000090: 9655 da3c 44ec f4b8 b21e ac3d 0ec8 37bd
000000a0: cbbe e63d 47fc 893d f2a9 603c 189a 873d
000000b0: de80 5e3d 1e80 ff3d fda9 803d 7318 833b
000000c0: 13bc 9fbb b50b c73d db19 3dbc 980d 7b3d
000000d0: 7496 553d d502 9b3c 9f53 30bd 3235 8dbd
000000e0: 5fb0 24bd c694 153b a526 8a3d c2d9 a03d
000000f0: 0511 35bd cc59 fe3c 56c1 87bd 03b6 d33c
00000100: 1011 b53d 260a ab3d 20c9 aebc 5842 963d
00000110: 84c6 cfbc ce25 0cbe 46bd 0c3d 0e3c 943d
00000120: 2db5 c4bd 23a7 ccbc af2a d63d bcac 80bd
00000130: 9053 9abd 6b1a 313b a05c 993d bfbc 603d
00000140: b80a 6dbd 60b7 8cbd dceb b53c 6ec3 52bd
00000150: b80c bb3d 5b2f 293e f566 c13d 04a6 b13d
00000160: 4ebc 2dbc ff08 8fbd 97ba a53d 1d24 bfbd
00000170: 67b4 9fbb b7c3 ebbc 6870 cb3d 41f6 3ebd
00000180: c5ff 903d 74cf ae3c 6396 8ebd 25a1 2bbd
00000190: 71e8 e7bd 7f80 69bd b504 993c 93f9 73bb
000001a0: 2db1 8c3d 9611 98bd 4c4b 8dbd 55a6 97bd
000001b0: 7b58 eebd 78ec af3d 5007 be3d 4aa5 44bb
000001c0: 6559 6b3c b0a1 cf3d 6317 cd3d 97da f5bc
000001d0: 6308 c03d 4a86 02be f9c1 6f3e e38d 83bd
000001e0: fc65 a7bc 135f 24bd d030 243d 3693 d23d
000001f0: 72fe fabd 90a6 ae3d 240a 18be 80ad d33d
00000200: 7ce4 bbbd 408e bd3c 6d10 b43d c345 783d
00000210: 5885 12bd a1d5 de3d 2ee8 cbbd 42ef 273d
00000220: a6dc 1f3d c2ae 8ebd c2f6 f2bd f1c0 39bd
00000230: fc81 e3bc 94ba d53d 2445 aabd 296c 473d
00000240: 567b a93d fa9a b83d bddd b33d 0eea 91bd
00000250: 099a 033e b648 243d 6ddf 313c d6b0 b93d
00000260: fe7d 07bd b11b 083e 8061 e23d 814b e33d
00000270: 5692 84bd 518c 9e3d dc8c 373d 460a 6d3d
00000280: 3307 5d3d f46b d5bd d41e b63d ade1 73bc
00000290: a1e9 e1bc c2a8 d0bd f8de 6e3d 62d2 f4bc
000002a0: 160c 713d 997b 8ebd 7153 563d 2003 893d
000002b0: 4cb6 363d bd0c 06be 9a89 8bbb 987f a63d
000002c0: c15c 903d 9a02 3b3d 774e b03d ca35 933d
000002d0: 1029 173d 9218 c33c e4da 733d d627 3c3d
000002e0: a966 2c3d 20f3 623c 9590 2f3c 0d55 cf3d
000002f0: f856 1a3d ac95 0ebd 43f0 83bd 18aa 79bd
00000300: 22eb 72bd db66 0fbe c8a3 3b3d 50f5 453d
00000310: 0f9e 293c b039 bebc 3771 203d 899b 17bd
00000320: 8385 d43c e331 d93d a20c a4b9 bfd8 653d
00000330: 3987 ab3d b6c7 233d 376a cbbd 81eb f03d
00000340: c701 e7bd f432 31bd 0520 843c 89fe 01be
00000350: 25a9 73bd ae7a 763d 3222 9e3b 4d4e acbc
00000360: 8763 b53d 9959 03be d0d8 6d3c 706a cc3c
00000370: e2a8 f03d 3391 1b3c ab67 91bd 76a4 14bd
00000380: 70b8 c73d 3d82 66bd 17ee 9ebd eec1 c1bd
00000390: 4586 94bd 65a0 42bd 1622 ee3d 6018 61bd
000003a0: b6e9 c13d 5882 e63d ba51 b33a 54b0 99bd
000003b0: 14fb 1f3e e42b 963c e878 813c e9a8 283d
000003c0: 3c5e 9cbd c1fd 4e3d 3d7e c43d 33cc b53d
000003d0: 77ac 49bc 1f70 073e 1e41 88bd 803c 80bc
000003e0: 1a0c 9e3d 37d8 53bd 6c39 0b3d c8d6 55bd
000003f0: cc77 113e 91de 4abd 9ef0 6c3d 06de 943c
-0.0046301223 -0.2020765 0.075100005 0.0563031 -0.046799615 0.046672393 -0.08509806 0.10030752
0.006544795 0.010802286 -0.16918261 -0.017591795 -0.0005013929 -0.050817814 -0.049847394 0.056042805
-0.09515837 -0.011097997 0.023003712 -0.11367811 -0.0113391895 -0.004911123 0.011171321 0.054010067
0.11588097 -0.085101135 0.0905689 0.015120954 0.00880177 0.047795694 0.047173712 0.0174279
0.018105295 -0.09197827 0.05844518 -0.02796402 0.026652139 -0.000116788346 0.08404292 -0.04486852
0.112668596 0.06737571 0.013712393 0.06621188 0.054322116 0.12475608 0.06282423 0.0040007173
-0.004874715 0.0971903 -0.011541809 0.06129226 0.052145436 0.018922249 -0.043048497 -0.06894912
-0.040207263 0.0022824272 0.06745652 0.07854034 -0.044205684 0.031048678 -0.06628673 0.025843626
0.08841145 0.08351545 -0.021336138 0.07336873 -0.025363214 -0.13686296 0.034360193 0.07238017
-0.09604869 -0.02498204 0.1045736 -0.062829465 -0.075354695 0.0027023803 0.0748837 0.054867502
-0.05787155 -0.068709135 0.022207193 -0.051455908 0.09133285 0.16521971 0.094434656 0.08674243
-0.010603977 -0.06984138 0.0809223 -0.0933306 -0.0048738006 -0.028779848 0.09933549 -0.046621565
0.07080034 0.021339156 -0.06962278 -0.041901726 -0.113236316 -0.05700731 0.018679002 -0.0037227615
0.06869731 -0.07425229 -0.06899127 -0.07404772 -0.1163797 0.08590025 0.092787385 -0.0030005747
0.014364575 0.10138261 0.10014226 -0.030011458 0.093766 -0.1274654 0.23413838 -0.06423547
-0.020434372 -0.040129732 0.040085614 0.102819845 -0.12255563 0.08527863 -0.14847618 0.10335827
-0.09174439 0.02313912 0.087921955 0.060613405 -0.035771698 0.1088059 -0.09956394 0.04099966
0.039028786 -0.06966926 -0.118634716 -0.04535002 -0.027771942 0.104359776 -0.08313969 0.048687134
0.082754776 0.090139344 0.087825276 -0.071247205 0.12851728 0.040108405 0.0108564915 0.09066932
-0.03307914 0.13291813 0.11053753 0.110983856 -0.06473224 0.07741607 0.04481207 0.057871126
0.053961944 -0.10420981 0.08892599 -0.014885348 -0.027577223 -0.10188438 0.05831811 -0.029885475
0.058849417 -0.06957168 0.05232567 0.06690049 0.044607446 -0.13090797 -0.0042583467 0.08129805
0.070489414 0.045656778 0.08608716 0.07187994 0.036904395 0.023815427 0.059534922 0.045936428
0.04209009 0.013851911 0.010715623 0.10123644 0.037680596 -0.034810707 -0.06442311 -0.06095323
-0.05930627 -0.1400408 0.04581049 0.04832965 0.0103526255 -0.023220867 0.03917047 -0.037013564
0.02594257 0.10605218 -0.0003128993 0.05611491 0.08375401 0.03998538 -0.09932368 0.11763669
-0.11279636 -0.043261483 0.01612855 -0.12694754 -0.05948748 0.06017559 0.0048258537 -0.02103343
0.08856874 -0.12827148 0.014517024 0.024953097 0.11750962 0.009495067 -0.07099851 -0.036289655
0.097519755 -0.05627655 -0.07760256 -0.09460817 -0.072521724 -0.047516245 0.11627595 -0.054954886
0.09468405 0.1125533 0.0013680973 -0.07504335 0.15623122 0.018331476 0.015804723 0.04117671
-0.07635161 0.050534967 0.095943905 0.088768385 -0.012309185 0.13226365 -0.06653045 -0.015653849
0.07717152 -0.05171987 0.03399031 -0.052206784 0.14205855 -0.049528662 0.057846658 0.018172275

net.4.bias f4 [7]
00000000: b08d c43d 3bc3 233a e00d e13a 91d9 29bc
00000010: 2471 b83c bc98 663d 8ddf aa3c
0.09597337 0.0006247048 0.0017170273 -0.010366813 0.022514887 0.056298003 0.02085855
