coup_nsfp/nfsp_coup_demo_q_target.pt (torch, 86293 bytes, 6 tensors)

net.0.weight f4 [128, 25]
0.12994286 -0.18510492 -0.056878436 0.13405071 -0.22382198 0.17341547 0.18262541 -0.13301615
0.13576281 -0.11925303 0.118192345 -0.22064786 -0.023696564 -0.08038783 -0.18461129 -0.30376697
-0.13772358 -0.102832705 0.07507358 -0.21308017 0.21237682 0.13450234 -0.45095277 0.23125866
0.031283047 0.19699056 0.10375231 0.17174451 -0.0072187195 -0.15623872 0.20579994 -0.030124534
0.10161673 0.18654174 0.24802451 -0.08959391 -0.06627739 0.029511537 0.100241475 -0.026210783
0.16171502 -0.242641 0.09627254 0.13497488 -0.14675152 -0.040781744 -0.26068825 0.2383243
-0.044076066 -0.14426668 -0.26560745 -0.12696303 0.022089511 -0.03800925 0.18807395 -0.21209535
-0.0932953 0.11684412 0.15566097 -0.10164348 0.33444095 0.041959595 0.04793406 -0.104384065
0.28485644 0.04680476 -0.3513576 0.068402134 0.11211004 0.015707102 0.08227221 0.040148996
-0.30670786 -0.064584576 -0.09498972 -0.18146065 -0.18471335 0.19659548 -0.18833567 -0.14113219
0.21695416 0.2627182 0.07046059 -0.129421 0.04330136 0.17575249 0.0120342355 -0.038123317
0.1547427 0.043370925 0.28788072 0.04791667 -0.07226845 0.14582546 0.11307438 -0.1069088
0.17229965 0.022670744 -0.34362376 -0.048783522 -0.24540421 0.122383125 -0.0054538785 0.033882227
0.14739284 0.2475609 0.26108736 0.009633694 -0.06949866 0.08098208 0.11507575 0.049371917
0.06182502 -0.05815046 0.018121539 -0.0992314 -0.079344966 0.05135248 0.07278874 0.2922543
0.0023170877 -0.07290432 -0.05958971 -0.10732585 -0.10005317 -0.10132337 -0.21695855 -0.085500315
-0.118528865 0.0104615055 0.05536991 -0.27649397 -0.08447151 0.21356525 -0.12021301 -0.17499052
0.039522804 -0.022279501 -0.055699397 -0.01678359 0.002179395 0.15798761 -0.39044875 -0.04598844
-0.13261431 -0.099462464 -0.11394306 -0.04638193 0.21824852 0.06832533 0.110889904 -0.18755062
-0.04198522 0.22322553 0.049975023 0.024463825 0.13883422 0.005432545 -0.07277538 -0.021719318
0.16788878 0.089673385 0.1724348 0.019582987 0.017717665 -0.048152886 -0.17739566 -0.17878932
-0.123862624 -0.23819007 -0.051365167 0.18169214 0.094622955 -0.120976046 0.113965996 -0.049927194
-0.15803821 0.23578343 -0.24212284 0.09885917 0.09834365 0.12949987 -0.026143009 0.09409695
-0.13519655 -0.15633404 -0.13471997 -0.0061069094 -0.054286886 0.052783374 -0.114385456 0.032261387
0.18781967 -0.06564112 0.14141634 0.15970159 0.17927438 -0.2741733 0.22228615 -0.08348316
-0.18364748 -0.22447515 0.12936209 -0.005508972 0.0849461 -0.052233726 0.008819264 0.143209
-0.054771822 0.16470131 0.19886501 -0.30866846 0.15889998 0.032795813 0.14179502 -0.014689984
0.11783966 0.103688866 -0.1454684 0.07567007 -0.11631427 0.062696904 0.1343306 -0.4240524
-0.13925384 0.08614483 -0.12146247 -0.2879698 0.05956165 -0.0631924 -0.24566686 -0.040188253
0.20764938 -0.12741527 0.24304493 0.37360615 0.16390255 -0.19838084 0.06421411 -0.08288078
-0.15211542 -0.042254414 0.272084 0.18376517 0.029786227 -0.31810495 -0.36238614 0.0038130388
0.024221336 0.16960934 0.083390094 -0.14842832 -0.11092915 -0.046625633 0.19920865 0.15254605
00000000: be0f 053e 258c 3dbe 5df9 68bd 9744 093e
00000010: 9731 65be d393 313e 2802 3b3e 6335 08be
00000020: 6805 0b3e ef3a f4bd d40e f23d 83f1 61be
00000030: 4c1f c2bc 60a2 a4bd be0a 3dbe 5887 9bbe
00000040: 6907 0dbe f499 d2bd 2dc0 993d b031 5abe
00000050: 4f79 593e fbba 093e 48e3 e6be 12cf 6c3e
00000060: a722 003d e5b7 493e 177c d43d cbdd 2f3e
00000070: 028b ecbb 0bfd 1fbe 38bd 523e bac7 f6bc
00000080: 6f1c d03d cc04 3f3e 23fa 7d3e 037d b7bd
00000090: 71bc 87bd 2ec2 f13c 674b cd3d ffb7 d6bc
000000a0: 9f98 253e e276 78be 8a2a c53d db36 0a3e
000000b0: 0846 16be c20a 27bd ee78 85be 490b 743e
000000c0: 1b89 34bd a5ba 13be b3fd 87be 9902 02be
000000d0: 10f5 b43c 96af 1bbd 7596 403e 862f 59be
000000e0: 9b11 bfbd f84b ef3d 9765 1f3e 752a d0bd
000000f0: d83b ab3e d3dd 2b3d 8156 443d 50c7 d5bd
00000100: b4d8 913e 59b6 3f3d 25e5 b3be 6b16 8c3d
00000110: f399 e53d 2eac 803c 557e a83d 4673 243d
00000120: d008 9dbe eb44 84bd f889 c2bd d2d0 39be
00000130: 7f25 3dbe 5350 493e 11db 40be f584 10be
00000140: 3b29 5e3e 0083 863e a44d 903d f086 04be
00000150: c45c 313d 76f8 333e 3e2b 453c 3227 1cbd
00000160: df74 1e3e b6a5 313d 1a65 933e 4544 443d
00000170: 7b01 94bd 4553 153e 8a93 e73d 00f3 dabd
00000180: 526f 303e ffb7 b93c 74ef afbe 3bd1 47bd
00000190: 3e4b 7bbe 01a4 fa3d 73b6 b2bb 17c8 0a3d
000001a0: 26ee 163e 9b80 7d3e 3ead 853e a4d6 1d3c
000001b0: 5055 8ebd efd9 a53d d6ac eb3d 353a 4a3d
000001c0: 3b3c 7d3d 2d2f 6ebd 9f73 943c d539 cbbd
000001d0: 9d7f a2bd fa56 523d 4312 953d 5ba2 953e
000001e0: 48da 173b dc4e 95bd 5714 74bd a8cd dbbd
000001f0: ade8 ccbd a182 cfbd 622a 5ebe ca1a afbd
00000200: 43bf f2bd bc66 2b3c 8fcb 623d 9e90 8dbe
00000210: 66ff acbd d9b0 5a3e 3d32 f6bd b730 33be
00000220: aae2 213d 8083 b6bc 0d25 64bd bd7d 89bc
00000230: 2ed4 0e3b 81c7 213e e6e8 c7be 605e 3cbd
00000240: 0ccc 07be fab2 cbbd fb5a e9bd fbfa 3dbd
00000250: 8a7c 5f3e 27ee 8b3d 3f1a e33d 450d 40be
00000260: b2f8 2bbd 3c95 643e 9cb2 4c3d 5c68 c83c
00000270: 8f2a 0e3e 7e03 b23b 420b 95bd b6ec b1bc
00000280: 09eb 2b3e aea6 b73d c092 303e 806c a03c
00000290: a324 913c f63b 45bd 35a7 35be 8c14 37be
000002a0: b0ab fdbd 19e8 73be 4864 52bd 810d 3a3e
000002b0: aec9 c13d 4ac2 f7bd 0167 e93d 7580 4cbd
000002c0: c5d4 21be 3671 713e 0def 77be ad76 ca3d
000002d0: 6568 c93d 9d9b 043e dd29 d6bc e7b5 c03d
000002e0: f770 0abe 0816 20be 08f4 09be 781c c8bb
000002f0: ed5b 5ebd 6133 583d ec42 eabd 8424 043d
00000300: cd53 403e da6e 86bd 72cf 103e d088 233e
00000310: b493 373e 7160 8cbe fb9e 633e 38f9 aabd
00000320: 160e 3cbe d0dc 65be 7f77 043e 9b84 b4bb
00000330: 39f8 ad3d 08f3 55bd ad7e 103c 61a5 123e
00000340: 6b58 60bd 76a7 283e 45a3 4b3e cb09 9ebe
00000350: adb6 223e e754 063d b732 113e 42ae 70bc
00000360: eb55 f13d d45a d43d abf5 14be e9f8 9a3d
00000370: 2d36 eebd 3c67 803d f68d 093e 651d d9be
00000380: 8f98 0ebe b36c b03d 51c1 f8bd c770 93be
00000390: ebf6 733d 046b 81bd 1890 7bbe 709c 24bd
000003a0: 0aa2 543e 2679 02be c5e0 783e 4e49 bf3e
000003b0: 12d6 273e 5924 4bbe b082 833d 66bd a9bd
000003c0: 25c4 1bbe f712 2dbd 984e 8b3e f02c 3c3e
000003d0: 3f02 f43c a7de a2be ad8a b9be 2de4 793b
000003e0: d36b c63c 12ae 2d3e 6dc8 aa3d 98fd 17be
000003f0: d22e e3bd 85fa 3ebd 5afd 4b3e 0835 1c3e

net.0.bias f4 [128]
0.16605933 -0.11400083 -0.087351985 0.083238915 0.107102275 0.00083029654 0.18063946 -0.08439788
-0.05958085 -0.16901882 0.03644916 0.059243042 -0.08402948 0.18617612 0.08042458 -0.11068313
0.19469944 -0.12463851 -0.076206334 0.06680603 -0.17564808 -0.024791986 0.13581665 -0.037811663
0.20742874 0.113672525 0.14157294 -0.07447222 0.110905975 0.07913815 -0.09939719 0.1755615
-0.1720916 0.03495461 0.24462076 -0.12054551 0.054875996 -0.0430254 0.01004881 -0.050850697
0.013089317 0.09841671 0.055019 -0.14356197 0.19183293 0.19446678 -0.11811467 -0.02486637
0.087188944 0.0029223044 0.13237593 0.11201004 -0.10233051 -0.054052126 0.040878233 -0.001643488
0.05454261 0.1262313 0.0006610215 0.1042737 -0.13360035 0.18423785 -0.06666181 -0.024064431
0.1468633 -0.18334094 0.21444555 0.15299492 0.11902615 -0.1418165 -0.006524082 0.061142016
-0.04986219 0.16738729 0.21107876 -0.0017951272 -0.15072095 -0.06595185 0.0012000122 0.04322651
0.087867804 -0.1305353 -0.06932191 -0.15230569 0.191997 -0.103242815 -0.057654716 -0.14205153
-0.077437036 -0.011628906 -0.108194694 0.19862247 -0.19014032 0.023606025 -0.06147519 0.17310178
-0.0340138 0.08974334 0.19919516 0.05827571 -0.021677256 -0.09146708 0.15565968 0.049302027
0.08088727 -0.07097379 0.14859068 -0.19367585 0.10590385 0.09530686 0.18761937 0.17310302
0.081301816 0.026168082 -0.0836939 0.033213027 -0.13605201 -0.116842404 0.023487424 0.11950659
0.13760962 0.20350969 0.10971212 0.04896715 0.12099141 0.12922215 -0.08951974 0.13101543
00000000: 750b 2a3e 4479 e9bd 99e5 b2bd 2a79 aa3d
00000010: 7058 db3d 42a8 593a 8df9 383e ccd8 acbd
00000020: 0d0b 74bd 4513 2dbe b74b 153d d5a8 723d
00000030: a617 acbd f4a4 3e3e a4b5 a43d d6ad e2bd
00000040: 4a5f 473e 7a42 ffbd 1112 9cbd 9ad1 883d
00000050: 17dd 33be 9018 cbbc 8513 0b3e 67e0 1abd
00000060: 3368 543e 24cd e83d 7ff8 103e e484 98bd
00000070: ac22 e33d 2f13 a23d c190 cbbd 65c6 333e
00000080: c838 30be 912c 0f3d dd7d 7a3e 90e0 f6bd
00000090: a7c5 603d 673b 30bd c4a3 243c d248 50bd
000000a0: 9374 563c b38e c93d 9a5b 613d e901 13be
000000b0: da6f 443e 4d22 473e 1be6 f1bd 8fb4 cbbc
000000c0: 1e90 b23d 2284 3f3b 8e8d 073e 8565 e53d
000000d0: a992 d1bd c365 5dbd ef6f 273d 4e6a d7ba
000000e0: 1268 5f3d c742 013e 6748 2d3a 738d d53d
000000f0: 88ce 08be d9a8 3c3e fd85 88bd c522 c5bc
00000100: 5563 163e babd 3bbe 9d97 5b3e b3aa 1c3e
00000110: fbc3 f33d 5838 11be f7c7 d5bb 0d70 7a3d
00000120: 4c3c 4cbd 9367 2b3e 0825 583e 794a ebba
00000130: 9856 1abe c311 87bd ba49 9d3a 480e 313d
00000140: 09f4 b33d 0cab 05be a5f8 8dbd 06f6 1bbe
00000150: dd9a 443e f870 d3bd 5a27 6cbd f575 11be
00000160: 4f97 9ebd 2b87 3ebc 2e95 ddbd b063 4b3e
00000170: 25b4 42be 6c61 c13c 69cd 7bbd 9841 313e
00000180: 0e52 0bbd 5bcb b73d d1f9 4b3e 83b2 6e3d
00000190: 8094 b1bc 1853 bbbd 4065 1f3e ecf0 493d
000001a0: 3aa8 a53d b55a 91bd 2828 183e f652 46be
000001b0: 1ee4 d83d 3e30 c33d 4b1f 403e eb41 313e
000001c0: 9181 a63d 725e d63c b567 abbd 620a 083d
000001d0: 3851 0bbe 124b efbd b368 c03c dfbf f43d
000001e0: 89e9 0c3e d864 503e bfb0 e03d c791 483d
000001f0: 58ca f73d d052 043e 2056 b7bd e928 063e

net.2.weight f4 [128, 128]
0.11236916 0.1530322 0.07291271 -0.050887406 0.102646254 -0.029116724 0.038643114 0.026780032
-0.053225093 0.08763569 0.017638842 -0.014543311 -0.10065585 0.14315069 -0.053217944 0.08597429
-0.021637052 -0.059280865 0.16646963 0.1453048 -0.19639613 0.035582963 0.12659787 0.0050311377
0.16047527 -0.117050186 0.09613638 -0.080378234 0.10908445 0.04188831 -0.12916456 -0.07935668
0.07422855 -0.24449527 0.025141694 0.16082734 -0.28590065 0.07376614 -0.08276513 0.010908772
-0.035429 -0.044247076 -0.035850085 -0.018439887 0.09950939 -0.023514066 -0.012204698 -0.053165313
0.12083825 0.07853703 0.028741406 0.09599789 -0.04607405 -0.08793178 0.06353203 -0.09008494
0.09129587 -0.22696482 0.005441738 -0.09204447 0.06634032 -0.0008002036 -0.011005205 0.11450884
0.02459513 -0.09102086 0.12519883 0.0012255763 -0.0041198833 -0.11813514 -0.010719974 0.045069665
-0.002190098 -0.05818973 0.12964249 -0.18160228 -0.01859577 0.09391006 0.073215775 -0.13704225
0.049125783 0.04252155 -0.26988748 0.03263305 0.11277488 -0.015144553 0.028392466 -0.10906582
-0.03364318 -0.14636202 -0.09350232 -0.05669865 0.09016438 0.23832694 -0.14932646 -0.043785904
0.076893784 -0.0634057 0.10126195 0.03667423 -0.014152753 0.28269225 -0.014338064 -0.030255103
0.12700813 0.06577341 -0.0068797725 -0.21604484 0.15534225 -0.028935034 -0.038335275 0.21268554
0.034211572 -0.07270036 0.0817128 0.06198119 -0.13365033 -0.019049091 0.051156443 -0.047051035
0.017800938 -0.031126982 -0.079496205 0.012117054 0.025454804 -0.21433471 -0.11093827 -0.08551658
0.03145395 -0.015665585 -0.008258616 0.011177886 -0.01479335 -0.05325508 0.03763039 -0.018682454
0.04020319 0.03494508 0.065825306 -0.07499504 0.017967723 -0.03998504 -0.06894886 -0.0015333368
-0.081423305 -0.07939096 -0.019647676 -0.081318535 -0.03943297 -0.076941215 0.04352843 -0.067496784
0.038892433 -0.059116285 0.0021800443 -0.07476232 0.06506677 0.045811176 -0.038019564 0.004194874
0.07294604 -0.07603022 0.014170229 0.009858234 0.05642226 0.007071129 0.021866927 0.03203186
-0.06917753 -0.04934963 -0.02263433 0.021691369 -0.026743755 -0.041732237 0.023647211 0.06320048
-0.02047233 -0.009888616 0.05281444 -0.09235798 -0.09164826 -0.049251426 0.015709229 -0.059406616
-0.039475344 -0.012718173 -0.09335742 -0.035291053 -0.075287186 -0.04166615 0.039871812 0.047724277
0.022345113 -0.03939903 0.040187668 0.023379184 0.067045875 -0.06337846 0.042328462 -0.043877598
-0.04790643 0.046051405 -0.085849784 -0.08481028 0.021251727 0.0063917907 0.026034325 0.046553217
-0.028445698 0.084401496 0.0017092932 0.015516639 -0.09471191 0.03174459 -0.08885459 -0.063879214
0.031174084 -0.06281049 -0.0070257685 0.035476577 -0.07541033 -0.08773515 -0.076035365 -0.060230196
0.043871168 0.01626605 -0.042769857 -0.06342834 0.036274355 -0.018669305 0.029473493 0.019348972
0.0048291916 0.031429444 0.063955955 0.055424806 -0.05671126 -0.027541904 -0.06447967 0.02810373
-0.06485758 -0.057748135 -0.07806138 0.01542935 0.008766224 0.04164971 0.06254066 -0.06545036
-0.09061991 -0.07577807 -0.08868083 0.047839474 -0.07317544 -0.014757243 -0.054318946 0.007156773
00000000: cd21 e63d 79b4 1c3e 4253 953d 506f 50bd
00000010: 3338 d23d 3286 eebc 3e48 1e3d cc61 db3c
00000020: 8e02 5abd 577a b33d 557f 903c 1147 6ebc
00000030: a724 cebd 1896 123e 0ffb 59bd 4a13 b03d
00000040: 3040 b1bc 7ed0 72bd 0477 2a3e c8ca 143e
00000050: 111c 49be 71bf 113d dfa2 013e 3edc a43b
00000060: a153 243e 02b8 efbd 27e3 c43d 589d a4bd
00000070: ab67 df3d 1493 2b3d b743 04be c185 a2bd
00000080: 2305 983d f85c 7abe f4f5 cd3c ecaf 243e
00000090: 9261 92be b412 973d c480 a9bd b5ba 323c
000000a0: 001e 11bd 6c3c 35bd 8ad7 12bd 3f0f 97bc
000000b0: 94cb cb3d 92a0 c0bc 37f6 47bc dfc3 59bd
000000c0: 0b7a f73d 06d8 a03d 1973 eb3c 8b9a c43d
000000d0: 25b8 3cbd 9415 b4bd 151d 823d 747e b8bd
000000e0: 54f9 ba3d 7769 68be 9b50 b23b d081 bcbd
000000f0: 6fdd 873d c1c4 51ba 2d4f 34bc 9c83 ea3d
00000100: ba7b c93c 2569 babd 1f34 003e 84a3 a03a
00000110: 1600 87bb d6f0 f1bd d4a2 2fbc f89a 383d
00000120: bf87 0fbb 5b58 6ebd 00c1 043e f3f5 39be
00000130: 2856 98bc eb53 c03d 27f2 953d ce54 0cbe
00000140: 1e38 493d 142b 2e3d b12e 8abe 3caa 053d
00000150: 84f6 e63d dc20 78bc 5197 e83c e75d dfbd
00000160: 6ecd 09bd eddf 15be 257e bfbd d83c 68bd
00000170: 1aa8 b83d fa0b 743e 09e9 18be d958 33bd
00000180: 7d7a 9d3d d9da 81bd 6d62 cf3d b837 163d
00000190: f3e0 67bc 0abd 903e 33ea 6abc 8dd9 f7bc
000001a0: 6b0e 023e 36b4 863d b76f e1bb dc3a 5dbe
000001b0: 0a12 1f3e 2a09 edbc 7305 1dbd 3dca 593e
000001c0: 6f21 0c3d ede3 94bd 0a59 a73d fddf 7d3d
000001d0: a2db 08be d70c 9cbc 6b89 513d 96b8 40bd
000001e0: 46d3 913c 03fe febc e8ce a2bd 9c86 463c
000001f0: 9886 d03c 8f7a 5bbe 9b33 e3bd 5123 afbd
00000200: dbd5 003d 1d55 80bc 254f 07bc 7423 373c
00000210: cf5f 72bc 0022 5abd 5322 1a3d f20b 99bc
00000220: 1aac 243d 9222 0f3d 6bcf 863d 0097 99bd
00000230: 0c31 933c 5ac7 23bd 0f35 8dbd 3ffa c8ba
00000240: 43c1 a6bd ba97 a2bd 2af4 a0bc 558a a6bd
00000250: 7784 21bd 5b93 9dbd de4a 323d c13b 8abd
00000260: ac4d 1f3d eb23 72bd 13df 0e3b fd1c 99bd
00000270: ba41 853d 80a4 3b3d 67ba 1bbd 2775 893b
00000280: bc64 953d bbb5 9bbd 402a 683c 6e84 213c
00000290: 071b 673d eeb4 e73b 4522 b33c d733 033d
000002a0: f3ac 8dbd d622 4abd a16b b9bc 19b2 b13c
000002b0: b815 dbbc 6cef 2abd ccb7 c13c 416f 813d
000002c0: 96b5 a7bc dd03 22bc f453 583d 2e26 bdbd
000002d0: 15b2 bbbd ddbb 49bd a4b0 803c 5a54 73bd
000002e0: e6b0 21bd e25f 50bc 2d32 bfbd 5a8d 10bd
000002f0: 2b30 9abd 20aa 2abd a050 233d 887a 433d
00000300: 190d b73c e160 21bd d39b 243d b485 bf3c
00000310: 594f 893d 91cc 81bd 9c60 2d3d ffb8 33bd
00000320: 8839 44bd 66a0 3c3d 03d2 afbd 03b1 adbd
00000330: 1a18 ae3c 3a72 d13b f045 d53c 96ae 3e3d
00000340: f406 e9bc b1da ac3d 5d0a e03a 8039 7e3c
00000350: 51f8 c1bd 9d06 023d 65f9 b5bd 1bd3 82bd
00000360: cb60 ff3c c9a2 80bd 6b38 e6bb e34f 113d
00000370: bb70 9abd 7cae b3bd 6eb8 9bbd f0b3 76bd
00000380: 41b2 333d 6140 853c 722f 2fbd b8e6 81bd
00000390: 6b94 143d 5ff0 98bc 6572 f13c bc81 9e3c
000003a0: 323e 9e3b 29bc 003d 57fb 823d 1f05 633d
000003b0: 114a 68bd 8f9f e1bc eb0d 84bd cb39 e63c
000003c0: 0dd4 84bd 4f89 6cbd a5de 9fbd 62cb 7c3c
000003d0: 35a0 0f3c e398 2a3d 5115 803d d70a 86bd
000003e0: ee96 b9bd 8831 9bbd 4c9e b5bd 53f3 433d
000003f0: 01dd 95bd 5dc8 71bc 8b7d 5ebd 5d83 ea3b

net.2.bias f4 [128]
0.043154072 -0.014575263 -0.06630504 0.041902147 0.03999913 -0.01592497 -0.0328274 -0.062422097
0.002517894 0.01305875 0.061590556 0.01583853 0.08630508 0.08218911 0.08105289 0.068339765
-0.028632894 0.020725522 0.11346848 0.028221702 0.06559792 -0.023155611 -0.017730827 0.038589958
0.026156265 0.09604964 0.045912176 0.0957779 -0.061024442 0.074310444 0.031752218 0.0638731
-0.049227178 0.05827898 0.034584817 0.034883987 0.077130035 -0.00484644 0.05873637 -0.0072377874
0.0025098247 -0.022513654 0.031998113 0.008450533 -0.01820668 -0.009094631 0.04800179 -0.081180796
0.06741198 -0.019965203 -0.059877146 -0.04889642 0.0065068365 0.09376273 0.0723563 0.06517836
0.03967525 0.10308462 0.10090841 0.06361198 0.0018669667 -0.034652382 0.03826429 -0.00091691775
-0.01393974 0.031790588 0.038114324 -0.015893912 -0.038863614 -0.057690613 0.047045857 -0.00033611598
-0.0652348 0.06609967 0.018117044 -0.058516916 0.08636094 0.039995227 -0.006411887 -0.04307755
0.10754105 -0.06669368 0.10804865 0.017619133 -0.033244226 -0.02951058 -0.01838229 0.054291625
0.047485445 0.077329144 0.06503973 0.06985808 0.09939234 0.07645509 -0.056321096 0.035957042
0.024060769 0.048593335 -0.0074910223 0.032052662 0.06784699 0.069020055 -0.02232983 -0.05846128
-0.07864379 0.07035835 -0.033350985 0.09360087 -0.048284646 -0.0040539345 0.055112604 -0.037659485
0.039750546 0.073907174 0.069027744 0.017428232 0.039487027 -0.016347222 0.06654291 -0.04546523
0.07157272 -0.037738238 -0.032195244 -0.021494329 0.09888999 0.08631158 -0.020321805 0.0067935935
00000000: 53c2 303d 15cd 6ebc f0ca 87bd 96a1 2b3d
00000010: 21d6 233d 1575 82bc 0676 06bd 50ae 7fbd
00000020: 4003 253b 5ef4 553c 6146 7c3d cebf 813c
00000030: b8c0 b03d c452 a83d 0fff a53d b8f5 8b3d
00000040: 888f eabc 92c8 a93c 2a62 e83d 3331 e73c
00000050: 3458 863d d6b0 bdbc 3d40 91bc 8110 1e3d
00000060: aa45 d63c acb5 c43d 680e 3c3d 3427 c43d
00000070: c4f4 79bd 1330 983d 9d0e 023d e6cf 823d
00000080: 70a2 49bd f1b5 6e3d cfa8 0d3d 83e2 0e3d
00000090: 5af6 9d3d e3ce 9ebb 8c95 703d f62a edbb
000000a0: df7b 243b 8e6e b8bc 7410 033d 1b74 0a3c
000000b0: 2d26 95bc a601 15bc 869d 443d 1e42 a6bd
000000c0: 4b0f 8a3d 118e a3bc bd41 75bd 9d47 48bd
000000d0: 4d37 d53b ad06 c03d 8a2f 943d 3b7c 853d
000000e0: 8482 223d 071e d33d 12a9 ce3d ff46 823d
000000f0: 02b5 f43a a8ef 0dbd 04bb 1c3d 4f5d 70ba
00000100: 8263 64bc d936 023d c41d 1c3d f333 82bc
00000110: 742f 1fbd fe4c 6cbd 28b3 403d b938 b0b9
00000120: d399 85bd 445f 873d 326a 943c 6faf 6fbd
00000130: 01de b03d 09d2 233d ce1a d2bb 1672 30bd
00000140: 7b3e dc3d b296 88bd 9c48 dd3d 0056 903c
00000150: 192b 08bd 2cc0 f1bc 7596 96bc e560 5e3d
00000160: 1980 423d be5e 9e3d 8d33 853d c111 8f3d
00000170: 368e cb3d 7c94 9c3d f3b0 66bd b147 133d
00000180: 171b c53c ce09 473d 4077 f5bb a749 033d
00000190: 5df3 8a3d 635a 8d3d 0ced b6bc 1875 6fbd
000001a0: ff0f a1bd 0a18 903d 0b9b 08bd d0b1 bf3d
000001b0: 1fc6 45bd ded6 84bb c1bd 613d d540 1abd
000001c0: 78d1 223d a55c 973d 6b5e 8d3d a7c5 8e3c
000001d0: 26bd 213d 9cea 85bc a647 883d c039 3abd
000001e0: b894 923d 6993 1abd 29df 03bd e014 b0bc
000001f0: d686 ca3d 20c4 b03d ea79 a6bc cb9c de3b

net.4.weight f4 [7, 128]
-0.072516896 0.01262208 -0.25809324 -0.13694079 0.08556892 0.1539526 0.044237163 0.0062322356
0.070869446 0.15344012 -0.0429424 0.10654532 0.10346472 0.23040082 0.15365995 -0.10707205
0.05546937 0.08216278 -0.045671996 0.13467668 0.09931355 -0.08837024 0.003075493 0.055885967
-0.31956393 0.022075878 -0.22497195 0.14162296 0.09474275 0.2040233 0.19621019 0.072748624
0.01003201 0.08337325 0.12911382 0.0382804 0.29407907 -0.106002815 0.10287868 0.057070874
0.33154348 0.14314078 0.074704535 0.047625937 0.117290184 -0.17392176 0.025603408 0.07619013
0.10047594 0.032925855 0.03493706 0.032338455 0.009253708 0.10010719 0.19701277 0.0118545145
0.108632036 -0.30370265 0.09009699 0.0668926 -0.002274081 -0.04979668 0.09954117 0.20147611
-0.3479667 -0.109417684 0.013169051 -0.090366855 0.034680508 0.057088636 -0.070184685 0.11367887
0.13943848 0.07324603 0.13207275 -0.011658587 0.067672856 0.052771673 -0.012164464 0.16705513
-0.122221746 -0.03572819 -0.20273416 0.17092219 -0.058028847 -0.014493283 -0.019678503 0.061449587
-0.2560294 -0.19024709 -0.005249749 -0.020921 0.052261673 0.02240736 0.108110845 -0.046700686
0.04268807 0.22550729 0.048954356 -0.12050976 0.07614452 -0.051985465 -0.056583624 -0.017467543
0.17892423 0.06054054 0.051616393 0.07566876 0.22840308 -0.21287085 -0.22972028 0.20704983
0.084368564 0.043516513 -0.009496143 0.014753607 0.0395533 0.029049931 0.08806301 0.061759472
-0.1111372 0.07324218 0.09237612 0.02001712 0.12899868 0.1524751 -0.22600125 0.040876027
-0.12425822 0.03748212 -0.0878638 -0.10079776 0.04949845 -0.17498131 0.11538241 0.030400932
0.14004816 0.1078018 0.0388627 0.1032972 0.06360592 -0.05845326 0.22326073 0.012813643
-0.04508118 -0.3362803 -0.03243767 0.21975414 -0.083708614 0.051969074 0.024172576 0.22989298
-0.33861658 0.012780783 -0.2032216 0.08583118 -0.048074584 0.1702875 0.07688697 0.056663834
-0.014731163 -0.082397565 0.045235418 -0.08719345 0.352939 -0.106977664 -0.0055275015 -0.07078436
0.28423524 0.10764033 -0.029484536 0.17411664 0.14275387 0.082428284 -0.109770566 -0.03967624
0.10277036 0.079217054 0.0640596 0.1763579 0.15857273 0.028817013 0.23723693 0.17206435
0.02642691 -0.003099275 0.024329513 0.076398626 0.06656341 -0.05758037 0.05047301 0.066257626
-0.02670603 -0.14215016 0.16895923 -0.031340197 0.060663205 -0.13893765 0.023487795 0.16314273
0.06326317 0.17536849 0.13851395 0.122347124 0.1051197 -0.04942599 0.062133234 -0.14670384
-0.031671084 0.018075941 -0.0032697546 0.12271044 0.11122929 0.0046280227 -0.04943836 -0.028873159
-0.051703885 0.05519845 0.02638864 0.16411972 0.12407597 0.12833849 0.12942569 -0.24424173
0.09314171 -0.07265102 -0.013050007 -0.1809285 0.052735455 0.085941285 -0.009361011 0.10345339
0.08330998 -0.0308653 -0.10661168 0.05352289 -0.21176755 -0.094999924 -0.11175244 0.19173393
-0.039626315 -0.25134692 -0.10175147 -0.08889883 -0.03688598 0.12947874 -0.037064493 -0.071201794
-0.13881487 0.16034527 0.019225061 0.10810996 0.14707519 0.117144585 0.046442255 -0.051637996
00000000: bd83 94bd d7cc 4e3c cc24 84be 353a 0cbe
00000010: c23e af3d c0a5 1d3e 0732 353d c837 cc3b
00000020: 0024 913d 681f 1d3e 5fe4 2fbd 6f34 da3d
00000030: 50e5 d33d 31ee 6b3e 0959 1d3e 9748 dbbd
00000040: da33 633d f644 a83d 8f12 3bbd afe8 093e
00000050: e764 cb3d 75fb b4bd 368e 493b afe8 643d
00000060: e29d a3be 79d8 b43c 0c5f 66be 9c05 113e
00000070: 7d08 c23d 7ceb 503e 53eb 483e 3bfd 943d
00000080: 4d5d 243c 98bf aa3d 6a36 043e e9cb 1c3d
00000090: 8891 963e 0118 d9bd 0fb2 d23d 26c3 693d
000000a0: 11c0 a93e 7f93 123e b1fe 983d 6a13 433d
000000b0: d635 f03d 8c18 32be 3dbe d13c 9209 9c3d
000000c0: 54c6 cd3d 43dd 063d 2a1a 0f3d 5475 043d
000000d0: dd9c 173c 0005 cd3d b7bd 493e 7039 423c
000000e0: 797a de3d ea7e 9bbe c584 b83d fdfe 883d
000000f0: c008 15bb 9bf7 4bbd 3edc cb3d c14f 4e3e
00000100: b128 b2be 6116 e0bd 01c3 573c 4212 b9bd
00000110: 260d 0e3d c6d5 693d fdbc 8fbd 78d0 e83d
00000120: f6c8 0e3e 0402 963d 143e 073e a803 3fbc
00000130: 1198 8a3d 1c27 583d 764d 47bc 8010 2b3e
00000140: 654f fabd b957 12bd 8b99 4fbe 3a06 2f3e
00000150: a8af 6dbd 3c75 6dbc d034 a1bc 90b2 7b3d
00000160: 4916 83be 22d0 42be 1606 acbb 8462 abbc
00000170: 5610 563d a48f b73c 3869 dd3d 3849 3fbd
00000180: b0d9 2e3d 62eb 663e 5d84 483d d2cd f6bd
00000190: a8f1 9b3d b6ee 54bd 3bc4 67bd 1818 8fbc
000001a0: ea37 373e 5bf9 773d b66b 533d 39f8 9a3d
000001b0: 7fe2 693e d1fa 59be cb3b 6bbe df04 543e
000001c0: 6dc9 ac3d 5f3e 323d b695 1bbc 1db9 713c
000001d0: a402 223d 1ffa ed3c 615a b43d 80f7 7c3d
000001e0: e69b e3bd ffff 953d b12f bd3d f1fa a33c
000001f0: 3b18 043e 6f22 1c3e df6c 67be 9f6d 273d
00000200: 187b febd da86 193d f0f1 b3bd 0e6f cebd
00000210: e3be 4a3d 4d2e 33be 9d4d ec3d 600b f93c
00000220: c968 0f3e 31c7 dc3d 7f2e 1f3d 7b8d d33d
00000230: d243 823d b06c 6fbd 769e 643e 50f0 513c
00000240: 0ba7 38bd ee2c acbe 5ddd 04bd 3b07 613e
00000250: 6c6f abbd 86dd 543d 9105 c63c 1169 6b3e
00000260: 275f adbe 7d66 513c 5319 50be 42c8 af3d
00000270: dbe9 44bd d95f 2e3e ea76 9d3d 5618 683d
00000280: fa5a 71bc 0ec0 a8bd c648 393d 7b92 b2bd
00000290: 6cb4 b43e 1b17 dbbd 0b20 b5bb 64f7 90bd
000002a0: 4887 913e 8972 dc3d 8e89 f1bc a24b 323e
000002b0: 122e 123e 29d0 a83d 64cf e0bd 8e83 22bd
000002c0: 4479 d23d 8d3c a23d ae31 833d 2a97 343e
000002d0: e460 223e a811 ec3c 3dee 723e a331 303e
000002e0: 3f7d d83c 351d 4bbb b04e c73c e276 9c3d
000002f0: 6652 883d 65d9 6bbd c9bc 4e3d 14b2 873d
00000300: 9bc6 dabc d08f 11be a603 2d3e 945e 00bd
00000310: fb79 783d ac45 0ebe 7a69 c03c e30e 273e
00000320: 1f90 813d cc93 333e 9ad6 0d3e 2191 fa3d
00000330: ff48 d73d e872 4abd 6b7f 7e3d 8839 16be
00000340: 8ab9 01bd ff13 943c 6149 56bb 9c4f fb3d
00000350: 2fcc e33d aba6 973b e17f 4abd 6787 ecbc
00000360: 74c7 53bd c517 623d fd2c d83c 000f 283e
00000370: 8b1b fe3d 2a6b 033e 2b88 043e 811a 7abe
00000380: 15c1 be3d 0fca 94bd b2cf 55bc 5245 39be
00000390: 2201 583d fc01 b03d ed5e 19bc 5fdf d33d
000003a0: 6c9e aa3d 3ad9 fcbc 3957 dabd d13a 5b3d
000003b0: 98d9 58be 528f c2bd 77de e4bd e655 443e
000003c0: 344f 22bd 8bb0 80be 1363 d0bd 9710 b6bd
000003d0: c115 17bd 1396 043e f0d0 17bd 3fd2 91bd
000003e0: 7c25 0ebe 8d31 243e e07d 9d3c c168 dd3d
000003f0: e19a 163e 80e9 ef3d 3c3a 3e3d 5d82 53bd

net.4.bias f4 [7]
0.086470306 -0.0067583695 -0.004790945 -0.04596401 -0.09107335 0.085075244 0.056401294
00000000: 5817 b13d 5075 ddbb 5cfd 9cbb c244 3cbd
00000010: aa84 babd ee3b ae3d 0b05 673d
