coup_nsfp/nfsp_coup_demo_avg_strategy.pt (torch, 86341 bytes, 6 tensors)

net.0.weight f4 [128, 25]
000000 98 4e 1e bd d5 7f 56 3e cc 26 58 3e b3 7e 84 bd
       -0.03864917 0.20947202 0.2110855 -0.064694785
000010 f2 63 2b be be aa dd 3d 18 fd 6b be b2 5c 0b 3e
       -0.16737345 0.10823582 -0.23045766 0.13609579
000020 df ad 00 3e 1a 21 45 3e 17 d1 23 3d c8 35 45 3e
       0.12566327 0.19250908 0.039994325 0.19258797
000030 ed 19 98 3e b7 48 48 3e 35 c8 75 bd aa 93 2a be
       0.2970728 0.19558989 -0.060005385 -0.16657892
000040 74 d1 3a 3e a0 78 9f be 3a 42 ee bd 01 1f 85 3e
       0.18243963 -0.31146717 -0.116337255 0.26000217
000050 40 ef 8c be 70 66 b6 bb 86 cb 7b 3e 15 96 5a 3e
       -0.27526283 -0.0055664107 0.24589357 0.21346314
000060 52 0b a6 3c 47 9f 9d bb e4 2d e6 3c 4d fd ee be
       0.02026907 -0.004810247 0.028098054 -0.46677628
000070 41 75 a6 3e 35 4e cf bd 02 45 b8 be 0d c9 61 be
       0.32511333 -0.10122339 -0.3599015 -0.22049351
000080 b2 51 26 be 1f ca 12 3e 8b f2 97 3d a6 00 2a 3c
       -0.16242102 0.14334916 0.07419308 0.010376131
000090 83 16 71 3e b6 dc bf 3e 4d d8 89 3d e4 84 95 be
       0.23543744 0.37473077 0.06730709 -0.2920295
0000a0 fb 56 e3 3d f8 f8 4d 3d 25 e2 d2 bd b2 34 32 be
       0.111005746 0.050286263 -0.1029704 -0.17402914
0000b0 b4 ed 76 3e 0b 64 ad be eb d1 57 3d cf c9 a3 3e
       0.24114114 -0.3386539 0.052690428 0.31989905
0000c0 a5 9e 90 3e b1 16 13 3e 00 7a 0b 3e bc d5 23 3d
       0.28246036 0.14364125 0.13620758 0.039998755
0000d0 96 63 3b bd af ab 97 3e 58 e0 d5 bd 09 4d 2d be
       -0.04574927 0.29623172 -0.10443181 -0.16923918
0000e0 82 9a c0 3c 93 fb c6 3d 6d ef 5e 3e 2e 99 d9 bd
       0.023511175 0.09715953 0.21771021 -0.1062492
0000f0 57 3e 5c be 66 fe 63 3d 90 c1 8c 3e cd f0 8c 3d
       -0.21508156 0.055662535 0.27491426 0.068818666
000100 2d e0 50 be 41 21 96 bd 7b e9 17 bd 7a bd a9 3d
       -0.20398016 -0.073305614 -0.0370879 0.08288093
000110 b3 89 49 bc 95 16 43 bb 1c 17 db bc ab 4b a4 bc
       -0.012300896 -0.0029768099 -0.026744418 -0.020055613
000120 70 d9 1c be 80 4e 32 bd 05 b0 7a 3b c8 af c5 3e
       -0.15317321 -0.043531895 0.0038251888 0.38610673
000130 3b bf 0d be 5e 07 87 3b dd f1 a8 3e 79 86 31 be
       -0.1384248 0.0041207513 0.32997027 -0.17336453
000140 f6 4a 34 be ef 11 17 bd 0c a0 f2 3c f1 2f da 3d
       -0.1760672 -0.036882337 0.029617332 0.10653675
000150 99 39 cf 3e 14 17 ff 3b 6e 70 8e 3d e3 a9 b4 bd
       0.4047363 0.0077847335 0.06955038 -0.08821466
000160 a0 6f 96 bd 50 77 3a be 02 b2 17 3e 20 e6 46 be
       -0.073455095 -0.18209577 0.14813998 -0.19423723
000170 c5 85 4f be 23 b8 44 3e c6 19 ad 3d 07 77 1b 3d
       -0.20265873 0.19210868 0.084521815 0.03795531
000180 04 6e 8d 3e 05 7e 1f be 70 f7 62 3e d2 fe c9 3d
       0.27622998 -0.15575416 0.22164702 0.09863056
000190 e8 5e 71 3e 66 3d 8b be 63 9e 0f bd 23 1b 33 3c
       0.2357136 -0.2719528 -0.03506316 0.010931763
0001a0 72 3a a3 bd ab 62 b9 bd a1 e0 32 be a8 9b f1 3d
       -0.07970132 -0.090520225 -0.17468502 0.11797267
0001b0 6c cf 7e be 47 71 01 3c 03 52 0d bf 6b 03 58 3e
       -0.24883813 0.007900543 -0.55203265 0.21095054
0001c0 fb 5a 15 3e 42 c6 06 be 84 3f 00 3e 5b c2 c3 3d
       0.14585488 -0.13161567 0.1252423 0.09558555
0001d0 43 3e 3e 3c 3c 6c 7d 3e cd a4 cf 3a 4e f2 ed bc
       0.011611524 0.2474832 0.0015841961 -0.029046204
0001e0 09 cf 5d 3d a1 12 bc 3e 9f 7c 80 3e 1c 7e 0a be
       0.054152522 0.36732963 0.25095078 -0.1352467
0001f0 fa 3c 34 be 6a 01 3b 3e c7 a1 10 be d5 c5 b0 3c
       -0.17601386 0.18262258 -0.14124213 0.021578709
000200 22 43 c1 3d e0 fe a9 3e 92 22 a1 3d 1e d2 b1 3e
       0.09436633 0.33202267 0.07867922 0.3473062
000210 a6 ef 84 3e 5e be 05 bc 85 1c 01 be 17 9e a9 3d
       0.25964087 -0.008163063 -0.12608536 0.08282106
000220 86 0a a1 bd ee 0d bd be a0 e8 3e 3e 4c b5 a1 3c
       -0.07863335 -0.3692469 0.18643427 0.01973977
000230 c6 2e e0 bd 19 da 85 3d 26 82 1c 3e da 8f 40 3e
       -0.10946421 0.065357395 0.15284023 0.18804875
000240 13 14 0c 3d 76 db 3d 3d 50 b6 4e 3e 64 d8 b3 bc
       0.03419883 0.046351872 0.20186734 -0.021953769
000250 37 80 d3 3d 08 9c a4 bd 0f 34 0a be a8 e3 75 3e
       0.103271894 -0.08037573 -0.13496421 0.24012625
000260 4a fe 08 be b7 da 3a be 8d 6a a5 bd 20 3e 93 3e
       -0.13378254 -0.18247496 -0.080769636 0.28758335
000270 83 1b 28 3e cf 45 aa bd c1 fe 9d 3e c5 d1 0f 3e
       0.16416745 -0.08314096 0.30858424 0.14044864
000280 80 b1 92 be d8 89 fc 3d bf 6e d9 3d 22 e3 12 be
       -0.28651047 0.12330979 0.10616826 -0.14344457
000290 b3 43 05 3e b0 dd 98 3d 61 8a 97 be 65 d3 26 3d
       0.13014106 0.074641585 -0.29597762 0.040728945
0002a0 37 1e f9 3d 99 f3 48 be 02 ac eb 3d e6 89 82 3d
       0.12163966 -0.19624175 0.11507417 0.06373958
0002b0 fb 1c 54 be 65 48 e9 bd 31 69 74 3e fa 2d 81 3e
       -0.2071418 -0.11390761 0.23868252 0.2523039
0002c0 7a 36 71 bb 73 43 76 be ef bc b6 3d 17 b8 96 3e
       -0.0036806152 -0.24049167 0.08922755 0.29437324
0002d0 8d fa 85 bc 6e ba e7 3d b9 cc 4a 3e 95 df 73 be
       -0.016354823 0.113148555 0.19804658 -0.23815759
0002e0 0e 7f 1a 3e b5 be 40 be b9 58 22 be 72 3e 09 3d
       0.1508753 -0.18822749 -0.15854158 0.033506818
0002f0 18 ed 0f 3e d8 9c 27 be 13 96 7c 3d e9 b7 aa 3e
       0.14055288 -0.16368425 0.06166656 0.33343437
000300 c8 ef a1 3e b0 94 3e be ef 0d 13 bd 34 ba fe bc
       0.3162825 -0.18611407 -0.03590196 -0.031094648
000310 d6 9d 30 be ca 2a 2d 3e 38 e4 bc be f5 e0 2e 3e
       -0.1724771 0.16910854 -0.36892867 0.17078002
000320 e6 db c8 3d 7c e8 46 be 3d 04 b0 3e 24 16 2e 3e
       0.09807567 -0.19424623 0.34378234 0.17000633
000330 7f b9 0a 3d 03 90 aa be 58 f9 28 bd a7 b7 11 3e
       0.03386831 -0.33312997 -0.041253418 0.14230214
000340 fb 0a 29 bd f3 c3 a6 3d b2 0c b0 3c 63 5e 20 3e
       -0.041270237 0.08142843 0.021490429 0.15661006
000350 99 91 d0 be 6d 34 3d 3e bb 31 4f be c7 32 a9 3c
       -0.40736082 0.1847703 -0.20233814 0.020654095
000360 f0 69 1c be b9 67 5e 3d b3 ee 41 bd 65 e2 81 3c
       -0.15274787 0.054298136 -0.047346782 0.015855024
000370 8d 87 f6 3b 13 da 54 be 1a 33 62 bd de 87 6b 3e
       0.007523483 -0.20786314 -0.055224515 0.23001048
000380 6b 38 d6 3c 81 15 9f bd dd ea 59 3c ab 3d 3b 3e
       0.026149949 -0.077677734 0.013300625 0.18285243
000390 21 ae 9d 3b dc e7 87 3e fe d3 ee bd 5f 04 96 be
       0.0048120175 0.26544082 -0.11661528 -0.2930021
0003a0 cf 8c 0f 3e 16 ee 1f 3e 5e 03 33 3d 97 6b bd bd
       0.14018558 0.15618166 0.043704383 -0.09249037
0003b0 5f 48 cc be 01 d7 86 be ea b8 45 be 54 5d 88 be
       -0.39898965 -0.2633591 -0.1930882 -0.26633704
0003c0 19 51 81 be cc 57 5f 3e 4d 8d 3c 3e cd f0 79 3c
       -0.25257185 0.21810836 0.18413277 0.015255165
0003d0 bd b4 99 bd b1 7e 82 be 05 38 af 3e 4a f8 45 be
       -0.07505176 -0.25487283 0.34222427 -0.19332996
0003e0 bf 0c 81 bb a0 13 4f 3d 5d 76 33 bd 5b aa 82 bd
       -0.003938287 0.050555825 -0.043814052 -0.06380149
0003f0 77 8f 90 3e 9f 3d 1b 3c ba 9e 43 3e f2 78 81 bd
       0.28234455 0.009475141 0.19103518 -0.063218966

net.0.bias f4 [128]
000000 89 44 27 be 4c 68 08 3e 40 fb e0 bd 25 d3 a9 bd
       -0.16334738 0.13321036 -0.10985422 -0.08292226
000010 e7 da 24 3d 5f 68 54 bd 45 91 3d bd ef cd 05 be
       0.040247824 -0.05185735 -0.046281118 -0.13066839
000020 54 b8 6e 3e 82 21 45 bd c5 7e de 3d d5 f2 df 3c
       0.23312503 -0.04812766 0.10864023 0.027337471
000030 59 ea 6f 3e 70 f2 d0 bd 46 83 2b 3e 7c 9a fa bc
       0.2342924 -0.10202491 0.16749296 -0.030591242
000040 f6 40 1a 3e f6 7f 25 3e 87 cf a0 3d db 21 35 be
       0.15063843 0.16162094 0.07852083 -0.17688696
000050 9b bc 0d 3e d7 f9 c4 3d e2 ef ff bc 73 97 67 3d
       0.13841479 0.09617966 -0.031242315 0.056540918
000060 47 cc 8e 3d 25 0e 94 3e 2e df df 3c e4 55 3c 3e
       0.069725566 0.2891704 0.0273281 0.1839214
000070 d9 e6 32 3e 46 a4 02 be e9 c5 a6 bd 04 07 51 3d
       0.17470874 -0.12757978 -0.08143217 0.05103208
000080 3c de 40 3e 3e f5 70 3d 4b 3b 16 be 94 1d f4 3d
       0.18834776 0.05882763 -0.14671056 0.11919704
000090 d9 e3 14 3e 8e 46 b1 bd 52 87 87 bd 98 55 2a 3e
       0.14540042 -0.08656035 -0.06617607 0.16634214
0000a0 e1 3d 2a 3e 2f c5 2f bd e5 1d 06 be ed 1a 94 3d
       0.16625167 -0.04291266 -0.13097341 0.07231698
0000b0 80 2c 30 3d a0 dc 12 be 03 9e 64 bc 99 be a0 3d
       0.04301119 -0.14341974 -0.013953689 0.078488536
0000c0 2e 61 e6 bc 60 81 66 3e 18 7d 59 3e da 35 38 3d
       -0.02812251 0.2251029 0.21239126 0.04497323
0000d0 68 dc fb 3d 5a 89 0c 3e 57 76 32 be 35 22 28 3e
       0.122978985 0.1372427 -0.17427956 0.16419299
0000e0 a6 14 bb bc 8e d4 5b 3c ef ed fa 3d 15 6d 4a 3e
       -0.022836994 0.013417376 0.122524135 0.19768174
0000f0 0f 71 c3 bd 2e 69 4d 3e bb 3e 40 bd b7 93 73 bc
       -0.095430486 0.20059654 -0.046934824 -0.014866761
000100 63 e9 a2 bc c0 17 79 3d 85 14 ae bc 9f 10 2d 3e
       -0.019886678 0.060813665 -0.021250019 0.16900872
000110 a9 20 08 bd db b6 55 bd 29 81 3c 3e 38 8d 73 3e
       -0.033234272 -0.052176338 0.18408646 0.2378434
000120 2b d2 8b 3d 4c 32 d8 3d 28 86 34 3d 00 4b 4c 3e
       0.06827196 0.10556468 0.044073254 0.19950485
000130 04 05 8f 3d 0e 21 36 3e e9 c6 d9 3d c2 32 03 3d
       0.069833785 0.17786047 0.10633642 0.03203083
000140 c7 31 92 bd 0a bd 2b 3e ea 5d 78 bd fd c2 0e 3e
       -0.071384005 0.16771331 -0.06063644 0.1394157
000150 c8 a6 88 ba 40 71 07 3e 7a 7f 88 3e a3 fc 89 bc
       -0.0010425681 0.13226795 0.26659757 -0.0168441
000160 99 9e 8c 3d 58 8b ef bc 47 11 04 3e d9 e6 75 bd
       0.068661876 -0.029241249 0.12897216 -0.060034607
000170 e9 38 aa 3d c0 25 e3 3d 1f 7a 26 be 82 d1 cd bd
       0.08311636 0.110911846 -0.16257523 -0.10049726
000180 51 82 3a 3e 59 84 27 3e 9f c9 49 bd 12 e9 99 bd
       0.18213774 0.1635908 -0.049264546 -0.07515158
000190 16 53 14 3d 18 63 79 3e e5 65 c4 bd 77 97 53 3e
       0.03621205 0.24354208 -0.09589747 0.20663248
0001a0 69 7b 8b 3d dc 4d f3 bd 10 f3 93 bd ea 6f 4a 3e
       0.06810648 -0.11880085 -0.07224095 0.19769254
0001b0 87 bc 41 3e 69 c3 80 3e 92 62 dd 3d c3 ba 57 bd
       0.18919574 0.25149086 0.108098164 -0.052668344
0001c0 56 d5 b0 bd d0 58 06 be 7d fb 24 be 4c 9f a7 3d
       -0.086344406 -0.13119817 -0.1611156 0.0818468
0001d0 88 f5 13 be bc a7 15 be 47 80 47 bc 46 e7 eb bd
       -0.14449131 -0.14614767 -0.01217658 -0.11518721
0001e0 13 82 54 3e 39 b1 5b 3e 16 0b 33 be 80 25 d2 bd
       0.20752744 0.21454324 -0.17484698 -0.10261059
0001f0 12 64 2f 3e 74 ad 77 3e b8 3a d2 bc 01 eb 3e 3e
       0.17128018 0.24187261 -0.025662765 0.18644334

net.2.weight f4 [128, 128]
000000 1b 59 f9 3d a0 1c 06 be db d0 d9 3b bf c0 43 be
       0.12175199 -0.13096857 0.006647212 -0.19116496
000010 39 16 c6 3e ce b3 51 3c 1d 09 26 be b4 dd 00 3e
       0.3868883 0.012799216 -0.16214414 0.12584573
000020 cd b2 ff bc d7 b3 9d 3d 6d 5f c4 3d 56 e1 a6 be
       -0.031213189 0.07700317 0.095885135 -0.32593793
000030 cd fc d9 bd 04 70 0d 3e 3a fe 74 be 44 08 ca 3e
       -0.10643921 0.13812262 -0.23925105 0.3945943
000040 ee 4f d9 bc 0d af b5 3d 90 73 c2 bd a8 0a 0a bd
       -0.026527371 0.08871279 -0.09494698 -0.03370157
000050 e7 42 71 3c a3 b9 05 be 6e b4 33 bd 0c d6 7a 3c
       0.014725423 -0.13059096 -0.043873243 0.015309822
000060 11 c4 c0 3e 4d 69 8f 3d ed e7 55 3e bc 40 5b be
       0.37649587 0.070025064 0.20889254 -0.21411413
000070 74 6c 64 3d 43 aa 6c bd 45 46 c9 3c 01 de 49 3e
       0.05576749 -0.05777956 0.02456964 0.19713594
000080 83 03 59 3d f5 17 bd 3d 2d f5 75 be a0 7a 95 3e
       0.052981865 0.09233085 -0.24019308 0.29195118
000090 17 8e d2 3d 83 05 a0 3d 48 bd f4 bd d2 d5 0e 3e
       0.10281008 0.07813551 -0.11950165 0.13948753
0000a0 a0 c4 55 be 4f e4 55 3e bc 0a 0d be 69 9e e2 3d
       -0.20875788 0.20887874 -0.13773626 0.110653706
0000b0 7c e8 ee 3d 4d 12 83 bd ee 50 a0 3e 2b 2e 19 3e
       0.116654366 -0.06399975 0.31311744 0.14959018
0000c0 4d 43 88 3e a8 27 05 be 14 bb 54 3e db 56 c5 3d
       0.26613846 -0.13003409 0.2077449 0.09635707
0000d0 6c 47 aa bc fc fc 58 bb 8a dc 9c bd 5c 02 62 3d
       -0.02078601 -0.0033109775 -0.07659252 0.05517803
0000e0 60 41 ea bd b6 08 13 3e 16 2e 59 3d 27 5d 54 be
       -0.114382505 0.14358792 0.053022467 -0.2073866
0000f0 20 78 81 be 59 b5 3d bd 24 fb 66 be 3e e0 21 be
       -0.2528696 -0.046315525 -0.2255674 -0.15808198
000100 e3 c8 6f be 7b 09 36 3f 79 04 8e 3c 37 d7 7d 3d
       -0.23416476 0.71108216 0.017336117 0.061972823
000110 12 ec 9f bd 63 1b 40 be 47 c2 2b bd 53 bb a3 bd
       -0.07808699 -0.18760447 -0.041933324 -0.07994714
000120 c7 19 a3 3e 94 d8 9e 3e 44 42 2a bd 4b 2f c3 bd
       0.31855604 0.3102461 -0.041567102 -0.09530505
000130 9c 00 87 be f8 c8 7c 3e 04 aa 46 bd e0 fc fd 3d
       -0.26367652 0.24686038 -0.048501983 0.12401748
000140 75 65 e0 bd 79 d6 48 3e 54 56 3d 3e 18 73 0b bd
       -0.109568514 0.19613065 0.18489963 -0.03404531
000150 c4 98 29 3e 28 21 f6 3e be 2e de 3e 74 08 4a 3e
       0.16562182 0.4807217 0.43395036 0.19729787
000160 8f c0 69 3c f5 10 e8 3d be fc ea 3a 17 89 c4 3d
       0.014267101 0.11331359 0.0017928106 0.0959646
000170 23 b9 dd be 12 37 69 be fd 13 56 3e 43 b5 e0 3b
       -0.4330531 -0.22774914 0.20906062 0.0068575456
000180 0a 3f 9a 3e c0 bf 50 bd af 6d 09 3e 00 79 30 be
       0.3012622 -0.050964117 0.13420747 -0.17233658
000190 17 44 23 3f 4c f6 d3 3d 06 30 69 3e cb da 12 3e
       0.6377577 0.10349712 0.22772226 0.14341275
0001a0 9f 1e 29 3e 65 04 fb 3b b1 57 67 3e 66 e2 18 3e
       0.16515587 0.007660436 0.22592045 0.14930114
0001b0 79 8f 5c be f2 b7 b1 bd 2d a0 c5 3d f2 1d 8d bd
       -0.21539105 -0.08677663 0.09649692 -0.06890477
0001c0 cd f1 f6 3d 1b fb ec 3e d4 8a 9a bd 4b 8d a0 bd
       0.120578386 0.46285328 -0.075460106 -0.078394495
0001d0 b8 0f e9 3e dc f5 f0 3d 72 1e 5e be 95 6f 8e 3d
       0.45519805 0.11765644 -0.21691301 0.06954876
0001e0 f3 1f 19 3e 86 a2 94 bd 67 89 3d bd 8b 4b 0d 3e
       0.14953594 -0.072575614 -0.046273615 0.13798349
0001f0 2e e4 4e be f7 39 ef bd 35 fc 19 3d ce cf 44 3e
       -0.20204231 -0.11680978 0.03759404 0.19219896
000200 1c 40 d1 bc 01 99 ad 3d 93 f9 8a 3d 76 6b 25 bd
       -0.025543265 0.08476449 0.06785884 -0.040385686
000210 45 c7 72 be fa 73 37 bd 91 ba e9 3d a9 b9 02 be
       -0.23708828 -0.04478834 0.11412538 -0.12766136
000220 d8 f7 2a be dc fb 0e 3d a8 0e c5 bc 06 ff 7a 3c
       -0.16696107 0.03490816 -0.02405484 0.015319591
000230 d0 c8 03 3e 2a 16 6d be 1a 2c c3 3d dd 38 d7 3d
       0.12869573 -0.23152986 0.09529896 0.10508893
000240 cc 18 25 3c 02 f9 49 3e 82 75 11 3e 22 4c ab bd
       0.010076713 0.19723895 0.14204982 -0.083641306
000250 97 d8 45 bc 4f 8d 6c be f0 3b d4 3e ab 86 42 bd
       -0.012075565 -0.2310078 0.4145198 -0.04749171
000260 ab 32 84 3d d7 16 8a 3d 15 e5 3e bc 42 f6 de bd
       0.06454977 0.067426376 -0.011651297 -0.10886814
000270 ab ad 61 be aa 0b fd 3d f5 0c 57 bd 34 21 d6 3e
       -0.22038905 0.1235574 -0.05250259 0.41822207
000280 46 75 f1 3d 3e 11 e3 bd 0e 9a dc 3b fd d1 1a be
       0.11789946 -0.11087273 0.006732232 -0.15119167
000290 d8 a0 b8 3d 46 6e eb 3d 10 82 91 3d 2a 54 83 bd
       0.090150535 0.11495642 0.071048856 -0.064125374
0002a0 2b 1d e1 3d dc 80 a1 3e 81 7a 88 3c 0a 87 81 bc
       0.109918915 0.31543624 0.016659977 -0.015811462
0002b0 63 3d f7 3d e6 31 99 3d 34 27 e6 bd bf bb dc 3d
       0.120722555 0.074802205 -0.11237946 0.10777997
0002c0 3c 24 86 be 2b bf 83 3d 99 66 97 3c d1 37 c7 3c
       -0.2619952 0.06432947 0.01848154 0.024318608
0002d0 e2 f1 38 3e ff 52 8e bd 07 9f 6d 3e e8 8d 2f 3c
       0.18061021 -0.06949424 0.23205195 0.010714985
0002e0 8d 1b 39 bd 0f b7 23 be 55 23 4b 3e b8 99 d2 3c
       -0.04519229 -0.159878 0.19837697 0.025708064
0002f0 d7 81 88 bc b7 c3 62 bd 36 5f 08 3e a7 de 76 3e
       -0.016663475 -0.05536243 0.1331757 0.24108373
000300 e0 c5 4e be 0f cd 22 be cb e6 f4 3d c4 75 b3 bd
       -0.20192671 -0.15898536 0.11958083 -0.087626964
000310 f7 33 25 bd f8 8d a8 bd a9 c5 c5 3d 7f b0 dd 3d
       -0.04033276 -0.082302034 0.09656841 0.108246796
000320 2e d8 59 be 58 f3 ef be 4c b3 3e 3e e8 19 e1 3d
       -0.21273872 -0.46865344 0.18623084 0.10991269
000330 d6 ef 8f bd 90 28 42 bd 26 27 6e be aa 33 24 bd
       -0.07028167 -0.047401965 -0.23257121 -0.040088333
000340 a0 d9 d1 bd c5 7c 2e 3d 1b fa 32 3e b7 cc 00 be
       -0.10246587 0.04259946 0.1747822 -0.12578093
000350 03 58 e8 bd 12 70 36 be d1 29 54 bd 8f 1a d7 be
       -0.11344912 -0.17816189 -0.05179769 -0.4201245
000360 d1 8a 02 3f ba 56 01 3e 7c 65 35 bc 43 31 20 be
       0.5099307 0.1263074 -0.011071559 -0.15643792
000370 2a 37 8b 3d eb 8a f1 3d 18 88 d5 3b 36 6b 0e 3e
       0.06797631 0.117940746 0.006516468 0.13908085
000380 9e ed 9d 3e 92 b5 42 3d 72 f5 01 3d ae e4 26 be
       0.3084535 0.04753644 0.031728216 -0.16298172
000390 0b e5 be be 59 4c ee 3c 16 43 02 be b6 b4 d3 3d
       -0.3728412 0.02908914 -0.12720904 0.10337202
0003a0 12 09 77 3d aa 41 52 bd 56 38 7e 3e 85 85 45 3d
       0.060311384 -0.051332153 0.24826178 0.048223037
0003b0 92 e1 4e 3d 96 19 cd 3d 7e 06 71 3d 3d 6e e2 3d
       0.05050809 0.10014646 0.058844082 0.110561825
0003c0 e4 e9 de bd 93 e5 a1 3e 59 11 94 bd 57 85 d1 3c
       -0.10884455 0.31620464 -0.07229871 0.025576277
0003d0 6b 91 82 be 49 0b e2 bb 45 d6 02 be 88 b4 0d 3d
       -0.2550157 -0.006898318 -0.1277705 0.034595996
0003e0 7c 2d b3 3e 4f 5f 81 bd 41 b8 72 bc 4f 80 dc 3e
       0.3499564 -0.06317007 -0.014814437 0.43066642
0003f0 ed fc 1b bd a6 db da 3c da 81 4d 3e 0a df 83 be
       -0.038083006 0.026716065 0.20069066 -0.25756103

net.2.bias f4 [128]
000000 cc 27 0d 3c 65 3b da 3d 3d fa bb bb 61 8f ae 3d
       0.008615445 0.1065586 -0.005736618 0.08523441
000010 a2 eb 78 bd 14 6c 4d bb 11 1f 50 bc 4b a0 58 bc
       -0.060771592 -0.0031344937 -0.012702719 -0.013221811
000020 8d a6 c0 bd 4e af 4f 3d 29 84 c1 bd 90 7a 74 bd
       -0.09406767 0.050704293 -0.09449036 -0.059687197
000030 50 fa ad bc fc 7e c7 bc 5a 9f 1f 3d bd ca c8 3b
       -0.021237522 -0.024352543 0.03897033 0.006127684
000040 ba 04 d8 3c 9d 90 a6 bd d9 cc ea 3b 76 f0 df 3c
       0.026369441 -0.081330515 0.007165533 0.02733634
000050 33 76 c7 3d a4 f8 5e bd 1b ed 9d 3a b0 a8 14 3c
       0.097393416 -0.05443634 0.0012048812 0.009073421
000060 ea 21 12 bd 10 41 c9 bc 91 ce b0 3d c1 3b cd 3d
       -0.035676874 -0.024567157 0.086331494 0.10021163
000070 23 ca 36 3c 69 3a 92 bc a2 22 b4 3d ad 19 1d 3d
       0.011156592 -0.017850118 0.08795668 0.038354564
000080 70 44 b7 bc 21 c8 86 3d 7d 7a 96 3d 56 34 44 3d
       -0.0223715 0.0658114 0.073475815 0.047901474
000090 1f 7f 2e bd 33 84 5a bd f0 06 d6 3c a7 a0 05 3d
       -0.0426017 -0.05334873 0.026126355 0.032623913
0000a0 0d c6 84 3c 24 ef 17 3d a4 61 f9 bc 25 f8 cf 3d
       0.01620772 0.037093297 -0.030442066 0.10154752
0000b0 bc 9b ff 3d aa a3 79 bb 0a d2 69 bc 70 59 5b 3b
       0.12480876 -0.0038091936 -0.014271269 0.0033470057
0000c0 16 68 1b 3a 62 4c 25 bd ce af b5 3d 5c 95 d2 3d
       0.0005928291 -0.040356047 0.08871423 0.10282394
0000d0 a3 b4 96 3d 91 9e 09 3d b2 05 e5 bc 17 70 65 3d
       0.073586725 0.033598486 -0.027956817 0.0560151
0000e0 0b 1c 71 3d 7e 17 8b 3d 96 0b e4 3d a3 39 35 bd
       0.058864634 0.0679159 0.11135022 -0.04424442
0000f0 d3 09 84 3b b9 1a 5d 3d cf 64 4c 3d 63 3a 83 3d
       0.0040294915 0.053980563 0.049900826 0.06407621
000100 7c 3b fe 3c 55 fd a9 3d 85 06 ca 3d 85 48 54 3c
       0.031034224 0.083002724 0.09864525 0.012956743
000110 a0 23 85 3c ae da eb 3c 44 f6 c3 3c 2a c7 77 3c
       0.016252339 0.028790798 0.02392114 0.015123168
000120 a9 0a 8f bd d4 d3 3a 3d a7 12 6d 3d 27 48 88 3d
       -0.06984455 0.04561217 0.057879116 0.06654387
000130 b6 79 39 bd 82 41 a2 3d 0f a1 13 3d 98 1b 23 bd
       -0.04528209 0.07922651 0.03604227 -0.039821237
000140 f5 8e 10 bc ae 8a 84 ba e2 59 f4 3c 53 1b 52 3d
       -0.008823146 -0.001011213 0.029828016 0.05129559
000150 d0 cf 85 3d 2e 8d 22 3c 88 d9 93 3d 0f 8a e2 b8
       0.06533778 0.009921355 0.07219225 -0.00010802235
000160 34 53 25 3d 9c a4 1e 3c e4 05 80 3d b3 11 ff bc
       0.04036255 0.009682801 0.062511235 -0.03113637
000170 5a 04 c6 3d eb c6 8b bd e6 01 af 3d 5f f2 17 bd
       0.09668799 -0.0682505 0.08545284 -0.037096377
000180 61 1b 81 bd 90 22 60 bd 4c 7d 9e 3c b7 a2 a6 3c
       -0.0630405 -0.05472046 0.019346856 0.02034126
000190 22 88 0a 3d 5f 98 25 bd 0e 32 c0 3b 84 a3 19 3d
       0.033821233 -0.040428516 0.005865342 0.037509456
0001a0 46 45 ab 3c 00 c7 e9 3d e3 3e 9c bd 0c 8d c0 3d
       0.020907056 0.11414909 -0.07629182 0.094019026
0001b0 00 a7 a0 bd 61 3a 49 3d 75 3e d0 bb 1a e2 1c bd
       -0.07844353 0.04912794 -0.0063551017 -0.038301565
0001c0 f2 44 aa 3d e8 8d 23 bd 10 84 15 bd dd 22 bc bc
       0.083139315 -0.039930254 -0.036502898 -0.022965843
0001d0 63 7b d9 3d 5d 13 f9 bc af 47 32 3d 8b 94 b1 3c
       0.10619237 -0.030404741 0.043525394 0.021677276
0001e0 c2 20 e2 3d 40 77 1a bd 9c 06 aa 3d 6c ad 62 3c
       0.11041404 -0.037711382 0.08302042 0.013835292
0001f0 ec 80 8c 3d bb 5e 3d bc 87 e6 8e bc b6 bf c0 3b
       0.068605274 -0.01155823 -0.017443908 0.0058822287

net.4.weight f4 [7, 128]
000000 69 a8 18 3e 5e 1d 79 be d7 20 59 3e 20 6a a9 3e
       0.14907993 -0.24327609 0.21203934 0.3308878
000010 36 b1 90 3e 1d 0f 34 3d fc 35 c8 be 7b 44 dc 3e
       0.282602 0.043959726 -0.39103687 0.43020996
000020 2d 59 2d bd 5f fc b6 be e4 2c f1 3d ed 5a 79 3e
       -0.042321373 -0.3573942 0.1177614 0.24351092
000030 6f 23 38 3e 6b bf f0 bc 47 3b 03 3e 77 f8 52 3e
       0.17982267 -0.02938815 0.12815581 0.20602594
000040 26 2a 92 bb 01 bc 80 3d bc dc 26 3e ef 1f 54 be
       -0.004460591 0.06285859 0.16295141 -0.20715307
000050 2f d4 9a be 3d 33 40 be 51 ef 38 bd 01 9d b2 be
       -0.30240008 -0.18769546 -0.045150105 -0.3488541
000060 16 02 49 3d 7e 46 ed be e2 b3 98 3e ec f4 86 be
       0.049074255 -0.46342844 0.2982474 -0.26358736
000070 13 c3 b2 be fc fe 50 be 63 35 97 3e e7 71 d5 3d
       -0.34914455 -0.20409769 0.29532918 0.10422116
000080 2f 68 1a 3d 8a b5 89 be fe 8b 05 3e 17 0b c4 3d
       0.037697013 -0.26896316 0.13041684 0.09572428
000090 a6 23 65 3e 48 6e 8d 3d 8d e5 aa be a4 23 9f be
       0.2237688 0.069058 -0.33378258 -0.3108188
0000a0 c6 b3 18 3e 07 f1 c1 3e 61 2b 2f bd fd 22 b4 3e
       0.14912328 0.37879202 -0.04276598 0.35182944
0000b0 3d 95 be be 25 14 81 3e 43 78 82 be d7 d7 c0 be
       -0.37223235 0.25210682 -0.25482377 -0.37664673
0000c0 3a ca 89 bc 58 cd 80 bd 66 1f 5d bd 37 95 50 be
       -0.016820062 -0.06289166 -0.053985022 -0.20369421
0000d0 24 c4 74 3e d1 df db be 80 1f 8b 3e 21 99 9f be
       0.23902947 -0.42944196 0.2717247 -0.31171516
0000e0 e8 40 96 3e 05 bd c6 3d 41 59 9b 3d 41 da 9c 3e
       0.29346395 0.09704021 0.07585383 0.30635265
0000f0 30 61 18 3e 3a 57 f3 3e 59 ab 6c bd 41 14 80 bd
       0.14880824 0.47527486 -0.057780597 -0.06253863
000100 48 71 78 be 1b 57 b6 3d ba d3 ab 3d 6e 3f b1 be
       -0.24261963 0.08903333 0.08389993 -0.34618706
000110 c3 37 6b 3e 6b 50 3b 3e 50 06 d7 3d 17 8c 2f bf
       0.2297049 0.18292396 0.10499251 -0.68573135
000120 49 59 a7 be 42 97 bf be a4 cf 12 3e 6f 37 c8 3e
       -0.32685307 -0.37420088 0.14337021 0.39104792
000130 3b 4d ba 3d 9f 0d 69 be 3a f8 ba 3e f0 9c b5 3e
       0.09096762 -0.22759102 0.36517507 0.35471296
000140 c4 a5 3b 3c 1a 23 1f bd 50 f0 6d be 08 9a 2b be
       0.011453096 -0.038851835 -0.23236203 -0.16757977
000150 b2 e5 81 3e 8c d0 6d 3e 88 02 93 be 12 40 a5 3e
       0.25370556 0.23224086 -0.2871287 0.32275444
000160 02 d0 8d 3e 8b 99 0e bf 2e 42 26 be 6e b9 02 be
       0.2769776 -0.5570304 -0.16236183 -0.12766048
000170 68 29 93 3e 69 2a f2 be a6 ad 1f 3e c4 59 99 3d
       0.28742528 -0.4729798 0.15593585 0.074878246
000180 6e ba 8a 3e 51 ef 53 bd 6c 8d 8e 3d e5 f7 8f 3d
       0.2709536 -0.0517419 0.06960568 0.07029704
000190 aa 3b d5 3e bc ed a3 3e 4a 1c 02 bf 7b 62 b5 be
       0.41647083 0.32017314 -0.50824416 -0.35426697
0001a0 c8 c7 cc be 7b 7e 9a be e9 b3 af be b0 ad b9 be
       -0.3999617 -0.30174622 -0.34316948 -0.36265326
0001b0 e3 ee d9 bd 2c 0b fb 3d 4e 0f c2 be e8 4b a6 be
       -0.10641267 0.1225799 -0.37902302 -0.32479787
0001c0 47 60 53 3e 89 f8 c0 3d 18 37 a6 3d 1d 16 27 bf
       0.20642196 0.09422404 0.08115977 -0.6526812
0001d0 e7 9f d3 be 6d 4b 9a 3d 51 fe c0 3e 7d 91 45 3e
       -0.41332933 0.075339176 0.37694028 0.1929378
0001e0 da 7c 1c be 6d a8 ba be b3 03 d9 3e bf cd c9 3e
       -0.15282002 -0.36456624 0.42385635 0.39414784
0001f0 93 2d 95 be bc d6 b8 3e f8 66 08 3f 16 06 90 bc
       -0.29136333 0.3610133 0.5328212 -0.017581027
000200 4e 37 eb 3c 88 88 53 3e a3 05 a2 be 4b c9 b5 3b
       0.028712895 0.20657551 -0.31644925 0.0055476776
000210 95 5c a6 be 3f 44 00 3e 7f 68 06 3f fc 00 d0 be
       -0.3249251 0.12526034 0.525032 -0.4062575
000220 42 3c 36 3d c8 2a 38 be c6 28 3d be d5 8b 87 be
       0.04449106 -0.1798507 -0.18472585 -0.2647387
000230 dc 88 6e 3e 17 41 f1 bc 67 10 07 3e 53 56 00 3e
       0.23294395 -0.029449983 0.13189851 0.1253293
000240 14 24 64 3d bb 6e ac 3a 25 fd 7d be 29 61 89 3e
       0.05569847 0.0013155559 -0.24803598 0.2683194
000250 9a fc 28 bf 11 a6 c9 be 12 e2 96 be 7f d7 7c 3c
       -0.6601044 -0.3938451 -0.29469353 0.015432238
000260 5c 1e 5c bf db 07 c2 3d 3d a1 ad be 41 e9 b6 3e
       -0.85983825 0.094741546 -0.33912078 0.35724834
000270 bb 63 cd 3e f4 e4 70 bd 23 3f b2 3d 60 b1 0b 3e
       0.4011515 -0.058812097 0.087034486 0.13641882
000280 f5 1b 39 3e 4e 2c 21 3e 90 61 34 3e 2e 96 28 bc
       0.18077071 0.15739557 0.17615342 -0.010289712
000290 09 98 05 3e 6f c9 98 3b 8f ff 65 3d c4 b3 bd 3e
       0.13046278 0.0046626846 0.056151923 0.37051213
0002a0 58 26 de 3d c5 a9 d9 be 8f 76 ac 3c f6 c9 93 bd
       0.10847157 -0.42512336 0.021052627 -0.07216255
0002b0 af 3c 50 be e8 27 48 be 42 61 a0 3e 64 5e ff 3e
       -0.20335649 -0.19546473 0.31324202 0.49876702
0002c0 a0 b4 10 bf 07 1e 3c bf 34 a4 a6 3c 5e ec 4c bf
       -0.5652561 -0.7348332 0.02034197 -0.8004817
0002d0 35 d7 a8 bb 10 c3 6b 3e 66 61 1c be 6f 61 34 3d
       -0.005152608 0.23023629 -0.1527153 0.044038232
0002e0 74 ee 46 be 94 d8 66 be d4 a6 14 3e 03 b8 75 be
       -0.194269 -0.22543555 0.14516765 -0.23995976
0002f0 a7 e6 83 3e 8c b9 8c bd 07 c8 22 bf 09 fd 24 bd
       0.2576191 -0.06871328 -0.6358647 -0.040280376
000300 38 0d 78 3e 7b 12 6d 3e 7d b5 bd bd a5 15 77 3e
       0.24223793 0.23151581 -0.09263132 0.2412935
000310 09 9e 8e bd a6 ed 7e bd 4c ce 03 3e 28 6a d4 3d
       -0.069637366 -0.062238358 0.12871665 0.1037181
000320 a5 6f a1 be 91 63 75 3d d3 13 38 be fd a0 bd be
       -0.3153049 0.059909407 -0.17976312 -0.37036887
000330 30 9a 08 3e c1 a0 b6 3e 3c 9b 6b 3c 9a 6e 84 bd
       0.13340068 0.3566952 0.0143802725 -0.06466408
000340 9d 47 93 bd d5 67 b1 be 97 f7 cd be 19 88 83 3d
       -0.071913935 -0.3464953 -0.4022796 0.06422443
000350 f1 6c 71 be 0d 55 06 be e4 ed 89 3e 28 dc 34 3c
       -0.23576714 -0.13118382 0.2693931 0.011038817
000360 5e ff 9d 3d a9 e9 9b be 4e 2b fd 3c 8c fc 28 3e
       0.07714723 -0.30451706 0.030904438 0.16502589
000370 ed 65 ba be ae dd ac 3e 69 18 14 3e a0 e1 35 3f
       -0.36405888 0.33762878 0.14462437 0.710474
000380 3c 7c 52 be 0f f9 32 bd 79 e5 53 be 3e 31 ec 3c
       -0.20555204 -0.043694552 -0.20693006 0.028832074
000390 fc 94 22 bf 10 5f 51 bd 1d b0 1b 3f fe 02 86 be
       -0.6350858 -0.05111605 0.608156 -0.26174158
0003a0 05 93 11 3f 40 7b de be 40 b1 9f 3e 8b 65 59 bd
       0.5686496 -0.43453407 0.3118992 -0.053075355
0003b0 0e bc 4f 3f 52 3a fe 3d f9 4c 47 3e fa 30 34 3e
       0.81146324 0.124134675 0.19462956 0.17596808
0003c0 be 27 e2 bc 9d 41 d2 bd f3 50 e6 bc e1 6f 3c 3e
       -0.027606841 -0.10266421 -0.028114771 0.18402053
0003d0 88 f2 78 3e dc 49 77 3e 21 35 03 be f5 30 04 3e
       0.24311268 0.24149269 -0.12813236 0.129093
0003e0 c2 dc 14 bd 1b a3 79 3e 09 2b 5d be f0 f1 b5 ba
       -0.036343344 0.24378626 -0.21598448 -0.0013881307
0003f0 a0 ca 1f 3f 5d 48 9b be d5 5c 91 3e c5 9c ac bd
       0.62418556 -0.30328646 0.28391138 -0.08428339

net.4.bias f4 [7]
000000 eb 20 30 bd 36 fe 6a bd 49 22 d0 3d 74 8e 21 3d
       -0.043000143 -0.05737134 0.101627894 0.039442495
000010 2f 88 c0 bb 15 bd be bb e8 7d 99 3b
       -0.0058756093 -0.00582088 0.0046841986
