coup_nsfp/nfsp_coup_demo_challenge.pt (torch, 84257 bytes, 6 tensors)

net.0.weight f4 [128, 26]
0	0xbd936a1d	-0.07197974
1	0x3e2af539	0.16695108
2	0x3de21454	0.110390335
3	0xbdce7232	-0.10080375
4	0xbdf20590	-0.11817467
5	0xbde705d3	-0.11280408
6	0xbc4ee523	-0.012627873
7	0x3dd88ec6	0.10574107
8	0x3d5a1945	0.053246755
9	0xbe2e25ec	-0.17006654
10	0xbe06639b	-0.13123934
11	0x3e0929f4	0.1339491
12	0x3dbd1349	0.09232194
13	0xbe468953	-0.19388323
14	0xbc035952	-0.008016901
15	0xbdea5de8	-0.114436924
16	0xbe5e6240	-0.21717167
17	0x3d9356a0	0.07194257
18	0x3d69ff09	0.057127986
19	0x3cfcb8ee	0.0308499
20	0xbe0a44a7	-0.13502751
21	0xbe8bf727	-0.27337
22	0x3e15f5da	0.14644566
23	0xbdeb44c3	-0.11487725
24	0x3e3a94d0	0.1822083
25	0x3e53c311	0.2067988
26	0x3c264af9	0.010149711
27	0x3d6cd38f	0.057818945
28	0x3e81d170	0.253551
29	0x3e0248b4	0.12723047
30	0x3d82a4fa	0.06379123
31	0x3e657265	0.2240692
32	0x3e162174	0.14661199
33	0xbc3dc5b9	-0.011582785
34	0xbe068f1b	-0.13140528
35	0x3e37a341	0.1793337
36	0x3d808ebb	0.06277224
37	0xbde64785	-0.1124411
38	0xbe119b57	-0.14219414
39	0x3e2da47c	0.16957277
40	0x3e0e0e0e	0.13872549
41	0x3dbd45c9	0.09241826
42	0xbc3877fe	-0.011259077
43	0x3b47f70b	0.003051224
44	0xbdd09683	-0.10184958
45	0xbd942715	-0.07234017
46	0x3e134ecf	0.14385532
47	0xbe501ba7	-0.20323049
48	0xbd535264	-0.051592246
49	0x3a95aad3	0.0011418707
50	0xbde02dcf	-0.10946237
51	0xbe250412	-0.16114834
52	0xbd1752be	-0.036944143
53	0xbe0cf0f7	-0.13763796
54	0xbc96a4c8	-0.01838912
55	0x3cfe9723	0.031077927
56	0x3dc07903	0.09398081
57	0x3d509362	0.050921805
58	0x3e4375df	0.19087933
59	0x3d320fed	0.04347222
60	0x3e027d92	0.12743214
61	0xbe166abc	-0.14689153
62	0xbd9b25e3	-0.07575586
63	0x3e2ecb0a	0.17069641
64	0xbe236a89	-0.15958609
65	0x3c17ed43	0.009272876
66	0xbe6ac75e	-0.22927615
67	0x3caa105c	0.020759754
68	0xbe819dbc	-0.25315654
69	0x3de8d474	0.11368647
70	0xbe010a27	-0.12601529
71	0xbe3ae012	-0.18249539
72	0xbdbe4af0	-0.09291637
73	0x3caa2b53	0.020772612
74	0xbc5b4fd1	-0.013385729
75	0xbce7046e	-0.028200354
76	0x3e0df155	0.13861592
77	0x3e0236f4	0.12716275
78	0xbe734ee2	-0.2376056
79	0x3dff45c4	0.124644786
80	0x3e74f609	0.2392198
81	0x3daf0a2c	0.08546862
82	0x3bd885ed	0.006607762
83	0xbcca378f	-0.024684696
84	0xbd1765b6	-0.036962233
85	0xbde5e4ec	-0.11225304
86	0x3cad2ac0	0.021138549
87	0xbe169324	-0.14704567
88	0xbe582a9d	-0.21110006
89	0xbd4c50d1	-0.04988176
90	0xbcab6292	-0.020921025
91	0xbdcee090	-0.10101426
92	0xbe7dfed1	-0.24804236
93	0x3db7f7ac	0.089827865
94	0x3e1cb22d	0.15302344
95	0xbdd50f36	-0.10403292
96	0xbe0fa737	-0.14028631
97	0xbd9378ec	-0.072007984
98	0xbe0e7617	-0.13912235
99	0xbd598e0c	-0.053113982
100	0xbd075de8	-0.03304854
101	0xbe88cea1	-0.26720145
102	0xbc00e613	-0.007867354
103	0x3e0edfed	0.13952608
104	0xbdf73bdf	-0.120719664
105	0x3e15576f	0.14584135
106	0x3d535bb5	0.05160113
107	0x3d809a78	0.062794626
108	0xbe2691b4	-0.16266519
109	0xbe06dd60	-0.13170385
110	0xbe2ff46a	-0.1718308
111	0x3de7bcb5	0.1131529
112	0xbdc281b9	-0.09497399
113	0xbdae4cb1	-0.085107215
114	0x3c44532e	0.011982722
115	0x3c3dcdba	0.011584694
116	0xb9152cbc	-0.00014226412
117	0x3bb6213d	0.0055581615
118	0xbdb4f616	-0.08836
119	0x3e2b1ca1	0.1671014
120	0xbda60c7a	-0.081078485
121	0xbd0135d6	-0.031545483
122	0xbe2f3a4d	-0.17112084
123	0x3d1d5d13	0.03841884
124	0x3dab635b	0.0836856
125	0x3dd5a25e	0.1043136
126	0xbd55e654	-0.05222161
127	0xbd437425	-0.047718186
128	0xbe39c9dd	-0.18143411
129	0x3d5cb3a6	0.053882264
130	0x3dd84501	0.105600365
131	0x3d90d770	0.070723414
132	0xbd1d796b	-0.03844587
133	0x3d53fd73	0.05175538
134	0x3dd5f9ca	0.10448034
135	0xbc989751	-0.01862684
136	0x3d23f88c	0.040031955
137	0xbd4ce7ee	-0.050025873
138	0x3d91e0ea	0.07122977
139	0xbe125484	-0.14290053
140	0x3ddfbc69	0.10924608
141	0x3e271664	0.16317135
142	0x3e05fa74	0.13083822
143	0xbd9aee81	-0.07565022
144	0xbd420675	-0.04736944
145	0x3dda5df4	0.106624514
146	0xbcd7ed72	-0.02635834
147	0x3e513698	0.20430982
148	0x3dc2779a	0.094954684
149	0x3d1b7105	0.03794958
150	0x3d42793c	0.0474789
151	0xbe0ffa45	-0.14060314
152	0xbe162708	-0.14663327
153	0x3e18fa04	0.14939123
154	0x3daa83b9	0.08325905
155	0x3e2860eb	0.16443221
156	0xbe10fdcd	-0.14159317
157	0x3e6042d5	0.21900494
158	0x3c013878	0.007886998
159	0x3e1c1e17	0.15245853
160	0xbe400dca	-0.1875526
161	0xbdd78028	-0.10522491
162	0xbd57d590	-0.052693903
163	0x3d6349dc	0.05549036
164	0xbe08dbe1	-0.13365127
165	0xbe062c86	-0.13102922
166	0xbe58817a	-0.21143141
167	0x3db24e0d	0.08706293
168	0xbd3e824c	-0.04651098
169	0x3e0ff5a0	0.14058542
170	0xbd99a7f2	-0.07502736
171	0x3e25e875	0.16201957
172	0x3d6f5641	0.058431868
173	0x3db5566d	0.08854375
174	0xbd17da95	-0.03707369
175	0x3e06d02a	0.13165346
176	0xbe2440c9	-0.16040339
177	0x3e22ff18	0.15917623
178	0xbced217d	-0.028946633
179	0x3d0aac4f	0.033855733
180	0x3e07a5a9	0.13246788
181	0xbdfc685f	-0.12324595
182	0x3d0b0d2d	0.033948112
183	0xbc826873	-0.015918946
184	0x3e07d2be	0.13263986
185	0xbdb4262e	-0.08796345
186	0xbe8044ad	-0.25052395
187	0xbd865e85	-0.06560997
188	0x3de31a68	0.11089021
189	0xbdec9f9c	-0.115538806
190	0x3e037b89	0.12840094
191	0x3c94f754	0.018184341
192	0x3e312415	0.1729892
193	0xbdc924b1	-0.098214515
194	0xbe029a3e	-0.12754151
195	0xbe3ba6e4	-0.18325382
196	0xbd975902	-0.07390024
197	0x3d607b99	0.054805372
198	0x3dbe81c1	0.09302092
199	0xbd918e24	-0.07107189
200	0xbe1daf86	-0.15398988
201	0xbddc10da	-0.10745402
202	0xbdbf5ada	-0.093435004
203	0xbd7e20ab	-0.062042873
204	0xbd0021a8	-0.031282097
205	0xbda15c18	-0.078788936
206	0x3e3c7c23	0.1840673
207	0xbc85b9d7	-0.016323967
208	0x3e23f976	0.1601313
209	0x3db975d8	0.0905568
210	0x3e0db733	0.13839416
211	0x3e4dcb4d	0.20097084
212	0x3d6ca573	0.057774972
213	0xbd6592d9	-0.056048248
214	0xbd99fcf7	-0.07518952
215	0xbd90f4ab	-0.07077917
216	0x3e25e1ad	0.1619937
217	0xbd167dd1	-0.03674108
218	0x3de3c13b	0.1112084
219	0x3d274c01	0.040843967
220	0xbe6101ae	-0.21973297
221	0xbce4574e	-0.027873661
222	0xbcea5beb	-0.028608283
223	0xbdda651f	-0.106638186
224	0x3e4ab48c	0.19795436
225	0xbd890008	-0.06689459
226	0xbdb2be90	-0.08727753
227	0xbe3c8f7e	-0.18414113
228	0xbe426014	-0.18981963
229	0xbe0b2045	-0.13586529
230	0x3e42290b	0.18960969
231	0x3e1899f6	0.14902481
232	0x3e3fd867	0.18734895
233	0x3bb0bb80	0.0053934455
234	0xbd1665dc	-0.036718234
235	0xbe0ef601	-0.1396103
236	0x3e66422a	0.22486177
237	0x3d65d6d2	0.05611307
238	0x3d90a88d	0.070633985
239	0x3d18b267	0.037279513
240	0x3e91d520	0.28482914
241	0x3e1a614c	0.15076178
242	0xbcdfd58b	-0.027323505
243	0x3e62e1e5	0.22156484
244	0xbe6561b9	-0.2240056
245	0x3d7ef0da	0.062241413
246	0xbe02bb72	-0.12766817
247	0xbe2c4214	-0.16822082
248	0xbda71431	-0.08158148
249	0xbe39729f	-0.1811013
250	0xbbc885b2	-0.0061194533
251	0xbd150589	-0.03638223
252	0x3c1a81af	0.009430333
253	0x3e5ee446	0.21766767
254	0xbe182e21	-0.14861347
255	0xbd2d36dc	-0.042288646

net.0.bias f4 [128]
0	0x3db2e07f	0.087342255
1	0x3e05cd5a	0.13066617
2	0xbe21e740	-0.15810871
3	0x3e0f7db2	0.14012793
4	0xbe22730c	-0.158642
5	0xbe19ce01	-0.1501999
6	0xbe13c8d9	-0.14432086
7	0xbe3125ab	-0.17299525
8	0x3e4712f0	0.19440818
9	0x3d7e1038	0.062027186
10	0xbdbb122f	-0.091343276
11	0x3e001fb2	0.12512091
12	0x3e3fdbd8	0.18736207
13	0x3e437ff3	0.19091778
14	0xbd9a530d	-0.07535372
15	0x3df2604c	0.118347734
16	0x3ddb92ef	0.10721385
17	0xbd3ec35b	-0.046573024
18	0xbdc6c026	-0.09704618
19	0xbdeba089	-0.11505229
20	0xbdda16ef	-0.106489055
21	0x3dd80631	0.10548056
22	0xbdd1b7ab	-0.1024011
23	0x3e427eef	0.18993734
24	0xbc558362	-0.013031812
25	0xbdb9e545	-0.09076933
26	0x3e21d13f	0.15802477
27	0xbe38e88f	-0.18057464
28	0xbd906357	-0.070501976
29	0xbdd455e2	-0.10367943
30	0xbdcc086d	-0.099625446
31	0xbe134fde	-0.14385936
32	0x3e329909	0.17441191
33	0x3d92dd46	0.07171111
34	0xbe24b161	-0.1608329
35	0x3e4ad3f9	0.19807424
36	0xbdeb8328	-0.114996254
37	0x3e07739f	0.132277
38	0x3dc320fc	0.09527776
39	0xbd05085f	-0.032478686
40	0xbd7f5d88	-0.062345058
41	0xbe11629d	-0.14197774
42	0x3d2728e1	0.04081047
43	0x3e368a26	0.17826137
44	0x3e0479a0	0.12937021
45	0xbe185f37	-0.14880072
46	0xbc06896d	-0.008211476
47	0xbda9d1c2	-0.08291961
48	0xbe140c88	-0.14457905
49	0xbd9e7f89	-0.07739169
50	0x3cd241bf	0.025666116
51	0x3e55b39b	0.20869295
52	0x3dadc198	0.08484191
53	0xbdd6b076	-0.10482876
54	0x3e313f9e	0.17309424
55	0x3dbe08fc	0.092790574
56	0x3e57169a	0.21004716
57	0x3dd00051	0.1015631
58	0xbe3d6709	-0.18496336
59	0x3dec3dc2	0.11535217
60	0x3e2b87b8	0.16750991
61	0xbe4c2d7a	-0.19939223
62	0xbd410ef4	-0.0471334
63	0xbdb3b3ea	-0.0877455
64	0x3dbe47d1	0.09291042
65	0x3e314f27	0.1731535
66	0xbdd35c8c	-0.10320386
67	0xbe4c6bdd	-0.19963022
68	0x3de64451	0.11243499
69	0xbd1978e7	-0.037468817
70	0xbdeb9ec8	-0.115048945
71	0x3ce3e03e	0.027816888
72	0x3dc789d6	0.09743087
73	0x3d228d71	0.03968567
74	0xbe0cfadb	-0.13767569
75	0x3df148ee	0.11781488
76	0x3e01fa35	0.12693103
77	0x3e3b24c8	0.1827575
78	0x3d532480	0.05154848
79	0xbc3331a7	-0.010937131
80	0x3ddc8c8b	0.10768994
81	0x3e17c25f	0.1482024
82	0xbcbaab12	-0.02278665
83	0x3c5a13b4	0.013310362
84	0xbe251bf0	-0.16123939
85	0x3cfcddd3	0.030867493
86	0xbe42b365	-0.19013746
87	0x3e1a1b93	0.15049581
88	0xbc249ca6	-0.0100471135
89	0xbe529175	-0.205633
90	0x3e39cf8c	0.18145579
91	0x3d89a478	0.06720823
92	0xbd5da4f4	-0.05411239
93	0xbe44f8cd	-0.19235535
94	0xbe11c0ab	-0.14233653
95	0x3dcea744	0.10090497
96	0xbd031f51	-0.032012288
97	0xbe0175df	-0.1264262
98	0x394986b8	0.0001921904
99	0xbd2a57c4	-0.041587606
100	0x3e1ec7d4	0.15505916
101	0xbe19ab28	-0.15006697
102	0xbdca8a84	-0.09889701
103	0xbdf82104	-0.12115672
104	0x3d2347a3	0.03986324
105	0x3d2ea3bf	0.04263663
106	0x3df2c0df	0.118531935
107	0xbe18f2ed	-0.14936419
108	0x3d2aff01	0.041747097
109	0xbe1c140e	-0.15242025
110	0x3df44f0a	0.11929138
111	0xbe0c8f95	-0.13726647
112	0xbe3a309c	-0.18182606
113	0xbdb92457	-0.090401344
114	0xbcd29dad	-0.025709951
115	0x3cb7ecf0	0.022451848
116	0xbd093304	-0.033495918
117	0x3d436713	0.04770572
118	0xbd564d24	-0.05231966
119	0x3dff37c7	0.124618106
120	0x3d26434c	0.040591523
121	0xbde7f6f9	-0.11326403
122	0xbdb691a0	-0.089144945
123	0x3d9bbb86	0.07604127
124	0x3e39e290	0.18152833
125	0xbde9a6e1	-0.11408783
126	0xbd99062c	-0.0747188
127	0x3d816b2e	0.06319271

net.2.weight f4 [128, 128]
0	0xbd7d0b94	-0.06177862
1	0xbd7c83ca	-0.06164912
2	0x3d8129fa	0.063068345
3	0x3d217ee3	0.03942765
4	0xbd37adbb	-0.044843417
5	0xbbfa9e7b	-0.007648287
6	0x3e2f6714	0.17129165
7	0x3d9de4ac	0.07709631
8	0xbb5e6047	-0.0033931897
9	0xbcf3f17e	-0.029778238
10	0xbbc86ba9	-0.0061163497
11	0xbd8d1a6e	-0.06889807
12	0x3af95e51	0.0019025301
13	0x3df882b4	0.12134305
14	0x3c50ef6d	0.012752396
15	0x3d0ccd51	0.034375492
16	0x3ce3ca1c	0.027806334
17	0xbdab857d	-0.0837507
18	0xbd66cbf4	-0.05634685
19	0x3e085b0c	0.13315982
20	0x3dc23924	0.09483555
21	0x3d021d70	0.031766355
22	0xbda6fffe	-0.081542954
23	0xbe0701b9	-0.13184251
24	0xbced8940	-0.02899611
25	0x3d7b1ca0	0.061306596
26	0xbb92345e	-0.004461809
27	0x3d1523d6	0.03641113
28	0x3e2aa7bf	0.16665553
29	0xbe0682ee	-0.13135883
30	0xbb848fcc	-0.0040454622
31	0x3dad7a9a	0.0847065
32	0xbc1f2c68	-0.009715177
33	0x3deef348	0.11667496
34	0xbd7828e0	-0.060585856
35	0xbc1d6b9b	-0.009608175
36	0x3d53c4b5	0.051701266
37	0x3d9e238f	0.07721626
38	0x3e61620c	0.22010058
39	0x3e0e0743	0.13869958
40	0x3c1dfcf6	0.00964283
41	0xbb019d47	-0.0019777582
42	0xbe00a186	-0.12561616
43	0x3dde078f	0.108412854
44	0xbd8baf9e	-0.06820606
45	0x3bf0d5ed	0.0073497207
46	0xbd953623	-0.072857164
47	0xbe4bc7ae	-0.1990039
48	0x3e1d95c3	0.15389161
49	0xbd473253	-0.048631977
50	0xbdaa564b	-0.0831724
51	0xbd412f86	-0.047164463
52	0x3b46051d	0.003021545
53	0x3ea07e81	0.31346515
54	0x3e1493ed	0.14509554
55	0x3c7b52f4	0.015339602
56	0xbdd03ae6	-0.10167484
57	0xbcd819e3	-0.026379531
58	0xbc14d436	-0.009083798
59	0x3d5fcee7	0.054640677
60	0x3d3e56af	0.046469387
61	0x3e4168af	0.1888759
62	0x3dbd3520	0.092386484
63	0x3cdc9c3f	0.026929973
64	0xbe08b119	-0.13348807
65	0x3db53dd8	0.088496864
66	0x3db3b91a	0.0877554
67	0x3e5d722a	0.21625581
68	0x3d1653a2	0.036700852
69	0xbe3058e3	-0.17221408
70	0x3d2bc3ba	0.041934706
71	0x3dff07f6	0.1245269
72	0x3c78ad20	0.015177995
73	0xbd851e3b	-0.06499907
74	0xbcf64a8b	-0.030064842
75	0xbc3af214	-0.011410255
76	0x3d0e9dd0	0.03481847
77	0x3da4f7de	0.080550894
78	0xbde58272	-0.11206521
79	0xbc2ff4dc	-0.010739531
80	0xbc9a7814	-0.018856086
81	0xbcfbc8df	-0.030735431
82	0x3d4c0856	0.049812637
83	0x3d8e42e8	0.06946355
84	0xbd4d0dd4	-0.050062016
85	0xbcf8ba50	-0.030362278
86	0x3de52df6	0.11190407
87	0x3b2cdee7	0.0026377977
88	0xbd07be4c	-0.033140466
89	0x3ca1de1b	0.019759228
90	0x3e09dc54	0.13462955
91	0xbc6166d3	-0.013757425
92	0x3d8004a0	0.06250882
93	0xbd0f1b65	-0.034938235
94	0x3de0b44d	0.1097189
95	0xbe3d1e2e	-0.18468544
96	0x3c280810	0.0102558285
97	0xbd8befa7	-0.068328194
98	0xbc28cd0d	-0.010302794
99	0xbe0957fb	-0.13412468
100	0xbd270604	-0.04077722
101	0xbd766271	-0.060152475
102	0xbd9a1f7e	-0.07525538
103	0xbc23671a	-0.009973312
104	0x3cea288e	0.028583791
105	0x3e04b434	0.12959367
106	0x3d78a0ba	0.060700156
107	0x3e11e631	0.14247967
108	0x3ccfd886	0.025371801
109	0xbda6aee5	-0.08138827
110	0x3da6cfbc	0.08145091
111	0x3c6a30e4	0.014293883
112	0xbd73b0ed	-0.0594949
113	0x3dd291d5	0.102817215
114	0x3bfc1df5	0.007694001
115	0x3dc7e361	0.09760166
116	0x3dc057cd	0.09391747
117	0x3d8e729b	0.06955453
118	0xbd3c7995	-0.046014387
119	0x3cd34097	0.025787635
120	0x3ba7dc42	0.0051226923
121	0xbc266fda	-0.010158503
122	0x3db4b38c	0.08823308
123	0xbc1d0afc	-0.009585138
124	0xbc252000	-0.01007843
125	0xbd417f84	-0.04724075
126	0x3d9c7240	0.07638979
127	0x3ad7c511	0.0016461929
128	0xbcd44ec0	-0.025916457
129	0x3d4e4f5e	0.05036866
130	0xbda61d91	-0.08111108
131	0x3d9ab238	0.07553524
132	0xbcf04587	-0.029330028
133	0x3c735c70	0.014853582
134	0x3e058cdb	0.13042013
135	0x3cc3eb54	0.023915924
136	0x3c863a1b	0.016385129
137	0x3da285bf	0.07935666
138	0x3d8cf5bb	0.06882807
139	0xbd73f808	-0.059562713
140	0x3d3b5a27	0.045740273
141	0x3de5846e	0.112068996
142	0x3dbc97ea	0.09208663
143	0xbd8a2273	-0.06744852
144	0x3d6e3a54	0.058161095
145	0x3da8fa04	0.08250812
146	0xbde78aef	-0.11305796
147	0x3e0e2a75	0.13883384
148	0xbbb23caa	-0.0054393606
149	0xbc5bb0c5	-0.013408844
150	0x3cb1dcb6	0.021711688
151	0xbd0632f5	-0.03276344
152	0xbe00f465	-0.12593229
153	0x3dd57876	0.10423367
154	0x3d50cf91	0.0509792
155	0xbcd7f89a	-0.02636366
156	0x3dea4866	0.1143959
157	0x3c28f418	0.010312103
158	0x3c9cc790	0.019138128
159	0x3bcf5e66	0.006328392
160	0x3cb6ee09	0.0223303
161	0x3dbd0f4b	0.092314325
162	0xbe83658e	-0.25663418
163	0x3b074882	0.0020642583
164	0x3c069b0a	0.008215675
165	0xbd37a092	-0.044830866
166	0x3e28c032	0.16479567
167	0x3e2c8058	0.16845834
168	0xbcace6f1	-0.021106215
169	0x3b03bcf6	0.0020101643
170	0xbdbd1f1c	-0.09234449
171	0x3dbd761e	0.09251045
172	0x3cdd09e7	0.02698226
173	0xbdddaae2	-0.10823609
174	0x3db85ec9	0.09002454
175	0xbe309d94	-0.17247611
176	0x3e096d8c	0.13420695
177	0x3c1b4a3d	0.009478149
178	0x3b960691	0.0045784195
179	0x3ce4f868	0.02795048
180	0xbde45273	-0.111485384
181	0x3e5733f9	0.2101592
182	0x3d95a6ba	0.07307191
183	0xbd5fede9	-0.05467025
184	0xbdb6ad6f	-0.089197986
185	0x3d61c3b4	0.055118278
186	0x3c82ef08	0.01598312
187	0xbd25e11a	-0.040497877
188	0x3da2a9f6	0.07942574
189	0x3e6c5eeb	0.23083083
190	0x3d76f8cb	0.06029586
191	0xbd37745b	-0.0447887
192	0xbd9f5a71	-0.07780922
193	0xbd9fc428	-0.07801086
194	0x3dbca0d5	0.09210364
195	0x3e30978c	0.1724531
196	0x3d4d535a	0.05012832
197	0xbdbe6d06	-0.09298138
198	0x3d02e65e	0.031957977
199	0xbb535846	-0.003224866
200	0x3d2f15fc	0.042745575
201	0xbdad1d48	-0.084528506
202	0x3cd2104b	0.025642535
203	0x3c9f33f6	0.019433957
204	0xbda6296c	-0.08113369
205	0x3da2a657	0.07941883
206	0xbcd7922c	-0.026314817
207	0x3dc29f78	0.095030725
208	0x3d592aa0	0.053019166
209	0xbd23e136	-0.0400097
210	0x3d33f5de	0.04393565
211	0xbd3526d5	-0.044226486
212	0xbe1a2301	-0.15052415
213	0xbda20a35	-0.07912103
214	0x3b6d29fd	0.0036188357
215	0xbdb0bf3d	-0.08630226
216	0xbd2ef148	-0.042710572
217	0x3d6a3111	0.0571757
218	0x3e1faa3a	0.1559228
219	0xbdf226b0	-0.11823785
220	0x3dbc942a	0.092079476
221	0x3cb9dc38	0.022688016
222	0x3db70a83	0.08937552
223	0xbe30b764	-0.17257458
224	0x3d235825	0.039878983
225	0xbda58a15	-0.08082978
226	0x3d5e2d0f	0.05424219
227	0xbb9f2840	-0.004857093
228	0xbd8c23c2	-0.06842758
229	0xbd7bb462	-0.061451323
230	0xbd7b0212	-0.06128127
231	0xbd0820b3	-0.03323431
232	0xbd6439a6	-0.05571904
233	0x3d8a8b6c	0.06764874
234	0x3c52e98e	0.012873067
235	0x3e2de5f1	0.16982247
236	0x3d484bb3	0.048900317
237	0x3dcc9fdb	0.099914275
238	0x39f01bc7	0.00045797063
239	0xbdde6986	-0.10859971
240	0xbd1590b8	-0.036514968
241	0x3d59ec55	0.0532039
242	0x3d7b8a8e	0.061411433
243	0x3d07d511	0.03316218
244	0x3d87aedc	0.06625149
245	0x3de165d4	0.1100575
246	0xbd5ffa6a	-0.054682173
247	0xbd690d74	-0.056897596
248	0xbdd821d0	-0.10553324
249	0x3c21d0e7	0.009876466
250	0x3d099614	0.03359039
251	0xbcbd1799	-0.023082541
252	0xbd3f3aeb	-0.046687048
253	0x3da9a81d	0.08284018
254	0x3dfcbe18	0.12340945
255	0x3d31d5c0	0.04341674

net.2.bias f4 [128]
0	0x3c77b422	0.015118631
1	0xba7fde82	-0.0009760634
2	0x3d328b09	0.043589626
3	0xbd70025f	-0.05859601
4	0x3da1aa01	0.07893754
5	0x3dae72c0	0.085179806
6	0xbcc00274	-0.02343867
7	0xbd71976b	-0.058982294
8	0x3d528470	0.051395833
9	0xbda26dda	-0.07931109
10	0xbdaa1029	-0.083038636
11	0x3d87b394	0.06626049
12	0x3da087c9	0.07838399
13	0x3da32b3e	0.07967232
14	0x3c82c34f	0.015962271
15	0xbd5591f5	-0.05214115
16	0x3da67286	0.08127312
17	0xbceb7b37	-0.028745277
18	0x3d15b9f6	0.0365543
19	0x3c162d9d	0.0091661485
20	0x3ccb5612	0.024821315
21	0x3d36404a	0.044494905
22	0x3d7af1b2	0.061265655
23	0x3dbbecc3	0.09176018
24	0x3d833ef3	0.06408491
25	0x3d119f3c	0.03555225
26	0x3d10ea16	0.03537949
27	0x3ca06101	0.019577505
28	0xbd35cf1d	-0.04438697
29	0xbd01baa7	-0.031672146
30	0x3d277cb8	0.040890425
31	0x3b1c07bf	0.0023808328
32	0xbcf64260	-0.030060947
33	0x3d7c2790	0.061561167
34	0xbd15d1f6	-0.036577187
35	0x3cbade14	0.022810973
36	0xbdb34658	-0.087536514
37	0xbdadcef7	-0.08486741
38	0x3cd768af	0.026295034
39	0xbd1c91bf	-0.03822493
40	0xbc62eb30	-0.013850018
41	0xbd65a3cf	-0.056064423
42	0xbc1e54a2	-0.009663733
43	0x3d3b35ca	0.045705594
44	0xbd798ab6	-0.0609233
45	0x3c6e8933	0.014559078
46	0x3c247f76	0.010040155
47	0x3c9d3e4e	0.019194748
48	0x3c1d88fe	0.009615181
49	0x3d72cb50	0.059275925
50	0xbd2fb2f3	-0.04289527
51	0xbdb15d1e	-0.08660339
52	0x3b29e8a9	0.002592603
53	0x3afb3cdf	0.0019167921
54	0xbcb6e44c	-0.022325657
55	0xbd1ba2b3	-0.03799696
56	0x3d956a61	0.07295681
57	0x3c9be9f0	0.019032449
58	0xbd8ae0cb	-0.06781157
59	0x3d9859f8	0.07439035
60	0xbc448f28	-0.011997022
61	0xbda05ae7	-0.07829838
62	0x3c7c859a	0.0154127125
63	0x3d563b7e	0.05230283
64	0xbd9e5a0f	-0.07732021
65	0xbb880d77	-0.0041519958
66	0xbd65900b	-0.056045573
67	0x3d936347	0.0719667
68	0xbbfe62b7	-0.0077632326
69	0xbc3f11e0	-0.011661977
70	0x3bad243c	0.0052838605
71	0x3c4b2b3a	0.012400443
72	0x3b07ab42	0.0020701443
73	0xbcd7b807	-0.026332868
74	0x3dacd77a	0.084395364
75	0xbd915262	-0.070957914
76	0xbc7a9e7b	-0.015296574
77	0x3b3ec2a7	0.002910772
78	0x3be4da7d	0.0069840536
79	0xbd5b1dc9	-0.053495202
80	0x3afe017e	0.0019379107
81	0x3d108c81	0.035290245
82	0xbcac4f99	-0.021034049
83	0xbd930662	-0.07178952
84	0xbd1306d2	-0.035895176
85	0xbd4b2789	-0.04959825
86	0xbd09774a	-0.03356103
87	0xbd9314b0	-0.0718168
88	0xbd9fc2e9	-0.07800848
89	0x3db304ba	0.08741136
90	0xbbba87b0	-0.0056924447
91	0xbd89989d	-0.06718562
92	0xbc954f28	-0.018226221
93	0x3d87ffc3	0.066405796
94	0x3c8ecea9	0.017432528
95	0x3d07839d	0.0330845
96	0xbd2e68f9	-0.04258058
97	0x3c676194	0.0141223855
98	0x3d1c624f	0.038179692
99	0x3d508e79	0.050917123
100	0x3cd7022b	0.026246151
101	0xbd465a08	-0.048425704
102	0xbbc1589d	-0.005900456
103	0xbd7cb81d	-0.06169902
104	0xbc453207	-0.012035853
105	0xbb80afca	-0.0039272057
106	0xbd1997a9	-0.03749815
107	0x3d11d5e3	0.03560437
108	0x3b698353	0.0035631254
109	0x3d81b939	0.063341565
110	0x3c649192	0.013950722
111	0x3d67da33	0.056604575
112	0x3c393803	0.011304858
113	0xbc78616c	-0.015159946
114	0xbd527bb8	-0.05138752
115	0x3d80c319	0.06287212
116	0x3b8718a1	0.004122809
117	0xbcd35ff4	-0.02580259
118	0xbdab9a5b	-0.0837905
119	0xbd1872d6	-0.03721889
120	0xbd21e892	-0.039528437
121	0x3d2c53d9	0.04207215
122	0x3d8050b4	0.06265393
123	0x3d602cd0	0.054730237
124	0x3aa21280	0.0012365133
125	0xbd85ccc6	-0.06533198
126	0xbd142137	-0.03616449
127	0x3d899ba6	0.06719141

net.4.weight f4 [2, 128]
0	0xbd31388a	-0.04326681
1	0xbe01f88d	-0.12692471
2	0xbd8ce371	-0.068793185
3	0xbdd0d061	-0.10195995
4	0x3e7b6c8e	0.24553129
5	0x3e21af86	0.15789613
6	0xbe1d01d8	-0.15332735
7	0xbe87bb96	-0.26510304
8	0xbe21cf5c	-0.15801758
9	0x3de47c1d	0.11156485
10	0x3e3ced8e	0.18449995
11	0xbe77c885	-0.24197586
12	0xbe457750	-0.19283795
13	0x3e092b67	0.13395463
14	0xbdd42dc0	-0.103602886
15	0xbe5fcc7c	-0.21855348
16	0xbe07e4ec	-0.1327092
17	0xbe6f0182	-0.23340419
18	0xbe13d0ca	-0.14435115
19	0xbe237f01	-0.15966417
20	0x3d914045	0.070923366
21	0xbd5d5391	-0.054034773
22	0xbde34986	-0.11098008
23	0xbcd2d2fd	-0.025735373
24	0xbdb1e0c3	-0.08685448
25	0xbd9a24a8	-0.07526523
26	0xbbb8c009	-0.0056381267
27	0xbe87129c	-0.26381385
28	0x3e107673	0.14107685
29	0x3e451e37	0.19249807
30	0x3e88105a	0.26574975
31	0xbe44f18c	-0.19232768
32	0x3e83157c	0.2560233
33	0xbe33c2bd	-0.17554756
34	0x3e69535d	0.22785707
35	0x3dfd4d17	0.12368219
36	0x3e54eaaa	0.20792642
37	0xbe9c2c12	-0.30502373
38	0xbe168cf8	-0.14702213
39	0xbe277853	-0.16354494
40	0xbe083e2b	-0.13304965
41	0xbe8a50df	-0.27014825
42	0x3dbc33ad	0.09189544
43	0x3dec8b3d	0.11549995
44	0x3e1cd215	0.15314515
45	0x3ccd8104	0.025085934
46	0x3e80ca07	0.25154135
47	0xbe4bb152	-0.19891861
48	0x3b8d2473	0.0043073236
49	0x3e988606	0.29789752
50	0xbdf817e6	-0.12113933
51	0xbe0f9ff7	-0.14025865
52	0xbd38322c	-0.044969723
53	0x3e4e3e76	0.20141014
54	0xbeb8ea8f	-0.36116454
55	0xbdb53945	-0.08848814
56	0x3eb4ebbe	0.35336107
57	0xbd8157a1	-0.06315542
58	0xbdb475b2	-0.08811511
59	0x3e1303cd	0.14356919
60	0xbe59fb01	-0.21287157
61	0x3ca89f37	0.020583732
62	0x3ddd33b0	0.10800874
63	0xbe17a0e0	-0.14807463
64	0xbe133ee2	-0.14379457
65	0x3e719d98	0.23595273
66	0x3d0a0e72	0.033705182
67	0xbc4e028a	-0.012573848
68	0x3e9228e8	0.28546834
69	0x3dc91cff	0.09819984
70	0xbd491c06	-0.04909899
71	0x3ea7332c	0.3265623
72	0x3e5d8212	0.21631649
73	0x3e2b05c3	0.16701417
74	0xbe1c0ba3	-0.15238814
75	0xbe984704	-0.2974168
76	0x3e21f3c6	0.15815648
77	0xbe6fe8e6	-0.23428687
78	0xbe0cbe07	-0.13744365
79	0xbe1d2db2	-0.15349463
80	0x3df1a404	0.117988616
81	0x3d5e79a0	0.05431521
82	0x3cc91d1b	0.024550011
83	0xbd8cd2e6	-0.06876163
84	0x3d5f7432	0.05455417
85	0x3e5737e4	0.21017414
86	0x3e4e68f4	0.20157224
87	0x3ddf44e4	0.10901812
88	0xbe5ea377	-0.21742044
89	0xbe19e992	-0.15030506
90	0xbe885188	-0.26624703
91	0x3e4479c2	0.19187072
92	0xbe123ec3	-0.14281754
93	0x3e07e475	0.13270743
94	0xbe7e324e	-0.24823877
95	0x3ea5c750	0.32378626
96	0x3e02e85d	0.12783952
97	0x3e0cbccd	0.13743897
98	0xbdbf4995	-0.093402065
99	0xbdd04c0b	-0.10170754
100	0xbe9878ec	-0.29779756
101	0x3de114fd	0.10990331
102	0xbe51a58e	-0.2047331
103	0xbe7da531	-0.24770047
104	0xbdd59b9a	-0.10430069
105	0x3d90b259	0.07065267
106	0xbe87089f	-0.26373765
107	0xbde13400	-0.10996246
108	0x3e8c65f0	0.27421522
109	0x3e892d28	0.26792264
110	0x3e1b09b1	0.15140416
111	0xbe49b0c0	-0.19696331
112	0xbdd60b97	-0.10451429
113	0x3e56ab46	0.20963773
114	0x3e924bee	0.28573555
115	0x3e56a99f	0.20963143
116	0xbe4f6ea5	-0.20257051
117	0x3db6897f	0.08912944
118	0x3e734acc	0.23759001
119	0x3e612702	0.21987537
120	0x3e525f67	0.20544206
121	0xbe814156	-0.2524516
122	0x3d28700a	0.041122474
123	0xbe14e84d	-0.1454174
124	0x3dd72646	0.10505347
125	0x3e5d5146	0.21613035
126	0x3e360c2f	0.17778085
127	0xbd89b59a	-0.06724091
128	0x3e5bd9d7	0.21469818
129	0x3e05de1c	0.13073009
130	0x3e3fc98f	0.18729232
131	0x3e368c9d	0.17827077
132	0xbe10cbd1	-0.1414025
133	0xbd8cff11	-0.068845876
134	0x3df8d71b	0.12150403
135	0x3e6f35fa	0.23360434
136	0x3d9c025e	0.07617639
137	0xbe3ae743	-0.18252282
138	0xbe6b5df5	-0.2298506
139	0x3e087445	0.13325603
140	0x3e46756a	0.19380727
141	0xbc129c8d	-0.008948457
142	0x3e4950fa	0.19659796
143	0x3e69ede2	0.22844651
144	0x3daa54f9	0.083169885
145	0x3e5d1e2d	0.21593542
146	0x3d97db4e	0.07414876
147	0x3e433723	0.19064002
148	0xbe4b5385	-0.19856079
149	0x3dd17a5f	0.102284186
150	0x3c832cc0	0.01601255
151	0x3e2686a9	0.16262306
152	0x3e3f60e3	0.18689303
153	0x3d6b553b	0.05745433
154	0x3e0451a4	0.12921768
155	0x3e938112	0.2880941
156	0xbcb5ab01	-0.022176268
157	0xbe2596cc	-0.16170806
158	0xbe8a2c2d	-0.26986828
159	0x3d8ee101	0.0697651
160	0xbe0f671d	-0.14004178
161	0x3e8fc8db	0.28082928
162	0xbdf06005	-0.11737064
163	0xbe0f16df	-0.13973568
164	0xbe1ff70f	-0.15621589
165	0x3e7201ad	0.23633452
166	0x3e52756d	0.20552607
167	0x3e75fc4a	0.24022022
168	0x3d820379	0.063483186
169	0x3e4f0267	0.2021576
170	0xbc8e8b16	-0.017400306
171	0xbccbdc98	-0.02488546
172	0xbe156d70	-0.14592528
173	0xbdbc2dff	-0.091884606
174	0xbe8a6b51	-0.27035
175	0x3e11c140	0.14233875
176	0xbde72f59	-0.11288328
177	0xbe6e837e	-0.23292348
178	0x3d047153	0.032334637
179	0x3e0bb0f2	0.13641718
180	0x3d498530	0.049199283
181	0xbe4550ff	-0.19269179
182	0x3e8ebc10	0.27877855
183	0x3d8867b0	0.06660402
184	0xbe595be2	-0.21226457
185	0x3d5594c4	0.052143827
186	0x3e1e2dff	0.15447234
187	0xbe04e555	-0.12978108
188	0x3e3f3f23	0.18676428
189	0xbd868a13	-0.06569304
190	0xbe7be218	-0.24597967
191	0x3e573e00	0.21019745
192	0x3d5bc72a	0.053656735
193	0xbe17ac33	-0.14811783
194	0x3c79b849	0.015241691
195	0x3deb1f6b	0.11480602
196	0xbe8810d7	-0.26575348
197	0xbe405876	-0.18783745
198	0x3d117916	0.035515867
199	0xbe943bc9	-0.28951862
200	0xbe72932d	-0.23688956
201	0xbe57ab50	-0.21061444
202	0x3d8fffc9	0.07031209
203	0x3e358fb5	0.17730601
204	0xbe4b0e8b	-0.19829766
205	0x3e24e8e5	0.16104467
206	0x3c2b77dc	0.010465588
207	0x3da07a71	0.07835854
208	0xbe34dbe1	-0.17662002
209	0xbe4442b1	-0.19166066
210	0xbc6b3471	-0.014355765
211	0x3d58b266	0.05290451
212	0xbe401c74	-0.18760854
213	0xbe1e8f08	-0.1548425
214	0xbd9a2ba0	-0.07527852
215	0xbd6faa3f	-0.05851197
216	0x3e321040	0.17389011
217	0x3dced16c	0.10098538
218	0x3e87c088	0.26514077
219	0xbe49a5a5	-0.19692095
220	0x3e40f5ec	0.18843812
221	0xbb30c6d3	-0.0026973977
222	0x3e751095	0.23932107
223	0xbea53dc4	-0.32273686
224	0xbe58e620	-0.21181536
225	0xbd97ed37	-0.07418292
226	0x3e17d747	0.14828216
227	0x3da6d51c	0.08146116
228	0x3e8740e6	0.264167
229	0xbdc9c087	-0.09851175
230	0x3e6a33ca	0.22871318
231	0x3e01d725	0.12679727
232	0x3e8cf69b	0.27531895
233	0xbdd5a533	-0.104319
234	0x3e598394	0.212416
235	0x3de79a20	0.11308694
236	0xbe81ff3f	-0.2539005
237	0xbe6456ec	-0.22298783
238	0x3c27fac2	0.010252656
239	0x3d94387d	0.07237337
240	0x3e64f71f	0.22359894
241	0xbd9bf8d6	-0.07615821
242	0xbe215dcb	-0.15758435
243	0xbea190a2	-0.3155566
244	0x3d3b415c	0.04571663
245	0xbe4fd4ab	-0.2029597
246	0xbe5ea1a8	-0.21741354
247	0xbe20fa8e	-0.15720579
248	0xbe72977e	-0.23690602
249	0x3e5a67fd	0.21328731
250	0xbdbf2307	-0.09332853
251	0x3e6ac2b7	0.2292584
252	0xbe59e8f4	-0.21280271
253	0xbe8cc76e	-0.27495903
254	0xbe231bc4	-0.1592856
255	0x3de72fb5	0.11288396

net.4.bias f4 [2]
0	0x3cdbbca0	0.026823342
1	0xbced6926	-0.028980803
