coup_nsfp/0.95G10kEPNoPretrain/nfsp_coup_demo_best_agent_q.pt (torch, 86341 bytes, 6 tensors)

net.0.weight f4 [128, 25]
0.09577324 0.15125902 -0.14731567 -0.122508235 0.13412844 -0.059986122 -0.011733672 0.19300073
-0.094263814 0.011995152 -0.13513377 0.21290402 -0.2504444 -0.09871109 -0.16901472 0.09067034
0.18017085 0.23297109 -0.044082165 -0.18011291 0.24964443 0.24869 0.33534268 0.1417911
0.021718092 -0.13268249 0.08547644 0.29941908 -0.060303733 0.10794676 -0.2530607 -0.056412872
-0.23373343 -0.16883157 0.20273498 -0.06783326 -0.14039621 0.3574136 0.16245432 0.11318047
0.14585131 0.09274207 0.30843583 0.10665529 -0.008929211 0.08076292 0.27664277 0.32502052
0.12322045 0.14481893 0.09681072 0.30598068 0.07450563 -0.2568915 0.24496743 0.09348689
0.1423349 0.06602547 -0.15074918 0.26390573 0.1310416 -0.11954743 0.10281113 0.18722735
0.021581953 -0.04955645 0.20353444 0.14980936 -0.07179103 -0.13190389 0.34447604 0.15686594
0.0990369 0.09303894 0.25972295 0.20153695 0.055862788 -0.19294272 -0.054190658 -0.037773997
-0.15129125 0.18631858 0.16461207 0.2960772 -0.15394194 -0.1709009 0.16932982 -0.07818453
-0.19327942 0.29385307 0.14944047 0.22279005 0.11615096 0.1673582 -0.060726393 -0.22558542
0.105956025 -0.13188772 0.12202117 0.11210336 -0.24377382 0.1216368 -0.2434901 0.13120072
0.107220724 0.086965 0.014303595 0.27642414 0.16073006 -0.20995043 -0.113390744 0.2286182
-0.20860368 -0.15689254 0.36036 -0.039621532 -0.14160079 -0.13305043 0.104802325 -0.104372516
0.1422035 0.08635825 0.010336232 0.17342415 0.019579636 0.3413438 0.21499155 -0.06940752
0.060960438 -0.17216982 0.20202516 -0.1673501 0.038973816 0.008111284 0.07877411 -0.2721072
0.19482839 0.24888866 -0.18093692 -0.088230886 -0.2886533 -0.07782754 -0.0144013185 -0.005084777
-0.36551932 0.16393481 -0.28332466 -0.03499383 0.0029706461 0.07278082 0.21431512 0.22080117
-0.1093748 -0.48211318 0.36780536 -0.08618909 0.18334696 0.33746362 -0.0022095127 -0.34145778
-0.6668268 -0.13212477 -0.37354597 0.19556332 -0.30255917 -0.40858504 -0.38900387 -0.35572305
-0.18335299 -0.25747555 -0.16623168 -0.15239866 0.0792403 -0.41418552 0.029540567 0.11067207
0.1651969 0.17748918 -0.32140937 0.18668555 0.2540317 0.028958078 -0.0030320452 0.006300315
-0.048674546 0.25156868 -0.53469753 -0.13416961 -0.0034370422 0.3426121 0.36946967 0.2870836
0.21199314 0.16721332 0.0211282 -0.0903906 -0.11764555 0.0020105226 0.12147936 0.24597064
0.099466346 -0.15462048 -0.030818677 -0.09109342 0.17974524 0.10553517 -0.03218813 -0.16769071
-0.12363582 0.027586484 0.06189375 -0.10658908 0.008449602 -0.08873558 -0.16950522 -0.112942055
-0.1813891 -0.022208286 -0.03972545 0.05544479 -0.08595717 -0.10237582 -0.14715652 0.121386744
-0.17961064 0.0736417 0.06032476 0.08184795 0.14399374 0.18115164 0.055631407 0.087232515
-0.123531215 0.2174523 0.22762968 -0.21012934 0.026529085 -0.07504085 -0.09704497 -0.35125998
-0.0031544457 0.1803231 0.018771086 0.05291276 0.4124075 0.23896918 -0.12460146 0.032552134
-0.15971866 0.024169084 0.01675663 -0.28809172 -0.061140254 0.16681157 -0.11118781 0.14289771
00000000: c324 c43d a5e3 1a3e ebd9 16be 99e5 fabd
00000010: f758 093e 02b4 75bd 963e 40bc fca1 453e
00000020: 630d c1bd 5087 443c 8260 0abe 8303 5a3e
00000030: 403a 80be 0a29 cabd 3212 2dbe 5fb1 b93d
00000040: b57e 383e f98f 6e3e 808f 34bd 856f 38be
00000050: caa2 7f3e 97a8 7e3e 09b2 ab3e b031 113e
00000060: 24ea b13c ebdd 07be 460e af3d 754d 993e
00000070: 0c01 77bd 3113 dd3d 2c91 81be 2f11 67bd
00000080: d157 6fbe 2fe2 2cbe c299 4f3e 2aec 8abd
00000090: 06c4 0fbe eafe b63e 6d5a 263e 2acb e73d
000000a0: 0c5a 153e 8eef bd3d 4deb 9d3e 176e da3d
000000b0: d34b 12bc 0867 a53d 1fa4 8d3e 1769 a63e
000000c0: 015b fc3d 6a4b 143e b344 c63d 80a9 9c3e
000000d0: 6896 983d 4887 83be bed8 7a3e 0e76 bf3d
000000e0: 3dc0 113e 5d38 873d fe5d 1abe a71e 873e
000000f0: c52f 063e 48d5 f4bd a48e d23d 87b8 3f3e
00000100: a3cc b03c b4fb 4abd 556b 503e a067 193e
00000110: 2d07 93bd d011 07be 2a5f b03e 77a1 203e
00000120: dcd3 ca3d 338b be3d 68fa 843e b45f 4e3e
00000130: 61d0 643d c792 45be 06f7 5dbd e8b8 1abd
00000140: 18ec 1abe 4cca 3e3e 1190 283e 6e97 973e
00000150: f5a2 1dbe a500 2fbe cc64 2d3e 361f a0bd
00000160: 0aeb 45be e973 963e ec06 193e 1323 643e
00000170: 8ee0 ed3d f35f 2b3e 3dbc 78bd ddff 66be
00000180: 79ff d83d 930d 07be 3ce6 f93d 7296 e53d
00000190: d89f 79be b71c f93d 7855 79be 7b59 063e
000001a0: 8a96 db3d b51a b23d a059 6a3c 7787 8d3e
000001b0: 6c96 243e 3ffd 56be 6839 e8bd e41a 6a3e
000001c0: 349c 55be 70a8 20be 1b81 b83e 304a 22bd
000001d0: ccff 10be 5f3e 08be 9aa2 d63d 42c1 d5bd
000001e0: cb9d 113e 98dc b03d 4d59 293c 1a96 313e
000001f0: 7965 a03c 9dc4 ae3e bf26 5c3e 8825 8ebd
00000200: a7b1 793d 494d 30be afdf 4e3e d35d 2bbe
00000210: 02a3 1f3d 31e5 043c 5254 a13d a351 8bbe
00000220: 1881 473e abdc 7e3e 8747 39be 65b2 b4bd
00000230: 5eca 93be 0c64 9fbd 82f3 6bbc 339e a6bb
00000240: 5925 bbbe 87de 273e ee0f 91be b155 0fbd
00000250: 2caf 423b 1c0e 953d 6c75 5b3e b419 623e
00000260: e5ff dfbd 8ad7 f6be fc50 bc3e e883 b0bd
00000270: 4ebf 3b3e 08c8 ac3e 79cd 10bb 8ed3 aebe
00000280: 29b5 2abf b74b 07be 6b41 bfbe c041 483e
00000290: 09e9 9abe 0f32 d1be 842b c7be 5521 b6be
000002a0: e3c0 3bbe d6d3 83be a338 2abe 650e 1cbe
000002b0: bd48 a23d 2010 d4be 0fff f13c 0aa8 e23d
000002c0: 6029 293e b9bf 353e c58f a4be 7f2a 3f3e
000002d0: 7110 823e 7e39 ed3c 47b5 46bb df72 ce3b
000002e0: f65e 47bd 9ccd 803e f0e1 08bf c263 09be
000002f0: 0040 61bb da6a af3e 212b bd3e 9ffc 923e
00000300: bb14 593e f839 2b3e 0c15 ad3c b51e b9bd
00000310: 26f0 f0bd f9c2 033b 2cca f83d badf 7b3e
00000320: 03b5 cb3d d554 1ebe 7377 fcbc 308f babd
00000330: 230f 383e d322 d83d b3d7 03bd 1db7 2bbe
00000340: c734 fdbd 0dfd e13c 4d84 7d3d 604b dabd
00000350: 3370 0a3c 00bb b5bd c792 2dbe 2a4e e7bd
00000360: 10be 39be 27ee b5bc 27b7 22bd 131a 633d
00000370: 500a b0bd 6aaa d1bd 33b0 16be 9d99 f83d
00000380: daeb 37be 76d1 963d 1817 773d e69f a73d
00000390: 1873 133e d17f 393e c2dd 633d f6a6 b23d
000003a0: effd fcbd d1ab 5e3e c117 693e 252c 57be
000003b0: 8653 d93c 04af 99bd 83bf c6bd 59d8 b3be
000003c0: d1ba 4ebb 9ea6 383e d2c5 993c 0dbb 583d
000003d0: 1327 d33e 56b4 743e 0d2f ffbd 6355 053d
000003e0: 4a8d 23be 3efe c53c 3345 893c c280 93be
000003f0: 346e 7abd a7d0 2a3e 6fb6 e3bd c753 123e

net.0.bias f4 [128]
0.0744697 -0.0286353 0.15034607 0.17394012 0.07879624 0.015740931 0.010613698 0.06747254
-0.16953412 0.014976029 -0.023804395 0.24118213 0.08024995 0.24861364 0.16166578 0.19325347
0.269746 -0.09470066 0.022158243 -0.044851653 -0.04315423 0.03088371 -0.060036395 0.1131526
0.104805715 -0.0027647915 -0.114870235 0.030297108 -0.18583518 0.16571902 0.030996103 -0.073040046
0.21789123 0.23343723 -0.11797769 0.077533096 0.1256584 0.12883776 -0.07762292 0.0041397205
-0.12004189 0.14484033 0.21459447 -0.12566678 0.20024425 0.22223136 0.1955651 0.06981237
0.117833555 0.17810641 -0.09440508 -0.054980297 0.17695016 0.20152171 0.10287849 0.04426567
0.08745617 -0.016860742 0.07523645 -0.009798568 0.26445386 0.17076106 0.08437279 -0.16688809
-0.14046645 -0.07491876 0.17327267 0.046736524 0.13027452 0.14253785 -0.089027606 0.0092548765
0.17917192 -0.021988567 0.17809907 0.10465314 0.17126296 -0.09581786 0.007682113 -0.1722265
0.075353675 0.02987784 0.1656428 -0.06614916 -0.032980725 -0.09420039 0.028576607 -0.04949052
-0.17731325 -0.0023273253 0.027249075 -0.13764016 -0.026326688 -0.10831299 -0.16393119 0.15501557
0.100443795 0.004353174 -0.16120923 0.03253077 0.085277185 0.12097469 0.09725236 -0.07309351
-0.008842497 0.056709204 0.18156019 -0.063295074 0.18623759 0.14446095 0.028438384 0.16967362
0.03367051 0.072504066 0.18011084 0.16739307 0.05747269 0.021924786 -0.10210886 -0.08439875
0.1129967 0.12776726 0.019684104 0.120889045 -0.08749057 -0.030216072 0.21704134 0.056393925
00000000: 9283 983d 9494 eabc 52f4 193e 5c1d 323e
00000010: ec5f a13d 20f3 803c 13e5 2d3c 0b2f 8a3d
00000020: 5a9a 2dbe 055e 753c 6f01 c3bc 73f8 763e
00000030: 165a a43d 9394 7e3e b78b 253e 3de4 453e
00000040: 261c 8a3e 6bf2 c1bd 3485 b53c 5eb6 37bd
00000050: 7dc2 30bd d6ff fc3c b9e8 75bd 8dbc e73d
00000060: 61a4 d63d 8131 35bb 1641 ebbd a431 f83c
00000070: 944b 3ebe 3fb2 293e 8aeb fd3c 0596 95bd
00000080: e11e 5f3e 2b0a 6f3e 4a9e f1bd acc9 9e3d
00000090: 98ac 003e 0cee 033e c4f8 9ebd 7ea6 873b
000000a0: 86d8 f5bd 0651 143e a7be 5b3e cbae 00be
000000b0: d40c 4d3e 9e90 633e 3842 483e caf9 8e3d
000000c0: b852 f13d 8761 363e 7357 c1bd 0533 61bd
000000d0: 6c32 353e b55b 4e3e f5b1 d23d eb4f 353d
000000e0: 381c b33d 8a1f 8abc 9115 9a3d 2c8a 20bc
000000f0: 7f66 873e fddb 2e3e a4cb ac3d b6e4 2abe
00000100: 70d6 0fbe 026f 99bd 646e 313e cc6e 3f3d
00000110: af66 053e 71f5 113e 1b54 b6bd c4a1 173c
00000120: d878 373e 5e21 b4bc 9a5f 363e 6354 d63d
00000130: 8f5f 2f3e 273c c4bd 3cba fb3b 255c 30be
00000140: 0753 9a3d 5fc2 f43c 449e 293e 3679 87bd
00000150: cc16 07bd 22ec c0bd 7d19 ea3c 92b6 4abd
00000160: 9b91 35be 0a86 18bb 7439 df3c 8bf1 0cbe
00000170: 11ab d7bc 33d3 ddbd 94dd 27be 67bc 1e3e
00000180: 7ab5 cd3d 12a5 8e3b 0814 25be fc3e 053d
00000190: cea5 ae3d 94c1 f73d 3f2c c73d 0db2 95bd
000001a0: 1fe0 10bc e947 683d eaea 393e d9a0 81bd
000001b0: 11b5 3e3e 92ed 133e 9df7 e83c ecbe 2d3e
000001c0: 17ea 093d 037d 943d fa6e 383e 1769 2b3e
000001d0: 7c68 6b3d 9c9b b33c 731e d1bd 40d9 acbd
000001e0: d06a e73d 6cd5 023e 8f40 a13c ad94 f73d
000001f0: 422e b3bd b287 f7bc 1640 5e3e 51fd 663d

net.2.weight f4 [128, 128]
-0.013113021 0.36361197 0.026770309 -0.058162604 -0.18494399 0.36287877 -0.21463098 -0.427645
-0.084009215 0.0062497547 -0.20297892 0.024848087 0.1056275 -0.034966312 0.004030795 -0.3442283
-0.06918032 0.01948028 -0.23702614 0.29385424 0.43351507 -0.099780485 0.022989828 -0.9577247
-0.16881815 -0.53700113 -0.19035819 -0.21334077 0.06448289 0.119250774 0.11057699 -0.40792847
0.33814242 0.039108217 0.015838647 0.28053483 -0.23943338 -0.113538146 -0.02186527 0.21532768
-0.03467705 -0.26273128 0.38741475 -0.14599773 -0.099914 -0.1734783 -0.22622806 -0.02181364
0.16099267 -0.23719952 -0.040366948 0.22613591 0.059119508 -0.04937578 -0.39823848 -0.040397987
-0.00020303443 -0.1424539 -0.28004956 -0.5655929 -0.051779717 0.06517176 -0.2166875 -0.60963637
-0.42278698 -0.029948158 -0.2087979 0.2162936 0.2196291 0.018687239 -0.15118253 0.16730486
0.15775378 0.087392084 -0.48097304 -0.032790303 0.021522136 0.22432637 0.16420835 -0.227369
-0.06897956 0.0916095 -0.2574245 -0.038979173 0.18373775 0.4114337 -0.5437836 0.09529398
-0.03482325 -0.30469948 -0.03984954 -0.07646397 0.1772527 0.8656157 0.22162072 0.14144394
0.168317 -0.1176435 0.31484997 -0.53950393 0.09287017 0.4347547 0.0822259 -0.29317182
-0.5318058 -0.1656955 0.048515998 0.15719897 0.3485602 0.171895 0.08833747 0.27635974
0.15939352 0.16291408 0.054911375 0.11747376 0.10996616 -0.37719032 0.30390117 0.3103186
-0.2387452 0.19812204 -0.019589761 0.28588215 0.40683845 0.10987104 -0.07864299 0.036962193
-0.108116835 -0.4966538 0.024359262 0.052225493 0.08074427 0.3103763 -0.444237 0.2683618
0.083168805 -0.018310573 0.060716953 -0.031222139 0.12965132 -0.047355406 0.10309012 0.06694196
0.40594888 0.14320834 -0.08863512 -0.6471793 0.021912048 -0.035803117 -0.11247841 0.3341202
0.017993607 -0.14590469 0.17952241 0.034662686 0.05648306 0.1201715 0.14514522 0.22930454
-0.057368465 -0.03291657 0.0780532 0.22367331 0.08407215 -0.11876994 -0.0902003 0.00035188042
-0.2025907 0.06031705 -0.032732338 -0.24353777 0.09785539 0.10298172 0.17362905 -0.14404947
0.057318773 -0.5542176 -0.026301466 0.10179612 0.05843628 -0.037483227 0.081788585 0.26286027
0.23215733 -0.016185328 0.18271975 0.3604464 -0.093927965 -0.03857712 0.21951132 0.003813826
0.06994227 0.18671833 0.117139764 0.2466999 -0.01891166 0.0057070134 -0.040531266 0.12176517
0.03172744 0.12039188 0.10844297 0.053118918 -0.019604877 -0.2000053 0.017066002 -0.104655586
-8.0384576e-05 0.0833844 -0.005817566 0.050525192 -0.009717957 0.17268848 -0.0765829 0.10447451
-0.18310289 0.25839725 -0.050582543 -0.2988258 0.26842555 -0.17654663 0.16361734 0.20324224
0.14186859 -0.115036614 0.23693874 0.4727634 0.047147453 0.13095029 -0.17205246 0.0765106
0.0703939 0.13667947 0.024955153 -0.25656423 -0.22658354 -0.09357071 -0.095054306 0.042323492
0.0005934279 0.014445341 -0.029754331 0.16380054 -0.09389416 0.3014507 -0.095333606 0.062174022
0.18174265 -0.06530379 -0.47291723 0.007624033 -0.07643503 0.262309 0.09615412 0.27247232
00000000: ffd7 56bc 592b ba3e 684d db3c e93b 6ebd
00000010: f561 3dbe 3fcb b93e 39c8 5bbe 49f4 dabe
00000020: 060d acbd beca cc3b b5d9 4fbe 378e cb3c
00000030: 3b53 d83d d638 0fbd c214 843b b13e b0be
00000040: 69ae 8dbd 1c95 9f3c fbb6 72be 1074 963e
00000050: b0f5 dd3e b659 ccbd 2a55 bc3c 722d 75bf
00000060: aade 2cbe e878 09bf 42ed 42be 0176 5abe
00000070: 9b0f 843d c039 f43d 3076 e23d 00dc d0be
00000080: 0121 ad3e f02f 203d 0dc0 813c 43a2 8f3e
00000090: 062e 75be b086 e8bd cb1e b3bc dc7e 5c3e
000000a0: 8609 0ebd b784 86be 3a5b c63e 6e80 15be
000000b0: b69f ccbd 4ca4 31be 54a8 67be 85b2 b2bc
000000c0: 43db 243e 6ee4 72be d057 25bd 2c90 673e
000000d0: 4c27 723d 423e 4abd eae5 cbbe 5c78 25bd
000000e0: a4e5 54b9 6fdf 11be a862 8fbe b2ca 10bf
000000f0: f816 54bd c678 853d 54e3 5dbe 2111 1cbf
00000100: 8977 d8be d755 f5bc 1ecf 55be 127c 5d3e
00000110: 73e6 603e fb15 993c 98cf 1abe f751 2b3e
00000120: 358a 213e 9ffa b23d 1942 f6be 204f 06bd
00000130: 314f b03c d0b5 653e 3c26 283e 6bd3 68be
00000140: 2845 8dbd c39d bb3d 25cd 83be a0a8 1fbd
00000150: c025 3c3e 70a7 d23e 6735 0bbf 7d29 c33d
00000160: d3a2 0ebd 9201 9cbe 4539 23bd 2499 9cbd
00000170: bb81 353e fe98 5d3f 8bf0 623e aed6 103e
00000180: 4b5b 2c3e 13ef f0bd 0434 a13e ee1c 0abf
00000190: b732 be3d 2b98 de3e 0d66 a83d 9e1a 96be
000001a0: 6d24 08bf 15ac 29be b6b8 463d c4f8 203e
000001b0: 7c76 b23e 3e05 303e 47ea b43d 067f 8d3e
000001c0: 0e38 233e f3d2 263e c0ea 603d 1596 f03d
000001d0: f035 e13d 171f c1be ef98 9b3e 14e2 9e3e
000001e0: 9f79 74be 81e0 4a3e b57a a0bc 255f 923e
000001f0: 214d d03e 1104 e13d 930f a1bd ab65 173d
00000200: 5c6c ddbd 6849 febe 138d c73c 66ea 553d
00000210: 405d a53d a4e9 9e3e 0873 e3be b866 893e
00000220: 6854 aa3d 0e00 96bc 57b2 783d 92c5 ffbc
00000230: 51c3 043e bef7 41bd ea20 d33d de18 893d
00000240: 88d8 cf3e 35a5 123e 5486 b5bd 8bad 25bf
00000250: e580 b33c 4aa6 12bd 155b e6bd ce11 ab3e
00000260: 5467 933c 0a68 15be b9d4 373e 76fa 0d3d
00000270: c85a 673d 7a1c f63d f3a0 143e cfce 6a3e
00000280: 32fb 6abd 86d3 06bd 5bda 9f3d 9e0a 653e
00000290: 052e ac3d a83d f3bd efba b8bd 977c b839
000002a0: f073 4fbe 030f 773d 5812 06bd f761 79be
000002b0: 6868 c83d 14e8 d23d d0cb 313e b481 13be
000002c0: 17c7 6a3d 34e1 0dbf 2c76 d7bc 7c7a d03d
000002d0: e15a 6f3d 0388 19bd c680 a73d 9f95 863e
000002e0: a7ba 6d3e 1897 84bc e31a 3b3e 6e8c b83e
000002f0: 4e5d c0bd 0b03 1ebd 93c7 603e 62f1 793b
00000300: e53d 8f3d 1733 3f3e f9e6 ef3d e69e 7c3e
00000310: a0ec 9abc e601 bb3b 1d04 26bd 0460 f93d
00000320: a2f4 013d 0590 f63d 5917 de3d 3993 593d
00000330: 689a a0bc 30ce 4cbe 00ce 8b3c ab55 d6bd
00000340: 2494 a8b8 71c5 aa3d 48a1 bebb 81f3 4e3d
00000350: 1138 1fbc 40d5 303e 7fd7 9cbd bbf6 d53d
00000360: 537f 3bbe a54c 843e a42f 4fbd b2ff 98be
00000370: 136f 893e a4c8 34be 4e8b 273e bc1e 503e
00000380: 0046 113e 5198 ebbd 12a0 723e 0b0e f23e
00000390: b01d 413d d517 063e 852e 30be 97b1 9c3d
000003a0: ad2a 903d b4f5 0b3e c06e cc3c 635c 83be
000003b0: 8405 68be 00a2 bfbd d5ab c2bd 665b 2d3d
000003c0: 4690 1b3a 27ac 6c3c 5bbf f3bc 54bb 273e
000003d0: 954b c0bd bf57 9a3e 443e c3bd 30aa 7e3d
000003e0: bf1a 3a3e febd 85bd 3522 f2be 06d3 f93b
000003f0: f889 9cbd 5e4d 863e 74ec c43d 7e81 8b3e

net.2.bias f4 [128]
0.00041522374 0.11116741 0.07070024 0.12416797 -0.008193353 0.0717912 0.15440291 -0.014170611
0.1238446 0.08251919 -0.0075245206 -0.032655988 0.03442267 -0.031660754 0.069700606 0.07267149
-0.029808754 0.059487846 0.14086051 -0.030709902 0.072938345 -0.064826764 -0.0838517 0.15692176
0.04900937 0.024955984 0.054552495 -0.00081162504 0.061636154 -0.055404224 0.10648375 0.02773835
0.045676798 0.13734634 -0.0150302155 -0.05282674 -0.0030146053 0.037645694 0.12032043 0.07279765
-0.015150411 0.06292972 0.030054197 0.05660688 -0.06775202 0.072212145 -0.015493787 0.0052381125
0.006383602 0.09188313 -0.08597706 -0.028249647 0.017488671 -0.0020079294 -0.038372412 -0.031448897
-0.057705864 0.013688775 0.0672213 0.010432938 0.111357726 0.04406306 0.1403971 -0.008868004
0.0064775585 -0.0077408436 0.12602718 0.11572719 0.054889232 0.06728502 0.13889109 0.0020519777
0.082335755 0.011524118 0.0052107447 -0.028080227 -0.066162534 0.013489741 -0.08376558 0.01333376
0.027161684 -0.08686018 0.006160152 0.03187882 0.108731456 0.07260995 0.020719146 0.022216776
-0.07975908 0.06657158 0.08341381 0.080611594 -0.009752556 -0.051214483 -0.028284505 0.06586311
0.0065444023 0.008028865 0.15373425 0.105862565 -0.03507393 -0.0053459504 0.10268182 -0.0016004385
0.0016537076 -0.046780482 -0.045744892 0.03738294 0.09125272 -0.06759098 -0.010663139 -0.01930076
-0.027762553 0.029678976 0.03814277 0.009953738 -0.07448414 -0.057385612 -0.05890665 0.0931689
0.002822276 0.08816065 0.06947714 0.0599386 0.10207508 0.058617104 -0.033530325 0.0211653
00000000: 63b2 d939 bdab e33d 4acb 903d c74b fe3d
00000010: 6a3d 06bc 4407 933d cc1b 1e3e da2b 68bc
00000020: 3da2 fd3d d2ff a83d 4190 f6bb 49c2 05bd
00000030: c9fe 0c3d b5ae 01bd 31bf 8e3d cad4 943d
00000040: 7d31 f4bc 87a9 733d bd3d 103e 5593 fbbc
00000050: b360 953d e5c3 84bd 71ba abbd 19b0 203e
00000060: 0dbe 483d 7e70 cc3c 7072 5f3d 3cc3 54ba
00000070: 3176 7c3d 8aef 62bd 2714 da3d 893b e33c
00000080: 9817 3b3d 85a4 0c3e 4b41 76bc da60 58bd
00000090: af90 45bb 5f32 1a3d 8f6a f63d ef16 953d
000000a0: 6e39 78bc 4ce1 803d 3834 f63c 9edc 673d
000000b0: 92c1 8abd f6e3 933d a7d9 7dbc 79a4 ab3b
000000c0: 892d d13b 392d bc3d be14 b0bd ce6b e7bc
000000d0: 6744 8f3c 7797 03bb 642c 1dbd 8fd0 00bd
000000e0: fc5c 6cbd e246 603c 52ab 893d eaee 2a3c
000000f0: 850f e43d 787b 343d 42c4 0f3e 1b4b 11bc
00000100: b341 d43b e7a6 fdbb 450d 013e 6102 ed3d
00000110: 88d3 603d bbcc 893d 7739 0e3e 797a 063b
00000120: a69f a83d a7cf 3c3c e5be aa3b 8108 e6bc
00000130: 3980 87bd 1304 5d3c 4a8d abbd d875 5a3c
00000140: 2e82 de3c c0e3 b1bd 1adb c93b 5e93 023d
00000150: 99ae de3d 87b4 943d 33bb a93c f5ff b53c
00000160: bb58 a3bd ae56 883d dcd4 aa3d b117 a53d
00000170: 2fc9 1fbc 47c6 51bd e8b4 e7bc 3de3 863d
00000180: 6d72 d63b 808b 033c 836c 1d3e 79ce d83d
00000190: aea9 0fbd 152d afbb d94a d23d cec5 d1ba
000001a0: 38c1 d83a e49c 3fbd ff5e 3bbd db1e 193d
000001b0: b5e2 ba3d 246d 8abd 72b4 2ebc a11c 9ebc
000001c0: 4b6e e3bc 5321 f33c 983b 1c3d 0115 233c
000001d0: 248b 98bd 2d0d 6bbd 1948 71bd 56cf be3d
000001e0: eff5 383b 928d b43d 084a 8e3d 2d82 753d
000001f0: bd0c d13d 7d18 703d 1857 09bd da62 ad3c

net.4.weight f4 [7, 128]
0.28440136 -0.10904684 0.12753457 0.20586391 -0.041392893 0.09881412 0.13036603 0.13790001
0.036134973 0.11558244 -0.077670634 0.08540955 0.1382828 0.10533858 -0.22210099 0.062198404
0.058305744 -0.11534849 0.08234437 0.0084017 -0.042183537 0.024759596 -0.02398988 0.22556841
0.15909538 -0.0022050967 0.15618369 0.26709425 0.13950841 -0.04624142 0.12717614 -0.13345048
0.24957962 0.020765956 -0.097972706 -0.12683628 0.12686494 -0.0804066 0.15818638 -0.06583208
-0.08184712 0.13650641 -0.059589427 0.09282146 0.10311154 0.04518368 0.01349137 0.035224676
0.15190154 0.06475295 -0.18055807 0.22450423 -0.02392764 0.1869613 0.18027839 0.017556857
-0.04876443 0.03819272 -0.110159725 0.5074892 0.066038124 0.041839655 0.08667082 0.13094054
-0.0045456793 -0.17841654 0.21312274 0.058021974 0.089180864 0.14608642 0.18514924 -0.006116931
0.008323484 -0.29160202 -0.04220562 -0.1013288 0.0137648545 -0.03736628 -0.080681406 -0.18029371
0.12936737 -0.054728344 0.28930765 0.22508298 0.10229928 0.09103215 0.10231556 0.1671838
-0.0019959167 0.056712966 -0.082448825 0.18710868 0.057617806 0.06273281 0.04285407 -0.08354188
0.46201673 0.11315929 0.105028495 0.17427441 0.103103034 -0.13532661 0.03926432 0.050569803
0.071483046 0.062441837 -0.044173982 -0.17173657 -0.033237725 0.08701993 0.038768385 0.38992277
0.19895972 0.19358799 0.089356214 0.13892376 0.08776374 -0.40382132 -0.06652047 -0.18016335
0.19506274 0.20768856 0.039158784 0.006509307 0.024448575 0.07423733 -0.023070533 0.07005631
0.2705557 -0.033127107 -0.043577954 0.16767395 0.07279217 0.13507356 0.13881227 0.07618779
0.06264844 0.112173036 -0.05305874 -0.030190757 0.03687938 0.08067622 -0.46793064 0.1893203
-0.034105696 -0.06297885 0.12882896 -0.09536167 -0.09929314 0.03673898 -0.0786952 0.17561087
0.058037214 -0.12077234 0.17367055 0.1688064 0.05098667 -0.30819046 0.13958594 -0.061010387
0.20753375 0.090479985 -0.109001495 -0.17265187 0.16498035 -0.024980847 0.071102746 -0.015977683
-0.04637467 0.076281555 -0.08230333 0.076117046 0.11844563 0.07113043 0.024831032 -0.13474579
0.10963716 -0.03945836 -0.09078981 0.4822446 0.049228087 0.18347162 0.082411766 -0.12966108
0.07050805 0.1733933 -0.11472054 0.59937954 0.17752002 -0.06535784 0.17715038 0.054459658
0.14734164 -0.10034308 0.21841516 0.17100981 0.035157878 0.21258211 0.17806096 -0.01586836
0.010508031 -0.25827384 -0.08031248 -0.07375465 -0.06605634 0.088808306 0.039843537 -0.19786726
0.145837 0.016877854 0.22530673 0.104313366 0.04655517 -0.057994545 0.0053350213 0.2013855
0.0356059 0.107318066 -0.07334429 0.06985444 -9.116665e-05 0.018207083 0.04411234 0.025101017
0.32588243 0.14770693 0.11870103 0.19494836 0.018401014 -0.052409653 0.098240145 0.12514392
0.11757731 0.0097649135 -0.06113083 -0.07080566 -0.07167462 0.23883027 0.15512276 0.2985598
0.1594819 0.13938454 0.08490491 0.10867087 0.050748136 -0.4437296 -0.13504206 -0.26472425
0.17273176 0.17969002 0.046099674 -0.025761018 -0.041312046 0.112589926 -0.024361555 -0.008169476
00000000: 0e9d 913e f353 dfbd 6c98 023e fdcd 523e
00000010: 988b 29bd 0f5f ca3d ac7e 053e a935 0d3e
00000020: 4402 143d 7cb6 ec3d c811 9fbd 34eb ae3d
00000030: 029a 0d3e c1bb d73d 716e 63be c1c3 7e3d
00000040: 01d2 6e3d d43b ecbd 2aa4 a83d 49a7 093c
00000050: a5c8 2cbd a3d4 ca3c 6d86 c4bc 68fb 663e
00000060: e6e9 223e 6283 10bb 9eee 1f3e 94c0 883e
00000070: 4bdb 0e3e a567 3dbd 763a 023e 3ea7 08be
00000080: cd91 7f3e 5e1d aa3c eaa5 c8bd 5fe1 01be
00000090: e2e8 013e 37ac a4bd 9cfb 213e f8d2 86bd
000000a0: 769f a7bd 56c8 0b3e 0b14 74bd 2d19 be3d
000000b0: 252c d33d 8612 393d e80a 5d3c c047 103d
000000c0: 148c 1b3e 329d 843d 37e4 38be 70e4 653e
000000d0: e603 c4bc c872 3f3e e69a 383e 66d3 8f3c
000000e0: 36bd 47bd f86f 1c3d 6c9b e1bd d0ea 013f
000000f0: ff3e 873d 0f60 2b3d 7980 b13d 4715 063e
00000100: ecf3 94bb d3b2 36be d93c 5a3e 73a8 6d3d
00000110: 75a4 b63d ae97 153e c397 3d3e 8970 c8bb
00000120: 395f 083c dc4c 95be cddf 2cbd 7985 cfbd
00000130: fc85 613c 620d 19bd 4b3c a5bd ea9e 38be
00000140: e178 043e d42a 60bd 2220 943e 277c 663e
00000150: 4982 d13d 106f ba3d d28a d13d 3b32 2b3e
00000160: edcd 02bb db4b 683d eeda a8bd 6b99 3f3e
00000170: a600 6c3d 0f7a 803d c087 2f3d 0118 abbd
00000180: 758d ec3e 0fc0 e73d 2e19 d73d fe74 323e
00000190: af27 d33d 0f93 0abe a0d3 203d 4822 4f3d
000001a0: b465 923d 03c3 7f3d c7ef 34bd b6db 2fbe
000001b0: 4824 08bd 8137 b23d 99cb 1e3d f5a3 c73e
000001c0: 19bc 4b3e ee3b 463e 6400 b73d 0842 0e3e
000001d0: 7abd b33d abc1 cebe e23b 88bd be7c 38be
000001e0: 87be 473e 4fac 543e f664 203d 064c d53b
000001f0: 6148 c83c be09 983d 6afe bcbc af79 8f3d
00000200: 4786 8a3e 4ab0 07bd cc7e 32bd b8b2 2b3e
00000210: 1014 953d b950 0a3e ce24 0e3e 5808 9c3d
00000220: d34d 803d faba e53d 1f54 59bd 9b52 f7bc
00000230: d50e 173d 9339 a53d 9b94 efbe 2edd 413e
00000240: 6ab2 0bbd 0efb 80bd bdeb 033e fb4c c3bd
00000250: 345a cbbd 9d7b 163d f32a a1bd 56d3 333e
00000260: 6eb8 6d3d 7d57 f7bd b1d6 313e 96db 2c3e
00000270: 66d7 503d 24cb 9dbe 9eef 0e3e 07e6 79bd
00000280: ba83 543e 924d b93d 2d3c dfbd a7cb 30be
00000290: 9cf0 283e a2a4 ccbc 519e 913d a1e3 82bc
000002a0: 5ef3 3dbd 8139 9c3d a68e a8bd 41e3 9b3d
000002b0: 9f93 f23d d5ac 913d 736a cb3c cdfa 09be
000002c0: 7389 e03d 179f 21bd 02f0 b9bd c4e8 f63e
000002d0: 64a3 493d fcdf 3b3e 80c7 a83d e0c5 04be
000002e0: 8666 903d 038e 313e 9af2 eabd f070 193f
000002f0: cfc7 353e 55da 85bd e966 353e 1711 5f3d
00000300: bae0 163e ac80 cdbd 39a8 5f3e 321d 2f3e
00000310: b501 103d 20af 593e 9d55 363e 5dfe 81bc
00000320: e029 2c3c 783c 84be df7a a4bd ae0c 97bd
00000330: 8c48 87bd 21e1 b53d fa32 233d b79d 4abe
00000340: 4b56 153e 6d43 8a3c cfb6 663e 3fa2 d53d
00000350: a2b0 3e3d b08b 6dbd 67d1 ae3b 0038 4e3e
00000360: 7ed7 113d 93c9 db3d 8835 96bd d80f 8f3d
00000370: b930 bfb8 0527 953c 24af 343d a6a0 cd3c
00000380: 10da a63e 7c40 173e 8719 f33d 8ba0 473e
00000390: b9bd 963c 81ab 56bd 2132 c93d ba25 003e
000003a0: 5fcc f03d 04fd 1f3c 5264 7abd 8f02 91bd
000003b0: 25ca 92bd ec8f 743e 80d8 1e3e d5dc 983e
000003c0: 394f 233e d2ba 0e3e a0e2 ad3d d58e de3d
000003d0: 47dd 4f3d 8730 e3be 7748 0abe f089 87be
000003e0: 98e0 303e a900 383e 03d3 3c3d c508 d3bc
000003f0: d236 29bd 8c95 e63d e291 c7bc 44d9 05bc

net.4.bias f4 [7]
-0.01597897 0.074649535 0.060903616 -0.003780895 0.045443997 0.048047494 0.24752243
00000000: 54e6 82bc dbe1 983d 1276 793d e4c8 77bb
00000010: 7c23 3a3d 73cd 443d 8576 7d3e
