coup_nsfp/0.95G10kEPNoPretrain/nfsp_coup_demo_best_agent_block.pt (torch, 84341 bytes, 6 tensors)

net.0.weight f4 [128, 26]
00000000: b72a 9c3d 8d46 02be 7179 c7bb 29b2 c13d
00000010: dcbf 4f3e c642 13be 363b c8bc 78d7 49be
00000020: 4bc7 88bd fc1d 403e 208e 99bd eab2 cb3d
00000030: 6f3b aebd 9657 193d dd3f adbd cabb 0cbe
00000040: 2076 81bd 348f 19be 69d6 203d 25a0 3b3e
00000050: db01 d63d cc1c 113e d9eb 543e b092 013e
00000060: abf2 763d 309b 35be 7de3 c3bd 1e1b 7e3e
00000070: 60b5 9b3d db9a 1d3e f00f 0d3d b2b0 83bd
00000080: df9b 213e dfd0 2cbe f59c 2c3e fddd e3bc
00000090: 06ec 01be e946 2abe 8a83 ae3d 6b08 af3b
000000a0: 3104 8c3d 5823 663d 8152 033e a542 993d
000000b0: 1838 36be 1869 0f3e 1ad9 583e 799c 05bd
000000c0: 670b 28be 606a 183d fb0d a0bd 8323 85bd
000000d0: ee02 29be 978d 07be 398c 77be 3817 5e3d
000000e0: 9b9d 7abd 83e9 2c3d 7572 cdbc 1ec1 ed3d
000000f0: 378f 1cbd 904d d73d ba0f 983b 4514 d73d
00000100: 4a09 2c3e f84c 44be a063 17be 9879 903d
00000110: a2de 06be 5b25 44be 3ad7 f8ba 53a6 183e
00000120: e51a 7abd a902 4c3e 3615 713c c395 af3d
00000130: 443c a83d a137 643d ab90 e83c 9554 2dbe
00000140: 9e91 453e 525c 1a3d 9b4d 963d ff69 e8bd
00000150: 3a86 1ebd de36 e23d c74a 00be 833e febd
00000160: e2c4 c53d 5f46 f93d 46a6 453e 268f bbbd
00000170: e7f0 873d 07d4 a73d 4754 343d 798b 37bd
00000180: bd38 b23d d5c3 013e 4461 283e 0e76 693d
00000190: aa09 b5bb d0c9 483e afe0 463e 4c5c 79bd
000001a0: 18ec f4bd 3db4 063e bcd7 873c 99aa f9bd
000001b0: 8a54 7dbd ab8d 523c 05bc df3d 5e2b ac3c
000001c0: a97a 273e fb18 353d 5086 45bd 21a6 dabc
000001d0: d5cc d53b f59d 45be abf7 5ebd 6664 29be
000001e0: 4bdd 263e 39ca 433e 775e 86bd cba4 203e
000001f0: 05d0 94bd fa05 0abe 4fa9 103e b9df f8bd
00000200: 7e46 553e d51f d0bd 45d8 cd3d af29 313e
00000210: 7bf4 1b3e 47d2 6dbe b16f 87bd f411 b3bd
00000220: 21f6 803d 4668 44be abbc f63d e277 193e
00000230: e916 dabd 4434 2e3d 55f8 1dbe 7a59 0fbe
00000240: 89a5 c73d 1c77 efbd 098b dfbd 5e5b f53c
00000250: a205 27bd e6e2 5e3e 6ed6 2abd 3261 b8bd
00000260: 75f2 f13d d2d0 efbd 326f 34be 7fa0 403e
00000270: 0a12 843c ea92 b5bc 5676 2f3e e7da 193e
00000280: 9ec5 253e b585 053d 66ea 10be 10d3 363e
00000290: e93d 2bbe 8eb3 46bd e00e 213e c2f6 22be
000002a0: 2e4b 64bc aadf 22bd 07fa 32bd 89c4 6e3d
000002b0: 2eb3 143d 3559 093d 97cb 243e bca3 76bd
000002c0: 516c 553d 12c2 d7bd 78b7 ec3d 8704 1f3e
000002d0: 686c 513e e3b2 dfbd 71f0 fbbc 8cda 49be
000002e0: 9930 f6bd 0d28 183d 8701 1cbe 8bf0 2dbe
000002f0: 4350 babd bfa3 e1bd 4d0e 6d3d f234 bebd
00000300: d75d c8bd 9247 2c3e 0469 1f3c 5d4a afbd
00000310: d053 35be 9618 23be e995 b63d 315a c0bb
00000320: 2031 9c3d b2e4 08be 82a5 323d 96b9 a5bd
00000330: aca3 b73d 189d bd3c fbcb e7bd 996e 2ebe
00000340: aca6 a2bb 67e7 2b3d ee21 3abe 6d8b 113e
00000350: a5fe fcbc 89cf b1bb 960c 54be 187f b53d
00000360: c5a5 36be a455 513e 9a0b 553e 119b edbc
00000370: b022 5f3e c284 6e3d b975 78bb f600 5abe
00000380: c164 38bd ad04 a63d c08c e43d eea2 5bbe
00000390: 1ae9 373e b1c1 97bd c3fd 09be abcf 3fbc
000003a0: b1b2 50be 39d7 fc3c 4749 2d3e 497b 903d
000003b0: 28d6 00bc b805 fabd 526d 373e 8b79 c53d
000003c0: 0a24 273e eb4a 193e e2a9 c3bd 8408 6fbc
000003d0: 4caf 46bd c790 50be 59ec 153e dc69 503d
000003e0: bdcc 8ebd 9977 973d 810d 1ebc 586d fbbc
000003f0: e529 d8bc 2c68 85bd 7df6 b9bd c430 a53d
0.07625335 -0.12722225 -0.006087475 0.094578095 0.20288032 -0.14380941 -0.024442296 -0.19711101
-0.06678637 0.18761438 -0.07497811 0.099462345 -0.0850743 0.037437044 -0.084594466 -0.13743511
-0.06321359 -0.14996034 0.039266977 0.18322809 0.10449573 0.14171141 0.20793094 0.12653613
0.06029002 -0.1773498 -0.09564874 0.24815032 0.07602954 0.15391104 0.034439027 -0.06430186
0.15782116 -0.16876553 0.1685675 -0.027815813 -0.12687692 -0.16628613 0.08521183 0.0053415797
0.06836737 0.05618605 0.12824441 0.074834146 -0.17794836 0.14004934 0.21176568 -0.032619927
-0.164106 0.037210822 -0.078151666 -0.06500914 -0.16505024 -0.13237606 -0.24174584 0.054221362
-0.06118546 0.04221488 -0.025078991 0.116091 -0.038222518 0.10512841 0.0046405466 0.10501913
0.16800418 -0.19169986 -0.14784098 0.07054442 -0.13170865 -0.19154875 -0.0018985041 0.14907198
-0.061060805 0.1992289 0.01471453 0.08573487 0.0821462 0.055717114 0.028389296 -0.16926797
0.1929383 0.0376857 0.07339021 -0.11348342 -0.038702227 0.11045621 -0.12528525 -0.12414267
0.09656693 0.12171625 0.1930171 -0.09158163 0.06637745 0.08194738 0.044025686 -0.044810746
0.08702228 0.1267236 0.16443354 0.05699735 -0.0055248337 0.19608235 0.19421647 -0.060879037
-0.11959094 0.13154693 0.016582362 -0.12190742 -0.0618482 0.012851159 0.10924534 0.021016773
0.16355385 0.044213276 -0.048223794 -0.026690545 0.006524662 -0.19298537 -0.054435413 -0.16542205
0.16295354 0.1912011 -0.065609865 0.15687864 -0.07266239 -0.13478842 0.14127086 -0.12152047
0.20827672 -0.101623215 0.10051016 0.17301057 0.1522998 -0.23224746 -0.066131 -0.08743659
0.06296945 -0.19180402 0.12047704 0.14987138 -0.10648901 0.042530313 -0.15426762 -0.13998976
0.0974837 -0.1169264 -0.10915191 0.029950794 -0.040776856 0.21766242 -0.041708402 -0.090029135
0.11813823 -0.11709751 -0.17620543 0.18811224 0.016121883 -0.02216478 0.17134985 0.15024911
0.16188666 0.032598216 -0.14151916 0.17853951 -0.16722836 -0.04851108 0.1572833 -0.15914443
-0.01393394 -0.039764084 -0.043695476 0.0582929 0.03630369 0.03353234 0.16093288 -0.060214743
0.05210525 -0.10535063 0.115584314 0.15529071 0.2045151 -0.10922792 -0.0307543 -0.19712275
-0.12020988 0.03714757 -0.15234958 -0.16986291 -0.0909734 -0.1101756 0.057874966 -0.09287442
-0.097835235 0.16824177 0.0097296275 -0.085591055 -0.17707753 -0.15927348 0.08915312 -0.0058701267
0.07626557 -0.1336849 0.04361487 -0.08092038 0.08966765 0.023146197 -0.11318203 -0.17034377
-0.0049637165 0.04196873 -0.18177006 0.14213343 -0.030883143 -0.0054263514 -0.20707926 0.08862132
-0.17836674 0.20442826 0.20805207 -0.029004605 0.21790576 0.058232076 -0.0037911965 -0.21289429
-0.04501796 0.081063606 0.111596584 -0.21448871 0.17960015 -0.074099906 -0.13475709 -0.011707227
-0.20380665 0.030864345 0.16922484 0.07054765 -0.007863559 -0.12208122 0.17912796 0.09642323
0.16322342 0.14969985 -0.09553887 -0.014589433 -0.04850702 -0.20367728 0.1464094 0.050882205
-0.069726445 0.07395858 -0.009646774 -0.030691788 -0.026387164 -0.0651401 -0.09080217 0.08065942

net.0.bias f4 [128]
00000000: 9b11 97bd fed9 0b3e ae01 2abe fbc3 17be
00000010: 005f e2bd e92c fc3b 5dfa 043e 7ede 2fbd
00000020: e1d0 8bbd b76d 6ebd 3ec2 383e 7151 df3b
00000030: 7712 b4bd ca35 a8bd 907c cdbd b450 1f3e
00000040: 5d74 253e 3e21 383d f718 a1bc dccf 1b3c
00000050: 8f43 a03d 09a3 32bc 9968 953d 58bd c53c
00000060: e765 2c3d 54ba 173e 13ab 353e f1ba 3d3d
00000070: 0152 c23d 1969 59bd d6b2 b33c 7258 3abe
00000080: b590 20be 40c5 053e 3ec1 01bc c018 0d3e
00000090: 8a9f ec3d e359 b83d 8bb3 613d fbad 0dbe
000000a0: 0515 1abe fd11 4abe 04e4 e23d b11e 8bbd
000000b0: a408 1f3e a320 263e 8556 cf3d d640 563d
000000c0: f9b7 e73d 970b 063d 4192 61bd 58d0 ca3d
000000d0: 4287 953c aa1e d73d b0fa 88bd 6135 a23d
000000e0: 53c3 6e3d 9f77 3b3e 942a a43c 27d6 70bb
000000f0: 9633 26be 8d09 bc3d e1ed d43d f3d0 3f3e
00000100: 4bd6 30be ba2e 12be 4c97 0cbe 5ce9 233d
00000110: 84e5 3cbe ce47 923d 81f6 38bc 8a10 94bd
00000120: de18 273e 05e8 d6bd c896 adbd 20df efbd
00000130: 8ebc 35be 9ca8 39be ea9e f2bd 3440 6ebc
00000140: e380 383e a628 643c 53cb ac3d 061a 29be
00000150: 28dc bd3d 1280 babd 884a 723d f6b2 75bd
00000160: f8ff 4bbd c7c1 15be 8b04 d03d 3e89 d83d
00000170: 6665 183e 4529 1f3d b84e ebbd 7454 ee3d
00000180: 1348 1ebe e65b 173e fd89 403d 8182 1e3e
00000190: cb55 cb3d fa27 3bbe a107 17be a1f5 eabd
000001a0: 2180 f0bd 9490 0b3e 77aa fa3d 386e 3d3e
000001b0: e1c5 cdbd 7abd da3d 1f54 0abe 4fe3 0e3e
000001c0: 87f0 a03c b9c8 d2bd 01c9 013d 7c64 e23d
000001d0: af28 79bd 749c 98bd 3953 34be 20b8 ad3d
000001e0: 6409 0bbe 9cfd fdbd 446d edbd c84c ba3d
000001f0: 4f35 19bc 43bb 233e 3d30 e6bd 6005 173e
-0.07376405 0.13657376 -0.16602203 -0.14820854 -0.11053276 0.0076957834 0.12986131 -0.042936794
-0.0682695 -0.0582101 0.18042848 0.0068151285 -0.087925844 -0.082133844 -0.10033524 0.1555813
0.1615767 0.044953577 -0.019665224 0.009510007 0.07825386 -0.010903128 0.07295341 0.024138138
0.04208937 0.14817172 0.17741041 0.04632086 0.09488297 -0.053078745 0.021935862 -0.18197802
-0.15680201 0.13063526 -0.007919608 0.13778973 0.11553867 0.090015195 0.055102866 -0.138359
-0.15047081 -0.19733424 0.11078647 -0.06792963 0.1553064 0.16223387 0.10123924 0.052307926
0.11314387 0.032725897 -0.05507112 0.0990302 0.018252973 0.105038956 -0.0668844 0.079203375
0.058291744 0.1830735 0.020039834 -0.0036748738 -0.16230616 0.09181509 0.10396934 0.18732052
-0.17269246 -0.14275637 -0.1372959 0.04001747 -0.18446928 0.07142602 -0.01128924 -0.07229717
0.1631808 -0.10493473 -0.08476025 -0.117124796 -0.17747709 -0.18130726 -0.11846717 -0.014541674
0.18017916 0.013925707 0.084372185 -0.16513833 0.09270507 -0.09106459 0.05915311 -0.059985124
-0.049804658 -0.14624701 0.101571165 0.10573052 0.1488243 0.038857717 -0.11489624 0.11637202
-0.15457182 0.1478115 0.047006596 0.15479471 0.09928473 -0.18276969 -0.14749004 -0.11472631
-0.11743189 0.13629371 0.12239545 0.18499076 -0.10047508 0.10680671 -0.13508652 0.13953899
0.019645942 -0.10292191 0.031685833 0.11054322 -0.060829815 -0.07451716 -0.17609872 0.08482385
-0.13577801 -0.12401888 -0.115931064 0.09096676 -0.009351089 0.15989403 -0.112396695 0.14748144

net.2.weight f4 [128, 128]
00000000: ac72 f5bd 687a a43d a64a ffbd 5384 74bd
00000010: 0bae 13bd 8cca ac3d de63 8c3c d2a2 76bd
00000020: 0a8c 7f3b a99b 33bd af0f 89bd 6700 03bd
00000030: b33d e33c e2e9 08bd 0cab a43d 75f0 4c3c
00000040: ce54 3d3d 4a16 9d3c e24d b53d 8ff7 d6bc
00000050: 0ac7 463d 3b93 ce3c 65be a3bd 4fa3 553b
00000060: 5118 48bc 93df a6bc 46a2 323d 4315 b73c
00000070: 25c4 68bc 2d36 14bd 8237 4ebd f4d0 213c
00000080: cdc2 a13d 796b a73d 09c3 59bd 02cc cfbd
00000090: 70c6 263d 446f a6bc a772 133d 4b83 38bd
000000a0: 08a1 3cbd 0f4e 38bc b465 123c 8b81 313d
000000b0: 0aa0 1ebd b2a3 ea3b fe14 adbc 8487 8abc
000000c0: fc28 82bd 3da4 a03d 49b6 483c f315 acbd
000000d0: cb67 833b 3320 dabc bd2c aebd deef a6bc
000000e0: 691e 103c f7f8 7dbd e810 923d c97d 9e3d
000000f0: 9fa0 90bd bd76 b3bd da62 86bd 46ad 473d
00000100: 2a1b 50bd dab7 1b3d 101e 1e3d d353 0e3d
00000110: 1743 f33c 6fcb a03d d758 853d f75b 2cbd
00000120: 9c43 bdbd f073 28bd 851a 783d 864e 22bd
00000130: b97c a8bd 168a f2bb ed58 b3bd 17e5 d3bc
00000140: 6375 86bd 3e94 3bbd 940c a7bc 770d fd3b
00000150: 1394 d0bd 8d82 b2bd 2405 363c 272a 2c3c
00000160: 6bf6 703d f60f eebd 3a7d 8c3c 8e62 903c
00000170: c47c 7cbd 6cd8 fd39 b400 8cbd 7e8a a73b
00000180: 6659 88bd 360f 053c 2bc4 eabc 58fa 92bd
00000190: 9ed1 c63d 1673 6fbd 025b 943c ce62 63bd
000001a0: 60cc 8a3c 9969 0abe 5a68 ac3b 0cfa bbbd
000001b0: 6d5d c43d d806 a1bd af9a 08bd 1d9b b1bd
000001c0: 522f a1bd d651 27bd f944 0a3d bdd5 b03d
000001d0: 66b5 9a3d 05b8 94bd 4649 6fbd d45a 643d
000001e0: 1dbb 043e 8c76 4e3d 945b 8ebc e770 543d
000001f0: 4e65 dc3d 6486 b53d 54a1 c3bd 3d3f 59bd
00000200: abac 07bd 652a 803d 3454 7f3a b044 81bd
00000210: 97af e53b e00b 9b3c 5f59 e63d 6526 7c3d
00000220: 656c 0d3e 27d7 87bd ef30 c43d 1a0f 45bb
00000230: eb3c 8f3c 88b3 f8bc 8b40 a73c 540c 2a3d
00000240: acd3 8ebd c5f3 b2bc 8310 2ebd 67c5 2ebc
00000250: a2d4 21bd 006e e1bd bb30 d73d 8c79 aabd
00000260: 98a5 98bd 8615 233c d51f 4dbc a0d0 b33d
00000270: 1e64 4abc a2ba 453d 3dd8 993d fb47 163c
00000280: e1ca 973d 066c edbd a5f7 403d 306a 1abd
00000290: b4c2 183d ce6c 06bd 3e63 983d eda4 b13d
000002a0: 7ae2 20bd bcd5 0dbd b023 0cbd 5b97 7a3d
000002b0: 6440 4cbd 3e99 4bbd 58ca 0dbd a73b 90bc
000002c0: 3687 5c3d c351 15be 347a 263e cd7f de3d
000002d0: 09f3 413d 760d c8bd 3ce9 0a3d f1f5 46bd
000002e0: b656 4d3d 5293 853c e89d 84bd 6c1b afbc
000002f0: c33e d93d 030b 04bd eb78 c4bd e12d b23d
00000300: e0e8 29bd 4f51 2a3d 8a82 20bd 787e 00bd
00000310: 3c6d 213d ccf8 793d 8d26 2abd c2ef 0a3e
00000320: 59bf 033d 7c4c 45bd b16c 37bd 0e54 e3bc
00000330: 6b30 303e 0f4f 173e 4966 303e 2ca3 b13c
00000340: e524 623c 607a d2bd 4c9b 8abc 6622 0abe
00000350: 67a7 b23d f7ab 83bd 06db 34bd d039 073d
00000360: dd9c c73b 5473 043e 0874 1fbb 4a09 393c
00000370: 1d7d b4bd 459d 173d 8af9 423c 9a08 813d
00000380: 5dbe bfbc c9d5 91bd 6273 f53b c77c 71bd
00000390: 4051 ff3c 1457 e33d 0b5a 99bc de44 d1bd
000003a0: 61df d8bd d9df b53d 0c80 bb3b 89bf b93c
000003b0: fbc2 a6bd 44dd 04bd 94ea aabb 5ac6 e7bc
000003c0: 75d2 a83d 6a31 963d 6522 3abc 1c70 b33d
000003d0: da0a ca3d 859e 93bd 9a08 32bd cab2 8f3c
000003e0: 9e83 03bc fc05 99bc 6f97 0a3e 75ce 83bd
000003f0: ae94 85bd 4be2 28bb 18ef 2ebd acb7 863d
-0.119847625 0.0803116 -0.1246541 -0.059696507 -0.036054652 0.0843707 0.017137464 -0.06021387
0.0038993382 -0.04384962 -0.066924445 -0.031982806 0.027739381 -0.033426173 0.08040437 0.012508501
0.046223454 0.019175667 0.088527456 -0.026241092 0.048529662 0.02521669 -0.07995299 0.003259856
-0.012212829 -0.02037028 0.043611787 0.022349006 -0.014206921 -0.03618448 -0.050345905 0.009876478
0.078984834 0.08174796 -0.053164516 -0.10146333 0.04071659 -0.020316727 0.035998013 -0.045047086
-0.04605201 -0.011249079 0.008935381 0.043336432 -0.038726844 0.0071606273 -0.021128174 -0.016910322
-0.063554734 0.07843826 0.012250491 -0.08402624 0.004010176 -0.026626682 -0.08504627 -0.02037805
0.008796313 -0.06200501 0.07132131 0.07738835 -0.07061886 -0.08762882 -0.06561823 0.04874923
-0.050807156 0.03801713 0.03860289 0.03474791 0.029695077 0.07851302 0.065110855 -0.042079892
-0.09241411 -0.04112619 0.060572166 -0.039625667 -0.08226914 -0.007401715 -0.087571956 -0.025866074
-0.065653585 -0.04579567 -0.02039174 0.0077225524 -0.10184493 -0.08716307 0.011109624 0.010508097
0.058828752 -0.11624138 0.017149556 0.01762512 -0.061642423 0.00048417167 -0.068360716 0.005112945
-0.066576764 0.008121302 -0.028657993 -0.071766555 0.0970795 -0.058459364 0.018109802 -0.05551415
0.016943157 -0.13516845 0.005261463 -0.09178552 0.09588132 -0.078626335 -0.033350643 -0.08672164
-0.07870354 -0.04084953 0.033757184 0.08634517 0.0755413 -0.072616614 -0.05841949 0.055750683
0.12962003 0.050406024 -0.017377652 0.051865485 0.1076151 0.088635236 -0.09552255 -0.053038824
-0.033123653 0.06258086 0.0009740025 -0.06311929 0.0070094573 0.01892656 0.11247515 0.061560053
0.1381088 -0.06632834 0.09579646 -0.0030068816 0.017485103 -0.030359045 0.020416519 0.041515663
-0.06973967 -0.021844754 -0.042496216 -0.010667182 -0.039509423 -0.11007309 0.105073415 -0.083239645
-0.074534595 0.009953862 -0.012519796 0.087800264 -0.012352971 0.04827369 0.07511947 0.009172435
0.07411743 -0.115928695 0.047111172 -0.037698925 0.03729506 -0.032818608 0.07440804 0.08674035
-0.039278485 -0.03462766 -0.03421372 0.0611795 -0.049866095 -0.04970669 -0.0346168 -0.01760657
0.053839885 -0.14581971 0.16257554 0.1086422 0.047350917 -0.097681925 0.033913836 -0.04857439
0.050131522 0.0163056 -0.06475431 -0.02137538 0.10607674 -0.032237064 -0.09593376 0.08700157
-0.041481853 0.04158145 -0.03918699 -0.03137061 0.039410815 0.061028287 -0.04154067 0.13568023
0.032164905 -0.048168644 -0.04478139 -0.027750041 0.1720597 0.14776252 0.17226519 0.021684252
0.013802742 -0.102772474 -0.016919754 -0.13489684 0.08723336 -0.06429284 -0.04415419 0.03301412
0.0060916976 0.12934619 -0.0024330635 0.011293719 -0.08812926 0.03701522 0.011900315 0.06300469
-0.023406202 -0.071208544 0.0074905613 -0.058956888 0.031166673 0.11100593 -0.018719694 -0.102182135
-0.10589481 0.08880586 0.0057220515 0.022674339 -0.08142658 -0.032437578 -0.005215952 -0.028292824
0.082432665 0.07333644 -0.011360739 0.087616175 0.09865351 -0.072079696 -0.043465234 0.017541308
-0.008026985 -0.018679611 0.1353433 -0.06435863 -0.06522499 -0.0025769647 -0.042708486 0.065780014

net.2.bias f4 [128]
00000000: b90c b6bc 9d19 a3bc f67b 713c 0380 563d
00000010: bcc0 143d 5d1e ee3a ec0a 36bd 5bb7 dd3c
00000020: e21a 64bd 64f0 183d 85e5 26ba 63f2 033c
00000030: cbe2 823d 327b 7cbd ba33 14bc de23 6bbd
00000040: 52eb 933d 06da 4f3d 42ec c73a 6753 36bd
00000050: 64f9 a13b 938a 0dbd 6003 463d 6de2 25bd
00000060: bd91 b53c aca0 69bc 76ed 92bc 5d84 36bd
00000070: 8bfe 71bd 81e4 933c 807f 763c c886 fdba
00000080: ce98 07bd 9b6e c63b 4401 e3bc 22a6 2fbd
00000090: f0c8 b0bc d30f 4bbd ba40 a83d 854b 973d
000000a0: 3dbd c43d a47e 083d c405 c1ba 04b7 933d
000000b0: bbc4 d7bb 6be9 89bd 9cb2 b03d 3ad7 78bc
000000c0: 69db 4d3c 85f9 29bd 77d8 82bd 2309 a33c
000000d0: a4a1 b2bd c3cf 433d 08f3 fbbc a2a8 ecba
000000e0: 1a10 a93c 6477 13bd ba92 26bd 75e1 4d3d
000000f0: 5760 ac3d 08ba 1dbd e90f 933d 6c37 973d
00000100: 1623 11bd 68d9 9fbd 2c1a 683c b439 79bd
00000110: 0f60 a5bb 40c2 97bb c16d 93bc 9f3f ac3c
00000120: b09a 173d f5ff 98bd 920f e5bc 2465 ac3d
00000130: 6fe6 e03c c70a abbd c119 afbc e92f 7abd
00000140: 0f7e 82bd a037 71bd af7b 4f3d f82b b7bc
00000150: c20b acbd c94e b23d 9550 093d 86ab 443d
00000160: 4568 473d 2437 90bc 9a80 0a3d 953e 8abc
00000170: 06c8 7ebd f5a4 a23d b1d2 643d ebcc b5bc
00000180: cd40 2e3d ff6e 51bd 2d58 b63c 35de 453d
00000190: 79c9 353d 4142 bdbd ed36 46bd f80e 16bd
000001a0: a2d8 923d 4937 2dbd defb 4abd 5827 2cbd
000001b0: 44a9 aabc 26df 64bc e4c0 f0bc ab6f 1f3d
000001c0: 8245 4cbd 1a64 46bd e7c4 18bd 3517 38bd
000001d0: 5331 173d 9e9b 04bd 4bb3 613b 0415 eb3b
000001e0: 9971 143d c81e 63bd cbc9 a7bc 9ac3 343d
000001f0: d4e0 d83b d13d 9abd e942 623d 03ab b73d
-0.022222864 -0.019909674 0.014739027 0.052368175 0.03631662 0.0018167008 -0.04444401 0.02706497
-0.0556897 0.03733863 -0.00063665985 0.008053395 0.063909136 -0.061640926 -0.009045536 -0.057407252
0.07222618 0.050745033 0.0015252905 -0.044513132 0.0049430598 -0.034555983 0.048343062 -0.04049914
0.02216422 -0.014259499 -0.017935496 -0.044559825 -0.05908064 0.018053295 0.015045047 -0.0019342536
-0.03310471 0.0060556657 -0.027710564 -0.042883046 -0.02158019 -0.049575638 0.082154706 0.07387451
0.09606407 0.0333239 -0.001472645 0.07212642 -0.0065847314 -0.06733974 0.08627817 -0.015188033
0.0125645185 -0.041497726 -0.06388944 0.019901818 -0.08722237 0.04780556 -0.030755535 -0.0018055628
0.02063756 -0.03600253 -0.040667273 0.05026384 0.08416813 -0.03850749 0.07180769 0.07383618
-0.03543385 -0.07805139 0.014166396 -0.060846046 -0.0050468515 -0.0046313107 -0.01799667 0.02102643
0.037012756 -0.07470695 -0.027961526 0.084177285 0.02745363 -0.08351665 -0.021374585 -0.061080847
-0.063717 -0.05889094 0.050655063 -0.022359833 -0.0840068 0.08706433 0.033524115 0.04801514
0.048683424 -0.017604418 0.03381405 -0.016875545 -0.062202476 0.07941619 0.055864993 -0.022192439
0.042542268 -0.051131245 0.022258842 0.048307616 0.044381592 -0.092411526 -0.048392225 -0.03663537
0.07170226 -0.042289052 -0.049556606 -0.04202971 -0.020832665 -0.013969218 -0.029388852 0.038924854
-0.049870975 -0.048435308 -0.037297156 -0.044944007 0.036912274 -0.03237497 0.0034439142 0.007174136
0.036241148 -0.055449277 -0.020481965 0.044131853 0.0066185985 -0.07531322 0.05523959 0.08968165

net.4.weight f4 [2, 128]
00000000: 14d7 d4bd b503 be3d a7ce 133d 127c 133e
00000010: 2380 093e e2bd b6bd 1cb1 c03d 6779 08be
00000020: 88cb 86bd 0824 353c b976 b63d fac9 a5bd
00000030: 299a 0a3d 3e64 3bbe 5030 adbd 146f 073d
00000040: f67c 9c3d aa56 4abd 89b0 b63d 2da1 3fbe
00000050: d695 d43c 6371 d4bd 66d1 ddbd 8ac2 0ebe
00000060: 387e 0ebe 6663 13be 5123 f33c 8308 d63d
00000070: 07fa 3b3d 1f82 d8bd d85c 31bd ecf9 2cbe
00000080: 0614 11be 7d3e 57bd 10b4 9abd 464a 9c3d
00000090: 8151 dd3d f3b7 7d3c fae8 303e 22b4 3abd
000000a0: 5780 25be 63b0 bc3d 1106 4a3e f508 3d3e
000000b0: 332d 13be af22 4d3e eb22 333e 3564 11be
000000c0: 6a89 853d d62d bbbc 1cb6 9ebd fd9a 75bd
000000d0: 89d9 b13c 529f 203e d4dd fcbd ffe5 083e
000000e0: 3ab1 0f3e 1ae0 263e 6687 3b3d 9ea2 ec3b
000000f0: 78ea 843d 3068 e13d f75d 15be 9884 ecbd
00000100: 8d2f ef3d 2633 143e 6878 0e3e 0652 63bd
00000110: 5b05 a6bd 6250 043e 6d43 b73d 0262 32be
00000120: d031 383d fe96 303c cc08 3bbd 26cc 113e
00000130: da77 7d3c 14e7 a63d 2f68 bebd c6db e5bd
00000140: 7555 9abd df58 7bbe fd26 523e 1004 a53c
00000150: f2e0 39be 70fb c5bd 103b 663e 9101 093e
00000160: 18cb 9fbc 82e6 abbd 99b7 533e 3425 1f3e
00000170: 53c8 fbbd 2eb5 58be 7fa8 6bbd 782b cb3d
00000180: 3211 213e 4645 d03d 6069 09bd a59a 99bd
00000190: 3d25 c63c be3d bd3d c33d 05be 44b8 faba
000001a0: 0646 383e 0868 41be 569f c73d 7bcd 253e
000001b0: 12ec cabd 4e03 5cbe 6941 793d fcc2 8c3d
000001c0: f371 6d3c 5b1e c4bb 092f 073e ddcd 953d
000001d0: 3ffe 783d 6c33 223e 7838 d9bd e3f2 d23d
000001e0: f0db 14be 5a6e 0d3e 3de0 ef3c e8bb 81bd
000001f0: 0e37 e83d 71ae 83bd 7cee ebbd 7cb7 3bbd
00000200: 26d9 ec3d 37cf 38be 3fa1 d1bd fa43 00be
00000210: 5db8 03bd 043a f73d eedc 9fbd 8b6e bc3c
00000220: 462c 053e 1f08 203e 1ccd 3abd 4cb8 dd3d
00000230: b2bf 07be 22be 313e e0d1 953d 6a58 2bbe
00000240: cffc 40bd 7d63 9a3c dae5 a4bd b43a 7b3d
00000250: ddce d2bd bcf7 113e c93c 773d 7334 123e
00000260: 8d99 3b3d 7ea8 723d 7444 873d c111 93bc
00000270: 0515 b0bc 3bd9 593d d4b1 943d 6236 7c3d
00000280: 0337 9f3c a492 003e 7792 413d 421c 4fbb
00000290: bc4c bebb 4d39 cebd 491f a2bd d5e1 063e
000002a0: b4c9 f73c 7509 29bd dd8a d1bd 9f31 08be
000002b0: 5fa2 a63d 2efd febd 4fd5 0fbe 4220 0e3e
000002c0: 8445 bfbd 3eaf 9f3d f009 103e 4933 9f3d
000002d0: af9c 02bd 5331 1abe 8893 b63d c442 25be
000002e0: c86c 02be de3d 97bd 969c e6bd 063b d3bd
000002f0: b59d cebd ef8a 14be 249d fe3c 9345 89bc
00000300: 5473 40bd 6cd1 23be a838 d2bd 84d4 953d
00000310: 0d3c f33d dd2d dabd b1f7 99bd 4149 543e
00000320: 4533 47bd 01cd a63d 94bb c03d 33fa d8bd
00000330: 1e76 fd3d 5289 14be 4d8a 56bd afd9 e93d
00000340: b6f7 ecbb 94f9 0a3e ee70 49be d28b d93d
00000350: c888 313e 0918 c43d c91a 3bbe 5359 26bd
00000360: 7140 3d3d ab0a 18bc 840c 93bd 9e57 97bd
00000370: b5a4 143e bfe4 4f3e b8d0 103e e5be 4fbd
00000380: 84ad 7bbd 6fe4 0ebe cc47 283d de66 003d
00000390: c84f 1cbe 690d a6bd 6099 013e 677a ef3d
000003a0: 654c 24be d77d e93d 023e 99ba 6122 8ebd
000003b0: 40c1 033e a8ad 203e e242 0fbd 54d6 9abd
000003c0: 44de 2ebc 8b7c e33d b7ef 2abe 950a 86bd
000003d0: 1a3a e4bd a1ca c4bb 1eb9 25bc 09d7 b0bd
000003e0: 9bc8 b83d 1a3e cfbd 447d 7ebd 0109 1dbb
000003f0: 96d5 dabd b7a7 553e a90b c23d d583 123e
-0.103925854 0.09278051 0.03608575 0.14402798 0.13427787 -0.08922936 0.09408781 -0.13327561
-0.06581789 0.011055954 0.08909363 -0.080951646 0.033838425 -0.18299958 -0.084564805 0.033064917
0.07641022 -0.049399056 0.0892039 -0.18713827 0.025950354 -0.10373189 -0.10830955 -0.13941398
-0.13915336 -0.14393386 0.029679926 0.10450842 0.04589274 -0.10571694 -0.043301433 -0.16892213
-0.14167795 -0.052549828 -0.075538754 0.07631354 0.10806561 0.015485751 0.17276374 -0.045581944
-0.16162239 0.092133306 0.19728877 0.18460448 -0.14372711 0.20032762 0.17493789 -0.14198382
0.0652035 -0.022849005 -0.07749578 -0.05996226 0.021710174 0.15685776 -0.12346998 0.13368987
0.1403245 0.16296425 0.045783423 0.007221534 0.06490034 0.110062 -0.14586626 -0.11548728
0.116789915 0.14472637 0.13913119 -0.055498146 -0.0810649 0.12921289 0.08948407 -0.174202
0.04496938 0.010778187 -0.045662686 0.14238033 0.015470469 0.081495434 -0.09297215 -0.11223559
-0.07535831 -0.2454562 0.20522685 0.020143539 -0.18152216 -0.096670985 0.22483468 0.13379504
-0.019506022 -0.08393575 0.20675506 0.15541536 -0.12294068 -0.21162865 -0.057533737 0.099204004
0.15729216 0.10169463 -0.03354776 -0.07500199 0.024187678 0.09240292 -0.13011841 -0.0019128402
0.17995462 -0.18887341 0.09747188 0.16191666 -0.09908308 -0.21485636 0.060853396 0.06873128
0.0144925 -0.005985064 0.13201536 0.07314656 0.060789343 0.15839928 -0.10606474 0.10300233
-0.14537024 0.13811627 0.02928173 -0.063346684 0.11338626 -0.064297564 -0.11520097 -0.04582928
0.11564855 -0.18047796 -0.102358334 -0.12525931 -0.032158244 0.120716125 -0.07805811 0.02300193
0.1300517 0.15628098 -0.045605764 0.108261675 -0.1325672 0.17357686 0.07315421 -0.16732946
-0.047116097 0.018846268 -0.08051653 0.06133528 -0.10293362 0.1425466 0.060360704 0.1427782
0.045800734 0.059242718 0.06604853 -0.017952802 -0.021494398 0.053185683 0.072604805 0.0615753
0.019435411 0.12555939 0.04725882 -0.0031602536 -0.0058074873 -0.10069523 -0.079161234 0.13172086
0.030247547 -0.041268785 -0.10231564 -0.13300179 0.081364386 -0.12450634 -0.14046215 0.13879493
-0.09339431 0.07797097 0.14066291 0.07773454 -0.031887706 -0.15057878 0.08914858 -0.1613875
-0.12736809 -0.07384847 -0.11260335 -0.10313992 -0.10088674 -0.14506124 0.03108079 -0.016756808
-0.046984985 -0.15997857 -0.102647126 0.07315925 0.11876688 -0.10653279 -0.075179465 0.20731069
-0.04863288 0.0814457 0.09410778 -0.10594597 0.12376045 -0.14505509 -0.052377988 0.11418473
-0.007231678 0.13571769 -0.19671986 0.10622372 0.17337334 0.09574897 -0.18271936 -0.04061253
0.046204034 -0.009279887 -0.071801215 -0.073897585 0.14515956 0.20302103 0.1414212 -0.05071916
-0.061444774 -0.13954328 0.041084096 0.0313481 -0.15264809 -0.081080265 0.12656164 0.11693268
-0.16044767 0.11400955 -0.0011691453 -0.06940151 0.12866688 0.15691245 -0.034975894 -0.07560411
-0.010673109 0.11107739 -0.16693006 -0.06544987 -0.111438945 -0.0060056006 -0.010114936 -0.08634765
0.090226375 -0.10119267 -0.06213118 -0.0023961666 -0.106852695 0.2086476 0.0947488 0.14308102

net.4.bias f4 [2]
00000000: 2ab3 6e3d 2057 babc
0.058276333 -0.022746623
