coup_nsfp/0.99G10kEPNoPretrain/nfsp_coup_demo_best_agent_challenge.pt (torch, 84389 bytes, 6 tensors)

net.0.weight f4 [128, 26]
-0.017684981 0.1539746 -0.030990439 0.13221976 -0.18416119 0.10113869 -0.09520734 -0.11251136
-0.08326329 -0.23432095 -0.24783736 -0.16568878 0.09768749 0.12582293 0.020048423 -0.060914353
-0.0060581504 0.074886456 0.17886768 0.04624804 -0.13576758 -0.12678748 -0.22114076 -0.24658011
0.109235875 0.08487164 -0.012758428 -0.14032054 -0.10729038 0.011495952 -0.1695044 -0.090290956
0.18090802 0.011367548 0.15818942 -0.1277129 0.2034458 -0.25230202 0.10273382 -0.043663397
-0.14867513 -0.07428619 0.03820624 -0.2785932 0.02003197 0.11745962 -0.1284577 -0.24004298
-0.19270399 -0.10647867 0.016651744 0.05152119 0.0047428748 -0.2270775 0.046708666 0.23122287
0.109514065 0.09485912 -0.008612636 -0.17373586 0.18526459 0.03503421 0.109621145 -0.13179
0.14160423 0.026122235 -0.17820619 0.034245927 -0.27988175 -0.07679013 0.15142196 -0.13327433
0.11962366 0.13023917 -0.069785886 0.03444593 -0.0033216043 -0.07088522 0.10949871 0.019722516
0.18884708 0.010188618 0.13480611 0.16307911 -0.057117026 0.20751305 -0.11478357 0.13870995
-0.02787549 -0.03834771 -0.14450559 -0.010611924 -0.0682159 -0.17996669 0.018550837 0.07614195
0.17975551 -0.050287306 0.09750783 -0.0012539229 -0.069485866 -0.2416121 0.03270375 -0.072472505
0.22728391 -0.025974927 -0.0068804347 0.07340028 -0.1214531 0.15116818 0.0015489212 0.1477562
0.10378765 0.16495472 0.0589426 0.064349435 -0.091348976 0.027152214 -0.01633655 -0.08995349
0.16683137 -0.11605306 -0.074452706 -0.21180984 0.11968167 0.033619687 0.12338715 0.10483256
-0.12482443 0.059417546 -0.11443877 0.13253808 -0.12433632 -0.10143566 -0.09164398 -0.18604939
-0.13167055 0.103854276 -0.2208675 0.091213144 0.12387371 0.020267876 -0.15118785 -0.044985145
-0.08864285 0.058029648 0.098255895 0.14978766 0.0108130295 0.17203785 0.20069824 0.04008542
0.035629548 0.011189744 0.08401859 0.07465283 -0.16316016 -0.18652537 -0.007538713 -0.056295075
-0.17036685 -0.1505125 0.03104386 0.13435628 -0.11016978 0.18634932 0.10030973 0.06217301
-0.063377224 0.1784453 -0.053310964 -0.046372306 0.057265043 0.1768292 0.15151104 0.21641806
0.039567523 0.087465465 -0.044283397 0.17848015 -0.03517413 0.16332643 -0.18269606 0.094258554
0.046801835 0.088153124 -0.19840533 0.012262969 0.12983741 0.040542744 0.03103064 -0.011658593
0.25790313 -0.25004536 0.031644568 -0.15520822 0.18458444 -0.14736797 0.0508257 -0.0032872765
-0.1376374 -0.10720481 -0.14423107 -0.011659774 -0.097363785 0.016542802 0.18135802 -0.18155348
-0.11795275 -0.050573975 -0.2033111 -0.040622424 -0.07904677 0.14449835 -0.13598917 0.14086963
-0.16793668 -0.19877578 -0.009332899 0.15572558 0.13430668 -0.15294781 0.117010884 -0.120612055
-0.11963255 0.07561544 0.06634344 0.015798554 -0.095156394 0.0030399489 0.13736469 0.18025076
0.12835546 0.031870406 -0.014599538 0.09335775 -0.07498036 0.12840764 0.07251666 0.018679097
-0.16638692 0.10298825 0.13754314 0.04331699 -0.13343213 0.0012948252 -0.06823149 0.120212674
0.011804914 -0.14809038 0.13645898 0.124798045 -0.18859369 -0.16244118 0.17043903 -0.028319161
00000000: 18e0 90bc 84ab 1d3e a9df fdbc 9e64 073e
00000010: c094 3cbe cd21 cf3d 11fc c2bd 5b6c e6bd
00000020: f285 aabd d5f1 6fbe 14c9 7dbe 52aa 29be
00000030: 6110 c83d bad7 003e 973c a43c 5481 79bd
00000040: 7383 c6bb 125e 993d 1729 373e 966e 3d3d
00000050: a806 0bbe 94d4 01be b972 62be 7f7f 7cbe
00000060: 0fb7 df3d 2fd1 ad3d ba08 51bc 30b0 0fbe
00000070: 0fbb dbbd 8459 3c3c 9092 2dbe 77ea b8bd
00000080: f43f 393e f43e 3a3c 68fc 213e 2cc7 02be
00000090: 1954 503e bb2d 81be 1c66 d23d 64d8 32bd
000000a0: 4b3e 18be 5c23 98bd 257e 1c3d c5a3 8ebe
000000b0: 161a a43c ab8e f03d 6a8a 03be d4cd 75be
000000c0: 3254 45be 7d11 dabd 3d69 883c e207 533d
000000d0: 1e6a 9b3b 0187 68be 9651 3f3d b0c5 6c3e
000000e0: e948 e03d 8045 c23d 031c 0dbc d0e7 31be
000000f0: 00b6 3d3e 0880 0f3d 0d81 e03d f5f3 06be
00000100: b300 113e 4cfe d53c af7b 36be 7545 0c3d
00000110: a94c 8fbe 2544 9dbd 5c0e 1b3e 1179 08be
00000120: 40fd f43d 6b5d 053e e7eb 8ebd 2d17 0d3d
00000130: 46af 59bb 452c 91bd dc40 e03d 1d91 a13c
00000140: 2161 413e 29ee 263c 9d0a 0a3e 36fe 263e
00000150: 8bf3 69bd 4d7e 543e a613 ebbd fb09 0e3e
00000160: 245b e4bc 7d12 1dbd 46f9 13be a3dd 2dbc
00000170: c7b4 8bbd 3049 38be edf7 973c 50f0 9b3d
00000180: d411 383e 10fa 4dbd 2fb2 c73d ac5a a4ba
00000190: 9b4e 8ebd 2a69 77be 5ef4 053d 776c 94bd
000001a0: 1dbd 683e 5fc9 d4bc 4575 e1bb e352 963d
000001b0: 67bc f8bd d5cb 1a3e 2c05 cb3a 674d 173e
000001c0: 9f8e d43d e4e9 283e cc6d 713d a3c9 833d
000001d0: 2c15 bbbd 526e de3c 3ad4 85bc 8939 b8bd
000001e0: d8d5 2a3e 3aad edbd a97a 98bd aee4 58be
000001f0: aa1b f53d ccb4 093d 67b2 fc3d 74b2 d63d
00000200: f3a3 ffbd d05f 733d e05e eabd 10b8 073e
00000210: 0aa4 febd 80bd cfbd d7af bbbd bb83 3ebe
00000220: a5d4 06be 8db1 d43d 172b 62be f5cd ba3d
00000230: 80b1 fd3d d108 a63c fdd0 1abe 5842 38bd
00000240: 628a b5bd 7fb0 6d3d 633a c93d f061 193e
00000250: 2229 313c b12a 303e d783 4d3e 9c30 243d
00000260: 4af0 113d 3055 373c f011 ac3d 95e3 983d
00000270: 7513 27be 8200 3fbe 4f07 f7bb aa95 66bd
00000280: a674 2ebe f31f 1abe b14f fe3c b194 093e
00000290: b2a0 e1bd 5bd2 3e3e 306f cd3d 20a9 7e3d
000002a0: ebcb 81bd 5dba 363e 995c 5abd e3f0 3dbd
000002b0: c08e 6a3d b712 353e b625 1b3e b29c 5d3e
000002c0: 8e11 223d 1821 b33d 8262 35bd 80c3 363e
000002d0: c012 10bd 0b3f 273e ad14 3bbe a10a c13d
000002e0: 48b3 3f3d a089 b43d c42a 4bbe 9fea 483c
000002f0: 19f4 043e 2610 263d f833 fe3c af03 3fbc
00000300: e10b 843e f205 80be bc9d 013d e7ee 1ebe
00000310: b403 3d3e a1e7 16be 9c2e 503d 596f 57bb
00000320: d2f0 0cbe 328e dbbd 4fb1 13be a308 3fbc
00000330: aa66 c7bd c584 873c ebb5 393e 28e9 39be
00000340: 3691 f1bd a826 4fbd c930 50be b363 26bd
00000350: 46e3 a1bd 60f7 133e bf40 0bbe 2140 103e
00000360: 98f7 2bbe e18b 4bbe 04e9 18bc 8776 1f3e
00000370: b187 093e 5a9e 1cbe 67a3 ef3d 7403 f7bd
00000380: e901 f5bd 45dc 9a3d 12df 873d f86b 813c
00000390: 5be1 c2bd e139 473b 54a9 0c3e a893 383e
000003a0: 9d6f 033e 8b8a 023d e732 6fbc 5932 bf3d
000003b0: 4e8f 99bd 4b7d 033e 9d83 943d e804 993c
000003c0: 5561 2abe 81eb d23d 1cd8 0c3e 286d 313d
000003d0: 6fa2 08be 20b7 a93a f4bc 8bbd 1032 f63d
000003e0: 6669 413c 01a5 17be e7bb 0b3e 1e96 ff3d
000003f0: b41e 41be fb56 26be 9287 2e3e 96fd e7bc

net.0.bias f4 [128]
0.13423881 0.05854082 0.055769503 -0.12701496 -0.04168502 -0.09830706 -0.09479007 0.13054359
-0.11043303 0.033093806 0.0710558 -0.12826285 0.052736424 -0.09063381 0.18061928 0.12212335
-0.14908293 -0.13273387 -0.12733144 0.18303566 -0.18072347 -0.075699985 0.095039226 -0.08535764
-0.079871446 -0.010398956 0.17371608 0.007551253 0.14217593 -0.08153366 0.034299742 0.09525031
0.17561294 0.010375376 -0.08341188 0.050193746 -0.19067979 -0.014410593 0.10340311 0.035820127
-0.11491233 0.10373375 -0.05756307 0.029361574 -0.01332168 0.17179358 0.10059498 -0.031135023
-0.06494682 -0.069098994 -0.07588327 0.06465689 -0.13888349 0.17106205 0.08099403 -0.19290233
0.18453054 0.0005990931 -0.1325003 0.09127361 -0.19437478 -0.15346971 -0.11272114 0.16672662
0.1596137 -0.11855301 -0.061835628 0.090341404 -0.064175166 -0.18334821 0.044957083 -0.10653925
-0.10822729 -0.20223841 -0.118369766 -0.116760015 0.03590047 -0.105047025 0.13380867 -0.13150482
-0.07668981 -0.10377772 0.03520542 -0.17720218 -0.01577569 -0.019376492 -0.16897811 0.032949556
-0.14834064 -0.06525481 0.15944085 0.17752811 -0.08102516 -0.041152537 -0.03730159 -0.034646105
-0.16473968 -0.08968701 -0.17615509 -0.17413257 -0.06862387 -0.12316886 0.17027278 -0.13412438
-0.109572925 0.16171107 -0.098860204 0.047838386 0.10462237 0.14159362 0.045395274 -0.032263383
-0.16654086 -0.17727877 0.061328363 -0.15061852 0.06902801 0.11588406 0.09167166 0.07567397
-0.14102203 0.1375347 0.10599567 -0.18133278 -0.12191168 -0.1272068 0.09186518 0.008039315
00000000: e675 093e 80c8 6f3d 906e 643d 3610 02be
00000010: e9bd 2abd 3655 c9bd 4c21 c2bd 38ad 053e
00000020: b62a e2bd 5f8d 073d b485 913d 5657 03be
00000030: 2602 583d 389e b9bd 43f4 383e cf1b fa3d
00000040: 32a9 18be 63eb 07be 2c63 02be b36d 3b3e
00000050: 930f 39be 9808 9bbd eda3 c23d fdcf aebd
00000060: a493 a3bd 6260 2abc a1e2 313e 8070 f73b
00000070: 9196 113e 1ffb a6bd e37d 0c3d 9812 c33d
00000080: e1d3 333e 7bfd 293c d9d3 aabd f597 4d3d
00000090: 9041 43be 681a 6cbc 02c5 d33d 20b8 123d
000000a0: 2857 ebbd 5c72 d43d 41c7 6bbd af87 f03c
000000b0: 2d43 5abc a8ea 2f3e be04 ce3d e00e ffbc
000000c0: d702 85bd c683 8dbd b068 9bbd d56a 843d
000000d0: 7937 0ebe e42a 2f3e 33e0 a53d 3088 45be
000000e0: 93f5 3c3e 750c 1d3a 29ae 07be a9ed ba3d
000000f0: 2f0a 47be 2a27 1dbe 57da e6bd 62ba 2a3e
00000100: c671 233e eccb f2bd 5b47 7dbd ea04 b93d
00000110: 456e 83bd a2bf 3bbe eb24 383d 4031 dabd
00000120: 45a6 ddbd 9617 4fbe d96b f2bd e01f efbd
00000130: 5f0c 133d e522 d7bd 2405 093e 33a9 06be
00000140: 8c0f 9dbd 6a89 d4bd 8f33 103d 7d74 35be
00000150: 053c 81bc 73bb 9ebc 9908 2dbe 1df6 063d
00000160: 9ce6 17be 50a4 85bd 7644 233e eec9 353e
00000170: 85f0 a5bd 908f 28bd 8dc9 18bd 13e9 0dbd
00000180: 85b1 28be d3ad b7bd 0062 34be cf4f 32be
00000190: ac8a 8cbd f53f fcbd fd5b 2e3e e757 09be
000001a0: c567 e0bd 9697 253e 3877 cabd 2ff2 433d
000001b0: 4144 d63d ebfd 103e 65f0 393d 9c26 04bd
000001c0: b089 2abe 9188 35be 7333 7b3d be3b 1abe
000001d0: 8f5e 8d3d 9f54 ed3d 5abe bb3d f4fa 9a3d
000001e0: 1468 10be e5d5 0c3e 4214 d93d 4daf 39be
000001f0: d5ac f9bd 8042 02be d023 bc3d 55b7 033c

net.2.weight f4 [128, 128]
0.085615404 -0.08703532 0.048889123 -0.020975657 -0.01250462 0.07605148 0.10516692 -0.027586432
0.09065912 -0.08781968 0.051988527 0.05629828 -0.07291219 0.06403146 0.07131486 0.023058778
-0.094315566 0.049746126 0.0148202935 0.10719433 -0.022204123 -0.054518815 0.07630382 -0.008485547
0.020538868 -0.05800789 0.05555144 0.09978482 0.10637825 0.07850058 -0.046129018 -0.024420056
-0.08479199 0.063421905 0.023096591 -0.117727846 0.075451665 -0.10457818 -0.10449836 0.011083935
0.021201722 0.046522878 -0.121365555 -0.0019291558 0.09487715 0.06966955 0.032175034 -0.14666028
-0.013542898 0.0484032 0.06971869 0.047160782 -0.0015014225 0.027195398 -0.032816857 -0.106282905
-0.027539924 0.0070991074 0.08750245 0.012725208 -0.029669853 0.054411177 0.11572515 -0.024003454
-0.04056262 -0.09979742 0.056658003 -0.09724767 -0.0132149365 -0.050793663 -0.05304451 0.12272756
0.078944825 -0.0659142 -0.14958832 0.06501407 -0.050788414 0.066919416 0.12081525 -0.014059256
-0.05342643 -0.06295112 -0.011662144 -0.056957733 -0.07327505 0.122644186 0.077620104 -0.015582599
0.010315343 0.051038668 -0.028054543 -0.027103847 -0.015890634 0.006916268 -0.012356851 0.04482077
-0.15834667 0.059646983 0.100805424 -0.055467606 -0.015476929 0.03452743 -0.029143317 0.07314406
-0.029533258 -0.076461405 -0.07505227 -0.05890515 -0.041790467 0.10473723 0.12156887 0.065124035
0.046588954 -0.16028762 -0.042808108 0.013815265 -0.031039063 -0.011905514 0.08194753 0.048690375
-0.085995756 -0.048059788 0.03821959 -0.055491224 -0.031600326 0.048699267 0.060101345 0.07033629
0.0067303604 -0.0053726803 0.0437714 -0.078200705 0.038521606 0.048545305 0.036544695 -0.03912577
-0.058325138 -0.062620476 0.03047332 0.06301013 -0.027598303 -0.02478725 -0.11127035 -0.08675996
0.068109825 -0.027516289 0.0017253435 -0.06154364 0.08898842 0.05183377 -0.018947605 -0.0966612
0.011927468 -0.11300807 -0.054026928 0.058890127 -0.07461483 0.08772436 0.023540169 -0.046158932
-0.017314369 -0.103004985 0.017190319 0.154497 0.097221985 0.0064565255 0.06904229 0.023692453
-0.10868105 -0.010672209 0.13914634 0.11372985 0.030537125 0.07746982 -0.029119918 0.052858125
-0.044138573 0.040378813 0.032713264 -0.08166989 0.059806854 -0.05670679 -0.026010599 -0.019047422
0.010801825 -0.08263354 0.027934873 -0.053473957 -0.07666284 0.03336386 0.020139 0.011869228
-0.090865344 -0.010954196 -0.05198693 -0.07341958 0.030108485 0.045070644 -0.052417293 -0.051920347
0.036750212 0.04649119 0.07579792 0.05994069 0.019010434 0.019186689 0.07484454 0.046837766
-0.012111436 -0.102064386 -0.04630446 -0.05880194 0.04183326 0.14675604 -0.060384434 -0.12950337
-0.016999595 -0.08573085 0.04291963 0.098925196 0.014464774 0.055862334 0.007601784 0.05271605
0.19908942 -0.092705175 -0.044226456 -0.10120261 -0.06594537 0.08073536 0.03060746 -0.035953186
0.07111313 0.08841951 0.04769236 -0.08472454 0.058250193 0.023669358 -0.012093096 0.053555567
-0.0968247 0.09641342 -0.1206173 0.036793176 -0.053111542 0.10799104 0.023926884 -0.06819586
-0.016304644 0.056146003 -0.0803403 -0.039373897 0.12116278 0.04925316 0.08190116 -0.09806935
00000000: 2157 af3d 933f b2bd f63f 483d 24d5 abbc
00000010: 2de0 4cbc e1c0 9b3d c161 d73d f1fc e1bc
00000020: 7dab b93d ceda b3bd ecf1 543d 0699 663d
00000030: fc52 95bd ed22 833d 860d 923d c3e5 bc3c
00000040: 8528 c1bd 98c2 4b3d d1d0 723c b388 db3d
00000050: 6ce5 b5bc 1f4f 5fbd 2d45 9c3d f706 0bbc
00000060: 2141 a83c ae99 6dbd e889 633d fc5b cc3d
00000070: d7dc d93d e9c4 a03d c8f1 3cbd 920c c8bc
00000080: 6ca7 adbd 58e3 813d 1035 bd3c 4c1b f1bd
00000090: 6786 9a3d 162d d6bd 3c03 d6bd 6599 353c
000000a0: 3caf ad3c c68e 3e3d 818e f8bd badb fcba
000000b0: f44e c23d e9ae 8e3d f8c9 033d 1d2e 16be
000000c0: 08e3 5dbc 6f42 463d acc8 8e3d aa2b 413d
000000d0: 61cb c4ba e2c8 de3c f86a 06bd daaa d9bd
000000e0: 689b e1bc a19f e83b 7c34 b33d 647d 503c
000000f0: 310e f3bc 41de 5e3d 4f01 ed3d e4a2 c4bc
00000100: fd24 26bd 9762 ccbd 3912 683d c929 c7bd
00000110: 7683 58bc 040d 50bd 3345 59bd 9658 fb3d
00000120: d3ad a13d 06fe 86bd ae2d 19be 1926 853d
00000130: 8307 50bd 0c0d 893d fc6d f73d cb58 66bc
00000140: acd5 5abd 84ec 80bd 9412 3fbc 834c 69bd
00000150: 3b11 96bd e02c fb3d 4af7 9e3d 284e 7fbc
00000160: af01 293c ec0d 513d a4d2 e5bc e308 debc
00000170: 132d 82bc dca1 e23b 6474 4abc fc95 373d
00000180: a125 22be 6550 743d 1373 ce3d 0032 63bd
00000190: f292 7dbc a26c 0d3d f7bd eebc 8ecc 953d
000001a0: bbef f1bc cc97 9cbd 01b5 99bd 8746 71bd
000001b0: 7b2c 2bbd 7980 d63d 1af9 f83d c05f 853d
000001c0: 0fd4 3e3d 7022 24be 8e57 2fbd 6c59 623c
000001d0: a245 febc 580f 43bc 1bd4 a73d 8f6f 473d
000001e0: 8b1e b0bd 57da 44bd 258c 1c3d c44a 63bd
000001f0: 586f 01bd e278 473d d42c 763d 790c 903d
00000200: 5b8a dc3b 4f0d b0bb a449 333d b127 a0bd
00000210: d5c8 1d3d 71d7 463d e4af 153d 5842 20bd
00000220: 57e6 6ebd 2a3f 80bd 2fa3 f93c 740b 813d
00000230: d615 e2bc a20e cbbc b6e1 e3bd 35af b1bd
00000240: 2a7d 8b3d d769 e1bc ec24 e23a 2f15 7cbd
00000250: 903f b63d a64f 543d 0238 9bbc 4ff6 c5bd
00000260: 6d6b 433c c670 e7bd 574b 5dbd c636 713d
00000270: a9cf 98bd d4a8 b33d 50d7 c03c 2611 3dbd
00000280: ddd6 8dbc 47f4 d2bd b6d2 8c3c 7634 1e3e
00000290: 521c c73d 4391 d33b 0b66 8d3d ad16 c23c
000002a0: 2c94 debd 7dda 2ebc 617c 0e3e 32eb e83d
000002b0: fe28 fa3c 7fa8 9e3d e58c eebc c381 583d
000002c0: a6ca 34bd 4164 253d 58fe 053d 8b42 a7bd
000002d0: 08f8 743d 6145 68bd 2e14 d5bc 5709 9cbc
000002e0: 23fa 303c c63b a9bd add7 e43c 8207 5bbd
000002f0: 6801 9dbd 8ba8 083d 8bfa a43c 2777 423c
00000300: 9c17 babd 3a79 33bc 3ff0 54bd 015d 96bd
00000310: 12a6 f63c ff9b 383d 84b3 56bd 6eaa 54bd
00000320: 6487 163d 8c6d 3e3d f13b 9b3d 5e84 753d
00000330: c5bb 9b3c 672d 9d3c 1848 993d f5d8 3f3d
00000340: 0b6f 46bc 2207 d1bd bfa9 3dbd 4eda 70bd
00000350: 5a59 2b3d 3747 163e ab55 77bd 889c 04be
00000360: bc42 8bbc a893 afbd 7ecc 2f3d 4b99 ca3d
00000370: a9fd 6c3c e7cf 643d 6318 f93b c9ec 573d
00000380: 19de 4b3e 36dc bdbd cd26 35bd 5043 cfbd
00000390: 5e0e 87bd 9558 a53d 7fbc fa3c a643 13bd
000003a0: c3a3 913d 4a15 b53d 1059 433d 0f84 adbd
000003b0: c197 6e3d 3ee6 c13c 1f22 46bc 155d 5b3d
000003c0: 074c c6bd 6674 c53d 3406 f7bd 71b4 163d
000003d0: 7d8b 59bd 682a dd3d 5002 c43c 45aa 8bbd
000003e0: 5191 85bc 5af9 653d 7589 a4bd 8646 21bd
000003f0: 3124 f83d aebd 493d ccbb a73d 95d8 c8bd

net.2.bias f4 [128]
-0.02094429 0.076210506 0.0104138 0.0010549207 0.018181423 -0.040467888 0.03960255 -0.00980637
0.023640042 0.07776425 0.015487975 0.075079836 0.008938668 0.039436057 0.068717234 -0.05330567
0.08427145 0.07188258 0.02359338 -0.073549934 0.028013429 -0.0065507614 0.050884005 -0.036917012
0.07378428 -0.05356277 -0.019121634 0.093295515 0.05400156 -0.045512427 0.0066071395 -0.060858883
0.038391355 0.0006411655 0.071981065 0.010223828 0.047109585 -0.028999334 0.07809451 -0.03914941
0.008775879 -0.054366596 -0.071843885 0.0018781478 -0.025779346 0.09539285 -0.07245774 -0.05733518
0.06892596 -0.04368927 0.00035752967 -0.02834792 0.081644066 0.07475754 0.08360005 0.049270123
0.064242765 0.071373336 0.013855471 -0.06384125 0.06370678 0.00395169 0.031105934 0.068859145
0.06337771 -0.006670343 0.06351132 0.03146185 -0.030224534 -0.018262792 0.06308412 0.040455382
0.005014659 0.06041529 -0.06872057 -0.00081853213 0.0670669 -0.07014266 -0.07463229 0.052220874
-0.018250262 0.050213642 0.08390243 -0.031817444 0.02411139 0.03114283 0.036432188 0.03936797
-0.00220049 0.0040094038 -0.072645456 0.08390359 0.0013433056 0.012356335 -0.024851821 -0.009285386
0.013836688 0.0015295887 -0.07477021 -0.07692733 0.064814605 0.045228377 0.06388178 -0.080709994
-0.07161124 0.020536494 0.063187934 -0.09405608 0.023250438 0.03458471 0.07250051 0.020565607
-0.024107533 -0.050135918 -0.029516038 0.053344734 0.013406465 -0.053263597 -0.026417501 0.055828813
0.04689758 0.036386117 0.07769181 0.016713392 0.008891474 0.07731956 -0.08259635 0.020097887
00000000: 5c93 abbc 4114 9c3d a59e 2a3c 4445 8a3a
00000010: 35f1 943c a8c1 25bd 4936 223d e6aa 20bc
00000020: c3a8 c13c dd42 9f3d 47c1 7d3c 75c3 993d
00000030: 7e73 123c b487 213d 9fbb 8c3d 0c57 5abd
00000040: 8396 ac3d 2d37 933d e746 c13c 59a1 96bd
00000050: 6b7c e53c c5a7 d6bb bf6b 503d 4b36 17bd
00000060: 361c 973d a364 5bbd f9a4 9cbc b811 bf3d
00000070: bd30 5d3d 3d6b 3abd b480 d83b 2a47 79bd
00000080: 4140 1d3d e313 283a cf6a 933d d881 273c
00000090: fbf5 403d 0390 edbc 04f0 9f3d 225b 20bd
000000a0: b4c8 0f3c 82af 5ebd e322 93bd 2f2c f63a
000000b0: 352f d3bc 545d c33d b964 94bd 4bd8 6abd
000000c0: 0e29 8d3d 85f3 32bd d272 bb39 e639 e8bc
000000d0: 0135 a73d 7b1a 993d 8136 ab3d 78cf 493d
000000e0: b691 833d 2f2c 923d 0f02 633c 34bf 82bd
000000f0: b378 823d 2e7d 813b dfd1 fe3c 0606 8d3d
00000100: 2ccc 813d e592 dabb 3912 823d 24de 003d
00000110: 7199 f7bc da9b 95bc 3f32 813d 8bb4 253d
00000120: 0252 a43b 0676 773d 5fbd 8cbd c392 56ba
00000130: 5f5a 893d f4a6 8fbd d0d8 98bd 8ee5 553d
00000140: 9381 95bc d2ac 4d3d 0ad5 ab3d 0253 02bd
00000150: 4085 c53c 401f ff3c eb39 153d 4f40 213d
00000160: 1936 10bb 5161 833b 24c7 94bd a5d5 ab3d
00000170: db11 b03a 3a72 4a3c 0c96 cbbc bb21 18bc
00000180: 47b3 623c 7b7c c83a 2021 99bd 138c 9dbd
00000190: 85bd 843d 6441 393d 73d4 823d 484b a5bd
000001a0: eaa8 92bd 263c a83c ad68 813d 79a0 c0bd
000001b0: b477 be3c b2a8 0d3d 267b 943d 3479 a83c
000001c0: 297d c5bc 525b 4dbd 9ecb f1bc 0280 5a3d
000001d0: caa6 5b3c ee2a 5abd 8469 d8bc c1ac 643d
000001e0: ad17 403d 9c09 153d e21c 9f3d 86ea 883c
000001f0: 8cad 113c b859 9e3d 4628 a9bd 53a4 a43c

net.4.weight f4 [2, 128]
0.213591 -0.12624204 0.028917357 -0.15671737 0.020839414 -0.08392106 0.06618592 -0.06942684
0.07217845 0.023442572 0.10744482 0.1230722 0.1416639 0.03832678 0.13831607 -0.13280895
-0.12268111 0.08696117 0.1735887 -0.023249289 -0.0104105035 -0.090581775 -0.021267084 0.10684507
-0.090794474 0.07267001 0.10147247 -0.044005398 -0.08917752 0.17016765 0.036023244 -0.06652073
0.016268594 0.22084296 0.1070048 0.0847457 -0.12876932 0.11051317 -0.07590408 -0.124166995
-0.022446802 -0.10183622 0.093589365 0.002623694 0.06420193 0.11817572 -0.071862236 0.18910591
-0.16928042 -0.10736668 -0.07401308 0.08543703 -0.15276715 0.15720546 -0.08470482 0.061900247
0.16438618 0.09764561 0.16123916 0.015401026 0.01262958 -0.09194364 0.10118667 0.14136939
-0.060434278 -0.0187116 0.053231277 -0.022946287 -0.068073764 -0.062053036 0.15087208 0.094993494
0.10436758 -0.03796168 -0.016330091 0.032664493 0.0006163229 -0.1662625 0.0432971 0.0023516084
0.12521742 -0.1072651 0.18614657 -0.16537029 0.078734815 -0.10172155 -0.027487187 -0.065007366
-0.12884201 -0.12323728 -0.040900853 -0.08502606 -0.1922153 -0.103649825 0.18993196 0.012359299
-0.04926387 -0.011234947 -0.041931912 0.1452344 -0.096290484 -0.015992612 0.1459123 -0.031132802
0.114088714 -0.14717376 0.07269227 -0.03553772 0.18064068 -0.040152453 0.07995806 0.20734765
0.1688406 0.061060637 -0.046720363 -0.08303697 0.13473195 0.14362344 0.096833564 0.06537699
-0.00018217093 -0.08612344 0.15551168 -0.057404198 0.026703885 0.120729625 0.10715366 -0.09484369
-0.07241526 0.0077781146 0.08096028 0.14908956 -0.12121081 0.09581709 -0.100947835 0.16298662
-0.08602506 -0.023171013 -0.011503497 -0.050730705 -0.044672415 -0.09155839 -0.11856301 0.13196516
0.14873609 -0.11934441 -0.11566937 -0.017704993 -0.08877179 -0.010212249 0.08706512 -0.11076858
0.11721003 -0.16881911 -0.12929645 0.07655068 0.0806807 -0.23444854 -0.07048007 -0.012897052
-0.019783514 -0.11779525 0.0009819331 -0.19459341 0.05935892 -0.066656284 0.035616532 -0.016475543
0.07166801 0.09183497 -0.14273508 -0.076572776 -0.14331457 -0.13065727 0.17931516 -0.19029999
0.20503978 0.018770523 0.18088822 -0.17066701 0.083024666 -0.039188243 0.073749945 -0.10245595
-0.12529604 -0.04662242 -0.0853507 -0.06911947 -0.1326161 0.16096795 -0.07896542 -0.03469921
0.14055601 0.054956693 0.03886906 0.023277458 0.04103073 0.1888275 -0.1592697 0.036038157
-0.103437975 0.13160996 -0.13526613 -0.096907705 0.03815549 0.104254484 -0.0095799705 -0.13597271
-0.1753671 0.103813596 -0.08484416 0.035725307 -0.013202662 0.072634 0.07930395 0.092997946
0.05375061 0.07331194 0.024207024 0.02204448 0.048448227 0.0069575845 -0.026320284 -0.080893144
0.03187514 0.08692454 0.10752768 -0.07453847 0.16924706 0.047476735 -0.037970725 0.019485809
-0.019145021 0.06592926 -0.0049063507 0.07704924 -0.17141345 0.042915765 -0.088150136 -0.23782973
-0.15478928 -0.20534617 0.0963293 0.058048714 -0.108767025 -0.2025391 -0.012834949 -0.088235855
-0.05214242 0.097066924 -0.18793249 0.015687205 0.11686864 -0.08680914 -0.0742981 0.076073736
00000000: 99b7 5a3e 9845 01be 18e4 ec3c 857a 20be
00000010: 6bb7 aa3c cede abbd 7c8c 873d a92f 8ebd
00000020: 4cd2 933d a30a c03c 080c dc3d 470d fc3d
00000030: 5710 113e 8bfc 1c3d baa2 0d3e 12ff 07be
00000040: 3c40 fbbd b318 b23d 3cc1 313e 4b75 bebc
00000050: d190 2abc f082 b9bd 4f38 aebc 97d1 da3d
00000060: 74f2 b9bd 04d4 943d ccd0 cf3d 013f 34bd
00000070: b4a2 b6bd 6e40 2e3e 1c8d 133d 053c 88bd
00000080: b745 853c a824 623e 5525 db3d 278f ad3d
00000090: 1bdc 03be bb54 e23d 9973 9bbd 444b febd
000000a0: 5be2 b7bc 828f d0bd c8ab bf3d 48f2 2b3b
000000b0: 4d7c 833d 1d06 f23d 822c 93bd fba4 413e
000000c0: d957 2dbe 10e3 dbbd 2b94 97bd 9cf9 ae3d
000000d0: fe6e 1cbe 78fa 203e b879 adbd 1d8b 7d3d
000000e0: da54 283e 6cfa c73d e11b 253e 9654 7c3c
000000f0: 4cec 4e3c f24c bcbd f53a cf3d 23c3 103e
00000100: ef89 77bd 1249 99bc 0a09 5a3d daf9 bbbc
00000110: 426a 8bbd 532b 7ebd 367e 1a3e f38b c23d
00000120: abbe d53d b57d 1bbd afc6 85bc 34cb 053d
00000130: bb90 213a b840 2abe 4d58 313d 711d 1a3b
00000140: ff38 003e cead dbbd 359d 3e3e d456 29be
00000150: b83f a13d 6353 d0bd cf2c e1bc 9522 85bd
00000160: 29ef 03be d463 fcbd a787 27bd 2522 aebd
00000170: 16d4 44be 5c46 d4bd 867d 423e a87e 4a3c
00000180: e9c8 49bd c812 38bc ccc0 2bbd 54b8 143e
00000190: f233 c5bd f002 83bc 096a 153e 380a ffbc
000001a0: 58a7 e93d b8b4 16be afdf 943d 0090 11bd
000001b0: dff9 383e e676 24bd 0dc1 a33d f152 543e
000001c0: 8de4 2c3e b81a 7a3d da5d 3fbd 490f aabd
000001d0: 2cf7 093e 0612 133e ad50 c63d 5fe4 853d
000001e0: 2305 3fb9 7c61 b0bd 743e 1f3e aa20 6bbd
000001f0: 1bc2 da3c 1841 f73d 6173 db3d 693d c2bd
00000200: 744e 94bd 8edf fe3b 81ce a53d efaa 183e
00000210: 603d f8bd c03b c43d bdbd cebd f7e5 263e
00000220: e82d b0bd 23d1 bdbc 2a79 3cbc 00cb 4fbd
00000230: 6cfa 36bd f782 bbbd 2ad1 f2bd e021 073e
00000240: 464e 183e d86a f4bd 10e4 ecbd 100a 91bc
00000250: fccd b5bd 4751 27bc 334f b23d a3da e2bd
00000260: d00b f03d ebde 2cbe 4a66 04be 9ac6 9c3d
00000270: ec3b a53d 4713 70be db57 90bd 284e 53bc
00000280: 0911 a2bc a33e f1bd 35b4 803a 7f43 47be
00000290: 5722 733d 1783 88bd a4e2 113d b8f7 86bc
000002a0: adc6 923d f913 bc3d 2529 12be 30d2 9cbd
000002b0: 0ec1 12be 05cb 05be 659e 373e 00de 42be
000002c0: f3f5 513e a4c4 993c c33a 393e 55c3 2ebe
000002d0: d608 aa3d da83 20bd 360a 973d 6dd4 d1bd
000002e0: 9b4d 00be 27f7 3ebd 59cc aebd 828e 8dbd
000002f0: 84cc 07be c8d4 243e 9fb8 a1bd c220 0ebd
00000300: eaed 0f3e 451a 613d 2a35 1f3d 5eb0 be3c
00000310: d70f 283d ff5b 413e 9917 23be bf9c 133d
00000320: 4ad7 d3bd c3c4 063e 3483 0abe 8c77 c6bd
00000330: ee48 1c3d 6083 d53d 4ff5 1cbc 6e3c 0bbe
00000340: 6f93 33be 399c d43d c6c2 adbd b354 123d
00000350: fa4f 58bc 22c1 943d 1c6a a23d b575 be3d
00000360: 9a29 5c3d 9224 963d cf4d c63c a096 b43c
00000370: a671 463d 73fc e33b a39d d7bc 4eab a5bd
00000380: 828f 023d 7e05 b23d 7937 dc3d a0a7 98bd
00000390: 1a4f 2d3e f776 423d 3187 1bbd b4a0 9f3c
000003a0: 05d6 9cbc eb05 873d 74c5 a0bb fecb 9d3d
000003b0: 0287 2fbe 71c8 2f3d 0f88 b4bd a389 73be
000003c0: 1581 1ebe 4446 52be 4c48 c53d 7dc4 6d3d
000003d0: 3fc1 debd 6966 4fbe ae49 52bc 00b5 b4bd
000003e0: 4a93 55bd 06cb c63d 6071 40be 7482 803c
000003f0: d358 ef3d fec8 b1bd 9a29 98bd 8ccc 9b3d

net.4.bias f4 [2]
-0.00537344 0.028435318
00000000: af13 b0bb 2ff1 e83c
