coup_nsfp/0.99G5kEp0.2to0.1br-as/nfsp_coup_demo_best_agent_q.pt (torch, 86341 bytes, 6 tensors)

net.0.weight f4 [128, 25]
0	0x3c36adfd	0.0111498805
1	0xbd94ba5b	-0.07262107
2	0x3d56c192	0.052430697
3	0xbc7586f7	-0.014985791
4	0x3e22b45d	0.15889116
5	0x3e615aa2	0.2200723
6	0x3e1a8c69	0.15092625
7	0x3dfa8c5d	0.122338034
8	0xbdffc015	-0.124878086
9	0x3e5f8e36	0.21831593
10	0xbc60e6cf	-0.013726904
11	0xbc9cf9dd	-0.019162113
12	0x3e35db08	0.17759335
13	0x3d7c3eda	0.061583377
14	0x3ce6cba6	0.028173279
15	0xbeb66cbc	-0.35629833
16	0x3e592b20	0.21207857
17	0x3d7af78e	0.061271243
18	0xbce03a40	-0.027371526
19	0x3e353080	0.17694283
20	0x3e67cd8c	0.22637004
21	0x3e5fd0b4	0.21856958
22	0x3e228eb6	0.15874752
23	0x3e856871	0.26056245
24	0x3d7cc4f9	0.061711285
25	0xbdae9f01	-0.08526421
26	0xbbb8fa2e	-0.005645058
27	0x3e32e5ea	0.17470518
28	0x3e475715	0.19466813
29	0x3e886a06	0.2664339
30	0xbdd8dec2	-0.10589363
31	0xbc977a57	-0.018490953
32	0x3c54ef22	0.012996467
33	0xbda3cdaf	-0.079982154
34	0x3e87573c	0.26433742
35	0x3e6da1a8	0.23206198
36	0xbe1f0fbc	-0.15533346
37	0x3ebb75d6	0.3661334
38	0x3e081bdb	0.13291876
39	0xbe34fc3a	-0.17674342
40	0xbe08fbcd	-0.13377304
41	0xbe49adf6	-0.19695267
42	0xbec5c10d	-0.3862385
43	0x3bbe8567	0.0058142426
44	0x3dc72af4	0.097249895
45	0xbe6a9c16	-0.22911105
46	0xbe0e41d2	-0.13892296
47	0xbe3769ad	-0.17911406
48	0xbd360439	-0.04443762
49	0x3dcabb1c	0.098989695
50	0xbe8724ae	-0.26395172
51	0x3e80011b	0.25000843
52	0x3d02f275	0.031969506
53	0xbb33c0d1	-0.002742816
54	0xbe41e7e2	-0.18936113
55	0xbe9053db	-0.28188977
56	0x3d765c4f	0.060146626
57	0x3e173d66	0.14769515
58	0x3e8bb40f	0.2728581
59	0x3dcbfa19	0.09959812
60	0x3db5653f	0.08857202
61	0xbe6b602c	-0.22985905
62	0x3be63ccd	0.007026291
63	0xbdc3a4ba	-0.095529035
64	0x3cb14ea6	0.021643948
65	0xbec2a4a0	-0.38016224
66	0xbdd89801	-0.105758674
67	0xbeb0280c	-0.34405553
68	0xbdd1b987	-0.10240465
69	0x3d89f610	0.06736386
70	0xbd3fdaa4	-0.04683937
71	0xbdd47a76	-0.1037492
72	0x3e40e433	0.18837051
73	0xbe53460c	-0.2063219
74	0x3e7106f1	0.23537804
75	0xbdbb2572	-0.091380015
76	0x3e3ecf2e	0.1863372
77	0x3d2bbee0	0.04193008
78	0xbe862578	-0.2620046
79	0x3e2e78f4	0.17038327
80	0x3e5d03f7	0.21583544
81	0xbe19e63f	-0.15029238
82	0xbe780859	-0.24221934
83	0xbc15c45a	-0.009141052
84	0x3e7c0ced	0.24614306
85	0xbe042f3f	-0.12908648
86	0x3e07c018	0.13256872
87	0xbd261a6b	-0.040552538
88	0xbddf749a	-0.10910912
89	0x3e020296	0.12696299
90	0xbe90bdd8	-0.2826984
91	0x3e8e6d2c	0.27817667
92	0xbe279e16	-0.16368899
93	0xbe1e93fa	-0.15486136
94	0x3e4210b4	0.18951684
95	0xbe234e79	-0.15947904
96	0xbd6bd724	-0.05757822
97	0x3e762118	0.24036062
98	0xbe3a81d9	-0.18213595
99	0x3e7b8e85	0.24566086
100	0xbe1f205a	-0.15539685
101	0xbd0b5c66	-0.034023665
102	0xbd4de0f2	-0.050263353
103	0x3c903508	0.017603412
104	0xbdafc643	-0.08582737
105	0x3c404fcb	0.011737774
106	0xbe4d8bbc	-0.20072836
107	0xbdbfc721	-0.09364153
108	0xbe0ae9d9	-0.13565768
109	0xbc014f66	-0.007892465
110	0xbdeddaad	-0.11613975
111	0xbbd9b09a	-0.006643367
112	0x3d5e2a87	0.054239776
113	0x3d38819a	0.045045473
114	0x3dd4dc20	0.10393548
115	0x3da2e6f7	0.07954209
116	0xbe36c0ca	-0.1784698
117	0x3bb8c833	0.0056391
118	0x3d99abf3	0.075035
119	0x3e351c81	0.17686655
120	0x3e325c8d	0.17418118
121	0x3d657dad	0.056028057
122	0xbe359a22	-0.17734578
123	0xbc250067	-0.010070897
124	0xbe432037	-0.19055258
125	0x3b9354ea	0.0044962065
126	0x3a906ded	0.0011019089
127	0xbe161200	-0.14655304
128	0xbcd531a7	-0.026024653
129	0x3c81182c	0.015758596
130	0xbe1fa39d	-0.15589757
131	0xbe015ca7	-0.12633
132	0xbca28f94	-0.019843854
133	0x3e8f65ac	0.28007257
134	0x3cd63d75	0.026152352
135	0x3ecaed74	0.39634287
136	0x3e803ff2	0.25048786
137	0xbd3d8cfb	-0.046277028
138	0xbe14e270	-0.14539504
139	0xbf184ea7	-0.59495014
140	0xbd85dbac	-0.0653604
141	0xbeb42b2a	-0.35189182
142	0xbe309a81	-0.17246439
143	0x3da7f0da	0.08200236
144	0x3d50ffbe	0.051025145
145	0x3e522161	0.20520546
146	0x3e1f6618	0.1556629
147	0xbd902087	-0.07037454
148	0x3bb74d98	0.0055939667
149	0xbd6be689	-0.057592902
150	0xbe0e2b4b	-0.13883702
151	0xbe7e8b24	-0.24857765
152	0xbe2b35af	-0.16719697
153	0xbcd6b564	-0.02620954
154	0x3e683212	0.2267535
155	0xbdd558ba	-0.10417314
156	0x3e2e6a81	0.17032816
157	0x3dd77a21	0.10521341
158	0x3e9e703d	0.30945006
159	0x3dc96fe8	0.098357975
160	0xbdb455af	-0.08805405
161	0x3d9a41ef	0.07532107
162	0xbdf04e2a	-0.117336586
163	0xbe21d505	-0.15803917
164	0x3d268aea	0.040659823
165	0x3ed7db09	0.42159298
166	0x3e164780	0.14675713
167	0xbd2e01bf	-0.042482134
168	0xbd93d01a	-0.072174266
169	0x3de1f0a2	0.11032225
170	0xbe48d3ab	-0.19611995
171	0x3beb2cc3	0.007176967
172	0xbd052bc9	-0.03251246
173	0xbe110b83	-0.14164548
174	0x3e56ae9c	0.20965046
175	0x3dbb972c	0.09159693
176	0x3c502f28	0.012706555
177	0xbef5125a	-0.47865564
178	0xbd26437b	-0.0405917
179	0xbaa331bb	-0.0012450734
180	0xbe49eb5e	-0.19718692
181	0xbdfc50de	-0.12320112
182	0xbe3761c1	-0.17908384
183	0x3e498127	0.19678174
184	0xbe9ad891	-0.30243352
185	0xbe3fd6f1	-0.18734337
186	0xbe792244	-0.24329478
187	0xbe2d315b	-0.16913359
188	0xbc85b180	-0.01631999
189	0x3d56f890	0.05248314
190	0x3eb91bdd	0.3615407
191	0xbe896125	-0.26831928
192	0xbf129cad	-0.5727032
193	0x3da220a7	0.07916384
194	0x3e6ffc79	0.23436154
195	0xbdca238d	-0.09870062
196	0xbeddde5d	-0.43333712
197	0xbda42cca	-0.08016355
198	0x3e3864be	0.1800718
199	0x3d80db98	0.06291884
200	0x3e6aeb5f	0.2294135
201	0xbe1a88ed	-0.15091296
202	0xbf08f445	-0.53497726
203	0xbc947142	-0.018120412
204	0xbebbe169	-0.36695412
205	0xbe124163	-0.14282756
206	0x3e04b501	0.12959673
207	0xbe184b92	-0.14872578
208	0x3e388d06	0.18022546
209	0xbe8a3354	-0.26992285
210	0xbe801ab6	-0.2502038
211	0xbef65900	-0.48114777
212	0x3de5a19c	0.11212465
213	0xbdea0287	-0.11426263
214	0x3c94e145	0.018173823
215	0x3e6c81b7	0.23096357
216	0x3dc19d7b	0.09453865
217	0x3da833b8	0.082129896
218	0x3e3a9e95	0.18224557
219	0x3dc6c215	0.09704987
220	0xbebef769	-0.37298134
221	0xbe33203e	-0.17492768
222	0xbe5bcb7a	-0.21464339
223	0x3e8fd167	0.2808945
224	0x3c15b097	0.009136341
225	0x3db68b3d	0.08913276
226	0x3e6ef4f3	0.23335628
227	0x3e797bd1	0.24363638
228	0xbed2b4ef	-0.41153666
229	0x3daeca91	0.0853473
230	0x3ea8d020	0.32971287
231	0xbe56a9de	-0.20963237
232	0xbd3daf3a	-0.046309687
233	0x3d2e51a5	0.04255833
234	0x3ddf8cba	0.10915513
235	0x3d114c4a	0.035473146
236	0x3cf6d3b3	0.030130243
237	0x3e0c3952	0.13693741
238	0x3e2b3f8f	0.16723464
239	0x3ea2b1eb	0.31776366
240	0xbc6ec32f	-0.014572903
241	0x3e05cfb5	0.13067515
242	0x3e5fd7ae	0.21859619
243	0x3e01c13d	0.12671371
244	0x3e9e8aa1	0.3096514
245	0xbdffcbfe	-0.1249008
246	0x3da94987	0.08265977
247	0x3d436e86	0.047712825
248	0xbdb32ea2	-0.08749129
249	0xbdc5163b	-0.09623381
250	0xbc0c3d5f	-0.008559554
251	0xbdc6a17d	-0.0969877
252	0xbe97dfcd	-0.29662934
253	0x3be79547	0.007067356
254	0xbebe91be	-0.37220567
255	0xbe26d4fc	-0.16292185

net.0.bias f4 [128]
0	0x3e85f642	0.26164442
1	0x3ce8b812	0.028408084
2	0xbd8c689c	-0.0685589
3	0x3e6bd1ee	0.230293
4	0xbe0d417d	-0.13794513
5	0xbb9cc023	-0.0047836467
6	0x3e2762e4	0.16346318
7	0x3e02ac64	0.12761074
8	0xbca41f73	-0.020034527
9	0x3d062021	0.032745484
10	0xbd35c2e0	-0.0443753
11	0xbd429652	-0.047506638
12	0x3e66a981	0.22525598
13	0xbcc5fca4	-0.02416832
14	0xbd833b7d	-0.06407831
15	0xbd5d3c54	-0.05401261
16	0x3daa0c14	0.08303085
17	0x3d9dc911	0.07704366
18	0x3da30615	0.079601444
19	0xbc66d9a3	-0.014089975
20	0x3e72b7ff	0.23703001
21	0xbd8a7fa4	-0.06762627
22	0xbc1facdd	-0.009745804
23	0x3d9b4fdb	0.075835906
24	0x3dfa56fa	0.12223621
25	0x3d932367	0.07184487
26	0x3e3d8711	0.18508555
27	0xbd2e96b8	-0.042624205
28	0xbe1e37d4	-0.15450984
29	0x3d0b03d9	0.033939216
30	0x3e46e066	0.19421539
31	0xbdd66e42	-0.10470249
32	0xbcf075b7	-0.029353006
33	0x3cfcd66c	0.030863963
34	0xbe149a73	-0.14512043
35	0x3e65a07c	0.22424501
36	0xbe07e1b8	-0.13269699
37	0x3dc6346b	0.09677967
38	0x3da41e9f	0.08013653
39	0x3e4f8918	0.20267141
40	0x3d243b86	0.04009583
41	0x3e574b71	0.21024872
42	0x3e1e2c08	0.15446484
43	0x3e1e350b	0.15449922
44	0x3cfa7d3f	0.0305773
45	0x3dc3b38a	0.09555729
46	0x3dadca57	0.08485859
47	0x3d8f6ef7	0.07003587
48	0x3e03364d	0.12813683
49	0xbc9b2bb5	-0.01894174
50	0x3d729f17	0.05923375
51	0x3e0dbb48	0.13840973
52	0x3d703ccc	0.05865173
53	0x3d227aaa	0.039667763
54	0x3d1464ff	0.03622913
55	0xbe15c971	-0.14627625
56	0x3d9117fa	0.07084651
57	0xbd76e757	-0.060279217
58	0x3e804008	0.25048852
59	0xbe240bb5	-0.16020091
60	0x3e2d4ca9	0.16923775
61	0xbe0fdad9	-0.14048328
62	0xbd51ee83	-0.051252853
63	0x3e47e8f0	0.19522452
64	0xbd33d221	-0.043901566
65	0xbcb27b04	-0.021787174
66	0xbd3aa431	-0.04556674
67	0x3e7a4652	0.24440888
68	0x3e346702	0.1761742
69	0x3b47fb86	0.003051491
70	0xbcef0544	-0.029177316
71	0xbe313543	-0.17305474
72	0x3e81f34a	0.25380927
73	0x3e2542ef	0.16138814
74	0xbe5d5ceb	-0.21617477
75	0xbcfbbe3b	-0.030730357
76	0xbe202d64	-0.15642315
77	0x3e006b8f	0.1254103
78	0x3e6672a2	0.22504666
79	0x3e265503	0.16243367
80	0x3d3ae0b5	0.045624454
81	0x3d96aa0f	0.07356655
82	0x3a5a1b96	0.00083201507
83	0x3e4c36e0	0.19942808
84	0xbdca08be	-0.09864949
85	0xbe4a8747	-0.19778167
86	0x3c9dc7f8	0.019260392
87	0xbd511f9b	-0.051055532
88	0x3e39d977	0.18149363
89	0x3e528d5d	0.20561738
90	0x3e205ed0	0.15661168
91	0x3e7a9e64	0.24474484
92	0x3e27a2da	0.16370717
93	0x3c318f92	0.0108374525
94	0xbdb97dd7	-0.09057205
95	0xbc99be40	-0.018767476
96	0x3e3ee4e4	0.18642002
97	0x3dc8ac04	0.097984344
98	0x3e841c63	0.25802907
99	0xbdff150d	-0.12455187
100	0x3dcb6912	0.0993215
101	0xbda8d74f	-0.08244192
102	0x3e3818f7	0.17978273
103	0xbddbc9cd	-0.1073185
104	0x3d3ff1ec	0.046861574
105	0xbd8e2ccd	-0.06942139
106	0x3e98ac58	0.29818988
107	0x3e443659	0.19161357
108	0x3e62ee4c	0.22161216
109	0x3ddeb365	0.108740605
110	0xbd006ec1	-0.031355623
111	0x3e6cbc0c	0.23118609
112	0x3b0b36e4	0.0021242434
113	0x3d2686c8	0.04065588
114	0xbd4c29a8	-0.049844414
115	0x3e8b0e0d	0.27159157
116	0x3e879db9	0.2648752
117	0x3e82ae73	0.2552372
118	0x3e733b6f	0.23753141
119	0xbe10f750	-0.14156842
120	0x3e1c2230	0.15247416
121	0x3e838d65	0.25693813
122	0xbe050027	-0.1298834
123	0x3e99c8ab	0.3003591
124	0x3e277c6c	0.16356057
125	0xbdc6296b	-0.096758686
126	0x3be9b8a2	0.0071326056
127	0x3e15b70d	0.1462061

net.2.weight f4 [128, 128]
0	0x3db38595	0.08765713
1	0x3d9e3e71	0.077267535
2	0xbd6f2d5d	-0.05839287
3	0xbbf5e811	-0.007504471
4	0x3c75e31f	0.015007763
5	0xbda44dbc	-0.08022639
6	0xbe001616	-0.12508425
7	0xbe1177c6	-0.14205846
8	0x3db6620b	0.08905419
9	0x3db5c594	0.08875576
10	0x3d8944a7	0.067025475
11	0x3e092d18	0.13396108
12	0xbdafdd82	-0.08587171
13	0xbe57bd45	-0.21068294
14	0x3e097137	0.13422094
15	0x3ddb8246	0.10718207
16	0x3e0dbd4d	0.13841744
17	0xbe578192	-0.21045521
18	0xbe5aaad4	-0.21354228
19	0xbd7ff83e	-0.0624926
20	0xbe1eeab1	-0.15519215
21	0xbca4ac3f	-0.020101665
22	0x3d9823b5	0.074286856
23	0x3dc0b964	0.094103605
24	0x3a3c2566	0.00071772037
25	0x3c8a6563	0.016894048
26	0x3c9da200	0.019242287
27	0xbca6c047	-0.020355357
28	0xbe831402	-0.25601202
29	0x3d887bc0	0.066642284
30	0x3dd3071d	0.10304091
31	0xbeb60662	-0.35551745
32	0xbc8cad8a	-0.017172594
33	0x3d8510ec	0.06497368
34	0xbe42eb0f	-0.1903498
35	0xbe05373d	-0.13009353
36	0x3dc7792b	0.09739908
37	0xbd0b042d	-0.03393953
38	0xbe9cb087	-0.3060343
39	0xbc713a4c	-0.014723372
40	0x3e267d25	0.16258676
41	0x3b2ee60d	0.0026687414
42	0x3dec624e	0.11542188
43	0x3d0cf46f	0.034412798
44	0xbd341bfb	-0.043971997
45	0xbcd5c7b1	-0.026096197
46	0x3e21b671	0.15792252
47	0xbb52506e	-0.0032091397
48	0xbe9ced31	-0.30649713
49	0x3e4d5b21	0.20054294
50	0xbd74a634	-0.059728816
51	0xbe1bc5da	-0.15212193
52	0x3e3a0792	0.1816695
53	0x3dd92d3b	0.1060433
54	0x3de6da09	0.11272056
55	0xbd98ce67	-0.07461243
56	0x3df2d7c1	0.11857558
57	0xbd97c531	-0.07410658
58	0x3da7298a	0.0816222
59	0xbe7f4dbd	-0.24931999
60	0xbd360cda	-0.04444585
61	0xbe1e9805	-0.15487678
62	0x3d46f5c2	0.048574217
63	0x3dd938aa	0.10606511
64	0xbe515527	-0.2044264
65	0xbd6391e3	-0.05555905
66	0x3d66a558	0.056310028
67	0xbdaa7635	-0.083233275
68	0x3b9883d3	0.0046543865
69	0x3d90e2b5	0.07074491
70	0xbe1cd74f	-0.15316509
71	0xbd74672c	-0.059668705
72	0x3d8e84ac	0.06958899
73	0xbd519d8c	-0.05117564
74	0xbb2e65d5	-0.002661099
75	0xbb60a790	-0.0034279563
76	0xbd5bf67c	-0.053701863
77	0x3da8ccbc	0.08242175
78	0xbd6b236c	-0.057406828
79	0x3c5e8446	0.013581341
80	0xbcde086f	-0.02710363
81	0x3d4589e6	0.048227213
82	0xbeeafe6a	-0.45897228
83	0x3c281a15	0.010260125
84	0xbcb8a265	-0.022538373
85	0xbd8fa8a0	-0.070145845
86	0x3c9ca459	0.019121336
87	0x3e02d82a	0.12777773
88	0x3d803ea9	0.062619515
89	0xbed62d90	-0.41831636
90	0xbf0f5d14	-0.560014
91	0xbd541a45	-0.051782865
92	0xbee02c81	-0.43783954
93	0x3da0a72e	0.07844387
94	0x3e0ab417	0.13545261
95	0x3ed35149	0.41272953
96	0x3e880b80	0.26571274
97	0xbe46823c	-0.19385618
98	0xbd62b88e	-0.055351786
99	0xbd662b1c	-0.056193456
100	0x3e14e36f	0.14539884
101	0x3e0b68e0	0.13614225
102	0x3d98a161	0.074526556
103	0xbdde85b6	-0.10865347
104	0xbdb1bca9	-0.08678562
105	0xbd5ddfb0	-0.054168403
106	0x3de3a70d	0.11115847
107	0x3e885d4f	0.2663369
108	0x3deebfa9	0.1165765
109	0x3c6e587b	0.014547463
110	0xbcdada86	-0.026715528
111	0xbd61f9c9	-0.055169854
112	0xbe8a2eac	-0.26988733
113	0x3d4184ae	0.047245674
114	0x3ddf445f	0.109017126
115	0x3e12ed59	0.14348353
116	0xbd9b5ec5	-0.07586435
117	0xbd9192fd	-0.07108114
118	0xbc70b325	-0.014691149
119	0xbcb61cb1	-0.022230478
120	0x3e29e8dc	0.16592735
121	0x3e432401	0.19056703
122	0x3dc3e5f6	0.09565346
123	0x3e07fadc	0.13279289
124	0xbe4c4d47	-0.19951354
125	0xbe0a3dfa	-0.13500205
126	0xbb661d23	-0.0035112582
127	0x3e26af13	0.16277723
128	0xbd3ae235	-0.045625884
129	0x3c1e81d2	0.009674506
130	0x3d22e4b2	0.039768882
131	0x3dbd7e25	0.09252576
132	0x3dabc849	0.08387811
133	0x3e17aa81	0.14811136
134	0xbc87a5fd	-0.016558642
135	0x3eb21708	0.34783196
136	0x3d9f17c1	0.077682026
137	0x3e43f6d3	0.19137125
138	0xbd3fe1a7	-0.04684606
139	0x3e4fd578	0.20296276
140	0xbcc65ffd	-0.024215693
141	0x3e07a632	0.13246992
142	0xbc7d898a	-0.015474686
143	0x3d1873cf	0.03721982
144	0x3d8407d1	0.06446803
145	0x3e8bfd42	0.27341658
146	0x3da9eb2c	0.082968086
147	0xbebe9182	-0.3722039
148	0xbd90bbcf	-0.07067072
149	0xbd378924	-0.044808522
150	0xbe4ae18b	-0.198126
151	0x3bcab0c6	0.006185624
152	0xbda0231a	-0.07819195
153	0x3cf03ec0	0.029326797
154	0xbdae2b64	-0.0850437
155	0x3d31b46a	0.043384947
156	0x3e2cc253	0.16871004
157	0x3ddd8694	0.10816684
158	0x3c7f176d	0.01556955
159	0xbd7a776a	-0.06114904
160	0xbdc1588e	-0.094407186
161	0xbdfa9a73	-0.1223649
162	0x3ded748d	0.11594496
163	0xbb936c85	-0.0044990205
164	0xbdfb0843	-0.12257435
165	0xbd396f29	-0.045272026
166	0xbc017505	-0.007901435
167	0x3dbd2b78	0.09236807
168	0x3c65f3a5	0.01403514
169	0xbd205bd9	-0.039150093
170	0x3ec8c879	0.39215448
171	0xbd5344c4	-0.051579252
172	0x3dbe2637	0.09284633
173	0x3da980ee	0.082765445
174	0xbc63cdc9	-0.0139040435
175	0x3d2a532a	0.041583218
176	0x3e0dbfb0	0.13842654
177	0xbbf28bdb	-0.007401926
178	0xbd0ea2eb	-0.03482334
179	0x3e7a1903	0.24423604
180	0xbd42e196	-0.047578417
181	0x3dc65a13	0.09685149
182	0xbdf1d099	-0.11807365
183	0x3e38e2e7	0.18055306
184	0x3d6c3fd5	0.057678062
185	0xbeb8b3ae	-0.36074585
186	0xbd6ef1d8	-0.05833611
187	0xbe6fad9d	-0.23406072
188	0x3e03796f	0.12839292
189	0x3dad2c5a	0.08455725
190	0x3d5a3d70	0.053281248
191	0x3e4fd9f2	0.20297983
192	0xbe2331e7	-0.15937005
193	0x3d4c182e	0.049827747
194	0x3e03673e	0.12832353
195	0x3e17df21	0.1483121
196	0x3d2a3fb7	0.04156467
197	0x3e11cebf	0.14239024
198	0xbe2ff394	-0.17182761
199	0x3c8b584f	0.017009882
200	0xbd8a0b83	-0.06740477
201	0x3dd7a5f5	0.10529701
202	0x3b4da320	0.0031377748
203	0xbbe6f123	-0.0070477887
204	0xbea70c4d	-0.32626572
205	0xbed4953e	-0.41520113
206	0xbba1172b	-0.004916092
207	0xbea39a27	-0.31953546
208	0xbdaaf7ea	-0.08348067
209	0x3ec508c8	0.38483262
210	0x3f16c651	0.58896357
211	0x3dda5ba4	0.1066201
212	0xbd007e1e	-0.031370275
213	0xbd3629c9	-0.044473443
214	0x3db6383b	0.08897444
215	0x3db8c3a8	0.090216935
216	0x3e993ef4	0.29930842
217	0x3e8aac1c	0.27084434
218	0x3e55638f	0.2083876
219	0xbdbe30da	-0.092866614
220	0x3e09e617	0.13466679
221	0xbc86d7fe	-0.016460415
222	0x3d8ae95a	0.067827895
223	0x3e899f72	0.2687946
224	0xbe1b3c49	-0.15159716
225	0xbd351613	-0.044210505
226	0x3def612a	0.116884544
227	0xbdd57718	-0.10423106
228	0x3d9cd045	0.07656912
229	0x3b06ef68	0.0020589475
230	0x3eb75687	0.35808203
231	0x3d92cc28	0.07167846
232	0x3e658b90	0.2241652
233	0x3da92080	0.08258152
234	0x3dbbbdab	0.09167036
235	0x3d3aff5f	0.045653697
236	0xbd68a36a	-0.05679647
237	0x3d352674	0.044226125
238	0x3d900bd3	0.07033505
239	0xbe2bce8c	-0.1677801
240	0x3ebdbe2f	0.3705916
241	0xbdb644ae	-0.08899818
242	0x3d397df6	0.04528614
243	0xbc215d9b	-0.009848977
244	0xbc59c0a6	-0.01329056
245	0x3ec3fc40	0.3827839
246	0xbda0e3e0	-0.07855964
247	0x3cbbc6b1	0.022921892
248	0xbd1f98dd	-0.03896414
249	0x3ce13049	0.027488844
250	0xbcba96be	-0.022776958
251	0xbd3e0e8d	-0.046400595
252	0x3e0ddb4a	0.13853183
253	0x3a898fa1	0.0010495075
254	0xbd6522bb	-0.055941325
255	0x3d8a9ccd	0.067681886

net.2.bias f4 [128]
0	0x3e02ea5b	0.12784712
1	0x3d7b0314	0.061282232
2	0xbdc07734	-0.09397736
3	0xbc41d3f3	-0.011830318
4	0x3aa71785	0.0012748098
5	0x3d91e50f	0.071237676
6	0x3d173409	0.03691486
7	0x3e01ce4c	0.12676352
8	0x3d51b9a9	0.05120245
9	0x3d0d46d5	0.03449138
10	0x3d8ed184	0.06973556
11	0x3d46b193	0.04850919
12	0x3e4fb866	0.20285186
13	0xbcd26f36	-0.025687795
14	0x3a61f202	0.0008619131
15	0x3e18d935	0.14926608
16	0x3d79e6e0	0.061011195
17	0xbdb227e5	-0.086990155
18	0x3a648773	0.0008717693
19	0x3adb2b0a	0.0016721201
20	0xbca009a0	-0.01953584
21	0xbcd22cdc	-0.025656156
22	0xbd61c684	-0.05512096
23	0xbcac87cc	-0.021060847
24	0x3cae6c99	0.021292018
25	0x3d6e4ce0	0.058178782
26	0x3c896ea4	0.01677639
27	0xbc9df493	-0.019281661
28	0x3d8c5177	0.06851476
29	0x3e07e053	0.13269167
30	0x3ccb8bc8	0.024846926
31	0x3dcf3374	0.10117236
32	0xbdef40cb	-0.1168228
33	0x3ddb9a0b	0.10722741
34	0x3db7b005	0.0896912
35	0x3cda914f	0.026680617
36	0x3ca8da29	0.02061184
37	0xbcf9f3ca	-0.030511755
38	0xbdb71b7f	-0.08940791
39	0xbc3d9269	-0.011570551
40	0x3daba276	0.08380596
41	0x3d8283b0	0.06372774
42	0x3d8e451b	0.069467746
43	0xbca4238e	-0.020036485
44	0xbbd71b36	-0.006564523
45	0xbcb2ae11	-0.021811517
46	0x3d7d8594	0.06189497
47	0xbd2d7909	-0.042351756
48	0x3d017ef7	0.031615224
49	0x3dc46d9f	0.09591221
50	0x3a817ff8	0.0009880057
51	0x3dbcecf5	0.092248835
52	0x3dc98d28	0.098413765
53	0x3d183eeb	0.03716938
54	0x3dd64229	0.10461838
55	0x3d5b0108	0.05346778
56	0x3d190b87	0.03736451
57	0x3db97ed0	0.09057391
58	0xbd9cb1b4	-0.07651082
59	0x3e1fc270	0.15601516
60	0xbdc23c6f	-0.09484183
61	0xbd507f40	-0.050902605
62	0xbbb56275	-0.0055354186
63	0x3d84b21e	0.06479286
64	0x3ca1e1b2	0.01976094
65	0x3d2e6aac	0.0425822
66	0x3dd7a133	0.10528793
67	0xbc1b402f	-0.009475752
68	0xbd10119b	-0.03517304
69	0x3da43169	0.08017237
70	0x3d2f5246	0.04280307
71	0xbcf51ba3	-0.029920405
72	0x3d8d0166	0.06885032
73	0xbb2c3707	-0.0026277916
74	0x3db901c1	0.09033538
75	0xbcaa78cc	-0.020809554
76	0x3c5c00b5	0.013427903
77	0xbdb7f4a2	-0.08982207
78	0xbd2cdd97	-0.042203512
79	0x3def7ab9	0.11693329
80	0xbba2878f	-0.0049600075
81	0x3e2764f0	0.16347098
82	0x3d9705d2	0.07374157
83	0x3d4b1e51	0.04958946
84	0x3d71552c	0.058919117
85	0x3d75a4f0	0.05997175
86	0xbd1fd6d2	-0.039023228
87	0xbd2046e7	-0.039130118
88	0x3d7aeea7	0.061262753
89	0x3b6f29cf	0.0036493426
90	0xbc97048b	-0.018434783
91	0x3d526b1b	0.051371675
92	0x3d9c6008	0.07635504
93	0x3db533c9	0.08847768
94	0x3d726848	0.05918148
95	0x3bda0d5a	0.0066544237
96	0x3cf0bf8a	0.029388208
97	0x3d177ef4	0.036986306
98	0x3d3ab2bd	0.045580614
99	0x3ce08402	0.027406696
100	0x3ce6a5f8	0.028155312
101	0x3dbd0835	0.09230081
102	0x3d0dda55	0.034632046
103	0x3d5c1bdb	0.053737503
104	0x3e0d4258	0.1379484
105	0x3c4def35	0.012569238
106	0x3e17c565	0.14821394
107	0xbcc1a969	-0.023640351
108	0x3c90072e	0.017581549
109	0x3cebc2e4	0.028779455
110	0xba977a6c	-0.001155687
111	0x3e1e4568	0.15456164
112	0xbd38a85d	-0.04508244
113	0x3d16159d	0.036641706
114	0x3dfeb21f	0.12436318
115	0xbd5b4475	-0.053532083
116	0x3d19f6fd	0.037589062
117	0xbd015390	-0.031573832
118	0xbda39b82	-0.07988645
119	0xbd805c3a	-0.06267591
120	0x3d78a756	0.06070646
121	0x3c485032	0.012226151
122	0x3cd524aa	0.02601846
123	0xbdb5f93d	-0.08885429
124	0xbd7fa633	-0.06241436
125	0xbc9b543f	-0.01896107
126	0x3d4d347a	0.050098874
127	0x3d5e6ea8	0.05430475

net.4.weight f4 [7, 128]
0	0xbb103291	-0.0022002796
1	0xbb68a18b	-0.0035496678
2	0xbdc44cae	-0.09584938
3	0x3e34aff6	0.17645249
4	0x3dfc27fa	0.123123124
5	0xbd1a4cc9	-0.037670884
6	0x3db846a4	0.08997849
7	0x3ed73153	0.4202982
8	0xbca13bf7	-0.019681914
9	0x3e13293e	0.14371201
10	0x3d853a70	0.06505287
11	0x3dbb9b56	0.09160487
12	0x3e225a71	0.15854813
13	0x3d88bf7b	0.06677147
14	0x3de85100	0.113435745
15	0x3da6be39	0.08141751
16	0x3dfa5bef	0.12224566
17	0xbea1f8b4	-0.31635058
18	0x3ccc77c0	0.024959445
19	0x3e685a4b	0.22690694
20	0x3c764806	0.01503182
21	0x3e04c4a9	0.12965645
22	0xbc10c76a	-0.0088366065
23	0xbd1c2f22	-0.038130887
24	0x3de7d709	0.113203116
25	0xbd0d0a11	-0.03443343
26	0xbdbde306	-0.09271817
27	0x3e3665d4	0.17812282
28	0x3e982344	0.29714406
29	0x3e9b2b35	0.30306402
30	0x3e506a0d	0.20352955
31	0x3e8cb5a5	0.27482334
32	0x3e83fdf1	0.2577968
33	0x3da44545	0.080210246
34	0x3e6dbf3f	0.23217486
35	0x3d953b07	0.07286649
36	0x3e016f88	0.12640202
37	0x3d68db95	0.056850035
38	0x3e0748f4	0.13211423
39	0x3cb5f1e2	0.022210065
40	0x3d92e840	0.071732044
41	0x3d28cffb	0.04121397
42	0x3e5ff4b1	0.21870686
43	0x3b38bbf2	0.0028188196
44	0x3e379325	0.17927225
45	0x3e096524	0.13417488
46	0x3d99e689	0.07514674
47	0xbdd04847	-0.10170036
48	0x3e5cbb35	0.21555789
49	0x3d6449ef	0.05573457
50	0xbcc2947e	-0.023752447
51	0xbd80a8c1	-0.06282187
52	0x3d8b702e	0.06808506
53	0xbc2f5a18	-0.010702632
54	0x3e076ac0	0.13224316
55	0x3e322d80	0.1740017
56	0xbcea06c8	-0.028567687
57	0x3df7ded3	0.12103047
58	0xbd6d5f35	-0.057952125
59	0x3e0e2440	0.13881016
60	0x3e258b73	0.16166477
61	0xbcd25436	-0.02567492
62	0x3de2b1a4	0.110690385
63	0x3e0abf46	0.13549528
64	0x3e4ed73e	0.20199296
65	0x3dacb5bd	0.08433101
66	0x3ca5618a	0.020188112
67	0x3dc3b15a	0.095553115
68	0x3ddedf1a	0.10882397
69	0x3d4fdc87	0.05074742
70	0x3e015184	0.12628752
71	0x3dbe3baa	0.09288724
72	0x3d8a568b	0.06754788
73	0x3d92edb0	0.071742415
74	0x3dcb4571	0.09925354
75	0x3e80b259	0.25136068
76	0xbb9b6b2a	-0.0047429996
77	0x3d5da387	0.05411103
78	0xbe270988	-0.1631223
79	0x3db45609	0.088054724
80	0xbe14ba37	-0.1452416
81	0x3d030a6a	0.031992353
82	0x3e4db576	0.20088753
83	0x3da7eb0b	0.08199128
84	0xbb713ceb	-0.0036809992
85	0x3d622a67	0.05521622
86	0x3dae9d29	0.0852607
87	0x3c977a60	0.01849097
88	0x3eccba8c	0.39986074
89	0x3e18049c	0.14845508
90	0x3e7291aa	0.23688379
91	0x3dbf39b6	0.09337179
92	0x3e337ec0	0.1752882
93	0x3e08a3e1	0.13343765
94	0x3d8a1101	0.067415245
95	0x3e482990	0.19547105
96	0x3c9c7b3f	0.019101737
97	0x3c874874	0.01651404
98	0xbd9f4bb2	-0.077781096
99	0x3dcbdafe	0.09953879
100	0x3e352158	0.17688501
101	0x3e0f0198	0.13965452
102	0x3bed7696	0.0072468026
103	0x3cfe3b61	0.031034173
104	0xbabe98e6	-0.0014541417
105	0x3dde6791	0.108595975
106	0x3eab9fcb	0.3352035
107	0x3cfd27e9	0.03090282
108	0x3d88638c	0.06659612
109	0x3e4ff744	0.20309168
110	0x3e014e0c	0.12627429
111	0x3dce091a	0.1006033
112	0x3e730f43	0.2373629
113	0xbc9d193b	-0.01917707
114	0x3d67f40c	0.056629226
115	0xbd248a68	-0.040171057
116	0xbe046c8f	-0.12932037
117	0x3c95f33c	0.01830446
118	0x3dc1673d	0.09443519
119	0x3e48e600	0.19618988
120	0xbd39bbf5	-0.045345265
121	0xbde22f95	-0.11044232
122	0x3daeacaf	0.085290305
123	0x3e89f54c	0.2694496
124	0x3e64c9eb	0.2234265
125	0x3e29818a	0.16553321
126	0x3daf1c29	0.08550293
127	0x3dd9a494	0.10627094
128	0x3d2551a6	0.04036107
129	0xbc261b59	-0.010138356
130	0x3da9ac98	0.08284873
131	0x3c99a7f9	0.018756853
132	0x3df4f6de	0.11961149
133	0x3c219133	0.009861278
134	0x3e678148	0.2260791
135	0x3eb5d371	0.3551288
136	0xbcbf8fd5	-0.023384014
137	0x3e4aeaaf	0.19816087
138	0x3e0c2612	0.13686398
139	0x3d179ffe	0.037017815
140	0x3ea464f0	0.3210826
141	0x3e065a7c	0.13120455
142	0x3df5c157	0.11999767
143	0x3e23d0f7	0.15997683
144	0x3deb7193	0.11496272
145	0xbe212d4f	-0.1573994
146	0xbdd2476b	-0.10267528
147	0x3e1ee342	0.1551638
148	0x3e259b6e	0.16172573
149	0x3e3f4f43	0.1868258
150	0x3e234c66	0.15947112
151	0xbd2b50e3	-0.041825186
152	0x3e1be82d	0.15225287
153	0x3dfdc15b	0.12390395
154	0xbcd9d88f	-0.026592521
155	0x3df2f26e	0.11862646
156	0x3d4079ad	0.04699104
157	0x3ef3319d	0.4749879
158	0x3dccfa26	0.100086495
159	0x3ec6a71d	0.38799372
160	0x3d9a17b9	0.07524056
161	0xbd72a4fc	-0.059239373
162	0x3e134ec7	0.1438552
163	0x3d30607e	0.043060772
164	0xbce4d3e5	-0.02793307
165	0x3d9e08ed	0.07716546
166	0x3cb6cd94	0.022314824
167	0x3e14ed76	0.14543709
168	0x3e59539c	0.212233
169	0x3e0ffab9	0.14060487
170	0x3e845f92	0.25854164
171	0xba9f4e9d	-0.0012154166
172	0x3dc979c3	0.09837677
173	0x3d54d18c	0.051957652
174	0x3de3554b	0.11100253
175	0x3c55fd45	0.013060872
176	0x3e9ff900	0.3124466
177	0x3e31b201	0.1735306
178	0xbd4ebd0d	-0.05047326
179	0xbe45fc07	-0.19334422
180	0x3e86415c	0.2622174
181	0xbdd54414	-0.104133755
182	0x3d621b99	0.0552021
183	0x3d40fbcb	0.04711513
184	0x3d412e61	0.04716337
185	0x3d229f1c	0.03970252
186	0xbd49e08b	-0.049286406
187	0x3de2fbc7	0.11083179
188	0x3e1b44b4	0.15162927
189	0x3e2abcef	0.16673635
190	0x3dfd8de2	0.123805776
191	0x3e44dfe4	0.19226032
192	0x3da83830	0.08213842
193	0x3d287f03	0.041136753
194	0x3ce23dc8	0.02761735
195	0x3e1333d7	0.14375244
196	0x3e1e8037	0.15478598
197	0x3dc4f34b	0.09616717
198	0x3e130366	0.14356765
199	0x3d665393	0.056232046
200	0x3d41cb5a	0.04731307
201	0x3d608204	0.054811493
202	0xbd6fa573	-0.058507394
203	0xbd505ddc	-0.05087076
204	0x3ddc42af	0.107549064
205	0xbd8cdbfe	-0.06877898
206	0xbd746008	-0.059661895
207	0x3e1994f4	0.14998227
208	0xbe938744	-0.28814137
209	0xbca2d022	-0.019874636
210	0x3e626e64	0.22112423
211	0x3da233a2	0.079200044
212	0x3d8210b7	0.06350844
213	0x3e1db544	0.15401179
214	0x3dce06ff	0.10059928
215	0x3d45e7e7	0.048316862
216	0x3edc0e88	0.42979836
217	0xbb8bcda7	-0.004266459
218	0x3db9c11b	0.09070035
219	0x3e5eaba4	0.21745163
220	0x3e6f453c	0.23366255
221	0x3e1a6b59	0.15080012
222	0x3cc8db74	0.024518706
223	0x3e13e35d	0.14442201
224	0x3e1bb412	0.1520541
225	0x3e5c6813	0.21524076
226	0x3d93154d	0.07181797
227	0x3e30b148	0.17255127
228	0x3e5b444f	0.21412776
229	0x3d687f25	0.05676188
230	0x3d7fcd91	0.062451903
231	0xbd631f7c	-0.055449948
232	0xbe2f184e	-0.17099115
233	0x3cef043e	0.029176828
234	0x3e1a7368	0.15083086
235	0x3d28752a	0.04112736
236	0x3e12ed31	0.14348294
237	0x3dbc4534	0.09192887
238	0x3e14921e	0.14508864
239	0x3d88a5f5	0.06672279
240	0x3e5bd852	0.21469238
241	0xbe32d9cd	-0.17465897
242	0x3cbbd927	0.022930695
243	0x3d6c58f6	0.057702027
244	0x3caca693	0.021075523
245	0x3d9ad2b4	0.0755972
246	0x3e2718dd	0.16318078
247	0x3e77a6c4	0.2418471
248	0x3d042093	0.032257628
249	0xbd54a274	-0.05191274
250	0x3de15bc3	0.1100383
251	0x3df3e152	0.11908211
252	0x3d54e41b	0.05197535
253	0x3de945ae	0.113902435
254	0x3e051937	0.129979
255	0x3e233f2d	0.15942068

net.4.bias f4 [7]
0	0x3b60a6fb	0.0034279216
1	0x3d1b8bed	0.03797524
2	0xbda0f034	-0.07858315
3	0xbd264089	-0.04058889
4	0x3ccf27f5	0.025287608
5	0x3b883ce9	0.0041576517
6	0x3e08ba8b	0.1335241
