coup_nsfp/0.99G5kEp0.2to0.1br-as/nfsp_coup_demo_best_agent_avg_strategy.pt (torch, 86473 bytes, 6 tensors)

net.0.weight f4 [128, 25]
000000 7c 6b 30 be 37 b9 7d 3d de 95 a2 3d 3f 87 40 3d
       -0.17228502 0.061944213 0.07938741 0.04700398
000010 3e 76 46 3e 8a 88 c4 3e 5c d4 08 3d 32 47 06 3d
       0.19381043 0.3838542 0.033405647 0.03278274
000020 e1 da 76 bd 29 36 3b 3e fb 9e 8b be cb 1d 26 be
       -0.060267333 0.18282379 -0.2726973 -0.16222303
000030 9a 86 67 3d 83 4c 34 3e c1 9a 30 3e 7e 9d 47 3e
       0.05652485 0.17607312 0.17246534 0.19493672
000040 d5 d8 28 be e7 33 c6 3e 8d c4 cf 3c 70 b9 39 3e
       -0.16488965 0.38711473 0.025362277 0.18137145
000050 27 fa 0b 39 19 2c a3 3d 25 ea 00 3e b4 c1 15 3e
       0.00013349262 0.07967395 0.12589319 0.14624673
000060 8c 3a 51 3e 41 6d 10 be 14 4d 31 3e c7 f0 59 3d
       0.2043249 -0.14104177 0.17314559 0.05320814
000070 76 dc 8d be 58 65 c3 3d 29 4d 82 be 0d 94 9b bd
       -0.2770726 0.09540814 -0.25449494 -0.07596598
000080 e2 7e 42 3e bb 82 23 be 6c bb 92 3e 30 47 cd 3d
       0.18993714 -0.15967838 0.28658617 0.100233436
000090 31 b7 83 be 9a ad 66 bd 6f e2 09 be de 43 df bc
       -0.257257 -0.056317903 -0.13465284 -0.027254041
0000a0 bd e8 b9 3c 76 2b 50 3e 88 77 72 3e ef 79 3d 3e
       0.022693986 0.20329079 0.2367841 0.18503545
0000b0 86 f9 2b ba d0 f2 25 be 48 c2 9c 3e 96 e0 28 3e
       -0.0006560314 -0.16205907 0.30616975 0.16491923
0000c0 ee fe 43 3e a9 69 44 3e 45 de a4 bd 87 3e 8c be
       0.19140217 0.19180931 -0.08050207 -0.27391455
0000d0 c8 e9 52 3e 45 55 8d 3e ec da 21 be fa e0 92 be
       0.20596993 0.27604118 -0.15806168 -0.28687268
0000e0 13 69 09 3e 62 e0 86 3c 71 ba 94 bd 62 cb a2 bd
       0.13418989 0.016464416 -0.072621234 -0.079489484
0000f0 3f a2 21 be 4b c0 95 be 6f f0 af 3c 97 bc a1 bd
       -0.15784548 -0.2924827 0.021476952 -0.07897299
000100 2c ab dd 3d b1 29 4b bd 81 e9 45 3e 70 52 68 3e
       0.10823664 -0.049600307 0.19327356 0.22687697
000110 10 70 8d bd 90 98 a3 be ee 5a 88 3e 48 6e ff bd
       -0.0690614 -0.31952333 0.26631874 -0.12472206
000120 35 4f 15 3f 0c 89 d4 3d 00 25 b6 bc d7 ae be 3e
       0.58323985 0.10377702 -0.02223444 0.37242767
000130 d9 21 c6 3c e8 d3 81 be 92 81 ed 3d ea a8 19 3e
       0.024186062 -0.25356984 0.11596979 0.15005842
000140 0b fb 0d be e8 ac 9f bd 26 e0 4a 3e 86 8d d7 bc
       -0.13865297 -0.07796651 0.19812068 -0.0263126
000150 58 d9 a8 be d8 48 b1 3e 1c 2a a5 be 68 37 36 3e
       -0.3297832 0.34625888 -0.3225869 0.17794573
000160 8d 22 94 bc 29 68 83 3e 73 7d 14 be 74 d9 8f 3b
       -0.018082881 0.25665405 -0.1450098 0.004389936
000170 d9 69 5a 3e 6f ab 09 3e 29 f6 08 bc f5 4a 81 3e
       0.2132944 0.13444303 -0.00835947 0.252525
000180 c0 22 00 3e 20 30 ad bc a0 8b 3b be 90 02 d8 bd
       0.12513256 -0.021141112 -0.18314981 -0.10547364
000190 ea 5f 5e 3e 59 1d 5d 3d 00 a4 72 3e 85 5d 16 3e
       0.21716276 0.053983066 0.23695374 0.14684112
0001a0 5c db 2f 3d 92 f5 fd 3c e8 aa 0f 3e 2b 88 d5 3d
       0.042933807 0.031000886 0.1403004 0.104263626
0001b0 62 cc 4c be a3 03 9d 3e fd bb 9e 3d 68 db 82 3e
       -0.19999841 0.30666837 0.077507 0.2555802
0001c0 50 e7 ad bb b3 5c 11 bc 23 d2 3a 3e 49 ec 52 3d
       -0.0053071156 -0.008872199 0.18244223 0.05149487
0001d0 b6 82 4a 3d 81 4e 8f 3d ed 0f ef 3d 73 b3 a7 bd
       0.049441062 0.06997395 0.116729595 -0.08188524
0001e0 39 5a d2 bd 57 5e 0b bf 32 5b 82 3e 01 b4 9a be
       -0.10271115 -0.54440826 0.25460202 -0.30215457
0001f0 0e ab 24 be 39 16 5f 3e 48 d2 0e 3e b0 5c d9 3d
       -0.16080877 0.21785821 0.13947403 0.10613382
000200 db ec 82 3e 2c 0e ab 3c 60 7b df be 45 30 b4 bd
       0.2557133 0.020880781 -0.43648815 -0.08798269
000210 c8 2e 1b 3c 6c 23 04 be cd 6f e0 bd 54 8a 27 be
       0.009471603 -0.12904137 -0.10958824 -0.16361362
000220 c2 fd a3 3e a0 9f b7 bd 4d ea e5 3c 49 01 8a 3d
       0.3202954 -0.08965993 0.028065825 0.067385264
000230 35 61 01 3d 7b 52 09 be d6 14 76 be ed e4 26 bd
       0.031586844 -0.1341037 -0.24031386 -0.040745664
000240 09 ed 27 3e dc 69 4d 3e a6 8a a0 3e a2 ee 99 bd
       0.16399015 0.20059913 0.3135578 -0.07516219
000250 e2 3d 0c 3d 77 4c 6d 3d 98 78 4e be 83 fd 0b be
       0.034238704 0.05793425 -0.2016319 -0.13670926
000260 b8 c4 13 bd 9a af 8d 3e a4 02 9b be 2d 9b ba 39
       -0.036076277 0.27673036 -0.30275452 0.000355923
000270 09 48 db 3d c5 82 1e 3c a1 46 32 be 18 17 ec 3c
       0.10707099 0.009674733 -0.17409755 0.028819606
000280 23 da be 3e ad e5 14 3e c7 60 75 3e d7 96 e2 3d
       0.372758 0.1454074 0.23962699 0.11063927
000290 96 69 03 be 58 f5 3b be cf b3 00 3e 75 45 e1 bd
       -0.12833247 -0.1835531 0.12568592 -0.10999576
0002a0 da b4 c1 3c d9 f8 4c bc 12 a6 b8 3e e1 b5 b6 3e
       0.023645807 -0.012510502 0.36064202 0.35685638
0002b0 c1 7f 99 3d 2d a8 8b ba b0 59 b0 3c 66 f8 02 be
       0.0749507 -0.0010654979 0.021527141 -0.12790069
0002c0 f0 fd 40 3e d9 62 71 3e e5 ad f2 bd 9c 5e 0a be
       0.1884687 0.23572864 -0.11849574 -0.13512653
0002d0 d2 b8 cb 3e 15 52 3f 3e 7e 85 8c 3d b7 22 ea 3c
       0.39789444 0.18683656 0.06861399 0.028581006
0002e0 f1 5f 1f be 88 55 17 3e 86 48 fd 3d a7 84 05 3e
       -0.15563942 0.14778721 0.123673484 0.13038884
0002f0 ad 73 65 3d b8 90 35 bd 8b 17 0a 3e e1 4e 1b bd
       0.05601852 -0.044327468 0.13485543 -0.03791702
000300 df 10 c5 bd bb 47 0e 3e d8 a0 ab 3e d7 33 17 3e
       -0.096223585 0.1389455 0.33521152 0.14765869
000310 3e 79 33 bc 7f 02 02 bf 89 0c 17 3e 62 da 2e 3d
       -0.010954199 -0.5078506 0.14750876 0.042688735
000320 b6 dd fd 3d 3e 09 10 be d3 5c 75 3d e2 69 98 3e
       0.12395804 -0.14066026 0.059902977 0.29768282
000330 ba 6c 3f be 62 03 fc 3e c6 42 24 3e fd 7a 64 3e
       -0.1869382 0.4922133 0.16041097 0.22312541
000340 62 e8 09 be ea c6 39 3e ac 41 3d be 7e 44 3f 3e
       -0.13467553 0.18142286 -0.18482083 0.18678471
000350 dc 65 45 be 7b 4c 24 be 91 3c db bd 9c 85 f7 bd
       -0.19277138 -0.160448 -0.107049115 -0.12086031
000360 fc d9 31 3e ee 02 d5 3c ca 93 43 3e d0 56 96 bd
       0.1736831 0.026002374 0.19099346 -0.07340777
000370 44 ad e6 3d ec e4 63 be 0e 1a 67 3e 71 cd a7 3d
       0.112635165 -0.22255296 0.22568533 0.08193482
000380 37 11 08 3d 2d 22 ee bd 1c 4c e8 bd e5 35 93 be
       0.033219542 -0.11627612 -0.11342642 -0.28752056
000390 f1 e5 c4 3e e9 3b 40 bd f0 d1 5d be 36 02 0b 3e
       0.3845668 -0.046932135 -0.21662116 0.13575062
0003a0 34 1c af 3d 05 e1 b2 bd 6c 04 4d 3e cd 79 57 bc
       0.08550301 -0.08734325 0.20021218 -0.013151598
0003b0 83 c7 61 be 5a a9 8a bd 22 23 3d 3e fa 9f 7d bd
       -0.22048764 -0.067705825 0.18470433 -0.061920144
0003c0 99 b7 0e bf 2e 6c fa ba 16 8e 46 bd 00 ca f1 bc
       -0.557489 -0.0019105726 -0.048475347 -0.029515266
0003d0 f8 3f 8f bd 8f 60 ce 3d 99 cf 35 3e 70 c6 8b be
       -0.06994623 0.10077011 0.17754973 -0.27299833
0003e0 56 9f 4e 3e a8 c9 f3 3d 10 7b 93 bd ad 06 a8 3d
       0.2017797 0.11903697 -0.07201207 0.08204398
0003f0 e6 e4 3f bd 48 c6 39 bd a7 63 80 3c 3f 67 eb 3e
       -0.046849154 -0.04535511 0.015672518 0.45977208

net.0.bias f4 [128]
000000 34 bc 7c bd 7e 4a 23 be b9 12 8b 3d 3f 7a 9c 3c
       -0.061702922 -0.15946385 0.067906804 0.01910126
000010 e0 6a 48 3e db 29 19 bc d6 f1 2e 3e c6 2e ac bc
       0.1957202 -0.009348358 0.1708444 -0.021018397
000020 d7 2a 24 3e 61 fc 57 3e b6 d4 09 be db 7f 2c be
       0.16031967 0.21092369 -0.13460049 -0.16845648
000030 4d 0b 53 bc f6 ab a0 3b d3 f8 2c be 09 57 08 3e
       -0.012881112 0.004903312 -0.16891794 0.13314451
000040 ea 3b b1 3b bf b8 5a 3e 54 e7 1b 3e e5 3f f1 3d
       0.0054087536 0.21359538 0.15224963 0.11779765
000050 d5 d9 e4 bc b3 96 07 3e 97 b7 e8 bd 46 b8 12 3e
       -0.027935902 0.13241081 -0.11363142 0.14328107
000060 23 37 43 be 48 e1 c4 3d f8 bc 17 3c dc 58 5d 3d
       -0.19064002 0.096132815 0.009261362 0.05403982
000070 ef e9 e5 bd cc 1e fd 3c 41 78 85 bd 25 04 13 be
       -0.1122626 0.030898474 -0.06517077 -0.1435705
000080 f6 a0 89 3c 6e bd ce 3d 47 93 46 3e 64 42 9e 3d
       0.016800385 0.100947246 0.1939212 0.07727507
000090 7d 22 0e be 98 85 46 3d 27 48 71 3e 3c 30 0e 3e
       -0.13880344 0.04846725 0.2356268 0.13885587
0000a0 77 de 9e bc 29 ae 43 be a0 28 81 3c fc 1b ad 3d
       -0.019393189 -0.19109406 0.015766442 0.08452603
0000b0 b8 7b 99 3d 67 f6 d0 3c 21 7c d0 3d 27 1e 20 3e
       0.074943006 0.025508119 0.10179926 0.15636502
0000c0 97 56 89 3d 82 d0 1b be cf a0 7f bd 0e c2 0e be
       0.06705969 -0.15216258 -0.06240922 -0.13941213
0000d0 0d e5 dc bd c9 24 1e 3e 01 3a 37 3d 39 fa 5c 3d
       -0.107858755 0.1544372 0.04473305 0.05394957
0000e0 b5 29 54 bd 08 e5 25 3e 31 4e 8b 3d 54 7c ba bc
       -0.051797587 0.1620065 0.06802023 -0.022764362
0000f0 f4 7e 34 be 0a 2e a1 3d 6d 05 68 3e 1b 91 75 3e
       -0.17626554 0.078701094 0.2265832 0.23981135
000100 f1 67 54 3e 3a 1b 46 3e b3 8c 12 3e fc a9 09 3b
       0.20742775 0.19346324 0.14311485 0.002100586
000110 bb 7b 04 3e ae f7 08 3e 18 d3 56 3d fe ac 7d bd
       0.12937824 0.13375732 0.05244741 -0.061932556
000120 2c 67 8c bd d0 5b cc bd 3b 9d 94 3d 98 14 51 3e
       -0.06855616 -0.09978449 0.07256552 0.20418012
000130 fd 70 04 3e db 07 b9 3d 54 de ab 3d 73 fe 39 be
       0.12933727 0.090347014 0.08392015 -0.18163471
000140 34 fa 59 bc cb 05 ba bd bf 85 91 ba 88 b0 ab bd
       -0.013304282 -0.09083136 -0.0011102482 -0.0838328
000150 36 6f 2b 3e ae a8 40 3d a7 3f 7d 3e 89 fc 01 3d
       0.16741642 0.047035865 0.24731313 0.031734977
000160 51 3d 7f 3d 4e 42 ea 3d bf 83 42 3d b3 6b 19 bd
       0.062314335 0.11438428 0.047488924 -0.037456226
000170 40 8d 6f bd 0e f3 8a bd 4f 97 37 3b ca b8 1b 3e
       -0.058484316 -0.0678464 0.002801377 0.1520721
000180 a4 c8 cc 3d af cd 60 3e 82 0e ae 3c 7a ee 1b 3e
       0.09999207 0.21953462 0.021247152 0.1522769
000190 cc 57 78 3e 60 58 33 3d ea 01 09 be 96 82 e6 3d
       0.24252242 0.043785453 -0.13379636 0.11255376
0001a0 07 c3 eb 3d 6a a1 7e 3d 85 ae af 3d 82 ee c1 bd
       0.11511808 0.062165655 0.08578209 -0.0946932
0001b0 32 c7 12 bd 85 04 a1 3e 90 99 4c be a7 32 cc 3d
       -0.0358345 0.3144876 -0.19980454 0.09970599
0001c0 38 20 85 3e 84 9c 6b bd 6e 15 c3 bd 03 90 09 be
       0.26001143 -0.05752231 -0.09525572 -0.13433842
0001d0 37 ae e8 3d fb dd 98 bd 19 42 0e be 4a ef f7 bc
       0.11361354 -0.074642144 -0.13892402 -0.03026547
0001e0 4b 30 64 3d eb 29 ed bd 06 55 b9 3d df 46 c6 bd
       0.05571012 -0.11580261 0.0904942 -0.09681486
0001f0 c5 10 a8 3c c9 c1 ec 3d e1 96 1c 3d 4a e9 1b 3c
       0.020515809 0.11560399 0.038229827 0.00951607

net.2.weight f4 [128, 128]
000000 30 29 05 be e8 d2 2e 3e a0 4b 3e 3e 6e 27 8c be
       -0.13003993 0.17072642 0.18583536 -0.27373832
000010 1c 35 db bd 7a cf b9 3e eb 2c 23 3d 0b aa 0e be
       -0.10703489 0.36291105 0.03983776 -0.13932054
000020 67 a3 3a bd 84 d2 e6 bd 6c f3 ce bc a0 fd 9f 3d
       -0.04556599 -0.112706214 -0.025262557 0.07812047
000030 21 d0 3e bd 45 de 14 3e ab 7b 9a 39 ec 21 3f 3e
       -0.046585206 0.14537914 0.0002946531 0.18665284
000040 17 30 b4 3c 6a 27 97 3e 61 03 ef bc 19 98 10 3e
       0.021995587 0.29522258 -0.029176416 0.1412052
000050 30 14 d4 bd 8b 5f cf 3d ad 2a 27 3d fa 11 ef bc
       -0.10355413 0.10125645 0.040812183 -0.029183377
000060 9e 7e 98 bd d1 ad 0f 3e c9 c2 c7 3d 88 29 37 3e
       -0.07446025 0.1403115 0.09753949 0.17886937
000070 8e 00 9f be 72 fa a8 bc 47 0d 76 3c 82 a8 1c be
       -0.3105511 -0.020627234 0.015017814 -0.15298656
000080 4d fb 7c 3c f3 e3 37 3e fb 7e 17 3d 79 62 ba 3e
       0.015440774 0.1795805 0.036986332 0.36403254
000090 3f 43 fc 3d cf 0c ea bc fa ca a3 3d fa 28 7a bd
       0.12317514 -0.02857056 0.07997699 -0.061074235
0000a0 c7 7f fe bd 62 c8 05 be f0 19 04 be 04 61 a5 bd
       -0.12426715 -0.13064721 -0.1290052 -0.08075145
0000b0 dc 63 14 3e ed ca f2 bd e1 95 fd 3c dd 50 00 3e
       0.14491218 -0.11855111 0.030955257 0.12530847
0000c0 1c 93 0c 3e da 14 30 3e 17 26 dd 3d 8c 81 96 3e
       0.13727993 0.17195454 0.10798281 0.2939571
0000d0 f0 68 cd bd 01 4f a2 bd 54 24 64 3e ce 5b 6a 3e
       -0.10029781 -0.07925225 0.22279483 0.22886583
0000e0 ab 0b 57 3e 1d 18 e0 3d 87 d1 1d bc 30 d1 08 3d
       0.21000545 0.10942099 -0.009632475 0.03340262
0000f0 2d 54 86 3e 0d 34 67 bd a0 aa 5c 3e 9e 6e f4 3d
       0.26236096 -0.056446124 0.21549463 0.11935161
000100 a3 d6 29 3d 49 7c 3c 3e 63 df 6a be 42 47 08 3e
       0.04146446 0.18406786 -0.22936778 0.13308433
000110 7e 6c 3c 3d b8 69 4d be 5c be cd 3d a1 06 96 3c
       0.046001904 -0.2005986 0.10046074 0.018313708
000120 ee 56 8b bd cd 0a ab 3e a7 e0 91 be 7c 98 ed 3d
       -0.0680369 0.33406678 -0.2849171 0.1160135
000130 fe 19 de 3d 69 fa 48 3d 31 e4 a5 3d 55 6b 1b be
       0.10844801 0.049066935 0.08100165 -0.15177663
000140 7a ee 13 be 19 38 74 3d 9c f6 83 3e 81 2b a3 bd
       -0.1444644 0.05962381 0.25774086 -0.07967282
000150 2c d7 9e bb da 06 65 3d ee 47 1a 3e 15 94 bb bd
       -0.004847428 0.055914737 0.15066501 -0.09159104
000160 fe 3e e0 3c 9d 37 98 be 21 f0 89 3c f3 8f 8e be
       0.027373787 -0.2972993 0.016838135 -0.278442
000170 f9 bc b2 3b b2 96 ad 3e e8 7a 13 be a6 01 6c 3e
       0.005454656 0.33904034 -0.14402354 0.23047504
000180 74 36 e6 3d 72 c1 56 3d c8 b1 25 3e b4 44 14 3d
       0.11240855 0.052430578 0.161811 0.036198333
000190 24 04 b0 3b 89 7e 54 be 65 6c a4 3e c9 31 9f bd
       0.0053715874 -0.20751394 0.32113948 -0.07773168
0001a0 80 cb a9 bc a4 8e 38 be d8 61 7a 3b 03 c2 8f bd
       -0.02072692 -0.18023163 0.0038205292 -0.07019427
0001b0 0b 0f 2d 3e af d8 e9 bd c7 1e 46 be 43 b7 36 3b
       0.1690027 -0.11418282 -0.19347678 0.0027880229
0001c0 06 92 18 3e dc 42 3d 3d 6d 78 ad 3c 1d 99 78 3d
       0.14899454 0.04620634 0.021175588 0.060692895
0001d0 e7 df 01 3e 1c 31 ca 3c f8 aa 2b be 7f 18 2b bd
       0.12683068 0.02468162 -0.16764438 -0.04177141
0001e0 88 f7 27 3d d1 d6 0e bf e5 5c d6 bd 03 2e 3a bc
       0.04100755 -0.55796534 -0.10466937 -0.011363509
0001f0 f5 77 06 3d c8 f2 b3 3e a6 cf 12 be 88 fe b3 bd
       0.032829244 0.35146165 -0.14337024 -0.08788782
000200 36 86 10 3c 7c da 9f 3c fa 9f 23 3e 1f da a6 be
       0.008821061 0.019513361 0.15978995 -0.32588288
000210 d9 16 6d bd 14 92 21 3b 20 20 03 bd 01 06 bf 3d
       -0.057883117 0.002465372 -0.03201306 0.09327317
000220 a0 47 b7 3d 81 36 9a ba 68 42 94 3d 57 e8 4f 3e
       0.08949208 -0.0011765511 0.072392285 0.20303474
000230 33 1f 48 bd e1 f3 47 3d d4 3b 06 bd 29 43 18 3e
       -0.04885788 0.048816565 -0.0327719 0.1486937
000240 2b 03 4e 3c a0 23 f6 3a 97 bd 59 bc db 4a 36 3e
       0.0125739975 0.0018778928 -0.013289831 0.17801993
000250 22 7c 1d be a5 80 d2 ba a3 3a 2b bc d5 ee c7 bd
       -0.15379384 -0.0016060068 -0.010450992 -0.097623505
000260 47 35 ac 3c e0 04 4e bd 5a b0 49 3c 5d ef f3 3d
       0.021021498 -0.050297618 0.012310112 0.11910889
000270 e8 5e c8 3e 0f ae c2 bd 45 ab a9 3e fd 88 3a be
       0.39134908 -0.09505855 0.3313848 -0.1821632
000280 b0 0d 70 be 5a 6f 13 be ff fd bd bc 02 76 b2 3e
       -0.23442721 -0.14397946 -0.023192404 0.34855658
000290 c7 bc 07 bf f4 44 5c 3d 5d 16 4c 3c 76 e6 a8 bc
       -0.53022426 0.053776696 0.012456504 -0.020617705
0002a0 f2 d8 1c 3e 9f 50 da bd 97 6b 85 3d c9 b4 38 3d
       0.15317133 -0.106599085 0.06514662 0.045094285
0002b0 19 fd a0 bc 5f f0 01 be 7b 83 2e bd 58 3f bb bd
       -0.019651936 -0.1268935 -0.04260586 -0.09142941
0002c0 af 27 1f bc 0d 96 3e 3d 10 0f 14 3d f0 fe bb 3c
       -0.009714051 0.04652982 0.036147177 0.022948712
0002d0 0e 93 24 3d fb 7a f6 3d 50 55 57 3e e0 6f c0 3c
       0.040179305 0.120351754 0.21028638 0.023490846
0002e0 0c 63 15 3e 06 50 de bd 51 03 60 bc 84 f7 7c 3e
       0.14588565 -0.10855107 -0.013672666 0.24703795
0002f0 13 de 20 3e f5 b0 0c 3d 55 c3 e5 3d 07 e0 0d 3e
       0.15709715 0.034348447 0.11218897 0.13854991
000300 28 5f 88 3d fd 19 25 3e 7c da 80 3d d9 01 cf 3d
       0.066587746 0.16123195 0.062916726 0.10107774
000310 be e4 d4 3d a1 14 77 bd 24 4c 4a 3d 62 67 54 3c
       0.103951916 -0.060322408 0.04938902 0.0129641015
000320 62 db c4 bd 69 e3 c8 bb 9c 18 6e 3d 99 b5 02 be
       -0.096121565 -0.006130625 0.058128938 -0.12764587
000330 74 33 2a 3e 67 1c 27 3d 06 72 9a 3d db e9 1d be
       0.1662119 0.04079857 0.075412795 -0.1542124
000340 f4 37 d5 bd 50 da 39 3e d2 ed 72 3c db fb 7d be
       -0.10411063 0.18149686 0.014827209 -0.24803106
000350 c8 df 89 bd 34 ab 60 3d 52 da a4 bc 30 6c c0 3d
       -0.06732136 0.054850772 -0.020123634 0.09395635
000360 25 1f 68 bd 33 1f 94 bc fc 3e bc 3d cf f9 af bd
       -0.056670327 -0.018081283 0.09191701 -0.08592569
000370 8e 39 e8 bc c2 1e 76 3e af 8d c4 3c e7 b6 a3 3d
       -0.028347757 0.2403517 0.023993341 0.0799387
000380 df a1 7a 3d 18 ba 85 bd b1 a5 42 3d cf 97 a9 bd
       0.06118953 -0.06529635 0.047521297 -0.08280908
000390 7b 90 32 3e f6 91 7f bd 24 c3 7c be e5 31 c3 bb
       0.17437927 -0.06239506 -0.24683815 -0.0059568756
0003a0 cf 33 93 bd 26 fd b1 3d 97 17 0e 3e 07 86 57 3d
       -0.07187616 0.08690862 0.13876186 0.052618053
0003b0 18 bd 20 3e 38 87 46 be a2 5d a8 3d aa ef 56 3d
       0.15697134 -0.1938752 0.08220984 0.052474655
0003c0 e5 e8 3a 3d 74 5e 51 3d 74 c4 eb 3d df b6 36 3e
       0.04563226 0.05111547 0.1151208 0.17843197
0003d0 8c eb f2 3d 8a f3 fc 3c 0f 3b c6 bb 4f 9b 8e be
       0.11861333 0.030877847 -0.006049521 -0.27852866
0003e0 a2 43 35 3d 8a e5 e4 bd 38 12 4b be 42 8a c1 3d
       0.044253953 -0.111765936 -0.19831169 0.09450199
0003f0 df 6a 22 bd 7d 60 fa 3d 94 6e 5b 3e b2 00 95 be
       -0.0396527 0.12225435 0.21428901 -0.29102093

net.2.bias f4 [128]
000000 63 8e f4 3d af ab d5 3c 81 a2 f4 bc 7c e5 98 3c
       0.119412206 0.026082842 -0.029862644 0.018664114
000010 d5 e1 e6 3d 4c af 46 3d 9a a1 92 bd 8f 17 c6 3c
       0.11273543 0.04850702 -0.07159729 0.024181155
000020 46 a0 5f 3d 24 97 ad bd 62 e3 b9 bd db 10 0e 3c
       0.054596208 -0.084760934 -0.09076573 0.008671011
000030 f6 db 21 3d 8c 84 17 bd 74 7d 18 bd 48 9b 39 bd
       0.03951641 -0.03699164 -0.037229016 -0.045314103
000040 47 d3 f2 bb d2 85 4f bd e1 2b 81 bd 09 0a 08 bc
       -0.00741044 -0.05066473 -0.06307197 -0.008303174
000050 a2 40 86 bd f0 af a3 3d 56 cf 39 3d 0f b0 bb 3d
       -0.065552965 0.07992542 0.045363747 0.0916444
000060 d2 64 0e 3d 15 31 50 bd ef a0 85 bc 51 53 a8 3b
       0.03476412 -0.05082806 -0.01631209 0.005136885
000070 d7 ba c5 3c b3 8a fb 3d 6c c9 82 3d c8 ae 56 3d
       0.024136944 0.12282314 0.063860744 0.05241278
000080 a4 d0 7f 3d 1d 86 ea bc 90 e9 62 3d e3 0d 00 bd
       0.062454835 -0.028628403 0.055398524 -0.031263243
000090 ad a4 11 3d 7a 00 bc 3d 98 7c b6 bc 9e 7e 6c 3d
       0.035557438 0.091797784 -0.022276208 0.05773794
0000a0 90 80 29 3d 3c 5d ff 3c 01 ce e6 3d 48 a4 c8 3d
       0.041382372 0.031172387 0.11269761 0.09796959
0000b0 53 90 e3 3b 8e b8 13 3d 1f a6 47 bd 6e 9b 6a bd
       0.006944695 0.036064677 -0.04874241 -0.057277136
0000c0 cc ec 6c 3d 30 e7 ca 3b 10 f5 82 bd 38 b6 9a bb
       0.057843015 0.0061921105 -0.06394398 -0.004721429
0000d0 85 de 45 bc 6d 50 5f 3d 73 da 99 3d ec 11 c4 bc
       -0.012076979 0.05452006 0.07512369 -0.023934327
0000e0 9d a0 b4 bd 81 b9 a8 3d cf 69 6f bd c9 04 02 bd
       -0.08819697 0.08238507 -0.058450516 -0.031742845
0000f0 07 c8 06 3d 92 0c 63 bd 11 49 e9 3b 38 e9 37 bb
       0.032905605 -0.05543191 0.007119306 -0.0028062593
000100 70 f4 75 3d 60 3f b0 3d 42 cf aa bd 00 2c ab bd
       0.060047567 0.08605838 -0.083403125 -0.08358002
000110 fb d2 97 39 9c 10 4a bd 0d b7 47 3d d5 f5 86 3c
       0.00028958157 -0.049332246 0.048758555 0.016474644
000120 51 51 13 bd 2a 95 81 3d 24 fa c5 3d 0c 96 0d bd
       -0.03596622 0.06327279 0.09666851 -0.034566924
000130 9f 50 1e 3d 95 9a a9 3d 3e 68 0a 3d 98 76 06 3d
       0.038651105 0.08281437 0.03379082 0.032827944
000140 b7 68 1a 3d 9d 14 7a 3d fc c9 45 bd 4d 0f b9 bd
       0.03769752 0.061054815 -0.04828833 -0.090361215
000150 c8 92 52 bd 31 4c c5 3c af a6 f8 3b 3e cf 7a bc
       -0.051409513 0.024084182 0.0075882296 -0.015308199
000160 1f fa 2d 3d 4b 67 72 3d 9a 82 c1 3d 89 8f 40 3d
       0.042474862 0.05918054 0.094487384 0.047011886
000170 98 f0 dd bc c5 df 93 bd a6 5a e8 3c 34 24 6a 3d
       -0.027092263 -0.07220415 0.028363537 0.057163432
000180 da ad 39 bd de a6 fa bc 45 17 b6 3d ce a1 18 bd
       -0.045331813 -0.030597147 0.08891157 -0.037263684
000190 c8 20 f4 b9 32 e7 a7 3d af 9a e3 3d 6e 5b a7 3c
       -0.0004656373 0.08198394 0.11113488 0.02042934
0001a0 0c da ec 3c b7 61 bd bd bf f5 f0 3c 56 52 96 3d
       0.028912567 -0.09247153 0.029414056 0.07339923
0001b0 fb ad 59 bd fb 80 2d bc 0f 02 35 3c 7a 66 d0 3d
       -0.053144436 -0.010589833 0.011047854 0.10175796
0001c0 b8 1c 97 3d 4a 6d ea ba 5d 14 b9 3c 49 e7 10 bd
       0.073785245 -0.0017885354 0.022592718 -0.03537682
0001d0 f2 e1 b8 bb d8 50 59 bd c3 27 a2 3d b3 05 96 3d
       -0.005642169 -0.053055614 0.0791774 0.07325306
0001e0 d4 84 a9 bd 89 13 2a bd ea 52 df bc d5 8d 14 bd
       -0.08277288 -0.041522536 -0.027261216 -0.036268074
0001f0 e5 66 a5 bd 67 a7 01 bc 15 07 b9 3b 43 ca 6f 3c
       -0.08076266 -0.007913447 0.005646596 0.014635625

net.4.weight f4 [7, 128]
000000 1e d4 65 3e 37 6a a6 3d 26 ea 84 bc 98 41 a5 bd
       0.22444198 0.081257276 -0.016224932 -0.08069152
000010 3b 74 6f 3e 32 94 0b be 60 4c d1 be 59 98 e2 3e
       0.23384182 -0.13630751 -0.40878582 0.44256857
000020 3b 86 84 bd d1 76 3f bd 2e a6 de bb 0c 3e c9 3e
       -0.06470915 -0.04674417 -0.0067947125 0.3930515
000030 74 0a 80 bd ee c8 04 3e cb 67 97 39 96 01 22 3e
       -0.06251994 0.12967274 0.00028878296 0.15820917
000040 fd 58 23 be 85 d1 74 3c 5e 8a 51 bf 7a ba fd 3d
       -0.15951915 0.0149425315 -0.81851757 0.12389083
000050 84 9a 00 be f0 27 93 bc 89 01 f2 3d f5 5d 3b 3e
       -0.12558943 -0.01796338 0.11816699 0.1829756
000060 53 0f 5a be 66 db ab bc 31 67 a5 be 12 5b 6b bc
       -0.21294908 -0.02097864 -0.3230529 -0.014364975
000070 b2 8e e8 bd b8 2f 67 3e cc 86 71 be 09 c5 a8 3c
       -0.11355342 0.22576797 -0.23586577 0.020601766
000080 ef c8 ee 3d d1 88 e4 3c 9e 69 c1 be 17 c8 c1 3e
       0.11659419 0.02789727 -0.37775892 0.3784797
000090 5a f5 bd 3d 8e 27 9f bd d6 3f a5 be ee 9f b2 bd
       0.09275313 -0.07771216 -0.32275265 -0.087219104
0000a0 51 4a 4b 3e 49 58 23 bf 69 f2 d1 bd d8 a0 ac 3e
       0.19852568 -0.6380659 -0.10251314 0.33716464
0000b0 59 7a 00 be f7 a3 92 3c 79 3c b7 3d eb 1b 70 bc
       -0.12546672 0.01790045 0.08947081 -0.014655094
0000c0 e3 53 28 bf 57 24 70 3d 4e 4b 94 be fd a7 8d be
       -0.65753 0.058628406 -0.28963703 -0.27667227
0000d0 36 df b1 3e ca 7b 5b be e5 02 c7 3d ab e5 82 bd
       0.3474061 -0.2143394 0.09717349 -0.06391462
0000e0 84 06 8c bd c7 c1 13 3e ce 4b aa be 22 3d 95 bc
       -0.0683718 0.14429389 -0.3326096 -0.018217627
0000f0 dd 1b e2 bd 96 a3 49 3e 4b 85 47 3e bf c1 3b bd
       -0.11040471 0.1969131 0.19484441 -0.045839068
000100 a6 f0 2e 3d 4d a9 31 3d 90 7d 85 be 9e 43 c4 bd
       0.04270997 0.04337435 -0.2607236 -0.095832095
000110 6d 22 32 bc 58 b6 bb be 06 de 1a bf 7a 48 a0 bd
       -0.010872466 -0.36662555 -0.6049503 -0.07826324
000120 5d 21 60 bd c9 54 9d bc 8f f8 b9 3b d1 fe 06 bf
       -0.054719318 -0.019205468 0.0056753824 -0.5273257
000130 d8 db eb 3e e5 41 b8 3e a9 bb 9e bd cd 21 31 be
       0.46066165 0.35987774 -0.07750637 -0.1729805
000140 4f 4a c0 3e b6 aa 2b bc 41 2e 76 3d 71 d6 8e be
       0.37556693 -0.010477712 0.060102705 -0.2789798
000150 e4 cb fe bd 82 b5 7a 3e cd fb a8 3d 94 d9 6d bc
       -0.12441233 0.24483302 0.08251152 -0.014517207
000160 b2 6b be 3d b5 b4 2a 3e d7 79 00 3e 62 a1 34 3e
       0.09297885 0.16670497 0.12546478 0.17639688
000170 0b b5 3b bd 82 52 23 be 66 13 fa be 15 02 91 3d
       -0.045826953 -0.15949443 -0.48842925 0.07080475
000180 b8 02 09 3e 7a 55 70 bb b0 28 d0 3d 26 ad be 3d
       0.13379943 -0.0036672042 0.101640105 0.09310369
000190 d0 17 ae bd 96 6c 09 be 97 b5 43 3e d8 02 32 be
       -0.085006356 -0.13420328 0.1911224 -0.17383897
0001a0 2d a8 b2 3d 36 20 76 3d 08 6e 8d be 98 10 73 3e
       0.08723483 0.060089312 -0.2762301 0.23736799
0001b0 55 86 be be 7d 7e 00 bf 3f 9f 4b 3e e1 5b f7 bd
       -0.37211862 -0.50193006 0.19884966 -0.120780714
0001c0 56 ae 12 3e 71 9b 48 3e d1 e8 ee 3d 11 53 aa 3e
       0.14324316 0.19590546 0.116655 0.332665
0001d0 6c 0f 8b 3e 67 01 b7 bd 96 8e 63 3d 82 6d b1 bd
       0.27160203 -0.08935814 0.055555902 -0.08663465
0001e0 0f c2 7b be 37 e3 6b be de 08 3e 3e 18 fd 01 3e
       -0.24585746 -0.23035894 0.1855807 0.12694204
0001f0 02 a6 e6 be 64 6e 28 be c8 41 bc 3d 14 24 ac be
       -0.4504853 -0.1644836 0.09192234 -0.33621275
000200 a7 d1 d0 3d fe 46 1c bc 5e 3e 8a bd b9 28 e1 bd
       0.10196238 -0.00953841 -0.06750177 -0.10994095
000210 74 9d 1c 3e 4d 73 3f 3e 11 f0 18 bd 4e 0d 40 3d
       0.15294439 0.18696328 -0.03733832 0.04688769
000220 2d 56 aa 3d b3 5b 9a be 2d 23 0c bd df e6 a1 be
       0.08317218 -0.30148086 -0.034213234 -0.31621453
000230 16 11 33 be a2 52 d2 be 78 42 33 bd 19 e1 8a bf
       -0.17486987 -0.4107867 -0.04376456 -1.0849944
000240 de 1d 93 be d8 5c 5e bd ce 93 af bd a6 97 d3 3d
       -0.28733724 -0.05428776 -0.085731134 0.10331659
000250 30 fa 02 3e 4a 2f 01 3f f2 d2 a7 be d4 35 5d 3e
       0.12790751 0.5046278 -0.32778126 0.21602565
000260 d7 e6 e4 3d 02 c0 87 bc cd c0 c0 3e 80 8f 46 3e
       0.11176842 -0.016571049 0.37647095 0.19390678
000270 df cc 81 be cb 44 b0 3e 40 6e 36 3d f6 a9 c6 be
       -0.25351617 0.34427485 0.044538736 -0.38801545
000280 39 99 b3 3d ec 75 dc be 1e 31 36 be 77 31 61 bf
       0.08769459 -0.43058717 -0.17792174 -0.879661
000290 87 26 91 3c c0 8b b6 3d e8 e9 c7 bd 15 62 79 3e
       0.017718567 0.08913374 -0.09761411 0.24353822
0002a0 ac f0 9e bd bf 63 46 3e 53 6d 3e 3e a4 f5 0c 3e
       -0.07760748 0.19373988 0.18596391 0.1376558
0002b0 b8 5e 64 bd 91 b7 14 3e 9d 16 30 bf a3 02 79 bd
       -0.055754393 0.1452315 -0.68784505 -0.06079353
0002c0 39 0a 2e be 17 03 3f bd 85 c2 15 3e 71 d9 83 3d
       -0.16996087 -0.046633806 0.14624985 0.06437958
0002d0 cd 71 22 bf b4 96 85 3e 17 61 29 bd 1d 11 27 be
       -0.63454896 0.2609154 -0.041352358 -0.16315122
0002e0 a4 fe a1 3e 19 22 b3 be 9a 71 a6 3e 03 a6 c0 3e
       0.31639588 -0.34986952 0.32508546 0.37626657
0002f0 f0 10 f0 3d 41 0b 20 bf 73 ea 87 be 3b 46 0f 3e
       0.117219806 -0.6251717 -0.26546058 0.13991635
000300 04 39 e1 3d b5 21 9b bd d5 94 94 bd c1 ec 7b be
       0.10997203 -0.075747885 -0.0725495 -0.24602033
000310 ca 17 5c 3d a4 c1 54 be f3 a7 67 bc 9e 3a 81 3e
       0.053733625 -0.20776993 -0.014139163 0.25240034
000320 cf 0a 5c bc 53 82 22 3e 9f d2 14 3c 35 d3 f3 3e
       -0.013430311 0.15870027 0.009083419 0.47622076
000330 3e dd b6 be cb 15 1b be 71 e7 46 bd ff 7f dc 3c
       -0.3571567 -0.15145032 -0.048560563 0.026916502
000340 6d 68 ad 3e ec 2d 7a bd df e5 73 3e 78 31 15 3e
       0.33868733 -0.06107895 0.23818158 0.14569652
000350 6b 25 52 be 00 76 09 be 84 2c 33 3e ce d4 1b 3e
       -0.20522086 -0.1342392 0.1749745 0.15217897
000360 b3 da 59 bd 35 f0 e9 3d 12 c2 d5 be 12 2a 46 3e
       -0.053187083 0.11422769 -0.41749626 0.19351986
000370 c8 0d 95 3d 86 e1 01 be b7 d3 22 bf 7b 5e 27 3d
       0.07278019 -0.12683687 -0.636043 0.040861588
000380 1b 0d a4 3e 4f 93 c3 bb 7e 7d 22 3e bf f9 c8 3d
       0.3204125 -0.0059684883 0.15868184 0.0981326
000390 96 6c ee be 69 9c 09 3e 43 00 0a 3d a8 de 39 3d
       -0.4656722 0.13438572 0.033691656 0.045378357
0003a0 3a c9 9f be 0d 32 92 be 18 ca 6b 3e 99 02 bb be
       -0.3120821 -0.2855381 0.23026311 -0.3652542
0003b0 c1 c5 10 bf 65 39 0d bd 69 58 6d be 26 5d b8 3d
       -0.5655175 -0.034478564 -0.23178257 0.09002142
0003c0 61 17 1d 3e 23 81 a9 bd 64 ff 1b 3e cf 42 62 bd
       0.1534095 -0.08276584 0.15234143 -0.055239495
0003d0 ec 86 b5 3c 92 c3 08 3e 0f 09 31 bd 84 e4 48 3d
       0.022159062 0.13355854 -0.04322153 0.049046054
0003e0 1b d5 0e 3e 35 d5 3c 3d 4b 0d 06 be d5 30 ee be
       0.13948481 0.046101768 -0.13091008 -0.4652163
0003f0 56 4d 7e be 19 f7 3d 3e 6b 49 95 3d 92 c8 a0 bd
       -0.24834189 0.18551292 0.07289394 -0.07850756

net.4.bias f4 [7]
000000 f6 a4 f4 3d 28 dc 81 3d 18 b9 47 3d 08 b0 04 bb
       0.11945526 0.063408196 0.048760504 -0.0020246524
000010 ad 0f 8b bd ed a2 08 3d 73 85 b1 bb
       -0.06790099 0.033358503 -0.0054175197
