coup_nsfp/10kEpisodes/nfsp_coup_demo_best_agent_block.pt (torch, 84341 bytes, 6 tensors)

net.0.weight f4 [128, 26]
00000000: e60e d43c 2768 e4bd 86f8 2bbe 0491 7fbe
00000010: 3eb4 80bd fa19 20be 5722 32bd 9081 3cbd
00000020: 1e04 6dbd aa1c 3d3e 843f 023e 98ac 383e
00000030: 6958 02bd 44f7 3d3e 6c37 b43d fa35 eb3d
00000040: 1826 ba3d 2513 8bbd 8315 043d af05 583d
00000050: 1c05 6f3d 211c 22be 9b1d 203e 1ad9 683e
00000060: 7b35 41be 397c 0e3e 56c3 203d 6561 84bd
00000070: 7814 1cbe f0bc aabd 946b 1ebd 9e7f 3abe
00000080: 36d7 f23d bb45 003e cc8f 06be 3c26 05bd
00000090: b4fb 19be 5b55 193c bffc 25be b700 233e
000000a0: bf63 163e 3636 7ebc a2da ef3d ec6a 473e
000000b0: 2e53 8c3c 3ec8 9ebd 2bbb e6bd fd58 253c
000000c0: d41f e1bd adc1 9e3d 571b 283e b8e2 c23d
000000d0: 0d5a 633c 3fc6 0cbd 4441 88bd 47a1 233e
000000e0: 94b5 323d 23c8 a93d 9a7c e83d 1cbe b23c
000000f0: e984 283d cf6e aa3c 6f4f 65be f54e 233e
00000100: 643d 32be 10bf 7ebd 8e66 7dbe ee80 b2bd
00000110: bb37 183c b168 07be 6317 e73d eb21 363e
00000120: c6c8 7abe 320e c53d e721 dfbd 5a1b 22be
00000130: 1c72 febc 89e0 313e 1ad7 4b3e 9210 d9bd
00000140: 6dc8 243d 538e 1d3e 59d7 8f3d 9b81 8c3d
00000150: dd8b ddbd 9f6d 463e ea24 9bbd f0c6 08bd
00000160: 250e 613e 4e12 5ebd 06f8 2cbe 446d a23d
00000170: 6498 07be 2e2d ab3c b0c5 c8bc 8f2c b1bd
00000180: f8ee e7bd 6a21 bebb 618d a13d 38ed 18be
00000190: 0159 c5bd f63e 0abe fa3b d1bd 6889 eabd
000001a0: c625 0dbe 81e1 433d a2e2 423e 6487 85be
000001b0: 031a 8a3d ee4d 2a3c 2298 98bd 16e9 63bd
000001c0: 614e 35be 5591 2f3d ac8b 133e c26a 183e
000001d0: eb43 9ebc 3eb3 f63d 0722 56be 6b4b 1cbe
000001e0: 2aa2 b83c 8fb5 a7bd 4bde 313d c57c 1f3c
000001f0: 74d0 0c3d 12ce cabc abf5 763c ef2e cf3b
00000200: 766e 193e f7e5 423e f08e 963c 7ef1 d93d
00000210: 5361 573e 5d8b 14be c428 cbb8 0b41 123e
00000220: 1582 1bbe 33da c0bd 9f7d 133e 8ba4 1fbe
00000230: d435 fabd 3e41 43bd 2fdc 3ebe 872b 073e
00000240: 02b1 4ebd 37ae 2fbe b3f3 3fbd 607a 443d
00000250: cd46 bcbd fd04 8a3d e576 a1bd fe97 b8bd
00000260: 881a e2bc d3c1 d23d 5ecf e03c 8435 91bd
00000270: f75b 0cbe 374d e4bd 1af0 33be 100c 373d
00000280: d503 243e 9eb3 623d ec21 2a3e 6f3b fb3d
00000290: d1e5 343d bfea 0dbe 73fd c43d fae8 ae3d
000002a0: 9cf1 883d 4d67 1e3d b409 633d b59d 82bd
000002b0: 53c7 2a3e c5c7 94bd 5ab3 283e f9ae cfbd
000002c0: a037 66be 6598 bc3d d794 c23c 4d04 ebbd
000002d0: 4d1d 393e fe81 02be c6d6 2b3c 7fe7 c33d
000002e0: 2369 fc3d 47c2 ccbd bc62 cebd ecc4 1b3e
000002f0: aee3 083e 408b 4f3e 96c3 2fbc 0dd6 103e
00000300: 42a4 3cbe b5c7 093d a448 bd3d ed19 123e
00000310: c783 eb3d 2fa5 4c3e 2eaa 4ebe b137 0bbe
00000320: b208 bfbb 9877 4e3e 95d7 103d 793d 46be
00000330: 94af e03d 736f 1ebe 6c8c ce3d 57cf 92bd
00000340: 30c4 3a3e ca78 703e a6ea 67be 7333 293e
00000350: f5c6 fc3d 981d 63be 0696 0cbe f441 fcbd
00000360: 6680 83bc d01b 33be 9a23 b2bd 76e3 1b3e
00000370: a5c6 6c3d 0282 033d 537c 03be 4305 39bc
00000380: 9d03 6b3d da5d cdbd 0132 3fbd ef53 76bd
00000390: f776 e23d 1389 913d 5d91 29be 1be8 4b3e
000003a0: cac9 c93d 319a b83d 1f0f 08be 1c49 8dbc
000003b0: 6d11 843d 866a a13d 53b8 573c 549f 42bd
000003c0: ee22 6c3d 0f5c 92bd 28c9 f9bc f14d 1cbe
000003d0: eca9 3cbe b6bf 34be a409 493e cc75 173e
000003e0: 6761 13be c3cb 993c 7b37 5b3c cc4a 253e
000003f0: e59f b43d aa42 85bd fb58 403e 4310 4abd
0.02588601 -0.11152678 -0.16794023 -0.24957663 -0.062843785 -0.1563491 -0.04348978 -0.046021998
-0.057865255 0.18467966 0.12719542 0.1803459 -0.031822596 0.18551356 0.087996334 0.114849046
0.09089297 -0.06790761 0.032247078 0.052739795 0.058354482 -0.15831043 0.15636294 0.22739068
-0.18868057 0.13914575 0.039248787 -0.06463889 -0.15242183 -0.08336818 -0.038676813 -0.18212745
0.118574545 0.125266 -0.13140792 -0.032507166 -0.15037423 0.009358729 -0.16209696 0.15918241
0.14686488 -0.015515855 0.11711623 0.19474381 0.017129507 -0.07753037 -0.11266168 0.010092017
-0.10992399 0.077517845 0.1641668 0.095158994 0.01387645 -0.03436875 -0.066530734 0.15979491
0.043630198 0.08290126 0.11351891 0.021819167 0.041142378 0.02080479 -0.22393583 0.15948088
-0.17406231 -0.06219393 -0.24746153 -0.08715998 0.009290631 -0.1322353 0.112837575 0.17786376
-0.24490651 0.09621848 -0.10895138 -0.15830746 -0.031060271 0.1737081 0.19906273 -0.10598864
0.040230203 0.15386324 0.07023496 0.06860658 -0.108176924 0.19377755 -0.075754 -0.033392847
0.21978052 -0.054216675 -0.16891488 0.07930997 -0.13241726 0.020895567 -0.024508327 -0.08651077
-0.113248765 -0.005802323 0.07888294 -0.14934242 -0.09636117 -0.1350058 -0.10216518 -0.114519894
-0.1378394 0.04782248 0.19031766 -0.26079857 0.067432426 0.010394556 -0.07450892 -0.05564221
-0.1770568 0.04286321 0.1440875 0.14884475 -0.019319495 0.120459065 -0.20911418 -0.15263145
0.022538263 -0.081889264 0.043424886 0.009734337 0.034378484 -0.024756465 0.01507322 0.0063227336
0.14983544 0.19033037 0.018378705 0.10641764 0.2103322 -0.14506288 -9.6873875e-05 0.14282624
-0.15186341 -0.09416618 0.1440339 -0.15590112 -0.12217298 -0.04766964 -0.18638681 0.13200198
-0.050461777 -0.17156301 -0.04686327 0.04796827 -0.09193192 0.06739233 -0.078840055 -0.09013365
-0.027600542 0.10290875 0.02744263 -0.070902854 -0.13706957 -0.1114754 -0.1757206 0.044689238
0.16017087 0.055347078 0.16614503 0.122671954 0.044164483 -0.1385908 0.09618654 0.085405305
0.06686708 0.038672734 0.055429175 -0.063777365 0.16677599 -0.072646655 0.16474667 -0.10140795
-0.22482157 0.092087545 0.023752613 -0.1147543 0.18077584 -0.127449 0.010488218 0.09565639
0.12324741 -0.09997993 -0.10077426 0.15211838 0.13368103 0.20267963 -0.010727784 0.14144154
-0.18422034 0.03363772 0.09242371 0.14267702 0.11499744 0.19984888 -0.20182106 -0.13595463
-0.005829894 0.20162809 0.035361845 -0.19359387 0.10970989 -0.15472202 0.10085377 -0.07168453
0.18238902 0.23483577 -0.22648105 0.16523533 0.123426355 -0.22179258 -0.13729104 -0.12317267
-0.016052436 -0.17491078 -0.08698197 0.15223488 0.05780663 0.032106407 -0.12840395 -0.011292758
0.057376493 -0.100276664 -0.046678547 -0.06013864 0.11057847 0.07106223 -0.16559358 0.1991276
0.09852941 0.09013785 -0.13287018 -0.017246775 0.06448636 0.07881646 0.013166505 -0.04751523
0.0576505 -0.07146465 -0.030491427 -0.15264107 -0.18424195 -0.17651257 0.19632584 0.1479103
-0.14392625 0.018773919 0.013379927 0.16141814 0.0881956 -0.06506856 0.18783943 -0.049331915

net.0.bias f4 [128]
00000000: 5e6e 003d 0819 0a3e 2714 a2bd 66b8 193d
00000010: f972 dabd fa55 c8bd bed9 a23d 9b2d f23b
00000020: c60e 3b3e 8bfc d5bd b180 09be 351f 03be
00000030: d7a5 95bd c0f8 193e 69bd afbd e16a 6cbd
00000040: 0153 323d 1d36 4f3e 5d99 0b3d a783 ddbd
00000050: 2378 e13c 9dc9 6a3d 40a5 e83c 888f 763d
00000060: b430 333e b28c b1bd 3706 0abe fb81 25be
00000070: 99dd 153e 0dd5 193d 8f56 b53d defa 373d
00000080: 53b4 3bbe 054b 243e c7d1 023d 58ea 0dbe
00000090: f927 60bd 2f7b ce3d affc 1a3e 912f 503e
000000a0: 4b62 21bd f096 4ebd 7f75 e13d 9beb b6bc
000000b0: d44f 153e e1a9 15bd b7f0 853d 2f00 383e
000000c0: 3169 33be c8b2 3d3e 1ca7 0bbe efe1 12be
000000d0: 63f1 b1bc 227b 263e 838e 0cbe 4f2d 413e
000000e0: 604a 3f3d beeb c63c bdad 243d bcfe 293d
000000f0: f0c8 ba3d 393e 333e ef90 a3bd 10a9 0d3e
00000100: c63e 363e b55f 3ebb b726 573b 94d0 d0bd
00000110: 1f99 463e 796d 913d 9429 c63d 71f7 b1bc
00000120: b526 7c3c ea19 2abe f5d8 c2bb f94e 26bd
00000130: f649 373e 7f57 3d3e 13a5 253e 188d b73d
00000140: 6257 e83d 087f 6e3c 6f92 1cbd d3ed 243e
00000150: 9c09 bbbd 8d33 19be 585a ab3c d481 b5bd
00000160: 4892 05be 771c eabd dbef cdbd f69f 78bc
00000170: b4aa 87bd 6a7b d0bc 8db8 aa3d eda3 dabd
00000180: 3a07 15be 654b 15bd 1607 363e 9392 e23d
00000190: 5a19 293e 9438 293e 0f77 25be 5074 18bd
000001a0: 5d89 00be 0613 2fbd 6ed3 2c3c 07e3 843d
000001b0: c7c6 38be 01b5 debc b4f3 c4bb 0c51 2a3e
000001c0: eea0 39be 6c6c 2bbe 7125 823d e736 dbbd
000001d0: 9fb3 be3d b81a 5b3e 452c 313e 0a07 9cbd
000001e0: 6df4 a43d 2c7b b3bd 1386 1e3e 19fe 20be
000001f0: 26ad 0d3e 4836 a03d 3e9e 7bbd 779a 373e
0.031355254 0.13486111 -0.07914 0.03752937 -0.106664605 -0.09782024 0.07951687 0.0073906905
0.18267354 -0.104485594 -0.13427998 -0.12804873 -0.07307022 0.15036297 -0.08581049 -0.057719115
0.04353619 0.20235486 0.034081805 -0.10816126 0.027523106 0.05732118 0.02839911 0.060195476
0.17499048 -0.086694136 -0.13478933 -0.16162865 0.14635314 0.037556697 0.088544 0.04491698
-0.18330507 0.16044243 0.03193834 -0.13858926 -0.05472562 0.10082089 0.15135454 0.20330645
-0.03940038 -0.050436914 0.11008739 -0.022329142 0.14581233 -0.036538962 0.06540053 0.1796882
-0.17520596 0.18525231 -0.13637966 -0.14344 -0.021721547 0.16257909 -0.13726239 0.1886494
0.04670179 0.024282333 0.040204752 0.0415027 0.09120357 0.17504205 -0.07986628 0.13834023
0.17797384 -0.0029048745 0.0032829472 -0.10196033 0.19394349 0.071009584 0.09675899 -0.021724435
0.015390088 -0.16611448 -0.0059462734 -0.040602658 0.17899308 0.18490408 0.16176252 0.08962458
0.11344792 0.014556654 -0.038225587 0.16106348 -0.09132692 -0.14961071 0.020917103 -0.088626534
-0.13044083 -0.114312105 -0.100555144 -0.015174856 -0.06624356 -0.025449473 0.083359815 -0.106757976
-0.14553538 -0.036448855 0.1777614 0.11063113 0.16513577 0.16525489 -0.16158698 -0.0372203
-0.125524 -0.04274275 0.010548456 0.064886145 -0.18044578 -0.027185919 -0.006010497 0.1663248
-0.18127796 -0.16740578 0.06354798 -0.10703831 0.09311604 0.21396911 0.17302044 -0.0761853
0.08054433 -0.087637275 0.15480833 -0.1572193 0.13835582 0.07822853 -0.06143021 0.17930017

net.2.weight f4 [128, 128]
00000000: 2fa4 e0bd ef27 883d a1c1 64bd f165 493d
00000010: 1187 8f3d 29f1 953d b814 1dbd a83a c0bd
00000020: 4862 b83d bc1d 85bd a636 a73d c4a4 0f3d
00000030: 29ee fa3c e121 2bbd 6412 e9bd 1cc8 8d3d
00000040: 34f7 2abc 86fa 513d 52c3 413b 3df9 fabc
00000050: 33e6 5abd e21a acbd 5265 013e 1605 cd3d
00000060: 7b5b 04bd 521f 483b 1de2 ffbd ae7a 2ebc
00000070: a6eb 953d 738b a43d ed19 223d b5cf 74bd
00000080: b1f1 6f39 f135 2bbd 0c50 b3bc 41ea 223e
00000090: 9cc3 a4bd 5c53 3d3d 1105 9abc f580 2c3d
000000a0: 77d1 e9bc f432 a2bc 9ad2 823d d663 57bd
000000b0: 6791 daba 7cf8 1c3d 1db3 b43b b14c 983d
000000c0: 6816 263d e6a5 1f3b 6c25 343e 868d b93d
000000d0: 5ef8 4c3d b2f0 91bd cd95 243d 204c b43d
000000e0: bc07 f83c 6c80 533d c485 88bd 95c4 943d
000000f0: dbb7 e7bc 1c2a 103e 7089 87bd b4d9 a8bc
00000100: 1f37 14bd 72b7 28bd f887 82bd 47fe 123d
00000110: 9d38 a53d 59f1 3c3d a015 43bb 157d 993c
00000120: 7e67 02bd 8745 5cbd 396f ab3d 9d0f 9fbd
00000130: 7f97 893d e161 483d ab4e 9a3d 0a88 163d
00000140: ce73 05ba 8f64 6f3b 213b c93c f753 733c
00000150: 1f46 303e 7fde 063e 9431 3fbc aea0 0cbd
00000160: bfc5 9c3d 07b0 823d 6b4d 873c a8e3 a3bd
00000170: c4dd 19bd 74b7 9f3c ba67 ab3b ac47 e0bb
00000180: cf3e 953d caf1 17bb 313c 9ebd 8b47 9dbc
00000190: 788c 493d bccd eabd 571f 85bc 67c7 8d3d
000001a0: 6538 36be ce46 edbb 9e65 b4bd 65aa a03d
000001b0: a255 4a3d c742 0e3d ea09 213c cb68 8fbd
000001c0: 9132 01bd e907 d83c 502f 70bd 16b5 b4bd
000001d0: 98de 90bc c8d3 4a3d 5236 9b3d ab19 663b
000001e0: fe4f 9b3d fc6e 5e3d b7aa c0bd c13a 6a3c
000001f0: 7a5c 3f3d 4530 653b 08d9 1a3d 9b6e a0ba
00000200: 6fab 043c d745 ee3c b7d4 243d f235 2fbd
00000210: 1b75 2c3e a746 e039 312e babb 230b 3bbd
00000220: 5d47 07bd 95c1 d9bd a478 5e3d 0294 d73d
00000230: 7432 b53c 1c22 893d f11e 573d 0890 30bd
00000240: 085d 92bc 7f87 a73d 5eaa fcbc 39e9 4b3d
00000250: 3739 153d b6e7 763d 6c50 2a3d 5115 49bc
00000260: 0e10 b1bd 3f84 ed3d 65ae 013d ce5e 333d
00000270: d3b4 f23c 2be2 df3c 24e4 7abd 6430 b03d
00000280: ad02 33bd 539f 2a3d edce b53d 1c67 2a3e
00000290: 7b85 3abe 4d79 223d 08ed 453d 3a3a a93d
000002a0: c55a 343d 17f0 a2bc 0a5f 8ebd f6a6 0bbc
000002b0: 9a8b 393d 6024 8f3d 7ff3 78bd e903 a13d
000002c0: cdec 2d3e fdb7 c8bd dab3 0d3d e213 983c
000002d0: bb21 e8bc 2b13 19be 25b0 c93c fb20 5e3c
000002e0: 72b2 413a 7a68 e13b 1fd7 a43c 9d22 bb3c
000002f0: bdb2 52bd 82b5 a33d acef b43c e7b4 f23c
00000300: 3dee cb3c df03 913b 1973 0cbe 2d75 c4ba
00000310: 93bd d4bb c28a 873d 3a39 67bd 4ac2 9dbc
00000320: 4857 513d fa00 96bc d5b6 0bbe 8f31 96bc
00000330: 7cab 69bd 90f8 a83c 1e97 ca3b 5bac 893d
00000340: da57 05bd 796e b53d b1be f0bc 73a7 3a3d
00000350: 541a 263e 3337 033e 3f15 9ebd 44a6 0bbd
00000360: f0e7 5c3d e4bb 403d 048b 55bc 4a12 b63d
00000370: 347b 1739 2a20 9ebd 6fa5 f0bc 0986 d5bd
00000380: 88ca 89bc c2d2 e03d 55d9 0abd b877 81bd
00000390: aa11 d2bb 6a60 033d aed3 afbd 60c0 913d
000003a0: 85e0 6e3d 96a4 03bc a8c1 8dbd 8a07 aa3d
000003b0: 2766 96bc f81a 1d3a 0ec5 573d 0193 283d
000003c0: 7750 55ba 49d1 28bd 4b2e c43c fc42 a5bd
000003d0: 348a dc3c 6443 173d fb19 833d f4bb 293d
000003e0: 307b 00bd 2191 1d3d c94a 3c3d c34f 95bc
000003f0: 81ed 5b3d 12b9 f1b9 eb99 833d 691d b9bc
-0.109688155 0.06648242 -0.05584872 0.049169485 0.07008184 0.07321388 -0.038349837 -0.09386188
0.09003121 -0.06499812 0.0816472 0.035069242 0.030631142 -0.041780356 -0.11380461 0.069229335
-0.010434914 0.05126431 0.0029565883 -0.030636424 -0.05344219 -0.08403565 0.12636307 0.10010736
-0.032313805 0.0030536246 -0.124942996 -0.010649366 0.07320337 0.0803441 0.039575506 -0.059768397
0.00022882853 -0.04179949 -0.021888755 0.15909673 -0.08045122 0.046222076 -0.018801244 0.04211517
-0.028542263 -0.019799687 0.06387825 -0.052585445 -0.0016675413 0.03832291 0.005514516 0.07436503
0.040548712 0.0024360358 0.175924 0.090601966 0.05004155 -0.07125987 0.040181924 0.08803582
0.030277126 0.051636145 -0.06666139 0.072640575 -0.028285911 0.14078563 -0.06618011 -0.020611621
-0.03618538 -0.041190572 -0.0637359 0.03588703 0.08067439 0.046128605 -0.0029767528 0.018736402
-0.03183698 -0.053777244 0.083708234 -0.0776665 0.06718349 0.04892147 0.07534536 0.03675083
-0.00050908036 0.0036528443 0.024564328 0.014851562 0.17214249 0.13170813 -0.011669535 -0.034332924
0.076549046 0.06381231 0.016516408 -0.08002406 -0.037565008 0.019496657 0.005230871 -0.0068444815
0.072873704 -0.002318489 -0.07726324 -0.019199153 0.049206227 -0.11465022 -0.016250296 0.069227986
-0.1779495 -0.0072411066 -0.088084444 0.07845 0.049398072 0.034731653 0.009829024 -0.070024095
-0.031542365 0.02637096 -0.05863887 -0.08823602 -0.017684266 0.049518377 0.0757872 0.0035110514
0.07583617 0.05430506 -0.09407561 0.014296235 0.046719052 0.0034971398 0.037804633 -0.0012239994
0.008097514 0.029086037 0.040241923 -0.042776056 0.16841547 0.0004277725 -0.005681776 -0.045664918
-0.03302704 -0.10632626 0.05431427 0.10526277 0.022118784 0.06695959 0.052519742 -0.04310611
-0.017866626 0.08180141 -0.030842956 0.049782965 0.036431517 0.06027957 0.041580603 -0.012273149
-0.0864564 0.115974896 0.031660456 0.043791585 0.02962724 0.027329525 -0.061252728 0.0860298
-0.043703724 0.04165585 0.088773586 0.16640896 -0.18214981 0.039666463 0.048321754 0.08263059
0.044031877 -0.019889874 -0.06951721 -0.008523693 0.04529915 0.0698936 -0.06077909 0.07862074
0.16984864 -0.09800718 0.034595348 0.018564168 -0.028336396 -0.14948718 0.024620125 0.013557668
0.0007388956 0.0068789097 0.020122109 0.022843653 -0.05143999 0.07993604 0.02208694 0.029627277
0.024893874 0.0044255103 -0.13715781 -0.0014988534 -0.0064923256 0.06618263 -0.05645106 -0.019257683
0.05110863 -0.018311013 -0.13643964 -0.018334178 -0.057048306 0.020626336 0.0061825654 0.06722327
-0.032554485 0.088589616 -0.029387804 0.04556985 0.16220981 0.12814026 -0.07718896 -0.03409411
0.05393213 0.047054186 -0.013033632 0.08890207 0.00014446379 -0.077209786 -0.02937576 -0.10425956
-0.016820207 0.10977699 -0.03389867 -0.06321663 -0.006410797 0.03207437 -0.085852966 0.07116771
0.058319587 -0.008034846 -0.069217026 0.08302219 -0.018359257 0.00059930934 0.05267816 0.04115582
-0.00081372954 -0.041215215 0.023947855 -0.08069417 0.02692137 0.036929503 0.0640144 0.04143901
-0.03136748 0.038468484 0.04596976 -0.01822651 0.0536933 -0.0004610499 0.06425842 -0.022597032

net.2.bias f4 [128]
00000000: 9878 a73d c326 a03d d0e4 b83c 0a5d 4bbd
00000010: 927a c3ba 7f99 a1bd f6bf 23bd 405c 0b3d
00000020: 7385 81bd 08b8 e43b 451e 483c 8cf1 6c3d
00000030: 9914 763d 6320 5e3d 4c75 903c a83b 72bc
00000040: 67d6 69bd 7e3b 0ebd 4342 10bc 941b 85bd
00000050: d1d2 4e3d 271a b83a 2537 653d 2f00 c93c
00000060: 418e 1a3d e489 a2bd 616f 47bd dc81 6e3d
00000070: eb95 ed3a e6b0 7b3d 03f9 e93c f929 85bd
00000080: 1b67 563d 8b8c d03c eb9b 2fbd 78ae a13d
00000090: 8426 7538 0363 babc fa8a 953d 4fcd a83c
000000a0: f12e eb3c 4419 503d 0814 b93d c1b3 103d
000000b0: 298f b9bc 42c2 3bbd 84ce 03bd ae85 80bd
000000c0: 6270 b03d f122 b0bb fd11 0f3d bde0 bb3a
000000d0: 1aed 7e3c 9455 9e3d b750 133d f6bb 853d
000000e0: 210f 0b3b e7de 6c3c 8214 753d e1b0 913c
000000f0: 882a 6b3d bcc6 33bd c4e9 963d 9c24 ecbb
00000100: 6e3c 2e3d a65d 6abd 5a42 4abd 856d aa3d
00000110: 293d 0d3d 195e c03a ad9c 18bd 2f3f 2bbd
00000120: 1589 7bbd 0e64 bc3c d6b3 a13c b89c 983d
00000130: e0e7 533d 39ef 38bd 36ae 08bd e42a 1e3c
00000140: b763 893d 69af c13d 48c3 ae3d 7667 8f3d
00000150: 5ae8 3d3d 8b4b 873d b9c9 8dbd a2c8 933d
00000160: 37c8 db3b 85e4 b83c db32 503c 4eb5 763d
00000170: 5724 853c 07b5 91bd 8aaf 03bd 12f9 843c
00000180: d8b8 9b3d af1e 82bd 45b6 083d 57c4 79bd
00000190: 0597 463d f5e4 bd3c d7ef 9b3c 5c9b 0b3c
000001a0: 46f2 273d 2a4c 31bd 7c9c 403d cf26 483d
000001b0: af0e 17bd fed7 b8bd b1ae 4c3d cad2 48ba
000001c0: faf1 6fbc 2eb0 893d 546d 5dbd 05d2 a33d
000001d0: 1bc3 77bc 5a02 743d 6082 23bd 96b5 9b3d
000001e0: e9bb 7cbd 6a1b a5bc 4482 5dbc cc0d 88bd
000001f0: c812 4a3c e485 a13d 195f 723d 7da8 96ba
0.08177298 0.07819893 0.022570044 -0.049649276 -0.0014913848 -0.07890605 -0.03997799 0.034023523
-0.063242815 0.006979946 0.012214248 0.057847545 0.060078237 0.054230105 0.017634057 -0.014784731
-0.057089236 -0.034724705 -0.0088048605 -0.06499401 0.05049402 0.001404588 0.055960793 0.02453622
0.03773332 -0.07936457 -0.048690204 0.058229312 0.0018126344 0.061448 0.02856112 -0.06502146
0.052344423 0.025457641 -0.042873304 0.078946054 5.8448422e-05 -0.02275229 0.07301898 0.020605711
0.028708907 0.050805345 0.09037024 0.035327677 -0.022651272 -0.045839556 -0.03217937 -0.062754974
0.08615185 -0.005375259 0.034929264 0.0014333945 0.015559459 0.077311665 0.035965648 0.06529991
0.0021218734 0.014457441 0.05983401 0.017784538 0.057413608 -0.0438907 0.07368806 -0.0072065126
0.0425381 -0.057218216 -0.049379684 0.083216704 0.034482155 0.0014676481 -0.037258793 -0.041808303
-0.06141003 0.022996929 0.019739073 0.07451767 0.051734805 -0.045150016 -0.033369265 0.009653781
0.06708472 0.09457285 0.08533341 0.070021555 0.046364166 0.066062056 -0.06923241 0.07216002
0.006707217 0.022569904 0.012707437 0.0602315 0.01625268 -0.07114606 -0.03214983 0.016232047
0.076036155 -0.06353509 0.03337695 -0.06097826 0.048483867 0.023180464 0.019035263 0.008520927
0.041002534 -0.043285526 0.047024235 0.048865136 -0.036879238 -0.09025572 0.049971286 -0.00076608045
-0.014645094 0.06723057 -0.05405934 0.079990424 -0.0151222 0.059572555 -0.039919257 0.07602994
-0.061702643 -0.020154674 -0.013519827 -0.066432565 0.012333579 0.07886866 0.059172723 -0.0011494305

net.4.weight f4 [2, 128]
00000000: 10f7 0f3e bee9 af3c 4bf9 223e 4c93 f03d
00000010: f509 27be 0ace 233e 93ff 0e3e 54d9 ef3d
00000020: e3a2 ccbd 6cbd 20be 578f e1bd 5e34 2dbe
00000030: a7a1 cebd 001e dbbd be92 0a3e 078f 213e
00000040: c1b6 37be 1fe0 fa3d 3371 8c3c 90f9 4e3d
00000050: 6c27 123c e415 d7bd 1aed a1bd f601 e9bd
00000060: ef73 983d fb2a 39be 868a 77be b19c f6bb
00000070: e5f5 14be aeeb 45be 36b2 c33c e680 58be
00000080: c145 bfbd 1bad e03d 6a9f 2d3c 2e26 13be
00000090: 61c6 80be c05e 9b3c ef33 d1bd 4471 863e
000000a0: b5b1 45bd 99a7 94bd 0cbe 213e 024e 97bd
000000b0: aea7 0abe ae72 34be d966 d6bd 026f 593e
000000c0: a593 d8bd ec99 103e d237 183e 7056 513d
000000d0: 4614 433d 28aa 3fbe eb34 b0bd 8dc6 a83c
000000e0: c251 21be ce39 0b3d d8c5 db3d 49a2 d53b
000000f0: 4f94 063d 4a81 1dbd 8a08 cbbc 9ead 9bbd
00000100: f9ec 743d 3ed7 a9bd 1ccc 68bb 370f f7bd
00000110: e75f bf3d 6162 6bbd 5de8 a0bd f696 293e
00000120: 76a1 563e e9b6 ae3d 5f74 c43d f931 97bc
00000130: a5da 1dbe c70a 6b3e 4b2c 66bd 9525 733d
00000140: 8fd4 973d 887b d93d 409f e73d e9b9 2e3e
00000150: d21c d23d 663f 2fbe 8ab0 41be 60e4 e63d
00000160: b17c 4a3e f6a8 1cbe d808 133e b523 9abd
00000170: 8d42 a53c 0911 02be cc89 a2bd 0d24 13be
00000180: 3bcf 5bbd 1b62 64be 58ab 3abe d27a 0c3e
00000190: 9927 f3bd e0b7 e1bb b81f 61be df40 0dbd
000001a0: 0cbd 3dbc f459 06be e8ff 423e f3c0 25bd
000001b0: 4640 9b3d 34a7 67bd 3656 593d 70be ccbd
000001c0: 16a7 b23d 88c6 103d fc5b 7dbe 8190 b53d
000001d0: 8e84 ac3d 3b19 6bbc 4b83 d2bd b499 18be
000001e0: 9eec 843b aecb a53d d7da 283d 0de6 72bd
000001f0: 4fc4 4a3d 0f44 a9bd 27b6 eabd f8ef a13d
00000200: 2c3d c7bd 5d4a f2bb 838e 4fbe 6cc5 afbd
00000210: b3e3 b43d 2d06 16be beca 62be eeb7 94bd
00000220: d3e0 063d f600 f23d 5873 4a3e e3b0 a73d
00000230: 004f 6e3d 5eba 953d 027b 2bbe 3f9b 3bbe
00000240: 5ea8 1a3e eb09 c4bd f66d afbd 02b9 09be
00000250: 899c 103e 09a0 333e 7a2c 4d3d 8759 db3c
00000260: bad9 30be f346 423e 7721 673e 78ae cb3d
00000270: 2085 9c3c fa8b 2c3e 34d1 83bd dc33 983d
00000280: 19ed c13d 18cc f7bd a5a8 7cbd 54d7 b83d
00000290: 6a0c 6a3e c1f2 953c 7fb1 ddbc 0229 38be
000002a0: bc2b 103e 511a 2e3d fb24 febd 2884 4c3d
000002b0: 5c8d 303e 514e 0e3e 4f12 553e 52ec dabd
000002c0: db89 b93d 6441 9fba 02f0 57be bb1c bebd
000002d0: f5f5 a2bd 28d6 f43d aa0b 573d 162e 5abd
000002e0: 822d 423e 73a1 04be 6bb6 8fbd b5d0 0abe
000002f0: 0103 5dbc 5582 f33d ff81 9c3d 36b0 fe3d
00000300: 4506 863d 299a 7a3d 0b2d 163e 3853 763d
00000310: 5e91 c7bd 7342 6b3d 7749 813d 6a8a 3abe
00000320: 9413 fbbd a167 79bd 5cb3 2abe 1ecb ee3d
00000330: 0e28 593e efaa 22be 9b71 023e 2c54 19be
00000340: 0944 11be 51fc c0bc b43b c8bd 3b9f 68bd
00000350: f3a6 3cbd 83f9 ea3c ec7d 323e 0318 d1bc
00000360: 1028 23be 29d6 023e 0658 35be e25a d53d
00000370: 7d9c 8cbc d7db fe3d 7455 883d c260 353e
00000380: dee9 c33c 72be 403e 764e 633e f4a1 27be
00000390: ac77 4b3e 3be4 d4bd 3e38 433e 3cd7 d93d
000003a0: 08d5 14be 80a5 063e 0ac0 10be 3378 263d
000003b0: 9e73 34be 4d2d 8c3d b23c 54bd e61f 4d3e
000003c0: f8b2 bfbc b0b1 cbbd d236 423e a285 79bd
000003d0: 2e9b 62bd 09c7 a8bd 96bd 17bd 10b7 fd3d
000003e0: 7eee a0bd fee6 753d e7e0 eabd cbcb c43d
000003f0: c805 c73b 430b 8c3d 6b01 463d ac4d 1fbe
0.1405909 0.021473762 0.1591541 0.11746845 -0.16312392 0.15996566 0.13964681 0.11711374
-0.09992006 -0.15697259 -0.11013668 -0.16914508 -0.100894265 -0.106990814 0.1353254 0.15777217
-0.17940809 0.12249779 0.017143821 0.05053097 0.008920532 -0.10502222 -0.07906552 -0.11377327
0.074439876 -0.18082802 -0.24173936 -0.0075260033 -0.14546926 -0.19328186 0.023888689 -0.21142921
-0.093394764 0.10970517 0.010597089 -0.14370033 -0.2515135 0.018966079 -0.10214984 0.2625829
-0.048265178 -0.07258529 0.15795153 -0.07387926 -0.13540527 -0.17621872 -0.104688354 0.21233752
-0.10575036 0.14121217 0.14865044 0.051107824 0.047626756 -0.18717253 -0.08603843 0.020602489
-0.15753844 0.033990674 0.10731095 0.00651959 0.03285628 -0.038453378 -0.024784345 -0.07601474
0.059796307 -0.08293007 -0.003552205 -0.12063449 0.09344464 -0.05746687 -0.0785682 0.16561493
0.2096003 0.08530981 0.095925085 -0.018456446 -0.15415438 0.2295333 -0.056194585 0.059362013
0.07413589 0.10619265 0.113096714 0.17063107 0.10259403 -0.17114028 -0.18915 0.11274028
0.19774128 -0.15298828 0.14358842 -0.07526342 0.020173335 -0.12701811 -0.07936439 -0.14369221
-0.053664427 -0.2230305 -0.18229425 0.13718727 -0.11872787 -0.0068883747 -0.21984756 -0.034485694
-0.011580717 -0.13120252 0.19042933 -0.040467214 0.075806186 -0.05655594 0.053060733 -0.099972606
0.08723275 0.035345584 -0.2474212 0.088654526 0.0842372 -0.014349277 -0.102789484 -0.14902383
0.0040565273 0.080954894 0.041224327 -0.059301425 0.04950362 -0.08264934 -0.11460524 0.079070985
-0.097284645 -0.0073941187 -0.20269208 -0.08582577 0.08832493 -0.14650793 -0.22147653 -0.07261644
0.032929253 0.118165895 0.19770563 0.08188035 0.05818081 0.07310937 -0.16746143 -0.1832094
0.1510329 -0.09572204 -0.08565895 -0.13449481 0.14122213 0.17541517 0.050091244 0.026776088
-0.17270556 0.18972377 0.2257136 0.09945387 0.019106448 0.16850272 -0.06436387 0.074317664
0.09469051 -0.12099475 -0.06168427 0.090254456 0.22856298 0.01830423 -0.027062176 -0.17984393
0.14079183 0.042505566 -0.12409397 0.04993072 0.17241424 0.13897063 0.20807765 -0.10689606
0.09059497 -0.0012150225 -0.2108765 -0.09282824 -0.07957069 0.119549096 0.052501358 -0.053266607
0.18962672 -0.12952213 -0.07017215 -0.13556178 -0.013489486 0.11890093 0.07641982 0.12435953
0.065441646 0.061182175 0.1466562 0.060137957 -0.097445235 0.057436418 0.063128404 -0.18216863
-0.122595936 -0.060889844 -0.16669983 0.11659835 0.21206686 -0.15885518 0.1273865 -0.14973515
-0.1418611 -0.023557814 -0.097770125 -0.05679248 -0.046057653 0.02868343 0.17430848 -0.025524145
-0.15933251 0.12777008 -0.1770936 0.10417725 -0.017164463 0.12444275 0.06656924 0.17712691
0.023915228 0.18822649 0.22197899 -0.16370374 0.1986987 -0.10395094 0.19064423 0.10636756
-0.1453439 0.1314907 -0.14135757 0.040641975 -0.1762223 0.06844578 -0.051815696 0.200317
-0.023400769 -0.099460006 0.18966225 -0.060918458 -0.055323772 -0.08241088 -0.037046038 0.12388432
-0.07857989 0.060034744 -0.11468678 0.09609183 0.006073687 0.068380855 0.048341196 -0.15556973

net.4.bias f4 [2]
00000000: 8f64 6dbd f1fd 8d3d
-0.05795723 0.06933201
