coup_nsfp/10kEpisodes/nfsp_coup_demo_best_agent_avg_strategy.pt (torch, 86473 bytes, 6 tensors)

net.0.weight f4 [128, 25]
00000000: 4861 183e 2085 18bd 7bb6 3fbe ec0b 1bbe
00000010: 38f0 a8be ccb0 273e 7d8d 02bc 2742 ecbd
00000020: 2284 de3d 8488 703c bec1 03bf 6fd0 493e
00000030: 914e a1bd d093 ccbd 6f2a 52be 1d7e c0be
00000040: 418d a4be a116 c63d 0014 fdbd 0dee aebe
00000050: eb9e 1e3e c7c1 053e f131 163e b5e3 5cbe
00000060: 327c 443d a0fe a23e dc1a adbe 0329 523e
00000070: 6295 8c3d c395 ebbe a4d6 abbd 2508 c5bd
00000080: 7e21 ecbd 3227 cebd 3f6e 723d b42b 9dbe
00000090: 78b8 01bf 80c0 84be b360 d93d aa58 d13d
000000a0: a012 953e 8070 823d 2406 173e a33f 073e
000000b0: af4c 4abe a33a 293e 720c e23d d453 2f3e
000000c0: f763 86be 2e68 01bd 8479 9dbc 9e04 a73d
000000d0: a5fe ebbd 8ff3 8bbc a6da a83e d5a4 e53d
000000e0: b487 11be c8b2 3abd 9a43 653d 61d3 3c3e
000000f0: 30da 9b3d e90d 053e 2f26 563e 2348 2a3e
00000100: de5c 403e eb43 35bd f523 74be 544d 953e
00000110: ed1e 50bd 6ddb a53e 698c 823b f0f6 b6bd
00000120: aa68 9d3e 4e67 9cbd 8ad7 ad3d ab19 a33e
00000130: f586 80bd 4232 09bd f97a a13d e306 ad3e
00000140: 0e71 6dbe 1776 833e f25d 973e 9048 16be
00000150: 0e2b 6b3e d100 3b3e a9ad 883e 6687 8d3e
00000160: 3324 51bd 852c 0fbc dfeb 893e 280c c33d
00000170: 0b03 a63e 27c7 243d 70cf e8bd dece 223e
00000180: 4897 8abc cbd8 bc3e 358a 683e 057f 2bbe
00000190: 204e 10bf 69f5 f1bb 72b0 b63e 4876 5dbe
000001a0: a9aa 62bd a625 c6bd d83d 9d3d 7523 1fbd
000001b0: e137 f6bc 6366 343c 0fd4 5d3c 1ece bcbd
000001c0: 7217 cf3e 47e1 e33d 0ea2 97bc 7802 b33e
000001d0: 6fe1 4e3e f881 e33d f0f4 94bd d7fd e63d
000001e0: c39a a63c a727 883d 43d5 c03e d426 e9be
000001f0: 08f1 9dbb 316c 2b3e b7db adbe 73f5 fd3d
00000200: 47ac bc3c 6f6a 793e dae8 02be be36 cdba
00000210: 8daf 3a3e 30d3 2ebd cfbf 20be 882f 573e
00000220: b921 dd3d f283 8cbe 8fd8 30be f8ac 25be
00000230: b380 073e 117f 953e 6bbb d33b 83b8 443e
00000240: b2fd ea3d 5dd6 aa3e 5515 c4be e58b ccbe
00000250: e8af 6c3e 1ca1 0ebe 7aa6 1a3e 5f0c a6bc
00000260: 9aae 663e 0cd3 093e 2f5d 95be 599c 32be
00000270: acd8 b53d 3ea1 303e d078 15bd 37fe a83d
00000280: b2a2 af3e 5a1d 5dbe d95f 5cbe c064 87bc
00000290: 05b3 213e ccfb 093e 035c 3abe 6e58 2b3d
000002a0: 9a70 0e3e 3dcb b33e 9f8e eabe afe4 3dbe
000002b0: 744d 823e 215e ab3d 173f 153d ac33 793e
000002c0: f6a0 debd 24a4 b83e 4526 153e c865 83be
000002d0: 402c b0be f983 ae3d 06bb a2ba 4ca6 4c3e
000002e0: 5b2c 77bd 230f b5bc 1ea4 f03d 6154 8f3d
000002f0: e034 0f3e 5776 acbe f65a 943e 2898 8c3e
00000300: b0e4 e53d 33cc 2e3c 7d9f 433e 633e f2bc
00000310: a741 06bd 6d3d 21bd 44f5 50be 58db 663e
00000320: e5dc debd 5a42 47be 5bfc f2bd 064d c9bd
00000330: 9d5f ee3d 50a5 003f 15fa 5c3e a4c9 213e
00000340: 4011 633e 559b 1e3e 159e e83e ee6a fdbd
00000350: 630e 003f 6821 013e fe8f f63b c70e 143f
00000360: f633 aebe 7686 e0bd 6a20 873d 151b a63e
00000370: 51df 9dbe 4637 c4be 2727 69bd 788e 89be
00000380: 478f 6d3a 9eba 0c3e 5b2b 12bd d32c cd3d
00000390: 3fd8 8a3d daa6 353e e43c 523e fb24 4fbe
000003a0: 078b 0d3e b7ea 9c3d 4615 833c 10a0 903e
000003b0: 5322 38be b925 043f d801 35be 479d 0e3e
000003c0: 09c2 c6bd 184b 343e 75e5 8cbc 33ef 09bb
000003d0: 20e4 d0be 7064 eb3c 9e17 d63d f5a7 583e
000003e0: ea1e aebe df4b 26be 6e25 a3be 6469 973e
000003f0: 4381 5e3d aef7 ccbe 220f a63e a56c 0dbf
0.1488086 -0.037236333 -0.18721955 -0.15141267 -0.32995772 0.16376036 -0.007968304 -0.11536055
0.10865046 0.014680985 -0.514675 0.19708417 -0.078763135 -0.099891305 -0.20524 -0.37596217
-0.32139018 0.09672285 -0.1235733 -0.34165993 0.1549031 0.13062201 0.14667489 -0.21571238
0.047970004 0.31834888 -0.33809555 0.20523457 0.0686443 -0.46012697 -0.08390549 -0.09620694
-0.11529826 -0.1006607 0.05918717 -0.30697405 -0.506721 -0.25928116 0.10614147 0.102219895
0.29115772 0.06369114 0.14748436 0.13207869 -0.19755815 0.16526274 0.1103753 0.17121822
-0.26248142 -0.031593494 -0.019222982 0.081551775 -0.11523179 -0.017083911 0.32979316 0.1121308
-0.14211923 -0.045580655 0.055972673 0.1844001 0.07609975 0.12993588 0.20913003 0.1662908
0.18785426 -0.044254225 -0.23841842 0.2916056 -0.050810743 0.3239397 0.0039840234 -0.08933818
0.30743915 -0.07636891 0.084883764 0.3185552 -0.06275741 -0.033495195 0.07884783 0.33794317
-0.23187658 0.25676033 0.29563862 -0.14676118 0.22965643 0.1826203 0.26694992 0.27642363
-0.051059913 -0.008738642 0.26937768 0.09523803 0.32424197 0.04022899 -0.113676906 0.15899226
-0.01691784 0.3688415 0.22708972 -0.16747673 -0.5636921 -0.0073839915 0.35681492 -0.21627152
-0.055338535 -0.096751496 0.076778114 -0.038852174 -0.030055942 0.011010739 0.013539328 -0.09219001
0.40447575 0.111269526 -0.01850989 0.3496282 0.20203184 0.11108774 -0.072732806 0.11278885
0.020337468 0.06648188 0.37662706 -0.45537436 -0.004819993 0.1674049 -0.33956692 0.12400331
0.023031367 0.24357007 -0.12784138 -0.0015656573 0.1823103 -0.042681873 -0.15698169 0.21014225
0.10797448 -0.27444416 -0.1727011 -0.16179264 0.13232689 0.29198506 0.006461551 0.1921101
0.1147417 0.3336667 -0.38297525 -0.3995048 0.23113978 -0.13928646 0.15102568 -0.02026957
0.22527543 0.13459414 -0.29172656 -0.17442454 0.088792175 0.17249009 -0.03649217 0.08251613
0.34303814 -0.21593228 -0.21520938 -0.016527534 0.15790947 0.13474959 -0.18199162 0.04183238
0.13910142 0.35115996 -0.45811936 -0.18544267 0.25449717 0.08367563 0.03643712 0.24336118
-0.108705446 0.3606273 0.1456538 -0.2566359 -0.3440876 0.085212655 -0.0012415356 0.19985312
-0.060345035 -0.022101944 0.11750053 0.06998516 0.13985014 -0.33684036 0.28975648 0.27459836
0.11225259 0.010668802 0.19103809 -0.029570764 -0.032777455 -0.03936522 -0.20406061 0.2254461
-0.10881976 -0.19458905 -0.11864539 -0.09829144 0.116393305 0.50252247 0.21579774 0.15799576
0.22174549 0.15488942 0.45433107 -0.12373911 0.5002195 0.126104 0.0075244894 0.5783505
-0.34024018 -0.109631464 0.06597979 0.32442537 -0.3083444 -0.3832342 -0.056922104 -0.26866508
0.00090621825 0.13743064 -0.03568588 0.10018315 0.06779527 0.1773943 0.2053104 -0.2022895
0.13822566 0.07661956 0.016001355 0.28247118 -0.17981844 0.5162006 -0.17676485 0.13927184
-0.09704978 0.17606771 -0.017199257 -0.0021047115 -0.40799046 0.028734416 0.10453723 0.2115782
-0.3400796 -0.1623988 -0.31864494 0.29572594 0.054322492 -0.40032715 0.3243342 -0.55243903

net.0.bias f4 [128]
00000000: dbbf 35bd 7339 3a3e fb70 de3d f032 08bd
00000010: a05e e9bc 9526 e9bd 6478 8a3d 6c83 3e3e
00000020: c72c 94bb 23c4 323e 397d ce3d f4f0 1d3e
00000030: c58e 973d 0bdd 36bc 12ff 97bd 8a6c 543e
00000040: 1c54 c0bd 2871 1d3e b26d 32bd e48f 433e
00000050: 7ed1 383c 15a6 3fbd c8d6 303e 4661 4e3e
00000060: 3e27 f4bb 8b8c 7a3e ac2d 9f3c 907d 293e
00000070: ee9a 163e ac0b 8d3e a85e 773e 8f1e 3dbd
00000080: bc09 a73e a47b 65be 62c9 fbbd b27e e43d
00000090: 6c84 583e a52c 2abd 28af 1a3e 1129 6cbc
000000a0: dc1d 3bbd 9ff5 133e 642f a33d 3c6c 143e
000000b0: 26e8 213e cd6f 6f3e e3bf 6d3e de44 a3bd
000000c0: cfe9 c03d 219b 533e 5452 89bb facb 5b3e
000000d0: 49e3 d33d 0bc7 9d3d c94e c2bd bf64 b1bd
000000e0: f4a0 263e 52c1 81bd 6755 793e 442b 013e
000000f0: d6d8 e2bd 2675 e6bd e14c dc3c 9ae4 4dbd
00000100: f7a1 e43d b8ce e7bd 2222 b6bd d81d 793e
00000110: 2dc4 283e 5acb 963d a912 3e3e 550b 74bc
00000120: bf6a 05bd 4cdf 563e d8a2 7ebe 0910 bd3d
00000130: d8e9 b63d cde6 f93d 42e5 55be 1a67 c0bc
00000140: 1748 973d 61b5 213e 0d88 1cbe 38e5 2cbe
00000150: 450d 5ebd f90f f23d 33f4 753e cd9e 6e3d
00000160: 8872 313b 5221 9d3d a3b0 513e 3670 193e
00000170: 91c5 cfbd 2fd8 eb3d d221 533d fd0b 903d
00000180: d06c ccbd f437 b43d 5a84 4fbd 68ec 0abe
00000190: b588 ad3b d13b 123d 02c7 2b3e fa6c 653c
000001a0: a987 00bd 0e99 b5bb 5c85 2b3e bab4 643e
000001b0: 8b99 33bd e0a3 0b3d 383e d9bd 045e 2f3e
000001c0: 807a 453d 52f1 bbbd 8b55 b7bd aa9b 4a3e
000001d0: c393 5c3e 2fb7 ca3d 9b37 423e 16b7 ca3d
000001e0: b0d1 063d 002d 023e 0fe1 693d a653 3c3e
000001f0: 9342 b8bd 47f5 833e 9be0 023e a37d 8d3d
-0.04437242 0.18185978 0.10861393 -0.033251703 -0.028487504 -0.11384312 0.06761244 0.18604821
-0.0045219394 0.17457633 0.10082478 0.15423948 0.07400278 -0.011161099 -0.07421698 0.2074453
-0.093910426 0.15375197 -0.043561645 0.19097859 0.011280416 -0.046789248 0.17269433 0.20154294
-0.007450967 0.24467675 0.019430958 0.16551805 0.14707538 0.27547967 0.24157202 -0.04617172
0.32624614 -0.22410446 -0.1229427 0.11156978 0.21144265 -0.041546483 0.1510588 -0.014414088
-0.045682773 0.14449166 0.079680234 0.14494413 0.15811214 0.23382492 0.2321773 -0.0797212
0.094195955 0.20664646 -0.0041907225 0.2146453 0.103460856 0.0770398 -0.09487683 -0.08661794
0.16272336 -0.06335701 0.24348985 0.12614161 -0.110765144 -0.11252813 0.026892127 -0.05026684
0.11163705 -0.11318725 -0.08893229 0.2432779 0.16481085 0.07363005 0.18561806 -0.01489528
-0.032572504 0.20983618 -0.24866807 0.09231574 0.08931321 0.12202225 -0.20888236 -0.023486663
0.07386797 0.15791847 -0.15286274 -0.16884315 -0.054211874 0.11819453 0.24018936 0.058256913
0.0027076323 0.07672371 0.20477538 0.14984211 -0.10145105 0.11515843 0.051545925 0.070335366
-0.09981692 0.08799735 -0.05066333 -0.13566744 0.0052958378 0.035701577 0.16775134 0.014003033
-0.031379376 -0.005541927 0.16750091 0.22334567 -0.0438476 0.03409183 -0.106075704 0.17125708
0.04821253 -0.091768876 -0.08951863 0.19785944 0.21540742 0.09898221 0.18966524 0.09898202
0.032914817 0.12712479 0.0570994 0.18391284 -0.08997073 0.2577307 0.12780993 0.06908729

net.2.weight f4 [128, 128]
00000000: ff33 b4bd 621a cbbe 1868 a43d fb8e 3f3d
00000010: 1158 46be 25a5 f53d 6946 94bd 9c8d fb3c
00000020: 01ad 72bd 51bb f2bb 5d1c d3bd db6b c6bd
00000030: 0611 d83d 1529 103d 0ae9 2f3c dc87 aaba
00000040: 2505 333d 4201 61bd 776e 09be fdda abbc
00000050: 2b7d 23bd 0a46 613e 7ea9 17bd 06a8 3f3c
00000060: bd88 a43d 6f4d 8b3e 6848 c7bd 3dac e7bd
00000070: 23fb b2bd ad22 143e 2d92 183e fea4 a53d
00000080: e402 bf3c ebd6 b93c 5795 72be 463b b43c
00000090: 8248 3b3d b6c2 03be 5339 0fbe 8e98 adbe
000000a0: d2e1 17be d247 62be 4098 0b3e a75f 1b3e
000000b0: a96b 01be fd9c e8bd e8e4 efbd b566 093e
000000c0: 1fa3 f43e 72d6 c03c e6d0 8bbe b219 9b3e
000000d0: 3da5 da3d 8264 c43b f4f3 68bd 263e ac3d
000000e0: 70d0 d03c 4404 dbbd 968a 683e 926e 02bf
000000f0: 6e65 9c3b 68d4 ce3d 3f30 93bd 155f 623e
00000100: 0a33 893d 4bee ff3d f9bd da3d c25a 1d3e
00000110: 65f8 1cbe 3ec9 05be 6c62 1cbe 5ce5 163e
00000120: 0a29 0dbd e077 4e3e a22b 933d 3abb d43d
00000130: 32f8 323e 607d 8c3d 686a b2bd 428f 5dbe
00000140: 19d5 193d 9b22 133e 233d f1bc acc8 233e
00000150: 08e0 143e c1b1 133e 8e9a 383d fd54 11bc
00000160: da71 0bbe ccea ad3c 009a cc3d c2e4 003c
00000170: 3083 133e a043 92bd 46ef f6bc e2a1 553e
00000180: 768b 0e3e 01f7 f13d df3d 333e 3f9e 793d
00000190: 7b7f 17bd 74f2 d83b 1008 cfbd 26b6 90bd
000001a0: cb93 46be f586 debe 0d86 333e 02fa 42bd
000001b0: 3377 42bc 34a5 b3be 3eb5 86bd 58e7 49be
000001c0: 3d0d 543b f64c 8bbd 20cc 723d e734 47bd
000001d0: adb6 b4be 89d3 b8bd 6878 00be 2a88 4a3e
000001e0: 6857 32bc 9437 303e 0b20 c03d a7b7 a83d
000001f0: 31d9 27be 03a6 613c 2657 913d 3763 873d
00000200: 5313 253f 1fdd e03e ce86 22be b246 833d
00000210: 11b9 4fbd 82c3 8e3b ef64 d3bd bfcd 1ebe
00000220: 8098 0bbe 0b7d ae3d 8132 303e 76ed 29bd
00000230: 9a4f 923e 0817 d4bd 9f59 13be 28ab 37bc
00000240: 5a34 6dbe fbcd 9cbd 83c4 42be 487f b53c
00000250: ec3e 9fbe 1551 a6be a06b 4b3e 4793 a8bc
00000260: b419 403e aaa1 85be 29e5 cd3c 256e babe
00000270: e6ab a6bd d325 40be be19 483e 722b 4fbe
00000280: e4c4 073e 9a42 50bd 2692 723e 7f1a 603e
00000290: fe08 0cbe 2c9b 123e 087c 83bb c60c 933d
000002a0: 13f2 c3be d919 2e3e 90dc e83d 349a bbbd
000002b0: 846f 313e c5fa 24be 46de 6b3e 7a5d e43e
000002c0: 5602 ddbd 6d2e 4c3e 6450 14be 5b6b 6cbd
000002d0: 3c29 873e 3401 7ebe 1847 1c3e db2c fc3d
000002e0: 300d 443d cb92 7fbd cd54 39be 804c 053e
000002f0: b986 303e 6b11 943d de89 ba3c 4d4d 16be
00000300: d4e8 c6be 1d28 4cbe 0c30 1a3e 1806 fb3d
00000310: 3b0c 9d3d 4902 25bd 52cf 193e 32c3 55be
00000320: 70d6 113c 7d5b 353e ff81 353e 6463 383d
00000330: b61b bbbc 9adb 58be b2bd a73d c6cb 993c
00000340: ac6a 433e b895 043e 64ae 673c 0f30 c73d
00000350: a701 7a3e 5731 143e d66b b7bd 6edc 20be
00000360: 525c 033f 261b 923e 70fa 223c 856c e4bd
00000370: de00 333e 8ca3 863d 1a6c 093f 8278 3fbe
00000380: 2da2 88bc 54cb 4a3d a3dd 203e d2fe 42bd
00000390: d54f d23e 3fbd 4f3e 9796 89bd c7b4 593e
000003a0: e81c 01bd 088f 79bd dd5f 51be c560 293e
000003b0: ed0d 283e 20b1 033e 4efd 63be 81e5 3c3e
000003c0: cbbe 95bd 77da bc3d 77dd 493d 8c60 e8be
000003d0: f394 8b3e 2758 5fbe 5470 23bd ff88 f63c
000003e0: 547d e93d acaa d7be 760a 463e f799 4ebe
000003f0: 154a 0e3e 242e d8be 0da8 99be 44cc e43d
-0.0879898 -0.39668566 0.08027667 0.046767216 -0.19369532 0.119943894 -0.07239992 0.030707173
-0.05924702 -0.0074075838 -0.10308144 -0.096885405 0.10550122 0.03519543 0.010736713 -0.001301046
0.043706078 -0.05493284 -0.13421045 -0.020978445 -0.03991429 0.21999374 -0.037026875 0.011697775
0.08033893 0.27207515 -0.09730607 -0.11312149 -0.08739307 0.14466353 0.14899512 0.080881104
0.023316808 0.022685489 -0.23689781 0.02200092 0.045723446 -0.12867245 -0.13986711 -0.33905452
-0.14832237 -0.2209771 0.13632298 0.15173207 -0.12638725 -0.11358068 -0.11713582 0.13418086
0.47780702 0.023539755 -0.27307814 0.3029304 0.10676048 0.005993427 -0.056873277 0.084102914
0.025490016 -0.10694173 0.22709116 -0.50949967 0.0047728335 0.10099107 -0.071869366 0.22106583
0.06699188 0.12496623 0.10680766 0.15366653 -0.1532913 -0.13065049 -0.1527192 0.14735931
-0.034462966 0.20162916 0.07186057 0.10387273 0.17477491 0.06859851 -0.08711702 -0.2163668
0.03755674 0.1436867 -0.029448098 0.15994519 0.14538586 0.14423276 0.04506927 -0.00887036
-0.1361765 0.021230124 0.09990311 0.00786704 0.14405513 -0.07141805 -0.030143391 0.20862535
0.13920388 0.118146904 0.1750407 0.06094193 -0.03698681 0.0066206995 -0.1010896 -0.07065992
-0.19392316 -0.4346234 0.17531605 -0.047601707 -0.01186924 -0.35086977 -0.06577538 -0.19717157
0.0032356523 -0.068017885 0.0592767 -0.048634436 -0.3529562 -0.09024722 -0.12545931 0.19778505
-0.010885097 0.17208701 0.09381112 0.08238154 -0.16391446 0.01377249 0.070967 0.066107206
0.6448261 0.43918702 -0.15871736 0.064099684 -0.050713602 0.0043568024 -0.10321986 -0.15508173
-0.13632393 0.08519944 0.17206766 -0.041486226 0.28576356 -0.10355955 -0.14389656 -0.01121024
-0.23164502 -0.07656475 -0.19020276 0.022155419 -0.31102693 -0.32483736 0.19865274 -0.02057804
0.18759805 -0.26099902 0.025133686 -0.3641216 -0.08138256 -0.18764429 0.1954107 -0.20231417
0.13258702 -0.050844766 0.23688564 0.21885107 -0.13675305 0.14317006 -0.0040125884 0.07180171
-0.38270625 0.17002048 0.11370194 -0.09160271 0.17327696 -0.16111286 0.2303401 0.44602567
-0.10791461 0.19939585 -0.14483792 -0.05771957 0.26398647 -0.24805146 0.15261495 0.12313243
0.04786414 -0.062395852 -0.18098755 0.13017464 0.17238893 0.07229885 0.022770818 -0.14677925
-0.3884951 -0.19937177 0.15057391 0.12257022 0.076683484 -0.040285382 0.15020493 -0.20875242
0.008901224 0.17710681 0.17725371 0.04501666 -0.022840362 -0.21177521 0.081904784 0.018773925
0.19083661 0.12947738 0.014140699 0.09725963 0.24414693 0.14471947 -0.08956115 -0.15709087
0.51312745 0.28536338 0.009947404 -0.11153511 0.174808 0.06574163 0.53680575 -0.18698314
-0.016678894 0.049510315 0.15709548 -0.047606297 0.41076532 0.20287035 -0.06718176 0.21260367
-0.031521708 -0.06092742 -0.20446725 0.16540821 0.16411562 0.12860537 -0.22264597 0.18446924
-0.073117815 0.09221356 0.04928347 -0.4538616 0.27262077 -0.21810971 -0.039902046 0.030094622
0.114008576 -0.421224 0.19339928 -0.2017592 0.13895448 -0.42222703 -0.30011025 0.11171773

net.2.bias f4 [128]
00000000: dbdd bb3d dfaf 88bc 23cb f33b be17 c23c
00000010: 2789 a03c 5900 f73b 4c57 433d ecaa 2b3d
00000020: 667e 303c 66aa 57bd c2dd 6abc 95f1 4e3c
00000030: f424 f63c 76ad 073d 2fb6 61bd 6c21 b13d
00000040: a772 dbbc 931a 1dbd b78b 853d 64b8 893d
00000050: 5ed2 babb 89ee 183d 2b0f 5b3d cbe0 21bd
00000060: 2cfe 193d 4931 dd3d d539 683d 2abe e4bc
00000070: f9cb 7f3d 9f54 3dbd 16c0 9bbc cd03 2bbd
00000080: 5553 b6bd b1db c6bd 3ccb e03b 7791 863d
00000090: 8a21 7abc d043 8f3c c3f7 f03c b605 063d
000000a0: 2046 5d3d ac0c b03d 5cc7 9e3d fdf7 2bbd
000000b0: 0fe3 fcbc 6c5e fc3d aad7 d9bc fa6a 71bd
000000c0: 7783 62bd 77d3 e7bc 6c2d aabd 5d01 54bc
000000d0: 360d a43d 5abd 0ebc be0d ce3d fcf1 db3d
000000e0: f4d2 d6bc c4e7 af3c 6c24 033d 1f07 c8bd
000000f0: bd1b dc3d 6d38 f6bc bfc1 06bd 7680 363d
00000100: 8401 733d d29a f9bc 0704 52bc 1308 9a3d
00000110: 7c3b 883d 8edd 593d d232 8abc 3afd 51bd
00000120: 2167 fbbc 0056 b2bc 513d 303d 1f86 a63d
00000130: c6cc 893d 1f0f 793d 30e9 1f3d af6d 7e3d
00000140: 966f f53d 2fe2 8c3d 4726 a3bc 63c9 a3bc
00000150: 4e15 c0bc da36 c03a 7bea eb3c 9250 2a3d
00000160: 5c82 5dbd ee79 f73d 0bc9 53bc e6ae bfbc
00000170: 71c0 333d 1bae bfbd 9a68 20bd 1fa7 0ebd
00000180: 2230 113d 9984 efbb d44f 0abd 9cd8 fb3d
00000190: ea1b 133d 8de0 953b e74b 10bd 98bb 233c
000001a0: 3fc2 6c3d 189c 25bd fd9b 16bb c462 cc3c
000001b0: 1b8a 9ebd d58e a2bd 33c4 603c 9195 d73d
000001c0: 399c c3bc a044 37bd ad06 86bd eeed 89bc
000001d0: f4b9 f73d 0d0f c33d d6dc ea3b 0092 323d
000001e0: 1862 013c 20b1 2e3e d548 b63c ee04 753c
000001f0: 5c26 adbd a059 993d 4d89 fd3c 0fa0 57bd
0.09173175 -0.016685424 0.0074399873 0.023692962 0.01959665 0.0075378832 0.047690675 0.04191105
0.010772323 -0.05265274 -0.014335098 0.01263084 0.030046917 0.03312441 -0.055105384 0.08648953
-0.026788069 -0.03835542 0.06520789 0.06724623 -0.0057013473 0.03733686 0.053481262 -0.03952102
0.037595913 0.10800416 0.056695778 -0.027922709 0.062450383 -0.04622328 -0.019012492 -0.04175167
-0.08902613 -0.097098716 0.006860165 0.06570714 -0.015266785 0.01748839 0.029415017 0.03272029
0.054021955 0.08596167 0.077528685 -0.041984547 -0.030869989 0.12322697 -0.026592094 -0.05893991
-0.055301156 -0.028299076 -0.08309445 -0.012939778 0.08010332 -0.008712137 0.10061215 0.10739514
-0.026223637 0.02147282 0.032017156 -0.09766983 0.10747478 -0.030056203 -0.032899614 0.044556104
0.059327617 -0.030469332 -0.012818343 0.07521071 0.06651971 0.053189807 -0.016869936 -0.051266886
-0.030688824 -0.021769524 0.043027226 0.0813105 0.067285106 0.060805436 0.039040744 0.06211632
0.11984174 0.068790786 -0.019915713 -0.01999349 -0.023447659 0.0014664785 0.028798332 0.041580744
-0.0540794 0.12083803 -0.01292635 -0.023398828 0.0438847 -0.0935938 -0.039162256 -0.034827348
0.035446294 -0.007309508 -0.033767536 0.12297174 0.035915293 0.0045738877 -0.035228636 0.009993456
0.057802435 -0.040432066 -0.002298116 0.024949439 -0.07741185 -0.07937399 0.013718653 0.105265744
-0.023878204 -0.04474318 -0.06544242 -0.016837087 0.120960146 0.09524355 0.007167439 0.043596268
0.0078969225 0.17059755 0.022251526 0.014954789 -0.08454582 0.07487798 0.03094926 -0.05264288

net.4.weight f4 [7, 128]
00000000: 8845 bd3d 3802 033d 1a28 0f3f da5c 70be
00000010: 3320 063e d406 573f ebc5 893d 535f febe
00000020: a0ca f73d c385 acbe 63b2 d8bc 6a85 333e
00000030: d8eb e8be ed3f b0be 3338 823d 3a3a a1be
00000040: 3be6 1d3f dc47 b53e 4a8c f03d 067d 893e
00000050: d674 cfbe c88a a13c fa68 dbbe 57f5 41be
00000060: 0292 e8bd 9ea0 56be 3978 b5be 419d 83be
00000070: f7b9 1b3e 6c5c 493b 26d6 1e3e 6cdb 173e
00000080: dfb0 8b3e 1921 e53e 2a44 363e 109f 213e
00000090: 3fba 92be f9a1 c13d 4ce3 ac3b 9ec9 1e3d
000000a0: 01d2 dcbe 5cd4 f9be 427b a9be 0ac4 f0bc
000000b0: b62e 0f3e 79e2 62bc e967 0c3e eeef 003e
000000c0: 52a2 123e 4563 8e3e 0af4 8f3e 2706 803e
000000d0: fe39 86be e51b 443e 84f4 4d3e 8935 823e
000000e0: 6c0e 1e3d 0cc2 2e3e 380b 2bbf dabd 96be
000000f0: 25aa b23d 4197 b53e 650a 583d c217 fcbd
00000100: 7c98 b93d 6f00 af3e ab57 eebd 93a3 dcbe
00000110: ae6f 05bf f87f b8be a3ba d83d 18b4 ce3d
00000120: 7a49 c4bc caa2 4f3e 0133 723e 2cfd ebbe
00000130: 0074 063e b33b e8be f9c4 1dbe 6145 b6be
00000140: 492a 84be 0d65 f03c aa09 6c3d 5de6 c8bc
00000150: cab5 ccbe a396 233d 7d3b 91bd 3912 b2be
00000160: 5913 9cbe ed88 9bbe 76f2 82be 5af7 973c
00000170: 767a 613e 3c9c 103f 8f40 3b3e deaa 08be
00000180: 1aba e73d d472 3ebf 2429 b53e 4721 973e
00000190: 8d96 a93e 0446 7cbd a9b6 a6be 78c6 c4bb
000001a0: 2cc5 9bbe 5b9c 8d3e 8f1a 8c3e 518a 71be
000001b0: 383a 723d 01e5 f33d d6df 5f3e cfcd 1b3d
000001c0: 9822 173e c5e5 a53e 9b33 b93e 7df5 bd3c
000001d0: bd15 52be baf2 1fbf 040c b73e 12a6 d83e
000001e0: d648 20bd 1593 82bd 10d3 c33e af8e da3d
000001f0: b2fd 323e 0f98 203e f94c 5dbe 4c70 0dbe
00000200: 1b4d febe cd96 133e 9f57 1dbf 93dd 613c
00000210: 536b 243e b177 99bf 3054 5d3c 5c0f 71be
00000220: fa56 083f d80a b1bd 67e7 d23e aa71 c6bd
00000230: 475d 663e ee1b 20bf 1032 05be 7a88 213e
00000240: 5bee 41bf 9616 e5be 359a 593e a176 893e
00000250: 5775 83be e1f4 113e 1d68 3bbf 0d97 273e
00000260: ec90 d2bc 9897 6c3e aeb4 723e dff6 0fbe
00000270: 394e 423d 9a21 cd3d 9a2c a6bc a8e8 8bbd
00000280: 122d c2be 4945 11be f9cf 9cbe b61f 2c3c
00000290: 8bef 3c3e 2c65 b3be b3f2 d33e 874a 43be
000002a0: 0a6e ff3d 993e ea3d 46ac 2a3f 014d 3ebd
000002b0: dd07 81bc 93bd de3d 281a 43bf 7cda ea3d
000002c0: 6669 bb3d fb12 613e 53b6 18be 981b 493d
000002d0: 3b9b c3be 43c7 70be 05a3 4e3e 4576 123e
000002e0: 6ed7 4c3d 06c1 843d 54f0 1c3f cfa8 e2be
000002f0: 2d7a c1be 6b4b 6cbd d387 593d 137f 16bd
00000300: 743d 043e a870 88bc 5fe4 36bd 468e 003f
00000310: e05e 063d 39c9 c0be d91d ad3c 92a1 19bf
00000320: af44 e5be 0814 23be 470e 96be 9142 173e
00000330: 5cac 34bb 2723 e53c b5a9 a63d 2e31 e93d
00000340: f170 01bf 7b9b 8d3c ff9a e1bd 71d5 04bd
00000350: 1231 03bf 2896 123e 63f3 923e 723f 273e
00000360: 947b aabe 4fa8 3c3e 189f 04bd 2ef9 8c3d
00000370: 776a 7dbd 277e 6cbf 82c3 173e 2f7c eebd
00000380: f24d 943e eab2 ae3e 269f 45bd 749a c8be
00000390: bec4 56be 4ab4 edbc af74 abbe a061 39bf
000003a0: 653a ef3e ef94 2cbf b47e 913a a7e6 dbbe
000003b0: 9281 c1be 850e b73c e843 433e 5818 e1bd
000003c0: 5513 903c 4d9e afbe 44c8 803e 1069 69bd
000003d0: 66fd 4cbe d2da a33e c7f2 e43d 7a20 373d
000003e0: 97ba 813d 16ac 143e 89d2 bebd 2d7e 9f3e
000003f0: 672d cfbe 36e3 65be 692b 103e 90dc 253f
0.09241778 0.031984538 0.55920565 -0.2347292 0.1309822 0.83994794 0.06727203 -0.49682102
0.120991945 -0.33695802 -0.026452249 0.17531362 -0.45492435 -0.34423772 0.063583754 -0.31489736
0.6167943 0.35406387 0.11745508 0.26853198 -0.40518826 0.019719496 -0.42853528 -0.18941246
-0.11355974 -0.20959708 -0.35443285 -0.25705913 0.15207659 0.0030725254 0.15511379 0.14829797
0.2728338 0.44751814 0.1779944 0.15783334 -0.2865772 0.09454722 0.0052761193 0.038766496
-0.4312897 -0.4879483 -0.3310185 -0.029390354 0.13982663 -0.013847941 0.13711514 0.12591526
0.14319733 0.27810112 0.28115875 0.25004694 -0.2621612 0.19151266 0.20112807 0.2543147
0.038587973 0.1706621 -0.66813993 -0.2944172 0.08723859 0.3546696 0.052744288 -0.12309219
0.09062287 0.34180018 -0.11637815 -0.43093547 -0.52123535 -0.36035132 0.10582473 0.10092944
-0.023960818 0.20276943 0.23652269 -0.46091592 0.13130188 -0.45358047 -0.1540717 -0.35599807
-0.2581351 0.02934506 0.057626404 -0.024523908 -0.39982444 0.03993858 -0.070914246 -0.34779528
-0.3048351 -0.30377904 -0.25575608 0.018550564 0.22019371 0.56488395 0.18286346 -0.1334643
0.11314793 -0.74393964 0.3538295 0.29517576 0.33122674 -0.06159021 -0.32561234 -0.0060051046
-0.30423868 0.27658352 0.27364013 -0.2358792 0.059137553 0.119089134 0.2186273 0.03803807
0.1475929 0.32401863 0.36172184 0.023188347 -0.20516105 -0.62479746 0.35751355 0.42314202
-0.03913196 -0.0637571 0.38246965 0.10671746 0.1747959 0.15683006 -0.21611394 -0.13812369
-0.49668202 0.14412995 -0.61461824 0.013785738 0.16056566 -1.1989652 0.013508841 -0.23541015
0.53257716 -0.086446464 0.4119217 -0.096896484 0.2249652 -0.6254262 -0.13007379 0.15774718
-0.75754327 -0.44743794 0.21250232 0.2684832 -0.2567546 0.1425357 -0.7320574 0.16366215
-0.02570387 0.23104703 0.23701736 -0.14059018 0.04743788 0.100161746 -0.02028494 -0.06831485
-0.3792501 -0.14186586 -0.3062742 0.010505607 0.18450753 -0.35038126 0.41396102 -0.19071399
0.1247216 0.11437721 0.6666912 -0.046460155 -0.01575082 0.10876002 -0.76211786 0.11467454
0.091509625 0.21979897 -0.14913301 0.04909858 -0.3820437 -0.23513512 0.20179375 0.14302929
0.050010137 0.06482129 0.6130421 -0.44269416 -0.37788525 -0.05768911 0.053108048 -0.03674228
0.12914068 -0.016655281 -0.044651385 0.5021709 0.032805324 -0.3765352 0.021132397 -0.6001216
-0.44778964 -0.1592561 -0.29307768 0.14771487 -0.0027568555 0.027970864 0.08137838 0.113863334
-0.5056296 0.017286053 -0.11015891 -0.032430116 -0.5124675 0.14315093 0.28701314 0.16332796
-0.33297408 0.1842358 -0.032378286 0.06883465 -0.06186911 -0.92379993 0.14820674 -0.1164478
0.28965718 0.34120876 -0.04824748 -0.39180338 -0.20973489 -0.029016633 -0.3348746 -0.7241459
0.4672424 -0.67414755 0.0011100383 -0.4294941 -0.37794167 0.02234579 0.19068873 -0.10990971
0.017587343 -0.3430046 0.2515279 -0.05698496 -0.20018539 0.32002884 0.111791186 0.044708706
0.06334417 0.1451877 -0.093175 0.31150952 -0.40464327 -0.22449955 0.1407906 0.64789677

net.4.bias f4 [7]
00000000: 98a0 60bd 6745 8c3c 12b1 b2bc a695 433d
00000010: 9b44 593d bec9 9a3d 6503 3a3b
-0.054840654 0.017122937 -0.02181295 0.047750138 0.053043943 0.075580105 0.002838337
