coup_nsfp/0.99G10kEp1.0br-as/nfsp_coup_demo_best_agent_q_target.pt (torch, 86425 bytes, 6 tensors)

net.0.weight f4 [128, 25]
00000000: dc2a 543e f6ab 603e d8a3 a2bd 2807 a9be
00000010: e532 94be b0c2 0e3e 1bf4 193f 9cc7 e6bd
00000020: e454 873e 134c 46be 00b9 223e c9d9 03bf
00000030: 6c40 b73d 002c 3a3e ad72 b13d 300e b23d
00000040: 3636 c43b 78b2 85be 2ab6 30be 1a78 b13e
00000050: 505c 1abd 865a d63c 586f 20bf 677a dc3e
00000060: e620 e13d ea1f 0b3e c5cb a93d 6f10 433d
00000070: fac8 aa3e 4bf0 093e 011a 9ebe 0c4b 43be
00000080: b8ba 383e 377e fa3d de5e d13e 649e 4f3e
00000090: 236e 743e 93ae 36be 0767 3ebd b592 e1be
000000a0: cbb9 25bf 6d0c 413d f1be c5be c791 33bd
000000b0: 5d24 06be b1d9 2bbd bbf3 4e3e a5b0 4bbe
000000c0: fccb 613e b978 643e 20fb 1dbf 913e aa3e
000000d0: 9959 e43e 825e 5cbc aa69 d83d 30de 3e3e
000000e0: 473e 863e ab61 143e c381 09be c5d2 e03d
000000f0: 7b04 0ebf deac 35be 8b73 c03d ed74 3cbe
00000100: d7e6 913e e94e a93e 40ef 083e 00ff 2f3e
00000110: d34c 433e b5da 1b3f 18a1 1e3d 164a e4be
00000120: 1be0 d93d 1f0f 7f3e ed00 a93d 2b76 973e
00000130: c23f e43d 61b5 f1be f001 b83e 84ce dc3c
00000140: 7b2b 3cbd 98ae bebe bfc6 823d 5bc7 133e
00000150: 6bbf cd3e 0541 c8bd 7a71 fa3e 66d9 a9bc
00000160: 005f 5e3d 3a65 f3bd 5a6a ebbe 1fd8 f5bd
00000170: 6fbd d53d 405d 12be 1001 5fbe ed35 7bbd
00000180: d681 533e c523 743d a806 c03e 6ba6 113e
00000190: fdb7 b63d bd8a 713e cb49 85bd f5ff c13e
000001a0: 6c13 c33d 86e2 0abe ef56 0dbe 2a3c d53e
000001b0: 706f 60be 9806 813e b9bb 573e aece f63e
000001c0: ce50 083e 6829 013e f7e7 f6be a5df 01bf
000001d0: a1dc 25be 2ac0 85bd 00d1 d0bc 4fea 43bd
000001e0: 4e63 0e3e 34e8 303e 8b1d 303d 1dd1 a13e
000001f0: 810d f4bd cfe7 393d 57d3 09bf c269 4ebe
00000200: 3676 f63e ba1e fa3d b739 463e 7066 fa3b
00000210: c077 b9bd 2062 01be 2aac 133e 3f11 b4be
00000220: eff6 82be 3b80 e93e 2a47 493e daaa a43c
00000230: 5c38 033e 1c64 fd3d c827 bebe 9dd3 ea3d
00000240: 7f19 383e 16fe 29bd 16bc c43e 26cd c33d
00000250: 511a 22be 23eb 14bd 7ef9 15be 5ecc 8f3e
00000260: c7f2 323e 9191 8cbe c449 b43e afc4 0e3e
00000270: 69f2 193d 6aa1 403e 6793 963e 9025 e4bd
00000280: 227a 13bf 0d38 aebe 4a4c 0bbe 28f1 15be
00000290: ef62 8ebe 78aa bfbc 5402 5e3e e43e 36bd
000002a0: 63de 913d 3dcb 793d 510a 85bd bfce 98bd
000002b0: f5e4 c6bd c5c1 92be 8690 3f3c 9187 5bbe
000002c0: 1eb0 ae3e 67ca bbbc bb31 6cbd e0f6 62be
000002d0: cfc9 4b3f 7c50 bf3e 87e8 493d 8369 a7be
000002e0: 2ae9 0b3e 5c2d df3e 45df f8be 94ca 843d
000002f0: 33a2 c63b b11b 92be 63d6 c13e 0038 50bc
00000300: e1f6 a03a 27ce b13c 0a92 e03e 21f4 6abe
00000310: aec5 2cbe 91da b63b bf5e 8e3e 814a 5d3d
00000320: 5d9a 49bd 99e3 473d 8fb5 963e 5472 e9bc
00000330: 25c8 21bd aa67 e3be b5e3 70be dc7e 143e
00000340: d28c 423e bc5a 9e3e d2b6 1b3c 5bb3 a23e
00000350: 4b3d 90be 0048 a73d 6b23 29bf 3b9c fbbe
00000360: 0f63 57be 3cf1 e6be b32f 113e e7a7 d4bd
00000370: 1706 97be 92d4 cabd 926b 83be ba90 4fbd
00000380: 773b 273d 1a22 a43d 3652 8abe 49d3 4dbe
00000390: a4a2 943e 2ca8 583e ca62 aa3e ae45 8f3e
000003a0: 1257 80be 41ce 953e 1888 7e3e f248 c2be
000003b0: 1911 193e 3a7e 83be bd1b 07be 604b c8be
000003c0: 3d90 c13d 4ac6 b23e 3730 813e c85a 00be
000003d0: 744b 793e f3ea c53d 097b b6bd dd8d c73e
000003e0: b883 88bc a0a9 43bd 8067 3e3e 4fd5 753e
000003f0: 9dc1 aabd 8d99 cdbd 417f 493e a939 933e
0.20719475 0.21940598 -0.07941407 -0.33013272 -0.2894508 0.13941455 0.601381 -0.11268541
0.26431954 -0.19364958 0.15890884 -0.5150419 0.08947834 0.18180847 0.08664451 0.08694112
0.0059879078 -0.26112723 -0.1725699 0.34661943 -0.037685692 0.026166212 -0.626699 0.43062136
0.10992603 0.13586393 0.08290819 0.047623094 0.33356458 0.1347057 -0.30879214 -0.19071597
0.18039978 0.12231105 0.4089269 0.20275265 0.23870139 -0.17840032 -0.046484973 -0.4405724
-0.6473662 0.04713099 -0.3862224 -0.043840196 -0.13099809 -0.041955654 0.20210163 -0.19891603
0.2205047 0.22311677 -0.6171131 0.3325086 0.44599608 -0.013450267 0.10567029 0.18639445
0.2621939 0.14490382 -0.13428406 0.10977701 -0.55475587 -0.17741725 0.09397038 -0.18403979
0.2849643 0.33068016 0.13372517 0.17187119 0.19072275 0.60880595 0.03872785 -0.44587773
0.10638448 0.24908112 0.0825213 0.29582343 0.11144973 -0.47208694 0.35938978 0.026953943
-0.045939904 -0.3724258 0.06385564 0.14431517 0.40185103 -0.097780265 0.489147 -0.020733546
0.054289818 -0.11884542 -0.45979577 -0.120041125 0.10436522 -0.14293385 -0.21777749 -0.061330725
0.20654997 0.059604425 0.37505078 0.1422364 0.08921812 0.2358808 -0.065082155 0.37890592
0.09525189 -0.13562974 -0.13802694 0.41647464 -0.2191751 0.25200343 0.21067704 0.4820456
0.13312075 0.12613451 -0.4822385 -0.5073188 -0.16197444 -0.06530793 -0.025490284 -0.047830876
0.13905069 0.17276078 0.042996924 0.31604853 -0.11916638 0.045387086 -0.53838104 -0.20157531
0.48137063 0.12212892 0.19357954 0.007641606 -0.090560436 -0.12635088 0.14421144 -0.35169408
-0.2557902 0.45605645 0.19656053 0.020101 0.12814468 0.1237261 -0.37139726 0.11466143
0.17978476 -0.04150208 0.38424748 0.09560613 -0.15830351 -0.036357056 -0.14645955 0.28085607
0.17475425 -0.27454808 0.3521253 0.13942216 0.037584696 0.18811575 0.29409334 -0.11139977
-0.57608235 -0.34027138 -0.1360332 -0.14642775 -0.27809855 -0.023396716 0.21680576 -0.04449357
0.07122495 0.06098484 -0.06496108 -0.07461309 -0.09711639 -0.2866346 0.011692172 -0.21438433
0.34118742 -0.022923661 -0.057664614 -0.22164488 0.7960481 0.37366092 0.04929402 -0.32697687
0.13663164 0.43589294 -0.4860784 0.06483951 0.006061816 -0.28536752 0.37858877 -0.012708664
0.0012280607 0.021704746 0.4386142 -0.2294469 -0.16872284 0.0055802544 0.2780666 0.05402613
-0.049219478 0.04880104 0.29435393 -0.028496899 -0.039497513 -0.44415027 -0.23524363 0.14501518
0.18999031 0.309286 0.009504037 0.31777462 -0.28171763 0.0816803 -0.6606967 -0.49142632
-0.21033882 -0.45105922 0.14178352 -0.10383587 -0.29496834 -0.09903826 -0.25668007 -0.05067513
0.040828194 0.08014317 -0.27015847 -0.2010013 0.29030335 0.21157902 0.33278495 0.2798285
-0.2506643 0.29258922 0.24856603 -0.37946278 0.14947928 -0.2568224 -0.13194175 -0.39120007
0.094513394 0.34916908 0.25232098 -0.1253463 0.2434519 0.09663954 -0.08910186 0.3897542
-0.01666437 -0.04776919 0.1859417 0.24007152 -0.0833771 -0.10039053 0.1967745 0.2875493

net.0.bias f4 [128]
00000000: 24c9 963e 3b22 063e c702 033e c3c4 0ebd
00000010: 7ffe 3d3d dd38 003e 9cc3 073e 330b 4abd
00000020: ae94 123e 35b4 f63d 32c4 5b3e bf21 e1bd
00000030: cfac 693c 0a9e 833b bf5d b53d ac67 29be
00000040: 997e 933d f534 ae3d 580d 633e 4fbb 01be
00000050: af7f 143e 9512 123e 9a6b 433c e51a 5b3e
00000060: 9e34 613d 85df 65bd 73d5 703e ea2f 7bbd
00000070: 56b1 623d d834 23be 6801 f33d 384e 853e
00000080: 3ad1 bebc ffbc a1bc a1d6 853e 9358 21be
00000090: 7bee adbd fdab c2bd 4745 63bb f784 723e
000000a0: f5d7 debd 61ca 2bbe 05a2 893e 9719 463e
000000b0: 2b63 793e db6b 233e 43d2 6d3e c397 483c
000000c0: 5f18 773e 6c4b 93bd 32eb ac3e cc7c 883e
000000d0: 78f3 283e 53dc 073e 58e8 933d b07d 243c
000000e0: a1a4 4c3e 1cdd dabc e6e0 103d 9c06 0abe
000000f0: 4c0b 693e 41f9 4b3e 8278 efbd 69d2 a1bc
00000100: 9c39 613e e306 3cbc 143b d9bd f9df 3bbd
00000110: 07f4 f93d 4800 313e 9d7c 17be ac09 afbc
00000120: 63a4 213c 55e4 7a3e df67 4d3e 9529 f9bd
00000130: a6af 643d 950b 09bd 4835 9cbc 1bee 123d
00000140: 149e ef3d 1692 fdbd 3664 1ebd f5f5 383d
00000150: 9dfe 743d 09ff 633e a4ab 42bd ff71 0e3d
00000160: d573 183e aeb6 9abd 325c 81bd 76c1 c03d
00000170: d917 8fbc 9bcb d0bc 14be 023d 32b3 b53d
00000180: 1653 c63d 25cf aabc b7d7 003d a621 fe3d
00000190: 5995 163e 3ed9 983b c9e0 0f3e 6ad2 763e
000001a0: e99d 1b3e 24ee 083e f9d2 923d 0426 57bd
000001b0: 5c0a a93d c676 993e 661c 1f3d 31d2 983e
000001c0: 4227 d93d ba13 803e e023 903e d739 883c
000001d0: 1c7c 2dbe 0321 30bd 6c8c e8bb 5bc8 86bb
000001e0: 0c67 8c3c b4a8 60bd 12a9 44be f420 033d
000001f0: e977 8f3e d8a7 16be 8a90 c73d a1e5 48be
0.29450333 0.13098995 0.12794028 -0.034855615 0.046385285 0.12521692 0.13258213 -0.049327087
0.1431453 0.120460905 0.21461561 -0.10992765 0.014262392 0.0040166425 0.08855771 -0.16543454
0.07201881 0.085061945 0.22173059 -0.12669109 0.14501832 0.14264901 0.01192751 0.21396978
0.05498182 -0.056121368 0.23518924 -0.06132499 0.055344902 -0.15938127 0.118655026 0.2603624
-0.023293126 -0.01974344 0.2614031 -0.15756445 -0.08492752 -0.095054604 -0.0034678744 0.23683535
-0.10881034 -0.1677642 0.26881424 0.19345699 0.24354236 0.15959112 0.2322474 0.012243214
0.2413039 -0.0719212 0.3377319 0.26657712 0.16499126 0.13267641 0.072220504 0.010039732
0.19984676 -0.026716761 0.03537073 -0.13479084 0.22758216 0.19919302 -0.11692907 -0.019753652
0.21994632 -0.011476251 -0.106069714 -0.045867894 0.12204748 0.17285264 -0.1479363 -0.021366917
0.009865853 0.24501164 0.20059155 -0.12166134 0.055831574 -0.03345831 -0.019068375 0.035871606
0.11700073 -0.12381379 -0.038669787 0.045156438 0.05981313 0.22265257 -0.04752697 0.034776684
0.14887936 -0.07554375 -0.06316413 0.094119 -0.017467426 -0.025487712 0.031919554 0.088720694
0.09683816 -0.020850727 0.03145572 0.12408762 0.14705409 0.004664569 0.14050592 0.24103704
0.15196957 0.13372093 0.07169146 -0.05252649 0.08253929 0.2997343 0.038845442 0.29847863
0.10603191 0.2501505 0.2815237 0.016629143 -0.16941875 -0.043000232 -0.0070968177 -0.0041132397
0.01713898 -0.054848388 -0.1920512 0.03201385 0.28021172 -0.14712465 0.097443655 -0.19618846

net.2.weight f4 [128, 128]
00000000: 90b9 ed3c 96e1 993d cd4c 5a3d f0e9 a5bd
00000010: 48d0 433d bfa3 cd3a b957 5bbd 4285 7abc
00000020: 50a6 b3bb 2bd9 0bbb 5f40 a43b 446c 98bd
00000030: f308 7abd c267 153d 4c7f 103d 4513 a4bd
00000040: 5cca 1dbb b681 cabb 3a6b 653d 26c4 a1bb
00000050: b32a 013c 7762 8bbb a0e0 42bd dc57 52bc
00000060: 3aca 5cbc ad65 9abc b2e9 6ebd a30f 41bd
00000070: 72fd 813d 0cbd 733b e8df a53c 255c b0bd
00000080: a286 3e3b 1b4a 04bd 84e5 a5bd ad44 6ebd
00000090: a557 773c b80b ab3d ff1a 1fbd 8318 a3bc
000000a0: 128c 88bd e4ae 5e3d 5b95 82bd 8a66 88bd
000000b0: 38d8 373d 4bb8 aabd a3fd f73b 994b 873d
000000c0: 993b 943d 3a4f 893d 8f6a 1fbd ba28 61bd
000000d0: 3215 6bbd 764a 64bc 7aa4 e23c 619e 57bd
000000e0: 7a80 cdbb 8c1a d13b b28f 2f3d 872a 983d
000000f0: 060f 82bd 066d b0bd 88b5 c93c 913d b03b
00000100: 244a 64bd d53a 42bd 7a4d 9b3c 426d b03d
00000110: 5fc1 ae3d 1f23 96bc 7dc9 73bd 0bd8 c63c
00000120: 8b09 cf3b 5815 703d d680 5dbb 0f28 143d
00000130: 5bf8 93bd 57c1 8dbd 017d a43b d603 5abd
00000140: 63a0 60bd 256b a9bd 43e7 21bd bbd3 03bc
00000150: fffe 4f3d f952 8cbd 9e78 50bc 5e75 ee3c
00000160: 76d8 adbd 41c9 a0bd d6c4 bebc fc8d 59bc
00000170: 66c4 a6bd 5308 193c 1193 afbc d7e3 2b3d
00000180: 9259 4ebd 68a1 48ba 3453 59bd d1ab 15bd
00000190: 24aa 8b3d d6c0 89bd 04a4 28bd eeb2 2dbd
000001a0: 19ac 213d 2d15 533d 3152 7a3d 266d 72bd
000001b0: e4f4 1ebd e56e 5dbd f3ec 5a3d cae2 21bd
000001c0: 4bc4 87bd 2479 8d3d d8bc 2abd 3196 423d
000001d0: 668a dabc d6a9 873c b26c 7a3d 5181 4dbc
000001e0: 80c6 743d 422e 143d 764c a5bd d6b6 923c
000001f0: 8fdf b9bc a50e e43c 2afe c13c 07a1 34bd
00000200: 1cca 5bbe a79f ca3d 565b 6e3e 1ffa 153e
00000210: ce59 e43d 9624 9d3e b8b0 c73d 06e2 2cbf
00000220: deb4 bb3e 9b31 3fbe 1fca 80be 73be 34bf
00000230: 614b a23e 4d86 433f cbcc 853e 1a72 21bf
00000240: 1cd9 703e 8d21 993e e00e 893e 885a 8b3e
00000250: 27ae 7b3e e732 513c 7aaf 70bf 6c6a 61be
00000260: cd18 f53e 3909 47bf 7a17 453e f582 8b3f
00000270: b75c 353f a230 55bd a78f 96be ada3 95be
00000280: 7637 153f 6f88 5f3f f47f b9bd 6b79 21bd
00000290: 4779 823e 1cde 02bf 0efc 72bd c8d8 1b3e
000002a0: fd8e cd3e 3efa 0e3f 7c78 3d3e 0cd5 d23e
000002b0: 36bb 053f 3084 0c3f 07d9 9fbe 31ce 7cbd
000002c0: 5ef4 533e 4313 1dbe 1402 f6bd b07f a5be
000002d0: 71cd c13e 6f9b 293e 8433 023e a869 8a3e
000002e0: 79ac 9a3e 1a9e 853d 8f20 0c3f 3a0b be3e
000002f0: 0be0 37bf 8aa4 4b3f 821a e63e 04d5 d7be
00000300: 4020 a33c b94c 8cbe f0f3 04be 9bd5 233e
00000310: 1d9f 783e 8918 ecbe fad7 4fbf 4c0d 443f
00000320: eb71 823e d443 2ebe ab74 cf3e 8840 7b3e
00000330: e5a7 693e 728d 8d3e 5f01 5b3e 2250 533d
00000340: a7f3 ee3e ad20 13bf 0423 0bbf d7c3 ee3e
00000350: 07ae 883e 682c 66bb 85db 42be fb6d 6abe
00000360: 7a61 5ebf 1efe b43e fbb3 f53e 6c8b 2ebe
00000370: dfa3 d83e 85a7 0bbf fa53 cabe 914f 893e
00000380: c795 98be 805d 90be 31d8 f33e a58b a53e
00000390: 0904 2ebf 307a abbd b7c3 ffbe c1be 65be
000003a0: 0270 b53e 425f 163f 075e 853e 2591 833e
000003b0: 1f36 ca3d 2144 6d3d 797f 823e cd93 ae3d
000003c0: 0221 233e 10fc 923e 01a9 b03d ebe7 02bf
000003d0: 2b7c c8be 2a5b cf3e 7c8f bf3e 4445 e43e
000003e0: 784b c83d e151 273f 4813 f83e 8c97 80bf
000003f0: 0fc9 c3bc e208 253f f600 ba3e 500d 423f
0.029019147 0.0751373 0.0532959 -0.08101261 0.047806054 0.0015689059 -0.053550456 -0.01529056
-0.0054824725 -0.002133916 0.0050125564 -0.07442525 -0.06104369 0.036475904 0.03527765 -0.08011488
-0.0024076914 -0.0061800135 0.056010462 -0.004936713 0.007883715 -0.0042536813 -0.0475775 -0.01283833
-0.013475949 -0.01884731 -0.058328338 -0.047134053 0.06347169 0.0037191538 0.020248368 -0.08611325
0.0029071947 -0.032297235 -0.08100417 -0.058170963 0.01509658 0.083518445 -0.038844105 -0.019909149
-0.06667341 0.054366007 -0.063761435 -0.06660183 0.044883937 -0.08335932 0.0075680776 0.06606216
0.0723793 0.067045644 -0.03891998 -0.05497048 -0.05739326 -0.0139337685 0.02766632 -0.052641276
-0.006271419 0.0063813385 0.042861648 0.074299864 -0.06350522 -0.086145446 0.024622694 0.005378433
-0.05573477 -0.047419388 0.018957842 0.08614589 0.08532976 -0.018327294 -0.059518326 0.02427294
0.0063182763 0.058614105 -0.0033798716 0.036171015 -0.072251044 -0.06921642 0.0050197844 -0.053226314
-0.054840457 -0.08272389 -0.03952719 -0.008046086 0.050780293 -0.06851763 -0.01272407 0.0291087
-0.08488552 -0.07850886 -0.023287218 -0.013278481 -0.08142929 0.009340364 -0.021432431 0.041965332
-0.05037839 -0.0007653446 -0.053057864 -0.03654081 0.06819561 -0.06726234 -0.041172042 -0.04240697
0.039470766 0.051533867 0.06111354 -0.059186123 -0.038807765 -0.054060835 0.05344863 -0.039522924
-0.06629237 0.06907871 -0.041684 0.047506515 -0.026677322 0.016560476 0.061138816 -0.012543038
0.059759617 0.036176927 -0.080712244 0.017909449 -0.022689609 0.027839014 0.023680765 -0.04409888
-0.21463817 0.098937325 0.2327703 0.14646195 0.111499414 0.30691975 0.09750503 -0.67532384
0.36661428 -0.18671267 -0.25154206 -0.706031 0.31698135 0.763768 0.26132807 -0.6306473
0.2352032 0.2990841 0.2676916 0.27217507 0.24578153 0.012768484 -0.94017756 -0.22013253
0.47870484 -0.7774845 0.19247237 1.089934 0.70844597 -0.052048333 -0.29406473 -0.29226437
0.5828775 0.87317556 -0.09057608 -0.039422434 0.25483152 -0.5112016 -0.05932241 0.15219414
0.40148154 0.5585059 0.18502992 0.41178167 0.52238786 0.548892 -0.31220266 -0.061720077
0.20698687 -0.15339379 -0.12012115 -0.3232398 0.37852052 0.165632 0.12714964 0.27033734
0.3020971 0.06524296 0.5473718 0.3711794 -0.7182624 0.7954794 0.449421 -0.42154706
0.019912839 -0.27402285 -0.1298368 0.15999453 0.24279447 -0.4611247 -0.8118893 0.7658279
0.25477538 -0.17018062 0.40518698 0.24536335 0.22817953 0.27646977 0.21387242 0.051590092
0.46670267 -0.57471734 -0.54350305 0.4663379 0.26695272 -0.0035121683 -0.19029053 -0.22893517
-0.8686749 0.35350126 0.47988877 -0.17045373 0.42312524 -0.5455249 -0.39517194 0.26818517
-0.2980177 -0.28196335 0.47625878 0.32333103 -0.6797491 -0.08372915 -0.49954006 -0.22436048
0.35437018 0.587391 0.260483 0.25696674 0.09873604 0.0579263 0.2548788 0.085242845
0.1593056 0.28707933 0.08625985 -0.5113513 -0.39157233 0.4049924 0.37414157 0.44584095
0.097800195 0.6535931 0.4845221 -1.0046248 -0.023899583 0.6446668 0.36328858 0.75801563

net.2.bias f4 [128]
00000000: ae05 a7bd 5c25 9c3d fdd6 cd3c 7174 c13d
00000010: 0ea9 7a3e a12a 223e 201a d93d 5aaf 8ebc
00000020: fdb8 123e be83 56bd 129d b93c 07a9 d73d
00000030: d043 6cbc 54f6 afbd 68ae 963d be84 93bd
00000040: a63e 783d cd0b 9dbd a522 153e 5193 123e
00000050: 9c53 f83d 41a1 90bd 63c1 263e 48a2 00bc
00000060: a1c3 1ebe a1ca 213e e915 1a3e 4af9 8c3d
00000070: cb42 193c add8 8fbd bef9 063e 3a63 213e
00000080: 402f f8bd a164 8e3c 741a 173e 231d bd3d
00000090: 4fb8 ed3d 0ca5 163e 35d3 033e 121e 633a
000000a0: d3f1 413e 6583 283d 2987 833d 378c 23bd
000000b0: e359 173e e009 743c fd84 093e 7c46 7d3d
000000c0: 45d9 90bc fcb1 8bbb 3029 0fbc f53e 123e
000000d0: e6f0 463e ac33 65bb d1d8 453d da05 043e
000000e0: f7e9 77bd cf9a eb3d 4aff a7bd 7f2e 96bb
000000f0: 8280 4abc 240c 8a39 da71 4b3c e549 2bbc
00000100: 33f2 db3b c64d 34bd 67c3 12bd 3518 62bd
00000110: 3384 8bbd f59b 763d 0693 d43b 7c63 723d
00000120: 68ab 2c3d feb3 9e3d 16a4 afbd 85e1 5fbc
00000130: d7c1 a8bd 8457 0bbd 2fff c33d 233a 103e
00000140: 1ff7 963d 4399 2f3d 3b33 373e 101f ae3d
00000150: 27d8 683c 4772 543e 8e00 35ba 750f eb3b
00000160: 9343 c13d 1b28 95bd 0b13 c43d 98af 873d
00000170: ac44 0c3d fe4c 833d af53 873d 4a06 923c
00000180: e798 573d 4ea7 8a3c cac1 243e 6b20 7fbd
00000190: 8ef3 3ebc 810e 053e 0823 08be f5ba febb
000001a0: 9527 1d3e 0c64 6b3d 2568 3e3d f00b 1c3e
000001b0: 6ce1 a3bd 6b8c 9d3c 4d8f ccbd 5945 283e
000001c0: 20b2 29bd ce2b 203d 42e5 0dbd 52d1 b43c
000001d0: 02ee e43d aa7a 183e ffca d3bd 6a27 1ebc
000001e0: 23e4 b9bd b06e c6bd 9052 6c3d e9d8 7f3b
000001f0: 29af 3cbd d0b2 7b3d b08e 87bd 8806 2f3e
-0.0815538 0.07624313 0.025126928 0.094460376 0.24478552 0.15836574 0.10600686 -0.017417599
0.1432838 -0.052371733 0.022657905 0.10530286 -0.014420465 -0.08591905 0.07357484 -0.07203053
0.06060662 -0.076682664 0.14563997 0.14314009 0.12125322 -0.07062007 0.16284709 -0.007851191
-0.15504314 0.15799953 0.1504742 0.068834856 0.009354304 -0.070237495 0.13181207 0.15760508
-0.12118387 0.017381968 0.14756185 0.09234073 0.1160742 0.14711398 0.12873538 0.00086638436
0.18939905 0.041140933 0.06422264 -0.03992864 0.14780383 0.0148949325 0.13429637 0.061834797
-0.017681727 -0.0042631608 -0.008737847 0.14281829 0.19427833 -0.0034973426 0.048302475 0.12892857
-0.06052586 0.11504137 -0.082029894 -0.0045831795 -0.01235974 0.00026330457 0.012417281 -0.01045463
0.006712222 -0.044019483 -0.03583088 -0.055198867 -0.068123244 0.060207326 0.006487253 0.059176907
0.042155653 0.077491745 -0.08576219 -0.013664608 -0.08240097 -0.03401901 0.09570157 0.14084677
0.07371353 0.04287077 0.17890637 0.085020185 0.014211691 0.20746718 -0.00069046847 0.0071734735
0.09436717 -0.0728304 0.09573945 0.06625289 0.034245178 0.064111695 0.06607758 0.017825264
0.052636053 0.01692548 0.1608955 -0.062286776 -0.011654748 0.12993814 -0.13294613 -0.007773752
0.1534713 0.05746846 0.04648604 0.15238929 -0.0800198 0.019231996 -0.0998827 0.16432704
-0.04142964 0.039104275 -0.034642465 0.022072468 0.11178209 0.14890543 -0.10341453 -0.009652952
-0.09076717 -0.09689081 0.057695925 0.00390392 -0.046065483 0.061449826 -0.06619012 0.17092335

net.4.weight f4 [7, 128]
00000000: 5006 6f3d af92 a63e ad73 8d3f fdc9 b93e
00000010: 46ad e63e 6677 493e 539d b1be 3aa4 093d
00000020: 9cca 2cbd 91e8 cf3e fb7f c13e 1d2e f83d
00000030: f6ef 093f ca77 f43e 6fb6 fa3e 3f90 9b3e
00000040: 85c3 4b3e 6b68 323f 671e 693e f302 233f
00000050: 54d4 a1be d999 0b3f 73ff 82be 16a1 543e
00000060: a898 a73f d102 683f f9d9 a8be 0a61 1f3e
00000070: 2137 2a3e dadf 043f 0e76 59bf 0918 733e
00000080: 5182 a63e 3684 113f a903 a6be e4a3 623e
00000090: 5aab 893e 79c9 d4be 40f4 943c 8e48 59be
000000a0: 4bf9 a73d 92f7 93be 7993 d0be 8b5d 123f
000000b0: 9cb5 fabe 59df a73e 868e 82bd 6ce0 3f3e
000000c0: 59cf 363f e856 acbe 8de8 dcbd bab3 573f
000000d0: a746 29be cf3f 443e 1cd7 a53d 3089 6cbe
000000e0: bf8e 9d3d ffa3 c03e 3444 433e d6cf ac3e
000000f0: a6b9 bc3e bc9e ab3f 0abc f23e cba2 0b3f
00000100: 2c57 3f3e b3c9 02bf 85b3 cc3e 8ab0 babe
00000110: c9b6 ea3e 1e7e 833f 6492 04bf d445 c43e
00000120: feaa 583f 7472 9c3f 87a6 203d ad16 3d3e
00000130: 3ffa 313e d264 a93e df59 06bf 6b0a 803e
00000140: bbb3 f83e 51c5 3e3f 9175 f53e 8084 dd3e
00000150: 2478 d13e 457c 61be b2e7 ef3e 558e 513e
00000160: ea00 c73e 0779 3d3e 9daa b73e 51a9 87bd
00000170: f2a3 7d3e 972e cf3e 1852 94be 792a c4be
00000180: 3e79 853e fa00 2d3e 6bb6 563e 8cb5 833e
00000190: df37 233f af9c 123f 5ffb b13e 333f a0be
000001a0: 8f05 b73e 84b2 093d 7a73 f13d f60a 35be
000001b0: d22f 1b3d 3e92 b23e 5173 003f 75d4 9ebd
000001c0: 55b4 cd3e a71f 2fbf 2a1c ecbd 27e3 a53e
000001d0: abc5 313f 16ee 0d3f 0973 003f 12a9 19be
000001e0: eb91 823e 150d 7c3f a412 9f3e 2d0e f53e
000001f0: ffbe 6f3f 2871 f83d 8d09 df3e 0db3 c83e
00000200: a289 a6bc 3942 a13e 3b19 ab3e 95fe be3e
00000210: 842d 7a3e 8908 a43e 1f04 88bc e23a 403e
00000220: 9aed 6a3c 2370 053f 7c07 823e 788a 083e
00000230: 9878 c13e 84e3 8e3e acfb 943e 205c d03e
00000240: a271 073e 5311 ff3e 76ad 733e 6ad2 ee3d
00000250: 3cdd a6be a1e3 b93e 0cf9 1b3e 3e73 8f3e
00000260: eb75 413f 9de6 453f 19b5 85be 514d bd3e
00000270: eb34 5b3c b992 e33e 0f72 90bd 7b4c 2e3e
00000280: e3a5 3b3e d9bc 023f c3c8 473d bf1a 57bf
00000290: 24a7 a53e d6cc 52be c211 303e 2d88 c0be
000002a0: 9890 1b3e 0bdb 1e3f fa3b 073d 4785 c93e
000002b0: cd16 17be 1f55 803e 50f6 3bbe a0da 96be
000002c0: 20cc fa3d 7ac9 eabe c797 823e 8321 6e3e
000002d0: 907a 4c3e 122d 0f3e 2d1e 043e 071d aa3d
000002e0: a214 4cbd bf32 883e 6b96 883e 9c01 033e
000002f0: d8ae 433e 60b6 fb3d dcbe 85be 6136 b93e
00000300: 471b 63bd ab4f 0ebe a69e be3e 1761 2bbf
00000310: 25c1 e53e 0a8c 4d3e a77f 5ebf 1d1a a53e
00000320: f004 863e 795a 933d b901 a03c aa0c 643d
00000330: 539f 9a3e 7552 853e 07a6 4dbe 8642 91bc
00000340: 4e34 cf3e 8ea1 883e ad63 e93e 4cd4 823e
00000350: 41de 873e ced0 633e d6f3 d23e 9402 b93d
00000360: edd9 a63e f8e1 8c3e 3933 673e d606 593e
00000370: 2151 7f3e 1c89 ac3e 6057 213e 170b fc3d
00000380: bd0d 493e 2f58 803e c624 253e 9c81 9c3e
00000390: 9b0b 8f3e cf86 2d3f 3c66 b63e a5c9 253e
000003a0: e582 a43e c03b 8a3e 00b7 513e b976 3b3e
000003b0: a068 713e 241d b43e dcca e63e 85bd 973e
000003c0: 64d1 b43d 3bbd c3bd a44b ba3d d272 883e
000003d0: a95b fa3e e2ce ab3e d0be eb3e 94d6 a3be
000003e0: 91cc a23e 694f 2abe 86e3 973e 0e7f 323e
000003f0: 0a0a 2e3f 20af f03d 135a 6d3e 87b6 9c3e
0.05835563 0.32533786 1.1050926 0.36286917 0.45054072 0.19674453 -0.3469034 0.033603884
-0.04218541 0.40607122 0.37792954 0.121181704 0.53881776 0.47747642 0.4896731 0.3038349
0.19898804 0.6969058 0.22765504 0.63676375 -0.31607306 0.5453163 -0.25585517 0.20764574
1.3093462 0.906293 -0.329788 0.15564361 0.16622593 0.5190407 -0.8494576 0.23739637
0.325213 0.5684236 -0.32424667 0.22132832 0.26888543 -0.4155996 0.018182874 -0.21219084
0.08201846 -0.2889982 -0.40737513 0.57173985 -0.48966682 0.32787588 -0.063748404 0.18737954
0.7141014 -0.33660054 -0.10786543 0.84258616 -0.16530858 0.19164966 0.080976695 -0.23099208
0.07693242 0.3762512 0.19068986 0.33752316 0.3686039 1.3407817 0.47409087 0.5454528
0.18685597 -0.5108902 0.39980713 -0.36462814 0.4584258 1.0272863 -0.51785874 0.38334525
0.84635913 1.2222428 0.039221313 0.18465681 0.17380618 0.33084732 -0.5248088 0.25007948
0.48574623 0.7451983 0.4794126 0.43265152 0.40911973 -0.22020061 0.46856457 0.20464452
0.38867885 0.185032 0.35872355 -0.066240914 0.24769571 0.40465233 -0.28968883 -0.38313654
0.26069063 0.16894904 0.20968024 0.25724447 0.6375713 0.5727033 0.34762093 -0.31298217
0.35746428 0.03361751 0.117896035 -0.17679963 0.037887402 0.348772 0.5017596 -0.07755367
0.40176645 -0.6840767 -0.11528809 0.32399866 0.6944224 0.55441415 0.5017553 -0.15005901
0.25501952 0.9845746 0.3106891 0.47862378 0.9365081 0.12130958 0.43561974 0.39199105
-0.0203293 0.31495836 0.33417687 0.37303606 0.24431425 0.32037762 -0.016603528 0.18772462
0.014338875 0.5212423 0.25396335 0.13334072 0.37787318 0.27907956 0.2909826 0.40695286
0.13226941 0.49817905 0.23796639 0.11661227 -0.32590663 0.3630648 0.15231723 0.2801761
0.75570554 0.7730501 -0.2611473 0.3697305 0.013379316 0.44447878 -0.07053005 0.17021362
0.18325 0.5106941 0.048775446 -0.84025186 0.3235408 -0.20585951 0.17194274 -0.37603894
0.15191877 0.62052983 0.033016182 0.39359495 -0.14754792 0.25064942 -0.1835568 -0.29463673
0.12245965 -0.4585684 0.25506422 0.23254971 0.19968629 0.13982037 0.12902136 0.08306318
-0.049824364 0.26601216 0.2667726 0.12793583 0.19109666 0.12290645 -0.26122177 0.361743
-0.055445936 -0.13897578 0.37230414 -0.6694502 0.4487392 0.20072952 -0.8691353 0.32246485
0.26175642 0.07194991 0.019532071 0.05567614 0.3019968 0.26039472 -0.20082866 -0.017731916
0.40469593 0.26685756 0.4558386 0.25552595 0.26536754 0.22247621 0.41201657 0.09033695
0.3258814 0.2751615 0.22578134 0.21194014 0.24933292 0.33698356 0.15755987 0.12306803
0.19634147 0.2506728 0.16127309 0.30567634 0.27938542 0.67783827 0.35624874 0.16190203
0.32131115 0.2699871 0.20479965 0.18307008 0.23575068 0.35178483 0.45076644 0.2963678
0.088290006 -0.09557577 0.090964586 0.266501 0.48898056 0.33556277 0.46044016 -0.31999648
0.31796697 -0.16631855 0.29665774 0.1743128 0.6798407 0.117521524 0.23178892 0.30608007

net.4.bias f4 [7]
00000000: 7ac3 3e3d 8643 0f3d 2669 0cbd ad89 00be
00000010: 3dea 8e3d 5645 253e 6da4 24bc
0.04657314 0.034976505 -0.034279965 -0.12552519 0.06978271 0.16139731 -0.010048968
