coup_nsfp/0.99G10kEp1.0br-as/nfsp_coup_demo_best_agent_q.pt (torch, 86341 bytes, 6 tensors)

net.0.weight f4 [128, 25]
0.20406835 0.22034408 -0.08207889 -0.33164302 -0.29132727 0.13806581 0.599652 -0.11539043
0.26261398 -0.19514512 0.15565948 -0.5196383 0.08893161 0.18180847 0.085862376 0.08864641
0.004284953 -0.25835833 -0.1725699 0.34468973 -0.03931999 0.02543779 -0.6294797 0.42813787
0.107328296 0.13971959 0.08632705 0.050379496 0.3370387 0.13821848 -0.30585653 -0.18850534
0.1861818 0.12624606 0.41205332 0.2111195 0.24343576 -0.1757275 -0.046484973 -0.43753758
-0.65240353 0.052613057 -0.38640872 -0.043840196 -0.12780717 -0.041337766 0.20157503 -0.19921209
0.22656132 0.22820747 -0.6176211 0.33476844 0.44717813 -0.014651376 0.10614206 0.1866008
0.26263577 0.14567737 -0.1336159 0.1092976 -0.5529218 -0.17541027 0.09386437 -0.18403979
0.285549 0.33182794 0.13442755 0.17159922 0.19072275 0.6144693 0.03906457 -0.44773775
0.10552114 0.24935909 0.08354511 0.2998934 0.11399885 -0.47073492 0.3635328 0.029295787
-0.043586276 -0.37084788 0.068981364 0.14754449 0.40472782 -0.09006797 0.49379662 -0.01852435
0.054289818 -0.11669368 -0.46377957 -0.11436049 0.10374894 -0.14293385 -0.21578762 -0.060079057
0.20672537 0.05937935 0.38060704 0.14672403 0.09331784 0.23952596 -0.061478972 0.38067418
0.098696806 -0.13285762 -0.13623644 0.42202795 -0.21706852 0.25561637 0.21874101 0.48761603
0.13573118 0.12613451 -0.48111632 -0.512205 -0.15728512 -0.06681506 -0.025490284 -0.04372691
0.1409927 0.17299426 0.04374173 0.32245028 -0.11440316 0.04562438 -0.53726566 -0.20056948
0.48255262 0.12203584 0.19394572 0.008793621 -0.0885767 -0.12645254 0.14616834 -0.34991038
-0.2562481 0.45596167 0.19656053 0.020821437 0.13185233 0.12317725 -0.3727319 0.11466143
0.17950259 -0.039944682 0.38693833 0.0947749 -0.15800971 -0.03487044 -0.14630358 0.28415063
0.1759922 -0.2746627 0.3555183 0.14249603 0.039529894 0.19129594 0.2965784 -0.11065861
-0.5752385 -0.34011137 -0.13723914 -0.14642775 -0.27870384 -0.025280843 0.21750356 -0.04322683
0.07122495 0.059561644 -0.06544042 -0.0743414 -0.09561876 -0.28522742 0.014212745 -0.21673608
0.34062788 -0.023114376 -0.061096363 -0.2252238 0.797094 0.37386367 0.046203636 -0.3291586
0.13757883 0.43324423 -0.49021158 0.064026944 0.006061816 -0.28620225 0.38385728 -0.016085133
0.0025814287 0.021704746 0.43883634 -0.22752717 -0.16731223 0.006455937 0.2776364 0.052542467
-0.045078535 0.0498713 0.29641926 -0.026298555 -0.036972124 -0.44257495 -0.23477529 0.14963469
0.19320711 0.31163624 0.015070145 0.32050845 -0.28039864 0.0816803 -0.6611819 -0.4961031
-0.20912483 -0.45211005 0.14178352 -0.10212822 -0.2932997 -0.10134049 -0.25849172 -0.04840137
0.04433329 0.07914265 -0.2728097 -0.20367347 0.28865203 0.20991065 0.33159453 0.28010747
-0.25407958 0.29051796 0.2482688 -0.38444325 0.14809044 -0.2584841 -0.13194175 -0.39508992
0.09793999 0.34528068 0.25352374 -0.1253463 0.24263476 0.09579938 -0.08813545 0.39088765
-0.020985307 -0.05055375 0.18408316 0.23824714 -0.08576193 -0.10388336 0.19376186 0.28581387
00000000: 4bf7 503e e1a1 613e fa18 a8bd 1dcd a9be
00000010: d928 95be 2061 0d3e cb82 193f d151 ecbd
00000020: 5775 863e 1fd4 47be 3365 1f3e 0407 05bf
00000030: c721 b63d 002c 3a3e 9dd8 af3d 408c b53d
00000040: ca68 8c3b 8b47 84be 2ab6 30be 2c7b b03e
00000050: ff0d 21bd ea62 d03c 9525 21bf e334 db3e
00000060: f0ce db3d a712 0f3e 3dcc b03d bb5a 4e3d
00000070: 5690 ac3e 2589 0d3e 3a99 9cbe 8b07 41be
00000080: 71a6 3e3e a646 013e a7f8 d23e b62f 583e
00000090: 3947 793e e9f1 33be 0767 3ebd ed04 e0be
000000a0: eb03 27bf ca80 573d 5dd7 c5be c791 33bd
000000b0: e2df 02be ca51 29bd af69 4e3e 41fe 4bbe
000000c0: b1ff 673e 38af 693e 6b1c 1ebf c566 ab3e
000000d0: 88f4 e43e 530c 70bc 0261 d93d 4814 3f3e
000000e0: 3278 863e 732c 153e 9bd2 08be 6cd7 df3d
000000f0: 488c 0dbf c09e 33be f63b c03d ed74 3cbe
00000100: 7b33 923e 5ae5 a93e 60a7 093e b5b7 2f3e
00000110: d34c 433e dc4d 1d3f 2c02 203d e23d e5be
00000120: 781b d83d fd57 7f3e b319 ab3d a18b 993e
00000130: 3b78 e93d 2b04 f1be f920 ba3e b8fd ef3c
00000140: 8687 32bd c6df bdbe 1a46 8d3d e715 173e
00000150: 7c38 cf3e 8e75 b8bd e9d2 fc3e 61c0 97bc
00000160: 005f 5e3d 19fd eebd 8474 edbe d535 eabd
00000170: 537a d43d 405d 12be 6ef7 5cbe 7515 76bd
00000180: d1af 533e c337 733d edde c23e d33e 163e
00000190: 6c1d bf3d 4b46 753e 60d1 7bbd bae7 c23e
000001a0: 8d21 ca3d d40b 08be 9181 0bbe 0c14 d83e
000001b0: 3647 5ebe 26e0 823e a5fd 5f3e cfa8 f93e
000001c0: 1dfd 0a3e 6829 013e e154 f6be de1f 03bf
000001d0: 5a0f 21be 56d6 88bd 00d1 d0bc fd1a 33bd
000001e0: 6460 103e 6825 313e 872a 333d 3418 a53e
000001f0: 344c eabd a1e0 3a3d 3e8a 09bf 1662 4dbe
00000200: 2311 f73e eded f93d b599 463e 1f13 103c
00000210: b367 b5bd c67c 01be 27ad 153e 7427 b3be
00000220: f332 83be cf73 e93e 2a47 493e b891 aa3c
00000230: 4c04 073e 5b44 fc3d b7d6 bebe 9dd3 ea3d
00000240: 87cf 373e 099d 23bd c81c c63e 5819 c23d
00000250: 4ccd 21be 4ed4 0ebd 9bd0 15be 317c 913e
00000260: 4d37 343e 97a0 8cbe 7f06 b63e 7bea 113e
00000270: 19ea 213d 15e3 433e 20d9 973e fba0 e2bd
00000280: d542 13bf 1423 aebe 6b88 0cbe 28f1 15be
00000290: 45b2 8ebe c519 cfbc 41b9 5e3e 9e0e 31bd
000002a0: 63de 913d e9f6 733d a005 86bd 4e40 98bd
000002b0: c5d3 c3bd 5409 92be 93dc 683c 10f0 5dbe
000002c0: c766 ae3e 5c5a bdbc 2e40 7abd 11a1 66be
000002d0: 5a0e 4c3f 0f6b bf3e 0640 3d3d 7a87 a8be
000002e0: 77e1 0c3e 30d2 dd3e 03fd fabe 8f20 833d
000002f0: 33a2 c63b 1a89 92be f188 c43e f8c4 83bc
00000300: 302d 293b 27ce b13c 28af e03e e2fc 68be
00000310: e653 2bbe 538c d33b 5c26 8e3e c536 573d
00000320: 45a4 38bd d945 4c3d 44c4 973e 1170 d7bc
00000330: 1570 17bd 2f99 e2be ef68 70be d639 193e
00000340: 16d8 453e c98e 9f3e c5e8 763c af19 a43e
00000350: 6990 8fbe 0048 a73d 3843 29bf 3a01 febe
00000360: d224 56be f87a e7be b32f 113e 9a28 d1bd
00000370: 612b 96be 9a8b cfbd 0759 84be 8440 46bd
00000380: d396 353d 8b15 a23d b7ad 8bbe c78f 50be
00000390: 33ca 933e d1f2 563e c2c6 a93e 3f6a 8f3e
000003a0: b816 82be c5be 943e 2d3a 7e3e bfd5 c4be
000003b0: 05a5 173e 0758 84be bd1b 07be 3a49 cabe
000003c0: c394 c83d a1c8 b03e ddcd 813e c85a 00be
000003d0: 3f75 783e 7732 c43d 5c80 b4bd 6d22 c83e
000003e0: 61e9 abbc 7311 4fbd 4c80 3c3e 0ff7 733e
000003f0: f3a3 afbd cdc0 d4bd 8269 463e 3256 923e

net.0.bias f4 [128]
0.29168305 0.13627134 0.12897483 -0.03019323 0.05134423 0.12662712 0.13509549 -0.0509172
0.14666316 0.1175848 0.21088448 -0.1099776 0.01694646 0.0067954897 0.09252402 -0.16592972
0.07139537 0.087835565 0.2253636 -0.12357414 0.14797743 0.14396758 0.010487035 0.21330006
0.058083557 -0.056993622 0.24043475 -0.059704795 0.056851998 -0.15938127 0.11844535 0.2585795
-0.01939901 -0.01954488 0.26375297 -0.15530898 -0.08425296 -0.09537526 -0.0050933473 0.23928101
-0.10582997 -0.16548553 0.27387327 0.19563878 0.24540274 0.16208944 0.23031725 0.00977562
0.24590325 -0.07065222 0.33837003 0.26421136 0.16691941 0.13695616 0.077453434 0.013681309
0.20430641 -0.024293547 0.038271356 -0.13350306 0.2269896 0.20285015 -0.11424783 -0.020138295
0.22099075 -0.013829643 -0.106633 -0.04329466 0.12438462 0.1725206 -0.1483329 -0.020646913
0.013597599 0.2429375 0.20504533 -0.117844395 0.05672339 -0.029482404 -0.016726438 0.039120674
0.12029885 -0.12382026 -0.040164493 0.04819023 0.06167669 0.22616969 -0.045023922 0.032429677
0.14814785 -0.07224997 -0.060364865 0.092301846 -0.013492367 -0.027214194 0.029967686 0.09206335
0.095223784 -0.021413319 0.03324085 0.12678066 0.14497066 0.0048436495 0.14071438 0.23786385
0.15360653 0.13396859 0.07589111 -0.049085286 0.08398553 0.30513686 0.043413173 0.3021378
0.10955687 0.25402656 0.28704795 0.015971428 -0.16953175 -0.041129287 -0.005228461 -0.0028589359
0.018493675 -0.05288521 -0.18995976 0.030472392 0.28097072 -0.1444942 0.101968236 -0.19252591
00000000: 7b57 953e b78a 0b3e fa11 043e cb57 f7bc
00000010: 544e 523d 8aaa 013e 7956 0a3e 8e8e 50bd
00000020: de2e 163e 4dd0 f03d 1af2 573e f03b e1bd
00000030: 4dd3 8a3c b3ac de3b 3c7d bd3d 7be9 29be
00000040: bc37 923d 22e3 b33d b7c5 663e 7014 fdbd
00000050: 6587 173e 3d6c 133e d0d1 2b3c 556b 5a3e
00000060: 06e9 6d3d 2572 69bd 8734 763e 048d 74bd
00000070: a4dd 683d d834 23be 7a93 f23d 8864 843e
00000080: acea 9ebc 961c a0bc a10a 873e 5109 1fbe
00000090: d18c acbd 1b54 c3bd 18e6 a6bb 1506 753e
000000a0: 62bd d8bd 0a75 29be 1e39 8c3e 8855 483e
000000b0: db4a 7b3e c6fa 253e 49d8 6b3e ec29 203c
000000c0: 10ce 7b3e 1cb2 90bd d63e ad3e b646 873e
000000d0: ecec 2a3e 3c3e 0c3e e89f 9e3d 9227 603c
000000e0: b335 513e 4303 c7bc 6dc2 1c3d 07b5 08be
000000f0: f66f 683e f3b7 4f3e c4fa e9bd 11f9 a4bc
00000100: 664b 623e ba95 62bc 6762 dabd be55 31bd
00000110: 5dbd fe3d 3da9 303e 94e4 17be b723 a9bc
00000120: 77c8 5e3c 9cc4 783e 67f7 513e 6758 f1bd
00000130: c956 683d 1585 f1bc e205 89bc 003d 203d
00000140: 3e5f f63d 7a95 fdbd 8683 24bd 1e63 453d
00000150: b2a0 7c3d 0799 673e 016b 38bd fbd4 043d
00000160: 12b4 173e cbf7 93bd 2641 77bd c008 bd3d
00000170: 170f 5dbc 4df0 debc cb7e f53c b68b bc3d
00000180: b004 c33d fc6a afbc 8f27 083d cad2 013e
00000190: 3073 143e 7ab7 9e3b 6e17 103e 9592 733e
000001a0: 084b 1d3e 102f 093e cc6c 9b3d a70d 49bd
000001b0: 9b00 ac3d e63a 9c3e 03d2 313d ceb1 9a3e
000001c0: 5a5f e03d c50f 823e f3f7 923e 83d6 823c
000001d0: bb99 2dbe 2f77 28bd 8353 abbb fc5c 3bbb
000001e0: 0c80 973c 299e 58bd d084 42be 3da1 f93c
000001f0: 65db 8f3e 4af6 13be b9d4 d03d 8325 45be

net.2.weight f4 [128, 128]
0.029019147 0.0751373 0.0532959 -0.08101261 0.047806054 0.0015689059 -0.053550456 -0.01529056
-0.0054824725 -0.002133916 0.0050125564 -0.07442525 -0.06104369 0.036475904 0.03527765 -0.08011488
-0.0024076914 -0.0061800135 0.056010462 -0.004936713 0.007883715 -0.0042536813 -0.0475775 -0.01283833
-0.013475949 -0.01884731 -0.058328338 -0.047134053 0.06347169 0.0037191538 0.020248368 -0.08611325
0.0029071947 -0.032297235 -0.08100417 -0.058170963 0.01509658 0.083518445 -0.038844105 -0.019909149
-0.06667341 0.054366007 -0.063761435 -0.06660183 0.044883937 -0.08335932 0.0075680776 0.06606216
0.0723793 0.067045644 -0.03891998 -0.05497048 -0.05739326 -0.0139337685 0.02766632 -0.052641276
-0.006271419 0.0063813385 0.042861648 0.074299864 -0.06350522 -0.086145446 0.024622694 0.005378433
-0.05573477 -0.047419388 0.018957842 0.08614589 0.08532976 -0.018327294 -0.059518326 0.02427294
0.0063182763 0.058614105 -0.0033798716 0.036171015 -0.072251044 -0.06921642 0.0050197844 -0.053226314
-0.054840457 -0.08272389 -0.03952719 -0.008046086 0.050780293 -0.06851763 -0.01272407 0.0291087
-0.08488552 -0.07850886 -0.023287218 -0.013278481 -0.08142929 0.009340364 -0.021432431 0.041965332
-0.05037839 -0.0007653446 -0.053057864 -0.03654081 0.06819561 -0.06726234 -0.041172042 -0.04240697
0.039470766 0.051533867 0.06111354 -0.059186123 -0.038807765 -0.054060835 0.05344863 -0.039522924
-0.06629237 0.06907871 -0.041684 0.047506515 -0.026677322 0.016560476 0.061138816 -0.012543038
0.059759617 0.036176927 -0.080712244 0.017909449 -0.022689609 0.027839014 0.023680765 -0.04409888
-0.21260303 0.10462827 0.23649992 0.1513746 0.11719053 0.30854335 0.10151138 -0.67719716
0.37164387 -0.18549992 -0.24970078 -0.70675844 0.3235912 0.76965886 0.26480305 -0.63164645
0.23721902 0.30438355 0.2736711 0.2778823 0.25020546 0.017012304 -0.9422684 -0.22172004
0.48555568 -0.7783327 0.19775578 1.0979006 0.7126601 -0.052048333 -0.29396644 -0.28927904
0.5897702 0.87805724 -0.08702035 -0.035451755 0.2556334 -0.5125797 -0.057037614 0.15746945
0.40844664 0.5661263 0.19026434 0.4135756 0.53032184 0.5550893 -0.30984098 -0.05824127
0.21263956 -0.15317486 -0.1158975 -0.32147717 0.38226262 0.1717212 0.13250296 0.27614015
0.3078738 0.068290226 0.5531093 0.37788245 -0.71712893 0.80268884 0.45319566 -0.42704815
0.02271833 -0.27219817 -0.1261899 0.16214168 0.2464267 -0.46114165 -0.81367904 0.76951116
0.2605615 -0.16708232 0.4131191 0.25093025 0.23089506 0.28202602 0.21717523 0.057790563
0.47222334 -0.5772319 -0.54320496 0.4715045 0.26896244 0.0023792644 -0.18853374 -0.2268999
-0.8704582 0.35876414 0.4858341 -0.1676722 0.42913142 -0.54910356 -0.3967954 0.27394283
-0.2976194 -0.27950415 0.47990558 0.32887667 -0.6795823 -0.082419045 -0.5005972 -0.22332382
0.35572347 0.5940154 0.2659532 0.26280522 0.10243452 0.063237526 0.26005194 0.090582795
0.16481198 0.29095814 0.09183086 -0.5107315 -0.39366788 0.41109595 0.37765065 0.45024645
0.09936658 0.65962404 0.4889045 -1.008665 -0.020386064 0.6507939 0.370015 0.76418436
00000000: 90b9 ed3c 96e1 993d cd4c 5a3d f0e9 a5bd
00000010: 48d0 433d bfa3 cd3a b957 5bbd 4285 7abc
00000020: 50a6 b3bb 2bd9 0bbb 5f40 a43b 446c 98bd
00000030: f308 7abd c267 153d 4c7f 103d 4513 a4bd
00000040: 5cca 1dbb b681 cabb 3a6b 653d 26c4 a1bb
00000050: b32a 013c 7762 8bbb a0e0 42bd dc57 52bc
00000060: 3aca 5cbc ad65 9abc b2e9 6ebd a30f 41bd
00000070: 72fd 813d 0cbd 733b e8df a53c 255c b0bd
00000080: a286 3e3b 1b4a 04bd 84e5 a5bd ad44 6ebd
00000090: a557 773c b80b ab3d ff1a 1fbd 8318 a3bc
000000a0: 128c 88bd e4ae 5e3d 5b95 82bd 8a66 88bd
000000b0: 38d8 373d 4bb8 aabd a3fd f73b 994b 873d
000000c0: 993b 943d 3a4f 893d 8f6a 1fbd ba28 61bd
000000d0: 3215 6bbd 764a 64bc 7aa4 e23c 619e 57bd
000000e0: 7a80 cdbb 8c1a d13b b28f 2f3d 872a 983d
000000f0: 060f 82bd 066d b0bd 88b5 c93c 913d b03b
00000100: 244a 64bd d53a 42bd 7a4d 9b3c 426d b03d
00000110: 5fc1 ae3d 1f23 96bc 7dc9 73bd 0bd8 c63c
00000120: 8b09 cf3b 5815 703d d680 5dbb 0f28 143d
00000130: 5bf8 93bd 57c1 8dbd 017d a43b d603 5abd
00000140: 63a0 60bd 256b a9bd 43e7 21bd bbd3 03bc
00000150: fffe 4f3d f952 8cbd 9e78 50bc 5e75 ee3c
00000160: 76d8 adbd 41c9 a0bd d6c4 bebc fc8d 59bc
00000170: 66c4 a6bd 5308 193c 1193 afbc d7e3 2b3d
00000180: 9259 4ebd 68a1 48ba 3453 59bd d1ab 15bd
00000190: 24aa 8b3d d6c0 89bd 04a4 28bd eeb2 2dbd
000001a0: 19ac 213d 2d15 533d 3152 7a3d 266d 72bd
000001b0: e4f4 1ebd e56e 5dbd f3ec 5a3d cae2 21bd
000001c0: 4bc4 87bd 2479 8d3d d8bc 2abd 3196 423d
000001d0: 668a dabc d6a9 873c b26c 7a3d 5181 4dbc
000001e0: 80c6 743d 422e 143d 764c a5bd d6b6 923c
000001f0: 8fdf b9bc a50e e43c 2afe c13c 07a1 34bd
00000200: 9cb4 59be 5947 d63d 092d 723e f101 1b3e
00000210: 9701 f03d 65f9 9d3e 33e5 cf3d cb5c 2dbf
00000220: 1b48 be3e b1f3 3dbe 90b1 7fbe 1fee 34bf
00000230: bfad a53e 5d08 453f 4494 873e 95b3 21bf
00000240: 8be9 723e 29d8 9b3e 9e1e 8c3e 9746 8e3e
00000250: ee1a 803e 635d 8b3c 8038 71bf 940a 63be
00000260: c19a f83e d040 47bf 7e80 4a3e 0288 8c3f
00000270: e470 363f a230 55bd c582 96be 621c 94be
00000280: 2efb 163f 5cc8 603f ba37 b2bd dc35 11bd
00000290: 62e2 823e 6c38 03bf 46a0 69bd ac3f 213e
000002a0: eb1f d13e a7ed 103f a8d4 423e 2ec0 d33e
000002b0: 2cc3 073f 551a 0e3f 7aa3 9ebe 668e 6ebd
000002c0: 2fbe 593e dfd9 1cbe ab5b edbd a898 a4be
000002d0: edb7 c33e afd7 2f3e dbae 073e 3e62 8d3e
000002e0: a2a1 9d3e bfdb 8b3d 9298 0d3f cf79 c13e
000002f0: c395 37bf 047d 4d3f 4309 e83e 0ea6 dabe
00000300: cb1b ba3c 8f5d 8bbe ed37 01be 7808 263e
00000310: 4857 7c3e c21a ecbe 454d 50bf affe 443f
00000320: 5168 853e a117 2bbe 5984 d33e ee79 803e
00000330: c16f 6c3e b765 903e 2f63 5e3e ccb5 6c3d
00000340: 42c7 f13e 78c5 13bf 7b0f 0bbf 0a69 f13e
00000350: 72b5 893e 6fed 1b3b fd0e 41be 7358 68be
00000360: 59d6 5ebf efaf b73e 3fbf f83e 43b2 2bbe
00000370: 1db7 db3e 0d92 0cbf c428 cbbe 3c42 8c3e
00000380: 9261 98be 2b1b 8fbe 2fb6 f53e 8662 a83e
00000390: 1bf9 2dbf 51cb a8bd 2327 00bf 00af 64be
000003a0: 6321 b63e 6511 183f 052b 883e 688e 863e
000003b0: 31c9 d13d ad82 813d 8725 853e 7983 b93d
000003c0: 79c4 283e 77f8 943e d111 bc3d 4dbf 02bf
000003d0: d68e c9be 2b7b d23e 6d5b c13e b486 e63e
000003e0: b580 cb3d 1fdd 283f b151 fa3e ef1b 81bf
000003f0: ad00 a7bc 6e9a 263f 9b72 bd3e 96a1 433f

net.2.bias f4 [128]
-0.0815538 0.08083946 0.021582037 0.098766826 0.24789158 0.16308674 0.10754241 -0.015400657
0.14739053 -0.04934817 0.027308676 0.106372 -0.01179453 -0.0831601 0.07768292 -0.0678232
0.06338406 -0.07347559 0.1491572 0.14704894 0.12199007 -0.06701923 0.16539846 -0.004107834
-0.15274197 0.16075328 0.14930981 0.07237647 0.010921672 -0.06615801 0.13152303 0.16143236
-0.12111577 0.021072662 0.15013821 0.089460276 0.12063999 0.1502009 0.12988923 0.0010567639
0.19369034 0.0413393 0.063929036 -0.036962394 0.14787525 0.018789139 0.13362917 0.06277921
-0.016264172 -0.004942203 -0.009645058 0.14188106 0.19687894 -0.0004471328 0.048015967 0.12996793
-0.06052586 0.11968516 -0.079852805 -0.0035440975 -0.01096537 0.00121622 0.013725667 -0.006598521
0.007375932 -0.043066263 -0.03182964 -0.055155996 -0.065359704 0.05972932 0.0031192969 0.06202451
0.040746618 0.07833771 -0.08576219 -0.014101851 -0.084102295 -0.029798781 0.09492766 0.1439482
0.07808595 0.042226277 0.18094923 0.08835654 0.018593557 0.20816442 0.0015680403 0.007339548
0.09801164 -0.07108488 0.100135915 0.06770788 0.037569206 0.06785024 0.06828098 0.018680034
0.056272063 0.021277886 0.16485384 -0.06004238 -0.008466298 0.12875634 -0.12948926 -0.0062093427
0.15766366 0.05993463 0.050341148 0.15417375 -0.08125794 0.0237921 -0.09659699 0.16902412
-0.042590313 0.038223807 -0.03518428 0.026035398 0.11439956 0.14550138 -0.10078044 -0.01041966
-0.08899699 -0.09627207 0.061544165 0.0025935075 -0.044258084 0.06385745 -0.06346078 0.17523701
00000000: ae05 a7bd 298f a53d d0cc b03c 4346 ca3d
00000010: 4ad7 7d3e 3600 273e 323f dc3d 0a53 7cbc
00000020: 8bed 163e 4f21 4abd 72b6 df3c 90d9 d93d
00000030: d83d 41bc d84f aabd 3918 9f3d e4e6 8abd
00000040: 81cf 813d 5f7a 96bd aabc 183e ff93 163e
00000050: eed5 f93d 6141 89bd 375e 293e 029b 86bb
00000060: 6468 1cbe 829c 243e ace4 183e 1d3a 943d
00000070: d0f0 323c da7d 87bd f9ad 063e 864e 253e
00000080: 8b0b f8bd 93a0 ac3c d5bd 193e f336 b73d
00000090: 1912 f73d 44ce 193e af01 053e 1d83 8a3a
000000a0: c356 463e 6653 293d 3aed 823d e165 17bd
000000b0: 9c6c 173e aeeb 993c 16d6 083e 6392 803d
000000c0: 713c 85bc 34f2 a1bb 4e06 1ebc 4549 113e
000000d0: a29a 493e 266d eab9 64ac 443d 5016 053e
000000e0: f7e9 77bd 7e1d f53d de89 a3bd 1744 68bb
000000f0: 18a8 33bc 9269 9f3a 9fe1 603c 6838 d8bb
00000100: cdb1 f13b 4066 30bd cc5f 02bd 41eb 61bd
00000110: 4fdb 85bd bba6 743d 1e6d 4c3b 6a0d 7e3d
00000120: ede5 263d 856f a03d 16a4 afbd 730b 67bc
00000130: d33d acbd 931c f4bc 6f69 c23d 2867 133e
00000140: 87eb 9f3d 76f5 2c3d c14a 393e 46f4 b43d
00000150: 8451 983c 0e29 553e b486 cd3a 9780 f03b
00000160: 54ba c83d f394 91bd 0f14 cd3d 6eaa 8a3d
00000170: 2be2 193d 11f5 8a3d e6d6 8b3d df06 993c
00000180: 897d 663d f64e ae3c 72cf 283e 00ef 75bd
00000190: 3ab6 0abc b4d8 033e d598 04be be77 cbbb
000001a0: 9572 213e 047e 753d 8532 4e3d b9df 1d3e
000001b0: 906a a6bd a6e7 c23c a5d4 c5bd a914 2d3e
000001c0: 2e73 2ebd 9190 1c3d 641d 10bd 3048 d53c
000001d0: 514a ea3d 50fe 143e fa65 cebd 39b7 2abc
000001e0: 0e44 b6bd 4b2a c5bd bc15 7c3d d6f7 293b
000001f0: f747 35bd b2c7 823d baf7 81bd 5571 333e

net.4.weight f4 [7, 128]
0.05835563 0.3285226 1.1062086 0.3656309 0.45418188 0.1987744 -0.35183242 0.03509238
-0.04106054 0.4099875 0.38102618 0.12134098 0.54294795 0.48056695 0.49201867 0.30739304
0.19938745 0.7010983 0.22930706 0.6386535 -0.32187986 0.5489022 -0.25961694 0.2101802
1.3156942 0.90313745 -0.3331515 0.15811259 0.16492088 0.52251273 -0.8534004 0.2390161
0.32720998 0.57205886 -0.3334331 0.21965237 0.27062812 -0.4177195 0.019661099 -0.21582653
0.08363733 -0.29405993 -0.4120871 0.57676136 -0.49375677 0.3298733 -0.06680155 0.18904851
0.7175783 -0.34235078 -0.10993592 0.83918256 -0.16850948 0.19406778 0.07690301 -0.23260729
0.07693242 0.3781739 0.19472201 0.33915827 0.3715015 1.3481742 0.46870393 0.5490138
0.18835047 -0.5146345 0.4031807 -0.37046012 0.46292174 1.0295507 -0.52240044 0.38683143
0.84687144 1.2240627 0.039221313 0.1841213 0.17291684 0.33417803 -0.52903795 0.2522536
0.48917872 0.74889606 0.47730955 0.43575686 0.41144425 -0.22226524 0.47255686 0.2054371
0.39151815 0.18567525 0.3618743 -0.06929693 0.24916796 0.4087193 -0.29340312 -0.3874778
0.26283035 0.17129767 0.21148169 0.25946745 0.6413016 0.56866896 0.35128748 -0.31533602
0.35973546 0.036113955 0.119881995 -0.18050992 0.034212597 0.35172606 0.5059677 -0.07611745
0.40541935 -0.68821025 -0.11749294 0.32775247 0.69138515 0.55046004 0.5059966 -0.15383203
0.2574202 0.9915119 0.31309888 0.47438926 0.94260776 0.123463854 0.43850225 0.39395675
-0.0203293 0.3202844 0.33423173 0.3781861 0.24736516 0.3256144 -0.015993534 0.19286647
0.019253852 0.5271285 0.25927538 0.13784796 0.38371825 0.2843756 0.29607618 0.412792
0.13688341 0.50418884 0.2430437 0.12159982 -0.32619628 0.36864778 0.15669093 0.28511408
0.76038826 0.7781202 -0.2586647 0.37496307 0.016465938 0.4501034 -0.06944208 0.17503887
0.18773815 0.5164785 0.052655485 -0.84122086 0.32853052 -0.20164414 0.17639087 -0.37309203
0.15686654 0.6204408 0.03670073 0.39953715 -0.14526227 0.2557197 -0.18103664 -0.29239112
0.12758407 -0.45870385 0.25698143 0.2380087 0.20385279 0.14480698 0.13163972 0.08713391
-0.049824364 0.27120385 0.2732251 0.1327795 0.19615299 0.12598981 -0.26042622 0.3673319
-0.051445175 -0.13561442 0.3778786 -0.6700152 0.45262277 0.20417343 -0.87033033 0.32753584
0.26549608 0.07644164 0.019532071 0.059224125 0.30435213 0.2657855 -0.19814041 -0.012655699
0.41033757 0.26897717 0.461146 0.2608465 0.27052647 0.22722581 0.41763243 0.09443815
0.33097368 0.2795647 0.23092993 0.21596625 0.254371 0.34273595 0.16179584 0.1270342
0.20147988 0.2558845 0.16619422 0.31071132 0.28495052 0.68034834 0.36193568 0.16602245
0.32639658 0.27476346 0.20967883 0.18628447 0.23819405 0.3570701 0.45663282 0.30179274
0.09312958 -0.09586718 0.0947446 0.27179384 0.4937103 0.33478132 0.46643466 -0.31903425
0.32306635 -0.16284274 0.30184275 0.17527612 0.68450326 0.12253979 0.23698343 0.31093025
00000000: 5006 6f3d 1d34 a83e 3e98 8d3f f933 bb3e
00000010: 878a e83e 848b 4b3e 6123 b4be 07bd 0f3d
00000020: 192f 28bd e2e9 d13e dd15 c33e 9f81 f83d
00000030: a3fe 0a3f df0c f63e dfe9 fb3e 9f62 9d3e
00000040: 392c 4c3e 2e7b 333f 78cf 6a3e cc7e 233f
00000050: 70cd a4be db84 0c3f 83ec 84be 7a39 573e
00000060: ab68 a83f 0434 673f d592 aabe 44e8 213e
00000070: 05e1 283e 65c3 053f 7378 5abf a3c0 743e
00000080: 1188 a73e 7372 123f beb7 aabe 8dec 603e
00000090: c58f 8a3e 55df d5be 5010 a13c a101 5dbe
000000a0: 0c4a ab3d 068f 96be 15fd d2be a2a6 133f
000000b0: b0cd fcbe 27e5 a83e 40cf 88bd ef95 413e
000000c0: 36b3 373f 9a48 afbe 1526 e1bd abd4 563f
000000d0: c08d 2cbe b4b9 463e 537f 9d3d 9b30 6ebe
000000e0: bf8e 9d3d 02a0 c13e 3565 473e 27a6 ad3e
000000f0: 7235 be3e f990 ac3f f6f9 ef3e 2b8c 0c3f
00000100: f2de 403e 16bf 03bf b36d ce3e f3ac bdbe
00000110: 1404 ed3e 51c8 833f 09bc 05bf c50e c63e
00000120: 91cc 583f 16ae 9c3f 87a6 203d 4b8a 3c3e
00000130: 1d11 313e 6219 ab3e 086f 07bf 6227 813e
00000140: a275 fa3e a7b7 3f3f eb61 f43e 861b df3e
00000150: d2a8 d23e 8099 63be f9f2 f13e 1a5e 523e
00000160: 1175 c83e a721 3e3e 9747 b93e 8deb 8dbd
00000170: e325 7f3e a843 d13e ef38 96be 7d63 c6be
00000180: b391 863e a868 2f3e a88e 583e ebd8 843e
00000190: 572c 243f 4a94 113f f4db b33e b973 a1be
000001a0: 3f2f b83e 3aec 133d b184 f53d 98d7 38be
000001b0: 8222 0c3d 7015 b43e 1987 013f 77e3 9bbd
000001c0: 2093 cf3e 8c2e 30bf 23a0 f0bd 2ccf a73e
000001d0: 9efe 303f f3ea 0c3f fe88 013f 2586 1dbe
000001e0: 95cc 833e b9d3 7d3f 7f4e a03e 26e3 f23e
000001f0: be4e 713f 9eda fc3d 5e83 e03e b3b4 c93e
00000200: a289 a6bc 51fc a33e 6c20 ab3e 9ca1 c13e
00000210: 4b4d 7d3e eeb6 a63e df04 83bc ca7e 453e
00000220: 41ba 9d3c e5f1 063f bebf 843e 0428 0d3e
00000230: b876 c43e ae99 913e 4c97 973e 7959 d33e
00000240: 2a2b 0c3e 8512 013f 73e0 783e 5409 f93d
00000250: 3303 a7be 67bf bc3e 9673 203e 79fa 913e
00000260: cea8 423f e332 473f b36f 84be 29fb bf3e
00000270: 93e3 863c f473 e63e a637 8ebd 643d 333e
00000280: 6e3e 403e ef37 043f 47ad 573d 405a 57bf
00000290: 2735 a83e cd7b 4ebe cf9f 343e eb05 bfbe
000002a0: 9fa1 203e 35d5 1e3f 8153 163d 2290 cc3e
000002b0: a2bf 14be b1ed 823e ab61 39be 4ab4 95be
000002c0: 66a5 023e 3bdb eabe 1293 833e 8db8 733e
000002d0: c9be 503e 4848 143e 90cc 063e 4373 b23d
000002e0: a214 4cbd 3bdb 8a3e 29e4 8b3e 59f7 073e
000002f0: 54dc 483e 7903 013e 9656 85be ed12 bc3e
00000300: 2db8 52bd 82de 0abe 4e79 c13e 1e86 2bbf
00000310: 2cbe e73e d712 513e f8cd 5ebf c7b2 a73e
00000320: 1aef 873e 6f8d 9c3d b901 a03c ff94 723d
00000330: 0bd4 9b3e 0915 883e 52e5 4abe d959 4fbc
00000340: c417 d23e 60b7 893e 541b ec3e ac8d 853e
00000350: 7282 8a3e e2ad 683e ebd3 d53e ca68 c13d
00000360: 6275 a93e 1b23 8f3e e578 6c3e 4226 5d3e
00000370: ea3c 823e 167b af3e cfad 253e 4115 023e
00000380: be50 4e3e 4b03 833e d12e 2a3e 8e15 9f3e
00000390: 09e5 913e 4f2b 2e3f a24f b93e ca01 2a3e
000003a0: 741d a73e ccad 8c3e 0cb6 563e 5bc1 3e3e
000003b0: 24e9 733e e4d1 b63e c7cb e93e 9484 9a3e
000003c0: b9ba be3d 0356 c4bd 7509 c23d 9028 8b3e
000003d0: 99c7 fc3e 7568 ab3e 86d0 ee3e 7558 a3be
000003e0: f468 a53e 3fc0 26be 228b 9a3e 957b 333e
000003f0: 9b3b 2f3f 24f6 fa3d c9ab 723e 4032 9f3e

net.4.bias f4 [7]
0.045118414 0.038362503 -0.034213945 -0.1260014 0.07326998 0.16362435 -0.009603736
00000000: 16ce 383d 0022 1d3d ec23 0cbd 8306 01be
00000010: 920e 963d 248d 273e fd58 1dbc
