coup_nsfp/0.99G10kEp0.2to0.1br-as/nfsp_coup_demo_best_agent_block.pt (torch, 84341 bytes, 6 tensors)

net.0.weight f4 [128, 26]
00000000: d3ac 743e a75e 243c 5ef8 f23a 0562 543e
00000010: c3a6 f93d 9ffb 05be 477c 54bd 4ca8 773c
00000020: 8a19 d33c 3a56 94bd 6769 493e 7dd5 4abe
00000030: 635b 89bd 7dca 2e3e 6edc 14be d0c5 2dbe
00000040: 2b9f 023d 1b6e 623d fe7b 103e 94fc d6b7
00000050: 6dc6 053e be8f d2bd bda8 ec3d 6017 29be
00000060: 7f06 84bd e401 22be 5bb8 ab3d 7580 4d3d
00000070: e918 f63d d787 113e 178d 85bd fe14 a2bd
00000080: 2ac5 5abe b39e 7c3d 2a4e b93d e1d7 47be
00000090: 4900 6f3b f475 0b3e f4fa 34bd 3c8a c93d
000000a0: 8f4f 053e c533 2bbc 13ef fabd 47ef 2dbc
000000b0: b849 cdbd e846 d33d f88d 32bd 4bf1 0fbd
000000c0: a0f3 32be 2956 4f3d f294 b1bd e618 6bbd
000000d0: d5b0 0bbd 47ec 30be 5748 5a3d 9f0f deba
000000e0: d427 843d d1b0 133e 653c afbd a981 31be
000000f0: 77ba f33d c60c f0bd 7970 f93d 36eb 15be
00000100: 38db 023c 5abc 3ebe 6599 803c cb00 cc3d
00000110: 2b1d 64bd 38df 95bd d07a b1bb aa4c 8cbc
00000120: b312 6a3e 69b6 573e 7000 423e 04fe e73c
00000130: 150e 38bd 7f17 b83d 5c0d bc3d 96a1 36be
00000140: 0043 5a3e d059 96bd 2b59 493e 6e55 1bbe
00000150: d051 63bd 2e90 80bd cf68 e7bd 831c bdbb
00000160: 30bb b93d b8f6 39be 5f80 5b3d e46e ddbd
00000170: 9874 c03d b780 a239 5f8d 6ebc c1e5 dc3d
00000180: ccb4 37be 4e1b 8a3c f741 553e 25c4 3fbe
00000190: 7dcf 23be 5eab 0dbe 4eaf 09be 5db4 22be
000001a0: c42d bdba 3a41 5f3e e395 893d a2e4 c63d
000001b0: d497 523d b9ad f43c 7b92 823c 709c e53d
000001c0: 6824 d73d 9d87 1f3e 2961 0f3e c2f0 0fbd
000001d0: ebc7 24be 1cf1 7c3d 9fce 093c b32f 1d3e
000001e0: 574a 393c 026a 66bd ff95 573d b2f2 8d3d
000001f0: af52 09be cbbf 743e 7581 163e 9e22 74be
00000200: 2b0a ea3d 42e6 353d a72d 263e b64a 593e
00000210: 5d9a ab3c 77a2 a0bd 7dc6 3a3c 27c1 18be
00000220: e794 f63c 7fc0 24be d4d6 033e 8278 193e
00000230: 851f c3bd b4b5 203e 478b 413e 5679 2cbe
00000240: b14b 1abe 8dbe bf3d 67e4 103e f3b4 dfbd
00000250: 10b8 88bd 65f7 32be ab65 963d 2bd7 793d
00000260: aa5d 013e f708 973d 21aa f83b bc4e 883d
00000270: 1fa6 2a3e a4b4 3abc eb6c 3e3c 15f2 0cbe
00000280: 93a9 563e 9c67 623d 8363 483e 6aa5 87bc
00000290: 10a6 0a3e 53b4 46bd 9084 2f3e c3f2 08be
000002a0: 70dc 653d 4a24 123c 0f36 b2bd 8fa8 05be
000002b0: 59e2 033e 9561 17be 8da1 e93d 1735 9d3d
000002c0: 2562 b4bd df1a 03bd e982 0a3e 59a9 1ebe
000002d0: 7c57 a43b fe42 e7bc aa04 a33d 5ba5 9fbd
000002e0: c4d7 cfbd 3f9b 8b3d 10cb 3dbd ac2f 493d
000002f0: afad 2fbd 16a5 87bd e9ae 903c 085b e5bb
00000300: bc57 0fbd a34c 3abc 7954 39bd bf01 38bd
00000310: 6b58 c53c 233a 18be 46ea 2f3d 0879 653e
00000320: 3988 e83d 39c4 583e cc4a adbc 6b21 ff3d
00000330: eca9 893d b365 e53d 01bc b43d 856e a6bd
00000340: a486 4dbc 4d53 21be 0a39 b53d 124c c53c
00000350: 8ec1 4ebe d94e 4b3e 76ff 0abe 81ef 9d3d
00000360: 9ad4 3f3e 8f0c 453e 6e2c 0e3e 9c26 c23d
00000370: 6bb3 f43d ff38 623d 21a7 033e 52e4 9dbd
00000380: d165 d93d 30f1 ccbd 1071 7fbd de1b 1d3b
00000390: b17b 11be 8464 923d 9021 073e 4b03 503e
000003a0: d3f8 873d a46c 073e 8dd7 71bd b4f2 0fbe
000003b0: 8899 103c 6d4a 683d d904 423d 2381 693c
000003c0: ca35 2dbe 89cf 853d c7f8 203e df00 bb3d
000003d0: ca13 f6bc 7168 ef3d 51cf c23c 6a2e 68bd
000003e0: 3e74 0e3e bc67 7bbe 64db c43c 8ea1 27be
000003f0: 5a38 efbd 6efd 3a3e 7e7b 893c 4107 8ebe
0.23894052 0.0100323325 0.0018537154 0.20740516 0.121900104 -0.13084267 -0.051876333 0.015115809
0.025769014 -0.07243009 0.19669114 -0.19808002 -0.06706884 0.1706943 -0.14537212 -0.1696999
0.031890076 0.055280786 0.141098 -2.5628404e-05 0.13063975 -0.10281323 0.11555622 -0.16512823
-0.064465515 -0.15821034 0.083847724 0.050171334 0.1201647 0.14211975 -0.065210514 -0.0791416
-0.21364275 0.061674785 0.09048112 -0.19515945 0.0036468676 0.13619214 -0.04418464 0.09840819
0.1301863 -0.010449355 -0.12252631 -0.01061613 -0.10023826 0.10316259 -0.043592423 -0.035142224
-0.17475748 0.050619278 -0.08670987 -0.057396792 -0.034104187 -0.17277633 0.053291645 -0.0016941911
0.06452909 0.14422919 -0.08556441 -0.17334618 0.119008 -0.11721186 0.121796556 -0.14640507
0.007986836 -0.18626538 0.015698144 0.09961089 -0.05569188 -0.07317966 -0.0054162517 -0.0171264
0.22858696 0.21065678 0.1894548 0.028319366 -0.044935305 0.089888565 0.091822356 -0.17835078
0.21314621 -0.07341349 0.19662921 -0.15169308 -0.055497944 -0.062775 -0.112992875 -0.005771221
0.09068906 -0.18160522 0.05358922 -0.10812166 0.093972385 0.00030994948 -0.014560073 0.107860096
-0.17940062 0.016858723 0.20825945 -0.18727167 -0.15997119 -0.13834903 -0.1344578 -0.15889116
-0.0014433195 0.21802226 0.06718042 0.09711577 0.051414326 0.029867994 0.015938988 0.11211479
0.10504991 0.15579076 0.14001907 -0.035141714 -0.16091888 0.061753377 0.008411079 0.15350227
0.011309228 -0.05625344 0.05263328 0.06931056 -0.13410448 0.23901288 0.14697821 -0.2384133
0.11427721 0.044409044 0.16228352 0.21219906 0.02094763 -0.07843488 0.011399862 -0.14917432
0.030100299 -0.16089056 0.12874919 0.14987376 -0.09527496 0.15694314 0.18900786 -0.16843161
-0.15067936 0.093625166 0.14149629 -0.10923185 -0.06675732 -0.17477186 0.073436104 0.060996216
0.12633386 0.07374757 0.0075886403 0.066556424 0.16664933 -0.011395607 0.011622648 -0.13764222
0.20963125 0.05527459 0.1956921 -0.016558368 0.1353991 -0.048511814 0.17140412 -0.13373856
0.05611843 0.008919785 -0.08701717 -0.13052581 0.12879314 -0.14783318 0.114077665 0.07676142
-0.08807782 -0.03200805 0.13526501 -0.15494289 0.0050153118 -0.028230187 0.07959874 -0.07795211
-0.10148576 0.0681672 -0.046336234 0.04911773 -0.042890247 -0.066232845 0.017661529 -0.006999377
-0.03499578 -0.011370811 -0.045246575 -0.04492354 0.024090013 -0.14865927 0.04294803 0.22409451
0.113541074 0.21168603 -0.02115383 0.12457546 0.06721863 0.11201038 0.088249214 -0.08126549
-0.012544308 -0.15754433 0.0884877 0.024084125 -0.20191023 0.19854297 -0.13574013 0.07711697
0.18733445 0.19243072 0.13884136 0.094800204 0.11948284 0.055230137 0.12856723 -0.07709564
0.10615123 -0.1000694 -0.062363684 0.002397291 -0.14207341 0.07148078 0.13196397 0.20313756
0.06639256 0.13225037 -0.059043456 -0.14057428 0.008825667 0.056711603 0.047367904 0.01425198
-0.1691505 0.06533725 0.15719901 0.091310255 -0.030038733 0.116898425 0.023780497 -0.05668489
0.1391153 -0.2455129 0.024030395 -0.16370222 -0.1168067 0.18260738 0.016782518 -0.2773991

net.0.bias f4 [128]
00000000: a3e8 01be ff84 0e3e 74c0 9fbd d8c2 89bd
00000010: d1fb 91ba 1ead 3d3d 35fc 373c b5cd a4bd
00000020: 21ab 073e 5d7c 96bd e487 25be 06b6 c2bd
00000030: b1fc 08be ecc7 4cbe 373f 45be b7cc b03c
00000040: 67c1 3fbd b50c e1bc 7a41 f53d e103 cdbd
00000050: bbc0 fe3d ab2b 803d 256d 49be 23b2 dd3d
00000060: 0451 373b 6f6a 9bbc 061a 0c3e f7e7 bb3c
00000070: 8843 233e 7d4f 9b3d 2eff edbd d975 86bd
00000080: 9c1e 28be 53c5 ca3d 4e31 3d3e ea6a aabb
00000090: c44d f8bd 0b48 213e 9894 833d 394e b7bd
000000a0: 723a 433d 3d2c 42bd 6909 9bbd 8fb0 553e
000000b0: 01db 0bbe e4a4 a13b 2072 02be 6c14 993c
000000c0: 68e9 14bd 8358 1c3e af2b f23d 6704 843c
000000d0: ff30 2abe 50ae b33d 64c1 ff3d 35c8 003d
000000e0: 8e06 6fbd d74b 54bd a268 bbbd 814b 0fbe
000000f0: 093b d4bd 1a68 31be 398f 793d c114 ba3d
00000100: 5dad e9bd ccd6 1bbe ca9d aabd f3ea a43b
00000110: e163 e03d 2884 4c3e 9b4d 0abe 1b2a 26be
00000120: be47 753d dd51 00be 1d0e 56bd bec6 f73d
00000130: 3200 c23d 577e c0bd 6593 b73d df9b c63c
00000140: 741c 9a3d f541 c13d 167b 05be dc19 213e
00000150: b9a1 263c de46 593d 1c68 f3bd 6fe3 d8bd
00000160: fd3c 2a3d f086 083e d940 413e 5550 2a3e
00000170: e3fe 043e 1756 80bd 57a2 c9bd 36a1 243d
00000180: d495 12be c54c d63d 305a bdbd 2c2e fb3d
00000190: 4005 023e f157 0a3c 50b3 b53c 33b1 d43c
000001a0: 570d 04bd 74a4 1e3e 7742 213d b4a1 09be
000001b0: 020c 843d 7074 c2bd 1399 113e 5f3a bfbc
000001c0: 1598 fb3c d6cb 0bbe 8909 0ebe e629 7e3d
000001d0: 6170 efbd a3fb 30bd 49c2 ba3d 4f2d 213e
000001e0: 560d 33be 055f 36bd 119e 89bd 5018 dd3c
000001f0: 6f28 063e 4e64 1cbe 6efc f33d 5c53 533d
-0.126864 0.13917921 -0.078003794 -0.067266166 -0.0011137669 0.046307676 0.011229564 -0.08047048
0.13248874 -0.07347939 -0.1616512 -0.095073745 -0.13377644 -0.19998139 -0.19262396 0.02158199
-0.046815302 -0.02747188 0.11975379 -0.100105055 0.12439104 0.06258329 -0.19670542 0.108249925
0.0027971873 -0.01897165 0.13681802 0.022937758 0.1594373 0.075835206 -0.11620937 -0.065654464
-0.16417927 0.09900918 0.1847584 -0.0052007334 -0.121242076 0.15750138 0.064248264 -0.08950467
0.04766316 -0.04740547 -0.07570154 0.20868133 -0.13657762 0.0049329866 -0.12738848 0.018686496
-0.036355406 0.1526814 0.11824738 0.01611538 -0.16620253 0.08773482 0.12488058 0.031440932
-0.05835586 -0.05183014 -0.091508165 -0.13993646 -0.103628226 -0.17324868 0.060927603 0.0908599
-0.114100195 -0.15218657 -0.08330877 0.005032891 0.109565504 0.19972289 -0.13506167 -0.16227
0.05988287 -0.12531228 -0.052259553 0.12098454 0.094726935 -0.093990974 0.0896366 0.024244247
0.07524958 0.094364084 -0.13035235 0.15732521 0.010170394 0.0530461 -0.11885092 -0.105902545
0.04156207 0.13332725 0.18872394 0.16632207 0.12987857 -0.0626642 -0.09845417 0.040192805
-0.14314967 0.104638614 -0.092457175 0.12264666 0.12697315 0.008443818 0.02218023 0.025963401
-0.032239284 0.15492421 0.039370026 -0.13440591 0.06447603 -0.09494865 0.1421855 -0.023343263
0.030712167 -0.13651976 -0.13870825 0.062051676 -0.116913565 -0.04320873 0.09119088 0.1573994
-0.17485556 -0.04452421 -0.06719602 0.026989132 0.13101362 -0.15272638 0.119133815 0.05159317

net.2.weight f4 [128, 128]
00000000: afaf debd 3e80 00be b126 12be 94bf 163e
00000010: cb17 12bd eeaa 1c3d 010a e7bb af61 59bd
00000020: 5b9f ba3b fa73 65bd 6392 b0bd 646a 0e3c
00000030: 98af 7cbd 585e 00be 6c39 84bd 88fa 30be
00000040: 2a1e cc3c 1260 cdbc e262 4dbc 5ace b7bc
00000050: 3c04 b03d b3b3 263c 2d5e 2c3e 274b 54bd
00000060: df85 8dbc c27a 3fbd 5274 09bd f822 9e3d
00000070: 8e3f 693d 4fbc b03b 7384 173d e1b8 7f3d
00000080: 6ef1 143e 3044 33be cd40 3c3d 88f6 2fbe
00000090: 118a 03bd 9dd8 c63d a9f2 64bd a8b5 b13d
000000a0: 18c9 80bd d71e 8d3d 1c9d 3a3d aab6 a5bc
000000b0: b277 163d c82f 7dbc bdeb 833d 1481 763d
000000c0: ba6d 2cbd 0d52 78bd 5efb f33d 0a44 18be
000000d0: cef1 b83c ad4f 073d 5cc7 b2bd 5eb1 af3c
000000e0: 617a 103e 4828 babd 3544 19bd ce42 12bd
000000f0: d07c 623d a7c6 653d ea1c 37bd 2653 2bbd
00000100: 3b39 893d d2ce 99bd e0a9 48bd f7eb acbd
00000110: 99cc 643d d186 acbd 0fab cf3b b0d7 b5bd
00000120: 3d1a a4bc 0e44 543e 0082 7a3d 0704 a43c
00000130: bcbe 80bc 871a a13d 066b 5dbc 8bc7 a5bd
00000140: 5e37 3bbd ba80 e13d 907f 153d e354 23bd
00000150: 3489 61bd fbbe 2cbd 7bd5 1cbd 59e9 61bc
00000160: 8e22 01bd 3702 6f3d 17df 2b3d d2e6 4d3c
00000170: b53a 5d3b ce58 9c3c 395d a63b f4e5 fa3c
00000180: 0818 c6bc a34a ebbb ceb5 f9bd ffbc 07bb
00000190: fb6e 8a3d 2394 e1bd 0ff9 b13c 5ce1 ebbc
000001a0: 91f1 a83d fa9d 423d 444a ff3d 52e0 573d
000001b0: e0ad 02bd ef0d 283c 3208 83bd e62f 363d
000001c0: 1c11 a138 0dea d23b f1f0 39bc 95ef 83bd
000001d0: 935e c5bd c6e5 8aba f1c6 5c3b 27bb db3b
000001e0: deb1 983d 6e19 acbb cc66 753d 3800 ac3d
000001f0: 7e15 183e d93a 0dbd 15a5 fe3c a809 873d
00000200: 5d68 943d 48e1 cbbc 6b3e 113e 2767 4fbe
00000210: da66 333d f7f7 08bd 3210 e1bc 7a6c b8bc
00000220: 3d1e 54bc 029b 9c3d 6c2c b03d 2a9a 25bd
00000230: c81b 72bd 4af1 bc38 ec6b 11bd 81b3 b53d
00000240: 1a18 c63d b543 0ebd 85bb 93bd a4ee 9dbd
00000250: 93b0 613d 0b0b 1ebd cac2 03be 934d 00bd
00000260: 3840 113e 1904 07bd 8238 2cbd d43c 3a3c
00000270: ee64 19bd 1e02 04bd 2bc0 543d a79a babd
00000280: 3a7c 953c d0fc e33c ea7f c13b 4a93 933d
00000290: 93d2 27bd 16fb 6a3d e966 8b3d 7195 a3bd
000002a0: b935 b53d 6511 e5bb dfff b9bd 8c05 e03c
000002b0: 49b2 76bd 110a 56bd 1e3b 713d ea85 10bd
000002c0: 6dd3 063e 3714 62bb 3258 8dbc 98d4 143d
000002d0: 46b1 213d 196f c63a c955 0f3d defb 03bd
000002e0: 17b1 13be 0bc5 e8bc 93e7 2abd a5b6 0c3e
000002f0: d9c8 b0bd 3aac 903d 574b 1ebc 6eac bf3d
00000300: f698 73bd 20e3 893d a00b 9a3c 273d 873d
00000310: 75ad 42bd 863b ef3d a15a 4cbd 4a73 853b
00000320: 73e2 d13d d799 b3bd bfc7 d3bd 7006 f4bc
00000330: 4571 34bd d95a b9bd 651f 92bd 3704 993c
00000340: 69d6 203c aa72 293d 1be2 19bc d57c f03c
00000350: 1c1f d53d 9dc1 973c 7269 8cbc c430 7b3d
00000360: 2642 f8bb 65d0 453d 59ec 4e3c 32dd 343d
00000370: 9a94 293d d2a6 edbc f560 613a bc3b 803d
00000380: 0c9d 153b 069a 9ebd d09a 91bd f24c 243d
00000390: 0d07 f7bc bc9b 3e3d b89f 78bd 7bd1 ec3a
000003a0: 268e 4d3d 3187 adbd 6239 93bd a6b7 9d3c
000003b0: 906a 443b e0ea bf3d 17f5 1ebd e25d 3f3c
000003c0: 0680 9b3b af00 f03c e950 c73d 9d2c 5b3e
000003d0: 1f96 203d 78e9 aabc 64b7 273d f41e 0ebd
000003e0: 63da adbd 5e3f 6bbd a40a a33d 336f 2b3d
000003f0: 395f 0ebe 4b7f 1bbd 82f1 85bd 148b 993c
-0.10873353 -0.1254892 -0.14272572 0.14721519 -0.035667222 0.03824895 -0.007050753 -0.053071674
0.005695266 -0.056018807 -0.08621671 0.008692358 -0.061690897 -0.1253599 -0.06456265 -0.1728307
0.024916727 -0.025070224 -0.0125357825 -0.022437263 0.08594558 0.01017468 0.168328 -0.051829483
-0.017275749 -0.04674793 -0.033558197 0.077215135 0.056945376 0.005393542 0.036991548 0.062432174
0.14545223 -0.1750648 0.045960236 -0.17183888 -0.032114092 0.097092845 -0.05589548 0.08677226
-0.062883556 0.06890648 0.045559987 -0.020228703 0.036735244 -0.0154532865 0.06441448 0.060181692
-0.04209683 -0.060625125 0.11913179 -0.14869705 0.022576239 0.03303497 -0.08729431 0.02144688
0.14109184 -0.09089714 -0.037418563 -0.03570824 0.05529481 0.056097653 -0.04470531 -0.041827343
0.06700369 -0.07510151 -0.04899013 -0.08443444 0.055859182 -0.08424152 0.0063375304 -0.0887903
-0.020032043 0.20729086 0.061159134 0.020021452 -0.01571595 0.07866388 -0.013514286 -0.080947004
-0.0457071 0.11010881 0.036498606 -0.039875876 -0.055062488 -0.04217432 -0.03828953 -0.013788545
-0.031527095 0.05835172 0.041960802 0.012567239 0.0033756916 0.019085314 0.005077031 0.030627228
-0.02418138 -0.0071805282 -0.121928796 -0.0020712016 0.06759449 -0.11014583 0.021725206 -0.028793983
0.082492 0.04751394 0.12465337 0.052704163 -0.0319041 0.010257228 -0.063980475 0.044479273
7.680265e-05 0.0064365924 -0.011348949 -0.06442181 -0.09637179 -0.0010597042 0.0033687914 0.00670566
0.074558005 -0.005252055 0.059912488 0.08398479 0.14851949 -0.03447995 0.031084577 0.06593639
0.07246468 -0.024887696 0.14183967 -0.20254193 0.04379926 -0.033439603 -0.027473543 -0.022512663
-0.0129466625 0.07646753 0.08602223 -0.040430225 -0.059108526 9.009482e-05 -0.035503313 0.08872128
0.09672566 -0.03473254 -0.07213501 -0.07711533 0.055100035 -0.03858475 -0.12867275 -0.03132398
0.14184654 -0.032962892 -0.042046078 0.011367042 -0.03744977 -0.03222858 0.05194108 -0.09111529
0.018247712 0.027830511 0.005905141 0.072058275 -0.040972304 0.05736836 0.06806738 -0.07987488
0.088481374 -0.006990599 -0.09082007 0.027346395 -0.06022862 -0.052255694 0.05889427 -0.03528396
0.1316659 -0.0034496912 -0.017253969 0.036335558 0.0394757 0.0015139311 0.03499392 -0.03222262
-0.14423023 -0.02841427 -0.041724753 0.13741548 -0.08632059 0.070640996 -0.009661517 0.0935906
-0.059472047 0.06732774 0.018804371 0.06603461 -0.047528703 0.11681275 -0.049891118 0.0040725814
0.1024827 -0.08769577 -0.10340833 -0.029788226 -0.044053335 -0.09050531 -0.07134894 0.018678768
0.009816744 0.041369118 -0.009392287 0.0293564 0.10406324 0.01852494 -0.017140124 0.061325803
-0.007576245 0.048294444 0.012629592 0.04415626 0.041401483 -0.02901021 0.00085975166 0.062613934
0.0022829203 -0.077442214 -0.07109606 0.040112443 -0.03015473 0.04653524 -0.060699195 0.0018067801
0.05018439 -0.08473051 -0.07188679 0.01925261 0.0029970743 0.09370971 -0.038807955 0.011680098
0.004745486 0.029297201 0.09732229 0.21403737 0.039205667 -0.02086328 0.04094638 -0.034697488
-0.084889196 -0.05743348 0.07961014 0.041854095 -0.13903512 -0.037963193 -0.065402046 0.018743075

net.2.bias f4 [128]
00000000: 6305 a13d 3a5b 313c 4490 6fbd cd5d 40bd
00000010: 4f0f 113b 1c01 30bd e96a 803d f289 713d
00000020: cc4c aa3c 5882 af3c 8d85 3bbd e9b3 983d
00000030: 1305 68bd 5c16 3d3d d843 03bd 33c7 9f3d
00000040: fe64 ae3d 12d1 88bc ad84 0c3d bcea 9a3d
00000050: 8f08 b43c 6636 7d3d baab 6abc 0015 cf3d
00000060: ef53 7d3d 0f8f 1a3d 76a7 893d 9391 313d
00000070: 0298 83bd 5c10 2b3d 9e22 8d3d cf25 74bd
00000080: 0db3 b83c b730 ca3c 5479 2f3c de14 83bd
00000090: 02c0 4fbd 3b96 c7bb 7bb2 60bd 1c05 b1bd
000000a0: ac3b 63bd 598a 0dbd 2517 a1bd ae60 a23d
000000b0: e3f9 a5bb b435 0c3d 92bb 843d 8af1 753d
000000c0: 7433 903d 8e7a 93bd ecff 873d b40d 163c
000000d0: e741 c8bb c178 be3d 772a 8e3d de67 533d
000000e0: 3c89 e13c f0ac e4bc 86f0 38bd bf99 61bd
000000f0: c400 2d3d 771d a0bd f15f 0dbd 7813 bebd
00000100: 8e26 983c 532f 423d 48a2 c23c 4498 b93b
00000110: 951d 913d d6d8 a33c 4484 023d 11a4 7ebd
00000120: 9287 823c 1bf7 8c3d c812 a23d 4cf1 a43d
00000130: b7ca 2f3c 279d 91bd 14fb 0ebc 22b0 313d
00000140: 1b99 40bd bea1 9c3c 6351 fb3c 3119 833d
00000150: 0453 2ebd 680c 023d 71cc 90bd dca0 843d
00000160: 4954 e23c c777 8fbd bf78 253d b402 72bd
00000170: c6a8 dd3c 6ba6 70bd 7f81 8dbd e7d9 903c
00000180: 0fd6 953d fff5 8ebd a7ca ca3c eb56 833d
00000190: 0fdf c83c 8c34 8dbd a27f cc3c 7f6f 1dbd
000001a0: d490 47bd 8816 753d a49a 903d 130c 46bd
000001b0: e4b0 07bd 1c88 4fbd 10c3 8ebc 43d8 e63c
000001c0: 84d4 dfbc 1985 203c fba9 7abd ea86 0bbd
000001d0: 1700 8cbc 844a e4bc b768 3bbd 170f 45bc
000001e0: eab3 2fbd cb4f adbd bf2b 973d 2766 493d
000001f0: 5cea 3dbc 2f1c 913d 7ca5 213c 30ad 86bd
0.078623556 0.010824973 -0.05848719 -0.046964455 0.0022134369 -0.042969808 0.062703915 0.058969446
0.020788573 0.021424457 -0.04578166 0.0745619 -0.056645464 0.0461639 -0.032047123 0.07801666
0.085153565 -0.016701255 0.034306217 0.07564303 0.021976737 0.061819457 -0.014323169 0.10111427
0.061847623 0.037734088 0.06721394 0.04335172 -0.064254776 0.04176365 0.06891368 -0.05960637
0.022546316 0.024681432 0.010710079 -0.064004645 -0.050720222 -0.006090907 -0.054857712 -0.08643553
-0.05547683 -0.034555767 -0.078657426 0.079285964 -0.005065189 0.034230903 0.06481089 0.060044803
0.07041064 -0.0720111 0.0664061 0.0091585405 -0.006111372 0.09300376 0.06941693 0.051612727
0.027531259 -0.027914494 -0.045151256 -0.055078264 0.04223706 -0.0781812 -0.034515325 -0.09281057
0.018573072 0.047408413 0.023759022 0.0056639034 0.070857204 0.020000856 0.03186442 -0.062168185
0.015933786 0.06883069 0.079137385 0.08053836 0.010729483 -0.071100526 -0.008726854 0.043380864
-0.047021013 0.019120093 0.030678457 0.06401289 -0.04255964 0.031750113 -0.07070244 0.06475994
0.02762808 -0.070052676 0.040398356 -0.05908461 0.027058017 -0.05875246 -0.06909465 0.017682029
0.07316219 -0.06980514 0.024754835 0.06413063 0.024520425 -0.06894788 0.024963204 -0.03843641
-0.048722103 0.05983594 0.07060745 -0.04835136 -0.03312768 -0.050666913 -0.017426997 0.028179293
-0.027323015 0.009797358 -0.061197262 -0.03406421 -0.017089887 -0.027867563 -0.04575416 -0.0120275235
-0.04289619 -0.08462485 0.07381391 0.049169686 -0.01159152 0.07085454 0.009866115 -0.06576002

net.4.weight f4 [2, 128]
00000000: 2808 19be 1459 163e 1860 173e a06e 8ebd
00000010: 357e 89bd cef4 22be 6a19 e13d e250 d43d
00000020: 044e d43d 26f5 f6bd ee29 49bd 7a37 dc3d
00000030: 9c07 5cbd 84a0 ae3d 513f ff3d 5f3a 01bc
00000040: 6658 593e a4c9 c0bd 2357 f5bb c416 a23d
00000050: a73a 283e b4cf 0dbe 01fb cd3d 0fee 013e
00000060: a349 d5bd fbe2 c93d ad28 013e df93 50bd
00000070: cc0c fcbc 01a2 453d dd3d 6f3c 0b1b 553d
00000080: 639b 13be 0b6c a63d 2c5c 683d 9b38 3fbe
00000090: ed43 75be 9ef3 16bd 2b1a 4b3e 0073 03bd
000000a0: d198 0fbe ffad 38bd d2f9 c9bd 536b e1bc
000000b0: efa2 dabd 25fb b3bd 0eac cb3d 1e90 8b3d
000000c0: 42d0 a23c b1db cfbd f011 45bd 2a4d dabd
000000d0: 10a1 3abe 8126 283d a081 2ebd 2d57 d03c
000000e0: 5dd2 42ba 6afd 6a3e 98e5 60bd 9588 06be
000000f0: aa29 043e 8b6f b9bd e623 47bc 3564 a0bc
00000100: 743f 1abc 58a6 353e 7a32 313e 8492 45be
00000110: 2ec6 3ebe 9c0c f03d 361e 80bc 8d5d 323e
00000120: 7b55 813c 64b8 08be 999c e53d 2e2d a13c
00000130: 2a7e 89bd 4d06 893d a187 f13d 0bb2 f93a
00000140: 090e e93d f31d 2cbd 304d 053d fac9 02be
00000150: fde9 fa3d 11eb 82bd 1a07 a73d d3ef 3c3e
00000160: 25fe 0f3e 09bf 95bd c994 bbbd 6a8e 10be
00000170: aa3c 4fbd 72db b63d 1806 263e 5327 8a3d
00000180: dced c1bd f043 a43d cfa4 c83c 150b 8cbd
00000190: 876e 39be a02c b73d 2e37 56bb da4a adbc
000001a0: f370 323d 0c30 683e eacb 0e3e d6df 80be
000001b0: e784 ab3d 5a80 a93d 0057 be3d 88c2 5dbd
000001c0: 122f b9bd e3be 113d 9ab4 29be deb0 3dbe
000001d0: ed57 8a3d 0eb6 713d 64db 673d 1984 1dbd
000001e0: 6f82 6f3d ba68 14be 34c4 743d cb3e babd
000001f0: 128c 1b3e 6057 bd3d 974b febd 336a 0bbe
00000200: c0bb dc3d 86af 1dbc fb3c dabd 35ab c03d
00000210: 40c5 593e 71e5 073e b4c9 27be 654f f2bd
00000220: 693c fabd 1134 093d cac0 263d 62c7 85bd
00000230: df11 393d 7a36 b4bd 8034 0dbe bc8d 523d
00000240: c080 5ebe 040e b33d 8234 eabd 0fde 77bd
00000250: 1f0c 0fbe 5020 223e 5b02 42bd 901e 9abd
00000260: db6d 0abc 9db3 fcbd 95bc 2abd 7d89 993d
00000270: fac3 683c d690 cdbd e9d5 e9bc 7dd6 b0bd
00000280: 2eb4 02bb 6b51 f1bc 8f89 15be 091d 833d
00000290: fc1f 6a3e b48f 023e 6a14 3abe 8580 5d3d
000002a0: 40a3 033e 8abb f03d 2197 283e d305 073e
000002b0: 7943 e73d 7c09 2d3d 35ba 8abd 9c44 aebc
000002c0: 0e1c 8bbd 6f70 e23d b24d 313d 4817 863d
000002d0: d32f 193d 7cbd 2bbe 6828 053e fa63 9a3d
000002e0: d98c f83c 91ba 72be ed26 193e 8362 803d
000002f0: 740e 90bd 8040 063e bd20 67bd b4ef c23c
00000300: bd90 c7bd 6a1b abbd ccbd 20be 29ad 923d
00000310: 28a4 503e 4d15 23bd 2955 ac3c 9323 3ebd
00000320: 3e0e 91bd c788 b53d cf9e 6b3c cf36 81bd
00000330: 3859 6c3c a5bd f3bd 0caa d0bc 1b16 c3bd
00000340: ea30 fabd dceb 063d ca17 13be 74a2 743d
00000350: c886 00be 3f7e d23d d836 0dbd 8031 54be
00000360: 6dcf 05be 0eb0 86bd 025a dd3d f5b1 cf3c
00000370: db7a a13d 84eb 80bd d4ab 00be 5268 d1bd
00000380: cb05 f73b ea5f febd d893 e93d 8192 753d
00000390: 3d07 433d fbc7 1c3d 210f 813d f013 013e
000003a0: cac6 64bd ea22 1bbe 730a fbbd 12df 503e
000003b0: 4b16 70bb 8356 9d3c fe4b 3dbd 877e c83d
000003c0: 29e5 243e 0791 bcbd 0199 053e c13d 053e
000003d0: 247c e3bd 92a4 10be 1c1f 37bd 7ca2 f83d
000003e0: c0ef 1c3d 2930 e03d 1094 15bd 83f2 663d
000003f0: eecb bbbd 96f9 aabd abcb d83d 14d8 3d3e
-0.14944518 0.14682418 0.1478275 -0.06954694 -0.06713525 -0.15913698 0.109911755 0.1036699
0.10366443 -0.12058477 -0.049112253 0.10752769 -0.053718194 0.0852671 0.124632485 -0.007887452
0.21225128 -0.0941346 -0.007487194 0.079144984 0.16428624 -0.13848764 0.10057641 0.12688468
-0.10414436 0.09857746 0.12613173 -0.05092227 -0.03076782 0.048250202 0.014602152 0.052027743
-0.14414744 0.08126076 0.056728527 -0.18673937 -0.23951693 -0.036853425 0.19834201 -0.032092094
-0.14023139 -0.04508781 -0.098621026 -0.027516996 -0.10675608 -0.087881364 0.09944926 0.068145975
0.019874696 -0.10149325 -0.04811281 -0.10659249 -0.18225503 0.041052345 -0.04260409 0.025432194
-0.0007431859 0.22948232 -0.054906458 -0.1313804 0.12906519 -0.09054478 -0.012154555 -0.019579032
-0.0094145425 0.17739236 0.17304412 -0.19294173 -0.18630287 0.11721155 -0.015639406 0.174185
0.01578783 -0.1335159 0.11211509 0.019674864 -0.06713517 0.06690655 0.11793447 0.0019050253
0.1137963 -0.04202075 0.032544315 -0.1277236 0.12251661 -0.063924916 0.081556514 0.1845086
0.14061792 -0.07311828 -0.09159238 -0.14116827 -0.050594963 0.089285746 0.16213262 0.06745782
-0.09469196 0.080207705 0.02449265 -0.06838051 -0.18108569 0.089440584 -0.0032686698 -0.021153856
0.043564748 0.22674578 0.13944975 -0.25170773 0.083749585 0.08276434 0.09293938 -0.054140598
-0.09042181 0.035582434 -0.165728 -0.185245 0.06755052 0.05901151 0.05660571 -0.038456056
0.058474 -0.14493075 0.059757426 -0.09094008 0.15190151 0.09245181 -0.12416761 -0.1361473
0.10777998 -0.009624368 -0.10656162 0.09407655 0.21266651 0.13271119 -0.16385537 -0.118315496
-0.122185536 0.03349692 0.0407112 -0.0653217 0.04518306 -0.08799453 -0.13789558 0.0514047
-0.21728802 0.08742908 -0.11435796 -0.060514506 -0.13969468 0.15832639 -0.047365528 -0.075253606
-0.008449043 -0.12338946 -0.041683752 0.07496927 0.014206881 -0.10037391 -0.028544383 -0.086346604
-0.0019943821 -0.029457768 -0.14603256 0.064020224 0.22863764 0.12750131 -0.1817185 0.054077644
0.12855244 0.1175452 0.16463901 0.13185816 0.11292166 0.042245373 -0.067737974 -0.02127295
-0.067924604 0.11056601 0.043286987 0.06547409 0.037399124 -0.16771501 0.13003695 0.075386
0.030340599 -0.23703982 0.14956255 0.062687896 -0.07034007 0.13110542 -0.056427706 0.02379594
-0.097444035 -0.08354838 -0.15697402 0.07161934 0.2037512 -0.039815236 0.021036701 -0.046420645
-0.070827946 0.08863979 0.014381125 -0.06309282 0.014425568 -0.11901406 -0.02547171 -0.09525701
-0.12216361 0.032939777 -0.14364544 0.05972524 -0.12551415 0.10277986 -0.03447613 -0.20722008
-0.13067408 -0.065765485 0.10808183 0.025353411 0.07884761 -0.06294921 -0.12565547 -0.10224976
0.0075385324 -0.12420638 0.11405152 0.05995417 0.047614325 0.038276654 0.06301714 0.12605262
-0.055853643 -0.15150037 -0.122578524 0.20397595 -0.0036634381 0.019206291 -0.04621505 0.09789758
0.16103043 -0.09207349 0.13046648 0.13011838 -0.11107662 -0.14125279 -0.044707403 0.121403664
0.03831458 0.10946686 -0.036518157 0.05638362 -0.09169756 -0.08348386 0.105857216 0.18539459

net.4.bias f4 [2]
00000000: 8d8a a1bd c3c7 963d
-0.078877546 0.0736232
