coup_nsfp/0.99G10kEp0.2to0.1br-as/nfsp_coup_demo_best_agent_q_target.pt (torch, 86425 bytes, 6 tensors)

net.0.weight f4 [128, 25]
000000 0e 3b 2d 3c 98 da 94 bd 91 29 57 3d 7e fb 6c bc
       0.010573162 -0.07268256 0.052529875 -0.014464257
000010 65 40 23 3e 65 2c 61 3e b2 0d 1b 3e 54 40 fb 3d
       0.15942533 0.21989591 0.15141943 0.12268129
000020 1d 04 ff bd c7 b2 5f 3e fa da 6f bc 85 b5 a0 bc
       -0.124519564 0.21845542 -0.01463961 -0.019617805
000030 79 36 36 3e da 3e 7c 3d 0b 26 e7 3c 9c c9 b5 be
       0.17794217 0.061583377 0.028216382 -0.35505378
000040 40 55 59 3e 7d 40 78 3d 40 3a e0 bc 0a df 34 3e
       0.21223927 0.060608376 -0.027371526 0.17663208
000050 27 be 67 3e 3b a5 5f 3e 63 11 22 3e 81 a8 85 3e
       0.22631131 0.21840374 0.15826945 0.2610512
000060 7d b8 7d 3d 83 64 af bd cb 86 a4 bb 56 df 32 3e
       0.06194352 -0.08564093 -0.0050209514 0.17468008
000070 68 7f 47 3e 6b 11 88 3e 4c 70 d8 bd 3b 89 9b bc
       0.19482195 0.2657579 -0.10568294 -0.018986335
000080 4d 24 52 3c 5c 11 a4 bd 7f 41 87 3e ad 27 6e 3e
       0.012826038 -0.080111235 0.26417157 0.23257323
000090 24 c1 1e be 68 4f bb 3e db 1b 08 3e 4e bb 34 be
       -0.15503365 0.3658402 0.13291876 -0.17649576
0000a0 15 35 09 be fd 50 49 be ea 10 c5 be 67 85 be 3b
       -0.13399155 -0.19659801 -0.38489467 0.0058142426
0000b0 82 5a c8 3d 38 c0 6a be ab a8 0e be 03 d0 36 be
       0.09782888 -0.22924888 -0.13931529 -0.17852788
0000c0 9a 90 36 bd c6 a8 ca 3d 82 d2 86 be 48 f1 7f 3e
       -0.044571497 0.09895472 -0.2633248 0.24994385
0000d0 89 2f 03 3d 6d 9a 50 bb 29 08 43 be 0c 2e 90 be
       0.032027755 -0.0031830326 -0.19046082 -0.2816013
0000e0 1a f7 74 3d 82 c2 16 3e 89 85 8b 3e 99 f2 cb 3d
       0.059805967 0.14722636 0.27250317 0.09958381
0000f0 d8 48 b6 3d 87 02 6b be 23 dc da 3b ba a4 c3 bd
       0.089006126 -0.22950183 0.0066790744 -0.095529035
000100 6f 71 b0 3c 3c a9 c2 be ea 4b d9 bd eb 41 b0 be
       0.021538464 -0.3801974 -0.106101826 -0.3442529
000110 87 b9 d1 bd c8 a6 8a 3d 15 d0 3e bd 0b 17 d3 bd
       -0.10240465 0.06770092 -0.04658516 -0.103071295
000120 10 61 41 3e 39 6c 53 be 0c d8 70 3e 7c fd ba bd
       0.18884683 -0.20646752 0.23519915 -0.091303796
000130 85 ae 3e 3e 30 62 2c 3d 5b 12 86 be 91 45 2f 3e
       0.18621261 0.042085826 -0.2618588 0.17116381
000140 83 ec 5c 3e bc 93 19 be 54 90 77 be ad 88 11 bc
       0.21574597 -0.14997762 -0.2417615 -0.008882684
000150 ec 1a 7c 3e e8 62 05 be ed d8 06 3e ed f6 25 bd
       0.24619645 -0.13026011 0.13168688 -0.04051869
000160 9a 74 df bd 10 c8 01 3e 5c 98 90 be 0e 93 8e 3e
       -0.10910912 0.12673974 -0.2824124 0.2784657
000170 52 9c 27 be fa 93 1e be 6e d6 41 3e b7 95 23 be
       -0.16368225 -0.15486136 0.18929455 -0.1597508
000180 a5 a2 6b bd da d2 75 3e b4 d3 39 be c7 d7 7b 3e
       -0.057528157 0.24006215 -0.18147165 0.24594031
000190 5a 20 1f be 66 5c 0b bd f2 e0 4d bd 08 35 90 3c
       -0.15539685 -0.034023665 -0.050263353 0.017603412
0001a0 43 c6 af bd cb 4f 40 3c bc 8b 4d be 21 c7 bf bd
       -0.08582737 0.011737774 -0.20072836 -0.09364153
0001b0 d9 e9 0a be 66 4f 01 bc ad da ed bd 9a b0 d9 bb
       -0.13565768 -0.007892465 -0.11613975 -0.006643367
0001c0 87 2a 5e 3d 9a 81 38 3d 20 dc d4 3d f7 e6 a2 3d
       0.054239776 0.045045473 0.10393548 0.07954209
0001d0 ca c0 36 be 33 c8 b8 3b f3 ab 99 3d 81 1c 35 3e
       -0.1784698 0.0056391 0.075035 0.17686655
0001e0 8d 5c 32 3e ad 7d 65 3d 22 9a 35 be 67 00 25 bc
       0.17418118 0.056028057 -0.17734578 -0.010070897
0001f0 37 20 43 be 86 45 96 3b 74 b0 82 3a d1 6e 16 be
       -0.19055258 0.0045859246 0.00099708 -0.1469071
000200 d4 f2 d7 bc 40 3d 74 3c b8 b1 1f be 69 b6 01 be
       -0.026360907 0.014907181 -0.15595138 -0.1266724
000210 ae 1e a8 bc 99 0f 8f 3e e3 13 d5 3c 65 58 cb 3e
       -0.020522442 0.27941588 0.02601046 0.39715877
000220 33 3a 80 3e 68 ee 3e bd 70 e2 14 be 1c 0c 18 bf
       0.25044402 -0.04661408 -0.14539504 -0.5939348
000230 57 9a 83 bd 59 58 b4 be f2 2c 30 be da f0 a7 3d
       -0.06425922 -0.35223654 -0.17204645 0.08200236
000240 7b cc 50 3d 12 4e 52 3e 9c 88 1f 3e 9c ba 8e bd
       0.050976258 0.20537594 0.15579456 -0.06969187
000250 3d 30 ae 3b 09 09 6e bd 96 5e 0c be a5 4d 7e be
       0.005315809 -0.058114085 -0.13707957 -0.24834307
000260 50 5b 2c be e5 85 d7 bc 1e 97 66 3e 67 db d4 bd
       -0.16831708 -0.026308963 0.22518584 -0.1039341
000270 6b c3 2d 3e 54 0a d6 3d e4 22 9e 3e 02 44 ca 3d
       0.16969077 0.10451189 0.30885994 0.09876253
000280 d7 49 b2 bd 85 bb 9a 3d c4 74 f0 bd 05 d5 21 be
       -0.0870549 0.07555298 -0.11741021 -0.15803917
000290 26 13 23 3d 06 00 d7 3e ac 74 15 3e d0 b2 2f bd
       0.039813183 0.41992205 0.14595288 -0.04289514
0002a0 1a d0 93 bd 31 f4 e1 3d af b9 48 be a0 b5 01 3c
       -0.072174266 0.11032904 -0.19602083 0.007916838
0002b0 6a c4 02 bd 37 82 10 be 1f 4a 56 3e 7a 60 bc 3d
       -0.031925596 -0.14112173 0.20926712 0.09198089
0002c0 94 4b 45 3c 5a 12 f5 be fa 09 29 bd 70 47 3c ba
       0.012041945 -0.47865564 -0.04126928 -0.0007182276
0002d0 3d 14 4a be 8a 9a fc bd b5 cd 37 be b8 3c 49 3e
       -0.19734283 -0.123341635 -0.17949565 0.19652069
0002e0 ab b1 9a be 81 f5 3f be 12 30 79 be 23 03 2d be
       -0.30213675 -0.18745996 -0.24334744 -0.16895728
0002f0 80 b1 85 bc d7 93 59 3d b3 4f b8 3e ad c2 89 be
       -0.01631999 0.053119507 0.35998306 -0.26906338
000300 5c 74 12 bf a7 20 a2 3d 88 1e 70 3e ac 62 c9 bd
       -0.572088 0.07916384 0.23449147 -0.09833273
000310 fb df dd be c0 01 a6 bd 72 df 38 3e 68 54 80 3d
       -0.43334946 -0.081058025 0.18053988 0.06266099
000320 ec 7b 6b 3e 73 d3 19 be df 04 09 bf 8f cc 93 bc
       0.22996491 -0.15022068 -0.5352306 -0.018041877
000330 f5 53 bb be 0d 66 11 be 23 64 05 3e d4 a4 17 be
       -0.36587492 -0.14199086 0.1302648 -0.1480897
000340 99 61 39 3e 24 e7 89 be 67 0b 80 be dd 38 f6 be
       0.18103637 -0.2693416 -0.250087 -0.48090258
000350 45 47 e6 3d 87 02 ea bd 43 fb 98 3c 88 1b 6b 3e
       0.11244062 -0.11426263 0.018674498 0.22959721
000360 ef 29 c3 3d 31 c1 a6 3d 95 9e 3a 3e 8c e6 c6 3d
       0.095294826 0.08142317 0.18224557 0.09711942
000370 6c 36 be be 92 e6 33 be 45 95 5b be ba 24 90 3e
       -0.37150896 -0.17568424 -0.2144366 0.2815302
000380 c4 f9 21 3c d0 8d b4 3d dd 01 6f 3e fa 93 79 3e
       0.009886209 0.08816111 0.23340555 0.24372855
000390 8e 8c d2 be 2e 45 b0 3d 56 cf a8 3e cb 6e 56 be
       -0.4112286 0.08606945 0.32970685 -0.20940702
0003a0 e6 6a 3d bd 50 a9 2e 3d 76 78 e0 3d 93 77 0e 3d
       -0.046244524 0.042641938 0.10960476 0.034782004
0003b0 06 21 f0 3c b6 60 0c 3e 8f 3f 2b 3e bd 6f a2 3e
       0.029312622 0.13708767 0.16723464 0.31725875
0003c0 2e 0d 75 bc 1b 2b 06 3e 8a 36 5e 3e 3d c1 01 3e
       -0.014956756 0.13102381 0.21700493 0.12671371
0003d0 ac 90 9e 3e be ea fe bd 1c 1e a7 3d ae 66 42 3d
       0.3096975 -0.12447117 0.0816004 0.047461204
0003e0 77 08 b2 bd 7f e9 c4 bd 0f d2 fa bb c9 8e c6 bd
       -0.08693021 -0.09614848 -0.0076544355 -0.09695203
0003f0 e9 eb 97 be 45 81 e0 3b 04 15 bf be ee 9d 26 be
       -0.29672173 0.0068513476 -0.3732072 -0.16271183

net.0.bias f4 [128]
000000 26 14 86 3e 6c 7b e8 3c bc c9 8c bd c9 1a 6c 3e
       0.26187247 0.028379165 -0.06874415 0.23057093
000010 7d 41 0d be 08 ed ad bb 20 02 27 3e 82 68 02 3e
       -0.13794513 -0.0053077973 0.16309404 0.12735179
000020 d2 f7 9d bc 78 7c 06 3d fd 79 36 bd d1 07 44 bd
       -0.019283209 0.032833546 -0.04454993 -0.047859017
000030 f5 2b 67 3e 72 45 c8 bc 0f 57 83 bd 42 80 60 bd
       0.22575362 -0.024447177 -0.064130895 -0.054809816
000040 8a 02 a9 3d cb 76 9c 3d b7 7f a2 3d 11 41 68 bc
       0.082524374 0.076398455 0.07934516 -0.014175669
000050 6c a2 73 3e 62 aa 88 bd ba e9 25 bc 6b 7c 9b 3d
       0.23792428 -0.06673123 -0.010126526 0.0759209
000060 26 bb f9 3d 37 1b 93 3d 8f 97 3d 3e 22 f3 30 bd
       0.12193899 0.07182925 0.18514846 -0.04320062
000070 9a b7 1f be 5c 27 0b 3d fc 25 47 3e 09 e0 d6 bd
       -0.15597382 0.033973083 0.19448084 -0.1049195
000080 da f5 f2 bc a3 88 f4 3c 82 bd 14 be 70 01 65 3e
       -0.029658247 0.02985031 -0.14525416 0.2236383
000090 ae 09 08 be 9d 09 c5 3d 69 95 a3 3d a5 52 4f 3e
       -0.13284943 0.09620974 0.07987482 0.2024637
0000a0 54 3c 23 3d 7d 1f 57 3e 48 86 1e 3e eb 5e 1e 3e
       0.039852455 0.21008106 0.15480912 0.15465896
0000b0 c4 6c f4 3c 02 68 c4 3d 5b e9 ad 3d dd fd 8f 3d
       0.02983702 0.095901504 0.08491775 0.070308425
0000c0 6f 51 03 3e 76 15 9a bc 79 14 73 3d 58 e0 0b 3e
       0.12824033 -0.018809061 0.059345696 0.13659799
0000d0 f0 59 72 3d a5 16 23 3d f7 64 12 3d 41 36 16 be
       0.059167802 0.039816517 0.03574082 -0.14669134
0000e0 b5 e7 90 3d d4 d4 75 bd fb 58 80 3e a5 4d 23 be
       0.070754446 -0.06001742 0.25067887 -0.15947588
0000f0 27 de 2c 3e 67 86 10 be 89 8d 51 bd 26 86 47 3e
       0.1688162 -0.1411377 -0.05116037 0.19484767
000100 9b 3a 33 bd 05 25 b1 bc d9 08 3c bd 01 e3 79 3e
       -0.043757062 -0.021624098 -0.045906875 0.24403001
000110 19 02 34 3e 0d 88 56 3b 31 15 f0 bc cd eb 31 be
       0.17578925 0.0032734901 -0.02930698 -0.17375107
000120 56 73 82 3e 08 d9 24 3e f1 be 5c be a6 e6 00 bd
       0.2547862 0.16098416 -0.21557213 -0.031469963
000130 b5 a5 1f be 47 6c 00 3e 0b 43 66 3e ac 44 27 3e
       -0.15590556 0.12541305 0.22486512 0.1633479
000140 6d 59 3c 3d 98 29 95 3d 08 72 cb 38 56 06 4c 3e
       0.04598372 0.07283324 9.701034e-05 0.19924292
000150 c3 ca c9 bd a8 82 4a be 89 cc 9c 3c 08 51 52 bd
       -0.09853127 -0.19776404 0.019140499 -0.05134681
000160 03 d1 38 3e 7a 64 52 3e e1 d2 1f 3e 4c 39 7b 3e
       0.18048482 0.20546141 0.15607788 0.24533576
000170 6a d2 26 3e 41 d0 40 3c 4b e0 b8 bd 51 9c 98 bc
       0.16291204 0.011768402 -0.090271555 -0.018629225
000180 70 08 3f 3e f8 f5 c7 3d f4 b4 83 3e ce 1f ff bd
       0.18655562 0.09763712 0.25723994 -0.12457238
000190 66 98 cb 3d 89 c8 a8 bd 50 36 37 3e 6c d1 da bd
       0.09941177 -0.08241374 0.17891812 -0.10684475
0001a0 1c 61 3d 3d cd 2c 8e bd 45 b3 98 3e 34 67 43 3e
       0.04623519 -0.06942139 0.29824272 0.19082338
0001b0 29 f1 62 3e e5 42 de 3d ac a3 01 bd 53 22 6c 3e
       0.22162308 0.10852603 -0.03165023 0.23059969
0001c0 66 a9 10 3b 92 0c 2a 3d 3d 5c 4f bd 09 23 8b 3e
       0.0022073626 0.041515894 -0.050625075 0.27175167
0001d0 88 f3 86 3e bf a7 82 3e 68 3c 73 3e 8c 9e 11 be
       0.26357675 0.25518605 0.23753512 -0.14220637
0001e0 0b 95 1b 3e 9a b4 83 3e 59 fc 04 be c7 b1 99 3e
       0.15193574 0.25723726 -0.12986888 0.30018446
0001f0 e5 1b 27 3e f2 c7 c6 bd 9b 5e e5 3b e8 1f 16 3e
       0.16319235 -0.09706105 0.0069998032 0.14660609

net.2.weight f4 [128, 128]
000000 5c 25 b4 3d c3 34 9e 3d 5d bb 70 bd c0 94 ef bb
       0.08796188 0.07724907 -0.058772434 -0.0073114336
000010 1f e3 75 3c ff fc a5 bd 30 db ff bd 30 a5 11 be
       0.015007763 -0.08104896 -0.124929786 -0.1422317
000020 5f e5 b5 3d 83 6e b6 3d 4e 4d 89 3d 85 c7 09 3e
       0.0888164 0.08907797 0.06704198 0.13455017
000030 76 f7 af bd a5 72 57 be 4c 45 08 3e 3b e5 db 3d
       -0.08592121 -0.21039827 0.13307685 0.107370816
000040 5f 0b 0e 3e 93 82 57 be 7d f2 5a be 49 cd 80 bd
       0.13871525 -0.21045904 -0.21381564 -0.06289155
000050 fe 81 1e be a5 03 a2 bc 6b 15 99 3d 97 cb c0 3d
       -0.15479276 -0.019777128 0.07474788 0.09413832
000060 15 25 fe 38 3c 4d 8b 3c 6b 43 99 3c 9f 39 a4 bc
       0.00012118571 0.017004602 0.018708905 -0.020047007
000070 64 8d 83 be b6 61 89 3d 79 ca d2 3d 2f 67 b6 be
       -0.2569381 0.0670809 0.10292525 -0.35625598
000080 2a 36 85 bc ef 5b 86 3d ee db 42 be ed c1 05 be
       -0.016261179 0.06560504 -0.19029209 -0.13062258
000090 8c 0e c8 3d 25 a4 08 bd 78 11 9d be d1 c4 72 bc
       0.097683996 -0.033359665 -0.3067739 -0.0148174325
0000a0 b3 97 26 3e 5c 3c 43 3b 25 e9 ea 3d 2c a6 0b 3d
       0.16268806 0.0029790616 0.1147025 0.03409402
0000b0 33 3d 31 bd eb 76 d7 bc 28 98 21 3e a2 d0 7c bb
       -0.043271255 -0.026301822 0.15780699 -0.0038576503
0000c0 cb 32 9d be ff 33 4d 3e f4 3b 74 bd 36 b7 1b be
       -0.30702814 0.20039366 -0.05962749 -0.15206608
0000d0 30 e5 39 3e 18 68 d9 3d 7c b3 e8 3d 4d 83 98 bd
       0.18153834 0.106155574 0.11362359 -0.07446919
0000e0 68 a7 f3 3d ff e9 99 bd 40 b4 a6 3d ad fe 7f be
       0.118971646 -0.07515334 0.08139849 -0.24999495
0000f0 3b e4 35 bd 63 dc 1c be 71 f6 48 3d 81 61 db 3d
       -0.04440711 -0.15318446 0.04906315 0.10711957
000100 6e 47 51 be 1b 47 64 bd 4b 60 68 3d d7 5c aa bd
       -0.20437405 -0.055731874 0.056732457 -0.08318489
000110 83 b7 a4 3b 07 4d 91 3d 38 4a 1d be ff 62 75 bd
       0.005026759 0.0709477 -0.15360343 -0.059908863
000120 5e 4f 8f 3d 8d 60 50 bd 25 fc 4a bb 87 ac 79 bb
       0.0699756 -0.050873328 -0.0030973044 -0.003809722
000130 16 fa 5a bd 01 a5 a9 3d 0a a9 6a bd 86 44 71 3c
       -0.053461157 0.08283425 -0.057290114 0.01472581
000140 ce 30 e0 bc 9d 80 44 3d 13 ef ea be d8 da 2b 3c
       -0.027367022 0.047974218 -0.45885524 0.010489188
000150 8a 42 b7 bc 26 55 90 bd 33 94 9a 3c 68 84 02 3e
       -0.022370595 -0.07047491 0.018869495 0.12745821
000160 d4 8f 80 3d 71 ff d5 be aa 39 0f bf 9d 6b 55 bd
       0.06277433 -0.4179645 -0.55947363 -0.05210458
000170 81 5b e0 be 12 21 a0 3d d8 b5 0a 3e 25 cf d2 3e
       -0.43819812 0.07818808 0.1354593 0.41173664
000180 0e 0c 88 3e 8c c9 45 be 9b 7c 60 bd 4e c5 63 bd
       0.26571697 -0.19315165 -0.054806333 -0.055608086
000190 60 8a 14 3e da e4 0a 3e 6b bb 95 3d 47 61 df bd
       0.14505911 0.13563862 0.07311138 -0.10907226
0001a0 d7 a9 b0 bd b0 df 5d bd f6 f4 e3 3d 0b b7 88 3e
       -0.086261444 -0.054168403 0.11130707 0.2670215
0001b0 d8 60 ee 3d 73 94 72 3c 04 8b df bc 49 7a 61 bd
       0.11639565 0.014805901 -0.027287968 -0.05504826
0001c0 eb 19 8a be 73 a3 44 3d d5 bc e0 3d 2a 1f 13 3e
       -0.269729 0.04800744 0.10973517 0.14367357
0001d0 21 09 99 bd 03 39 90 bd f9 a7 71 bc 5d 01 b6 bc
       -0.07472444 -0.07042124 -0.01474952 -0.022217447
0001e0 c0 f0 29 3e 90 5f 43 3e a2 7e c4 3d 4c fa 07 3e
       0.16595745 0.19079423 0.09594466 0.13279074
0001f0 0a 86 4c be 72 84 0a be ee 61 47 bb c5 72 26 3e
       -0.19973007 -0.13527086 -0.003042336 0.16254719
000200 83 fd 3c bd 82 98 19 3c c5 0e 21 3d 2f bb bd 3d
       -0.046140205 0.00937474 0.039320726 0.09264218
000210 49 c8 ab 3d d9 8a 16 3e f2 98 8e bc bc 9c b1 3e
       0.08387811 0.14701404 -0.017406914 0.3468989
000220 70 d1 9d 3d 7a 5a 43 3e 70 5c 43 bd e3 d8 4e 3e
       0.07705963 0.19077483 -0.047695577 0.20199923
000230 aa f2 c9 bc 60 17 07 3e 4d a1 7f bc 62 19 17 3d
       -0.024651844 0.1319251 -0.015602422 0.03688944
000240 32 9e 83 3d d3 57 8b 3e 06 03 a8 3d ed 8d be be
       0.06426658 0.27215442 0.08203702 -0.37217656
000250 0e 9d 92 bd ce 59 39 bd 54 5a 4b be 6e 7a b2 3b
       -0.07158862 -0.04525166 -0.19858676 0.0054467237
000260 82 73 a1 bd f4 31 ec 3c 2a 47 af bd c6 ac 2d 3d
       -0.078833595 0.028832413 -0.08558495 0.042401098
000270 29 b0 2b 3e 94 51 dc 3d fc 72 6c 3c 67 a9 7b bd
       0.16766419 0.10757747 0.014431711 -0.06144085
000280 a5 d3 c1 bd 22 b3 fa bd 4b 3a ec 3d 07 b8 93 bb
       -0.09464196 -0.12241198 0.11534556 -0.0045080218
000290 84 dc fc bd 61 32 3a bd 4c 78 16 bc e0 07 bc 3d
       -0.123467475 -0.0454582 -0.009183954 0.091811895
0002a0 e6 03 54 3c 4f 25 23 bd 11 70 c8 3e 72 9d 55 bd
       0.012940383 -0.039830502 0.39148 -0.052152105
0002b0 14 e6 bd 3d 8b ab a7 3d 9d ea 69 bc f2 46 24 3d
       0.092723995 0.08187016 -0.014277128 0.04010672
0002c0 21 dd 0c 3e d4 94 0a bc 21 37 12 bd 5e 98 78 3e
       0.13756229 -0.008458335 -0.035697106 0.24276873
0002d0 1d fb 44 bd 31 24 c4 3d 52 c4 f2 bd c7 ab 37 3e
       -0.048091043 0.095772155 -0.118538514 0.17936622
0002e0 66 b9 66 3d d5 21 b9 be e9 b0 70 bd 9a 07 70 be
       0.056329153 -0.36158624 -0.058762465 -0.234404
0002f0 6a 7f 02 3e 11 dd aa 3d 96 8f 56 3d 59 44 4f 3e
       0.12743917 0.08342946 0.052383028 0.20240916
000300 f5 82 23 be 74 6b 48 3d 0d 4a 02 3e 18 7e 16 3e
       -0.15967925 0.0489306 0.1272356 0.14696538
000310 29 4a 26 3d e3 20 11 3e 15 55 31 be 75 60 89 3c
       0.04059807 0.14172702 -0.17317612 0.016769627
000320 93 f4 89 bd 2b 72 d6 3d d9 23 d5 3a b4 db f5 bb
       -0.06736102 0.104709946 0.0016261294 -0.0075029973
000330 e9 7f a6 be 82 0a d5 be d7 cc bc bb de 03 a4 be
       -0.32519463 -0.4160958 -0.0057617235 -0.320342
000340 1a 0b ac bd 3f 53 c4 3e 5b 7f 16 3f a9 a5 d8 3d
       -0.08400555 0.38344762 0.5878808 0.10578472
000350 19 6b 04 bd df ca 39 bd 1b fd b4 3d 76 e5 b7 3d
       -0.0323287 -0.04535949 0.088373385 0.08979313
000360 b8 b8 98 3e 83 dc 8a 3e 47 a8 54 3e a5 fd be bd
       0.2982843 0.27121362 0.20767318 -0.093257226
000370 1f f7 08 3e 35 ee 8c bc c1 de 88 3d 6a 35 89 3e
       0.13375519 -0.01720343 0.06683112 0.26798564
000380 1b 85 1b be 9b 30 33 bd cf 9f ee 3d eb 9e d4 bd
       -0.15187494 -0.043747526 0.11651575 -0.10381874
000390 77 ba 9a 3d cf be ea 3a 3b 09 b7 3e 95 09 92 3d
       0.075550966 0.0017909649 0.3574923 0.07130734
0003a0 af f7 63 3e 80 20 a9 3d 67 f2 b9 3d 68 39 37 3d
       0.22262453 0.08258152 0.09079438 0.04473248
0003b0 ab 8f 6b bd 9a 61 36 3d bc 0f 8f 3d 6f 6b 2b be
       -0.05751006 0.044526674 0.06985423 -0.16740201
0003c0 dd 94 bd 3e 6e a9 b6 bd cd 42 39 3d 59 59 33 bc
       0.37027636 -0.08919035 0.04522972 -0.010946595
0003d0 d5 ae 60 bc fb f7 c3 3e 26 3e a2 bd 73 6a b4 3c
       -0.013713558 0.38275132 -0.0792201 0.022023415
0003e0 2d b2 23 bd 4b 3e da 3c 21 65 c4 bc d8 4a 42 bd
       -0.039964844 0.026641032 -0.023974003 -0.047434658
0003f0 9c db 0c 3e 58 e9 88 3a 8d da 69 bd d3 e0 88 3d
       0.1375565 0.0010445518 -0.057093192 0.06683507

net.2.bias f4 [128]
000000 fa 08 03 3e eb 6f 77 3d cc b7 c1 bd 89 f2 3e bc
       0.12796393 0.060409468 -0.094588846 -0.011654505
000010 3a b0 55 3a c2 62 91 3d ab 33 15 3d 32 f2 01 3e
       0.0008151565 0.07098915 0.036426228 0.12690046
000020 40 3b 50 3d 79 96 0a 3d 07 1f 8f 3d 04 71 46 3d
       0.050837755 0.03383491 0.0698834 0.048447624
000030 c3 dd 4f 3e 94 8e d4 bc fe 5c 81 38 7f cc 18 3e
       0.20299439 -0.025946893 6.1685205e-05 0.14921759
000040 57 6d 77 3d 47 7f b2 bd 0c e8 91 3a 61 c3 e5 3a
       0.06040701 -0.087156825 0.0011131777 0.0017529541
000050 b1 68 a3 bc eb 79 cf bc 5f 91 65 bd 8c 65 af bc
       -0.019947382 -0.02532669 -0.05604684 -0.021410726
000060 42 97 ae 3c 0b 8a 6e 3d 87 62 83 3c d7 f3 9d bc
       0.02131236 0.058237117 0.016038192 -0.019281311
000070 5b 72 8b 3d e8 83 07 3e 47 21 cd 3c 88 6e ce 3d
       0.06808921 0.13233912 0.025040282 0.10079676
000080 e4 30 ee bd c1 67 dd 3d ef 62 b9 3d 4f 91 da 3c
       -0.11630419 0.10810805 0.09052073 0.026680617
000090 31 9d a5 3c e1 b3 fa bc ff 55 b7 bd b7 3b 41 bc
       0.020216556 -0.030603351 -0.08951949 -0.011794022
0000a0 12 31 aa 3d 93 72 81 3d b2 cd 8d 3d 04 a9 a4 bc
       0.08310141 0.063206814 0.06923999 -0.020100124
0000b0 a3 0e c9 bb 37 61 b6 bc ea 08 7c 3d 68 16 2f bd
       -0.006135778 -0.022263153 0.06153194 -0.042745978
0000c0 e6 1e fe 3c d4 88 c2 3d 9b d5 38 3a e7 cd bd 3d
       0.031020593 0.09498754 0.00070508727 0.092677884
0000d0 0a 0a c8 3d f0 b3 18 3d 73 87 d6 3d 2c 8c 5b 3d
       0.0976754 0.037280977 0.10475054 0.053600475
0000e0 b9 1d 16 3d 48 1c ba 3d fe 79 9d bd f7 18 20 3e
       0.03664944 0.090874255 -0.07689284 0.15634523
0000f0 cc 76 c2 bd 4b 6b 53 bd e6 b1 c7 bb 06 a1 83 3d
       -0.09495315 -0.051615994 -0.006094205 0.06427197
000100 c3 cb a2 3c 31 d6 2e 3d 14 90 d5 3d 1d 7d 27 bc
       0.019872552 0.042684738 0.10427871 -0.0102227
000110 43 ad 0e bd 1b a5 a4 3d 94 8f 2c 3d bc 42 f4 bc
       -0.034833204 0.08039304 0.042129114 -0.029816978
000120 66 01 8d 3d 05 87 47 bb 07 d5 b8 3d a0 8e a1 bc
       0.06885032 -0.0030445468 0.09025007 -0.01972133
000130 cf 03 51 3c a2 f4 b7 bd 72 47 2e bd 11 9b ef 3d
       0.012757256 -0.08982207 -0.042548604 0.116994984
000140 53 d6 7b bb 1d b3 27 3e 57 e7 95 3d df 41 4a 3d
       -0.0038427308 0.1637692 0.07319515 0.049379226
000150 2c 55 71 3d ed 98 73 3d ab 68 1d bd e7 46 20 bd
       0.058919117 0.059472013 -0.038429897 -0.039130118
000160 53 d5 7c 3d af 95 87 3b b9 a9 90 bc f1 c9 52 3d
       0.06172688 0.0041377167 -0.017659055 0.051462118
000170 bc 06 9d 3d 36 25 b4 3d ce c3 73 3d 38 ad c2 3b
       0.076673 0.0879616 0.059512906 0.0059410594
000180 1c 33 ed 3c 98 bc 17 3d fe d3 3a 3d 2a 37 de 3c
       0.028955035 0.03704509 0.045612328 0.027125914
000190 c6 72 e3 3c 7e 93 bd 3d 55 da 0d 3d 0f 6d 58 3d
       0.02776469 0.092566475 0.034632046 0.05283838
0001a0 5e c1 0d 3e d9 5e 47 3c fa b2 18 3e f8 ed c4 bc
       0.13843295 0.01216861 0.14912024 -0.024039254
0001b0 0c 08 8c 3c c9 9a ee 3c d7 9e 84 ba 7c 69 1e 3e
       0.01709368 0.029126542 -0.0010118139 0.15469927
0001c0 e3 38 38 bd 29 aa 13 3d 0c 8a fd 3d 75 44 5b bd
       -0.044976126 0.03605095 0.12379846 -0.053532083
0001d0 11 b4 17 3d 90 53 01 bd 00 5d a4 bd 5c 9b 80 bd
       0.03703696 -0.031573832 -0.08025551 -0.062796324
0001e0 56 a7 78 3d 1b 5e 4e 3c 50 dc d3 3c 6e bb b5 bd
       0.06070646 0.012595679 0.02586189 -0.0887364
0001f0 4c 9f 7c bd eb 34 a2 bc da b2 4b 3d 65 fc 5e 3d
       -0.061675355 -0.019800624 0.049731113 0.05443992

net.4.weight f4 [7, 128]
000000 a0 f7 ce ba 13 d3 1a ba c5 94 bf bd 40 c7 35 3e
       -0.0015790351 -0.00059060863 -0.093545474 0.17751789
000010 e0 ec fe 3d d9 55 10 bd da e6 b7 3d c0 d6 d7 3e
       0.12447524 -0.03523812 0.08979578 0.4215603
000020 14 e5 8c bc 5b 58 14 3e 63 f2 87 3d 49 08 bc 3d
       -0.017199077 0.1448683 0.066380285 0.09181268
000030 97 69 24 3e 3d b6 89 3d 8f 73 ec 3d c9 b7 a7 3d
       0.16055904 0.06724212 0.115454786 0.08189351
000040 80 41 fe 3d 85 47 a1 be ee ac e8 3c 9d 8b 67 3e
       0.12414837 -0.31499878 0.028402772 0.22611852
000050 87 90 86 3c 5b 00 04 3e 78 85 05 bc 73 2f 0f bd
       0.016426338 0.1289076 -0.008149497 -0.03495736
000060 80 24 e8 3d f9 6d 0b bd b6 20 b6 bd 84 1f 36 3e
       0.11335087 -0.034040425 -0.08892958 0.1778546
000070 4f ee 99 3e 34 76 9b 3e 30 0e 50 3e 89 82 8e 3e
       0.30064628 0.3036362 0.20317912 0.27833965
000080 2a 52 83 3e c8 4d a8 3d 91 9b 6d 3e 07 3b 95 3d
       0.25648624 0.082179606 0.23203875 0.07286649
000090 4c 3b 02 3e 71 90 68 3d fb 8e 07 3e e6 f0 b2 3c
       0.12717932 0.056778375 0.13238136 0.021843385
0000a0 be 44 93 3d dc 5e 31 3d a9 5e 5f 3e 26 a4 5c 3b
       0.07190846 0.043303356 0.21813454 0.0033667176
0000b0 4e 99 37 3e e9 a7 0b 3e 49 d7 9a 3d 90 d9 cd bd
       0.17929575 0.13638271 0.07560594 -0.100512624
0000c0 ba 59 5d 3e de 50 6c 3d 17 5c b8 bc 8c 2c 76 bd
       0.21616259 0.05769431 -0.02250485 -0.060101077
0000d0 ec 74 8e 3d 79 d9 31 bc f1 9f 08 3e ea 1a 32 3e
       0.06955895 -0.010855072 0.13342263 0.1739308
0000e0 ff 36 e6 bc f8 b9 f8 3d 87 2d 64 bd a1 21 0f 3e
       -0.028102396 0.12144846 -0.05570748 0.13977672
0000f0 3c f0 25 3e f5 3c cc bc 7a ec e2 3d 42 57 0b 3e
       0.16204923 -0.02493141 0.110802606 0.13607505
000100 99 19 4f 3e a1 41 b2 3d b2 5e b8 3c 76 5c c5 3d
       0.20224608 0.08703924 0.022506092 0.09636776
000110 4c 7a dd 3d 24 9e 50 3d 68 81 02 3e 71 d7 be 3d
       0.10814342 0.050932065 0.12744677 0.09318436
000120 8b 56 8a 3d 35 ed 93 3d 5b 61 ce 3d f2 8e 80 3e
       0.06754788 0.07222978 0.10077163 0.2510906
000130 a9 d6 46 bb 87 a3 5d 3d 43 41 25 be d9 36 b7 3d
       -0.003034035 0.05411103 -0.16138177 0.08946008
000140 6c ed 14 be c0 69 09 3d e1 1c 4e 3e ba ff a8 3d
       -0.14543694 0.033548117 0.20128204 0.08251901
000150 eb 3c 71 bb 8a 28 62 3d 55 c2 ad 3d 60 7a 97 3c
       -0.0036809992 0.055214442 0.084843315 0.01849097
000160 e8 4b cc 3e cf cc 18 3e 30 24 72 3e 62 eb bf 3d
       0.39901662 0.14921878 0.23646617 0.093710676
000170 44 7c 33 3e b1 f6 09 3e e4 81 89 3d 6b 11 49 3e
       0.17527872 0.13473012 0.06714228 0.1963555
000180 2e 03 9d 3c 1c ea 90 3c 96 38 9d bd e0 66 cb 3d
       0.019166555 0.017689757 -0.076768085 0.09931731
000190 91 73 34 3e 4c aa 10 3e 96 76 ed 3b 71 5a 12 3d
       0.1762221 0.14127463 0.0072468026 0.035730783
0001a0 01 47 59 39 ec 47 e1 3d ff 7d ac 3e 57 21 07 3d
       0.00020721184 0.11000046 0.33689877 0.03299078
0001b0 e0 39 8a 3d eb 6f 4f 3e e3 15 01 3e 49 70 d1 3d
       0.0674932 0.20257537 0.12606005 0.10226495
0001c0 bc 10 72 3e fd 6d 68 bc 46 ac 72 3d 68 8a 24 bd
       0.23639196 -0.0141863795 0.059246324 -0.040171057
0001d0 2f 3a 02 be 3c f3 95 3c a5 e9 c0 3d 6c 23 48 3e
       -0.12717508 0.01830446 0.09419564 0.19544762
0001e0 f5 bb 39 bd 6c 05 dd bd dd 20 ae 3d 0b 81 89 3e
       -0.045345265 -0.1079205 0.08502362 0.26856264
0001f0 75 ef 63 3e 82 24 2a 3e 6e 12 ae 3d b1 aa da 3d
       0.22259314 0.16615489 0.08499609 0.10677088
000200 8a 66 21 3d 9d f2 31 bc 96 70 a9 3d cb 40 91 3c
       0.03940443 -0.010861066 0.08273427 0.017731091
000210 ba 5d f3 3d 58 94 17 3c ad 11 66 3e 7b 35 b5 3e
       0.11883111 0.0092516765 0.2246768 0.35392365
000220 a9 f6 c3 bc ca fd 49 3e 16 2a 0b 3e 52 5c 13 3d
       -0.023921328 0.19725719 0.13590273 0.035976715
000230 ce dc a3 3e 7f a0 05 3e 7a 2d f4 3d a8 67 22 3e
       0.32004398 0.13049506 0.119227365 0.15859854
000240 95 ba e9 3d 67 12 21 be ca 5f d1 bd 49 3b 1d 3e
       0.11412541 -0.15729676 -0.102233484 0.15354647
000250 a2 b2 24 3e 87 b5 3d 3e 71 0a 22 3e e5 ec 2a bd
       0.16083768 0.18526278 0.15824296 -0.041729826
000260 86 87 1a 3e 1e 16 fc 3d d6 c3 dc bc ab f5 ef 3d
       0.1509076 0.12308906 -0.02694885 0.11716779
000270 f0 4f 41 3d c4 9d f2 3e 1e f2 c9 3d 82 75 c6 3e
       0.047195375 0.4738599 0.09860633 0.38761526
000280 a4 79 96 3d 3f 5b 75 bd a6 e5 11 3e 7e 60 30 3d
       0.0734742 -0.059901472 0.1424776 0.043060772
000290 e7 96 eb bc 90 4d 9b 3d 0e 3f ac 3c 20 64 13 3e
       -0.02875848 0.07583153 0.02102616 0.14393663
0002a0 c3 ca 57 3e 6a 6d 0f 3e 73 ce 83 3e 1b 18 1c bb
       0.21073441 0.14006582 0.25743446 -0.002381808
0002b0 93 34 c7 3d f1 43 51 3d f7 19 e1 3d 2c 43 53 3c
       0.097268246 0.051090185 0.109912805 0.012894433
0002c0 a1 54 9f 3e 7a a6 31 3e b0 b2 51 bd d7 44 45 be
       0.31119254 0.17348662 -0.0511958 -0.19264542
0002d0 2d e7 85 3e e2 b5 d7 bd 3c a4 5d 3d 86 4b 3b 3d
       0.26152936 -0.10532738 0.054111704 0.04572632
0002e0 d1 e8 3b 3d 1f 1d 1d 3d ed c4 49 bd ac 6a e0 3d
       0.045876328 0.03835785 -0.04926007 0.10957846
0002f0 bc 00 1a 3e 92 7f 29 3e b4 9f fa 3d 25 80 43 3e
       0.15039343 0.1655257 0.12237492 0.19091852
000300 8e 8e a5 3d ac a1 2a 3d 71 08 e0 3c 80 f2 11 3e
       0.08083831 0.04165809 0.027347775 0.14252663
000310 24 e1 1c 3e 30 63 c2 3d b6 cb 11 3e 63 96 61 3d
       0.1532026 0.09491575 0.14237866 0.05507506
000320 5a cb 41 3d 9c 50 5b 3d 3d 38 72 bd ca 7b 56 bd
       0.04731307 0.053543672 -0.059135664 -0.05236415
000330 c8 66 da 3d fe db 8c bd 62 60 75 bd 1f 95 18 3e
       0.10664135 -0.06877898 -0.05990637 0.14900635
000340 12 07 94 be b4 97 ab bc 74 41 61 3e 1e d7 9f 3d
       -0.28911644 -0.020946361 0.21997625 0.07804702
000350 b7 10 82 3d df 46 1c 3e 1b eb ca 3d e7 e7 45 3d
       0.06350844 0.1526141 0.09908124 0.048316862
000360 89 a6 db 3e 91 94 b5 bb 2f a1 b6 3d ec 34 5d 3e
       0.42900494 -0.005541392 0.08917462 0.2160222
000370 03 d2 6d 3e 3f 7d 19 3e c2 a2 bc 3c e2 4e 13 3e
       0.23224644 0.14989184 0.023026828 0.1438556
000380 9e 69 1a 3e 66 5d 5a 3e d9 c7 91 3d 51 3e 2f 3e
       0.15079352 0.21324691 0.07118196 0.17113616
000390 ae a8 59 3e e4 d6 64 3d 91 cd 7f 3d d7 5b 63 bd
       0.21255752 0.055869 0.062451903 -0.055507507
0003a0 e2 29 2f be fa e7 e6 3c f7 a1 19 3e d3 af 25 3d
       -0.17105821 0.028186787 0.15003191 0.040450882
0003b0 98 dc 11 3e 44 2b b9 3d b1 1e 13 3e c9 b2 86 3d
       0.14244306 0.090414554 0.14367177 0.06577069
0003c0 11 30 5a 3e b0 46 32 be 8f f3 b6 3c f6 58 6c 3d
       0.21307398 -0.17409778 0.022332935 0.057702027
0003d0 49 91 ae 3c b4 d2 9a 3d fc 85 25 3e f8 07 76 3e
       0.021309512 0.0755972 0.16164392 0.24026477
0003e0 93 20 04 3d ca 37 56 bd 52 48 de 3d 55 71 f0 3d
       0.032257628 -0.0522993 0.10853638 0.11740366
0003f0 70 e6 4d 3d 25 bc e6 3d df 77 03 3e 2a e7 21 3e
       0.05026859 0.112663545 0.12838696 0.15810838

net.4.bias f4 [7]
000000 96 2a 9f 3b 60 2b 17 3d e9 42 a2 bd 16 14 26 bd
       0.0048573716 0.0369066 -0.07922918 -0.0405465
000010 5f 58 d6 3c a3 a7 93 3b db 1f 09 3e
       0.026165185 0.004506068 0.13391058
