coup_nsfp/0.95G10kEp0.1to0.02e-4/nfsp_coup_demo_best_agent_q.pt (torch, 86341 bytes, 6 tensors)

net.0.weight f4 [128, 25]
00000000: bf53 ce3c e2db 8abd 63f9 173c 5b7f c33d
00000010: bf3c 6c3d 5320 053e bb9b 203e 65a1 183e
00000020: c46a 423e a99d 56be 36f2 513d ed6a 953e
00000030: 44cd 9bbd d241 41be cff8 7cbd 5bcd cd3e
00000040: 2d41 4e3d 2457 0e3d 4256 213e 0526 09bd
00000050: 7bc6 093e e6a3 17bc d58d 283e 7d84 653e
00000060: e874 433e 3c8a 8ebe 53c7 6e3e 8878 17bf
00000070: 9ffe 73be 1371 b23e 285b 403e 5e6b 4f3d
00000080: d417 eebd bba1 fa3c 3206 22bd 2c23 b53e
00000090: d572 563e bf58 86bd f7fc 8b3d 7fb2 93be
000000a0: 47a9 363e 2469 5c3e c3b9 883e 0d08 d9bd
000000b0: a581 e23d 52c9 33bd 184a a13e 0898 28be
000000c0: d57f e43e b04a ce3d 429e 42be 8ebc 70be
000000d0: 0300 99bc 328c 9fbe 9524 cd3c 9f12 f4be
000000e0: f49f c93e f576 ffbc 29e3 2b3e b4ac 9ebe
000000f0: f45d 3abe e050 333d eee4 8abe b55b 0cbe
00000100: a14f 5dbc 4331 dabd bb73 67bd 9337 a63e
00000110: 0554 153e 3720 0dbe 79d4 013c 245f 573e
00000120: 1b16 5d3e 054a d03d 6e56 143e 2cc3 45be
00000130: e8c1 733e 615c 3cbd 2611 22be 6190 cebd
00000140: 397f 15bd 7e04 3e3d 335b 173d 57f3 ca3e
00000150: 3123 153e ba8d 393e fe0e 113c 759c 9b3c
00000160: ed47 94bd 3a46 083e 4de6 93be a05a bdbd
00000170: 1e30 08be eae1 a4bd 5386 43be 3078 55be
00000180: 97f5 f5bd 571b 9fbc 099c 6fbe 99ed 0ebe
00000190: 2be1 5fbd 3968 573e 26f1 ad3d 708f e83c
000001a0: 9bdb e63d b49b 96be b350 44bd 4ac1 153e
000001b0: acc2 083e 5602 333e 0417 a43d 8bdf 013d
000001c0: ae62 623e 4f7e 47be 2e3f 39be f33b 91be
000001d0: 7036 39be 0c91 6bbd 9a9f 41bc f0bd 48be
000001e0: b800 93bd ce32 85be 0b2c a9be 40b2 aebe
000001f0: 897b 283b 439f 2d3e 4024 0f3e 83fc 463d
00000200: 3a19 8dbd 45a5 8f3e fbbf a73d 86b9 253e
00000210: dbaf a83e f652 3cbe 997a 603d 409e 99bd
00000220: 1745 0d3e 5e3a 89be a260 1cbe 2d28 90bd
00000230: 99ed 67bb e3cc 863e 3673 d13d 4056 453d
00000240: 76a3 293d 1607 8c3e 8a5f 47be 69cf 2abe
00000250: d6bf 15be 0314 8a3c 1436 53bd 49b0 4c3e
00000260: 8a32 e63c 50fc fd3d d077 423d 4cf3 eebd
00000270: 3640 c2bc fa7a 39bc faff 9d3d dc02 343e
00000280: d234 2b3e aa38 b1bd c191 c53d 23a1 923d
00000290: 4445 5bbe ec19 13be 5aba bdbd aaa0 c1bd
000002a0: 2000 dbbd 6c76 813e 447b 17bc 5c4f a73e
000002b0: 5721 ccbe a5e1 5abd 801b 623e 8a5f 0fbe
000002c0: bed9 79bc 28e4 4f3e d1a0 2c3d 630b 83ba
000002d0: 7492 4ebe 7004 5bbe 2ef0 363e 728f 1fbe
000002e0: 8bb0 633e b163 da3d 427d 193d ad4d 8d3e
000002f0: 100d adbd be60 1abd 6a0f 12be 5591 483c
00000300: df25 c6be 9a9a d93c 6b75 6f3e f0f4 193e
00000310: ae98 95be 3d7d 0cbf 00a8 aabd f22a 15be
00000320: 1574 213e c2a4 80be c251 b13b d884 23bd
00000330: 7bbc 3b3e cf8a c73d 1df0 0b3e 0765 5f3e
00000340: 8c78 83be 6096 523d 896c e33e 6d3b 843d
00000350: ee93 85be c0f0 6f3d f614 f0bd 090b 593e
00000360: 560c 573d 0d2c 27be 870c f1bd ad68 c23e
00000370: 9774 20bd 071b 933d fba4 f8be 6517 58be
00000380: ca63 7c3d 3c97 b23c 2f44 993e 3cf7 b13e
00000390: 6733 44bd a7d2 4fbe 24bf 053e 4c82 193e
000003a0: 7968 92bd d493 5f3e c03d 833d 3512 d83d
000003b0: 4350 d3bd 567f 0d3e 0d84 6f3d 056c 96be
000003c0: e54d 873e 28b7 2abe 8f00 dc3b da99 dfbd
000003d0: f5e7 273e 6747 e1bd d271 243e 24b7 053e
000003e0: d3d0 04be 83c8 d63a a6a4 6bbe 0b40 683e
000003f0: 61b1 ae3e d89a fe3d cbab fdbd ca39 3fbe
0.025186418 -0.067802206 0.009275767 0.095457755 0.05767512 0.13000612 0.15684406 0.14905317
0.1898604 -0.2095858 0.05125638 0.2918314 -0.07607511 -0.18872765 -0.06176072 0.40195736
0.050355125 0.034751073 0.15755561 -0.033483524 0.1345462 -0.009255385 0.16460355 0.22413822
0.19087565 -0.2783984 0.23318224 -0.5916829 -0.23827599 0.34851894 0.18784773 0.050639503
-0.116256386 0.030594697 -0.03955669 0.35378397 0.20942242 -0.06559896 0.068353586 -0.2884712
0.17838012 0.21524483 0.26704225 -0.10597239 0.11059884 -0.043893166 0.31501842 -0.16464245
0.44628778 0.10072839 -0.19005683 -0.23509428 -0.018676763 -0.31161648 0.025041858 -0.47670457
0.39379847 -0.031184653 0.16785873 -0.30991137 -0.18199903 0.0437783 -0.27127784 -0.13706858
-0.013507755 -0.10653927 -0.056506854 0.32464275 0.14582832 -0.1378182 0.007924193 0.21032387
0.21590464 0.10170368 0.14486095 -0.19312733 0.23804438 -0.045986537 -0.15826854 -0.10086132
-0.036498282 0.046391003 0.03695221 0.3963878 0.14564206 0.1812047 0.008853672 0.018995503
-0.07240281 0.1330804 -0.28886643 -0.09245801 -0.13299605 -0.08050902 -0.1909421 -0.20846629
-0.12009733 -0.019422216 -0.23399366 -0.13957824 -0.054658096 0.21035852 0.08493261 0.028388709
0.11272355 -0.29415667 -0.047928523 0.14624515 0.13355511 0.1748136 0.080122024 0.031707328
0.22107956 -0.19481777 -0.18090507 -0.2836605 -0.18087173 -0.057511374 -0.011817837 -0.19603705
-0.071778715 -0.26015323 -0.33041415 -0.3412037 0.0025708398 0.16955285 0.13978672 0.048580658
-0.06889577 0.28055778 0.08190914 0.16184053 0.32946667 -0.18391022 0.05480442 -0.07500887
0.13795887 -0.26802343 -0.15271237 -0.07038913 -0.0035389422 0.2632819 0.10227053 0.048177958
0.041415654 0.27349156 -0.19470039 -0.16680683 -0.14623961 0.016855245 -0.051565245 0.19989122
0.02810027 0.124016404 0.047477543 -0.11667499 -0.023712259 -0.011320824 0.07714839 0.17579216
0.16719368 -0.08653386 0.09646941 0.07159641 -0.21413141 -0.14365357 -0.09264059 -0.09454472
-0.10693383 0.2528566 -0.009245697 0.32677734 -0.39869186 -0.053437848 0.22080803 -0.14001289
-0.015249668 0.20301878 0.042145554 -0.00099979 -0.20173055 -0.21388412 0.17865059 -0.15582064
0.22235315 0.10663546 0.03747297 0.27598324 -0.08449757 -0.037689917 -0.14263692 0.012241681
-0.38700768 0.026562978 0.23384635 0.15034842 -0.29218048 -0.548786 -0.08332825 -0.14567164
0.15766938 -0.251257 0.0054113576 -0.03992161 0.18333618 0.097432725 0.13665815 0.21815883
-0.25677907 0.05141294 0.44418743 0.06456647 -0.26089424 0.058579206 -0.11722748 0.21195616
0.052502 -0.16325398 -0.117699675 0.37970486 -0.03917369 0.071828894 -0.4856337 -0.21102674
0.061618604 0.02180063 0.29934832 0.34758937 -0.047900584 -0.20295201 0.13061196 0.1499111
-0.07148833 0.21833736 0.06408262 0.10550348 -0.10318043 0.13818106 0.058475543 -0.29379287
0.26426616 -0.16671431 0.006713934 -0.10918017 0.16397078 -0.10999947 0.16059044 0.13058144
-0.12970285 0.0016386661 -0.23012027 0.2268068 0.34119704 0.12431878 -0.123862825 -0.18674389

net.0.bias f4 [128]
00000000: b45e e73d f4aa 383e 226d 493c f893 0a3e
00000010: b1fb 213d 3611 843e 4feb 61bc d2a9 4a3e
00000020: 615f 28be 1942 8f3d ec30 31be 7e23 e0bd
00000030: 69b0 023e 3223 04be f8b6 afbd 0a60 ec3c
00000040: 86f9 1c3e e656 92bd 4bfa bb3c 1f9a a5ba
00000050: caf3 0a38 80c0 34be 3d6c efbc b8e8 03bd
00000060: 1753 eabb cad9 5f3e dbcd f7bc 05b0 ba3d
00000070: f6b9 893e 001d 64bd bd8a 7b3d f544 4d3e
00000080: 172f a6bd b2d8 523e 368d 163e d877 86ba
00000090: 1ac4 423e 0569 e13d 4b14 a43c 7674 e63d
000000a0: 6257 84bb 18f2 663e 17cd 1a3e 3609 6a3d
000000b0: 6ecf 843d b987 aabd 137f 4e3e d926 873e
000000c0: 9c14 093e 80ef 5abd 334f aebc 49b4 fd3d
000000d0: 969b 15be d7d4 bd3d 8d77 423e 8b54 20be
000000e0: 524a 4a3d 12b1 0abe 3433 8f3c efe3 41bd
000000f0: 2020 043e 9544 c23d 92ad aebd 62e6 a13d
00000100: a27d abbd 343a d7bd 490f 203e 7381 cdbd
00000110: 9d10 78bc a50b d3bd 99b5 13be f060 d6bc
00000120: 1b38 da3d b816 29be 5ed4 91bc 03ef 203e
00000130: 9419 323e 6a02 703d b11b d03d 1709 1cbe
00000140: d46b a5bd d414 873e fd90 9bbd f335 7bbe
00000150: 1a2f 233c 7232 7c3d c2bd 523e 3e93 da3d
00000160: c7cf 18be 9470 ac3d 6d39 bc3d 2af6 ed3d
00000170: 39e4 153e 9655 0b3e 5155 eb3d b854 1bbe
00000180: b7ea 8abd 293e 403e 68ac 0fbe 3715 87bd
00000190: 18f2 033e 33a8 bb3d e210 e23c fb1a 323e
000001a0: b00a d2bd d859 9e3d f210 60be a0fe a1bb
000001b0: c2ac 06bd 3a5a df3b f9db 9d3d 8fa1 233d
000001c0: bdf1 e23d 913b 563c a24e 1abe 1834 b5bc
000001d0: 55f2 493e 918a 0a3e 85fa 973d f8bf aebd
000001e0: a8ea ac3c 5ff1 80bd d736 443e 3dc1 383e
000001f0: e1b0 bbbd b6ae 65be 1ae4 633e c927 803e
0.1129736 0.18033963 0.012294086 0.13533008 0.039546672 0.2579438 -0.013789012 0.19791344
-0.16442634 0.06995029 -0.17303818 -0.109442696 0.12762608 -0.12904051 -0.085798204 0.028854389
0.1532956 -0.07145481 0.022946497 -0.0012634433 3.312881e-05 -0.17651558 -0.029226417 -0.03220436
-0.0071510184 0.21860424 -0.030249527 0.09115604 0.2689969 -0.05569172 0.061411608 0.20045836
-0.081144504 0.20590475 0.14702305 -0.0010259105 0.1902012 0.11006359 0.020029208 0.11252682
-0.004038737 0.22553289 0.15117298 0.05713769 0.064848766 -0.08326668 0.20165662 0.26396826
0.13386768 -0.05345106 -0.021278 0.12387902 -0.14610133 0.092691116 0.18990918 -0.1565725
0.049387284 -0.1354411 0.01748047 -0.047336515 0.1290288 0.09485737 -0.085292 0.0790527
-0.08373572 -0.10509148 0.15630831 -0.10034456 -0.01514068 -0.103049554 -0.14424743 -0.02616927
0.106552325 -0.16512573 -0.01780146 0.15716176 0.1739257 0.058596052 0.10161532 -0.15237843
-0.08077207 0.26383078 -0.07596014 -0.24532299 0.00995996 0.061571546 0.205802 0.106726155
-0.14923011 0.0841991 0.091906406 0.11619218 0.14637841 0.13606867 0.11490882 -0.15169036
-0.067830496 0.18773712 -0.14030612 -0.06595843 0.1288532 0.09162941 0.027595941 0.17393105
-0.10255945 0.0773198 -0.21881464 -0.0049436837 -0.0328796 0.0068161758 0.07707972 0.039948996
0.11081264 0.013075725 -0.15069059 -0.022119567 0.19721349 0.13529421 0.0742083 -0.08532709
0.021107987 -0.06296038 0.19161545 0.18042465 -0.09164596 -0.22429928 0.22254983 0.25030354

net.2.weight f4 [128, 128]
00000000: c7a6 8e3d b920 2abe 1e77 f03c 6b12 fabc
00000010: 88fe bc3d 966d 363d 21b3 683d c164 14be
00000020: 53f1 2f3e aecf 963d b1e4 d53d a8be 89be
00000030: e18a 0ebe 09d9 853e 9738 c8bd c7ce bfbc
00000040: 06bd 0b3d e695 3e3e a797 2b3d ee1a 133e
00000050: 2e98 8e3d 9d41 933d 1477 c43b 1431 fe3d
00000060: 17b7 953e 4577 ad3b 0029 eebc 53aa 2c3d
00000070: 0d0d 043e 4f04 bc3e 1a3f e63d d391 b7be
00000080: 1fc7 493e 99fc 963d ef36 cc3e a763 203e
00000090: e55a 013f c208 053e 5b51 2bbe 1d2e 823e
000000a0: 252c c2bd 3c44 9dbd f6b3 01bf d7b4 ee3c
000000b0: 099d 02bd 67df bdbc ab2f 9f3d 60b6 6ebe
000000c0: b8a1 f83d 73ae c93d adb7 3fbe 77b5 c6be
000000d0: 4231 303e 2dbc d9bc 6170 4b3c ba95 14bd
000000e0: e787 0c3e a042 c03e 075f fc3d 7526 063e
000000f0: 4673 71be eeb7 273e 108a 983e 57d8 f63d
00000100: 6094 813e 6a84 943b 3e51 9a3d 8a01 26be
00000110: 356b 9dbd 14c5 433e 0dc8 3b3f bfe9 223f
00000120: 31ae a63d bd0a 79bd 6b39 9f3e aaca 783c
00000130: 5720 703c 1262 3a3f 1ee9 303e 3bc9 d53c
00000140: 21dc a8bc 51d2 6bbe 9444 273e fc06 493e
00000150: aaeb 013c 1484 2a3e 245c 9a3e 0c1c aa3d
00000160: 92d2 15bd eab1 90bd 5121 a5bd afa7 11be
00000170: 167b 7a3d c344 353c 0dd4 bd3d cf00 0a3e
00000180: 79e8 81be 5a07 673e 1f88 19be 75f7 863e
00000190: b1da f23d 45f5 943e fa18 b3bd 68f8 2dbe
000001a0: dcdb 713c 8caf 54bd 80cd 3c3e de17 ea3c
000001b0: 949a 7a3c 9ced 223e 5528 09bc 9f28 143c
000001c0: a789 d03d 2665 cc3b 286b 68be 5fa0 303e
000001d0: 2afd d5bd 1dfe 7a3e 3fc1 503d 67e3 bf3d
000001e0: ffae 8a3e 4b85 8b3c 0a1a 433e cf91 4b3d
000001f0: 5ba5 c23d 87e4 b7bc a2fe 0e3e 7c0e 96bb
00000200: 89cd 3c3d 3a60 1f3e 6591 8abe 60a7 683b
00000210: 0614 1a3c c1e1 57bd 94bc d53d 3703 c1be
00000220: 9677 01bd 5c6c 653e 03d4 9abd d5a5 803d
00000230: 3e42 cf3d 3ea7 9fbd 51a7 913d c0c7 163e
00000240: 20b6 8b3d 3763 bbbd ede1 15be a9d7 aa3e
00000250: ff05 3abe 7900 e1bd fa98 923d a7de 2a3e
00000260: f8e0 2d3e 14be d9bb 791c ba3d 179c d3bc
00000270: a711 9c3d 3d4c 8abd 2e58 953a e895 0e3e
00000280: f14d 2b3d 8754 f8bd 4b85 26bd 807d 1f3d
00000290: 9e7c 193d 852f 7abd 558f 913e d208 72bc
000002a0: 7d87 30be 95e5 debc 5ca4 7b3e 00b7 69bc
000002b0: 4a97 55bb 498c aa3d cf78 213e 0df0 773e
000002c0: 6045 7e3d 22e6 c5bd bec0 e4bd b0e1 c83d
000002d0: 98f4 cebe 152b 133d 031a f4bb 38ba 973e
000002e0: ad8b fb3c e977 c8bd 0046 7b3e 208b 1cbd
000002f0: a3ef 243e 43d9 bf3c db18 32be 61e7 233d
00000300: e197 15be a62a 463e eaa7 d9bc 8ce3 963c
00000310: 70b9 683e 31d7 c03c 26ce 1abe 0901 dabd
00000320: cedc 2ebe 27b8 ddbd 1842 29be 9814 083e
00000330: 7160 c43d 294f 31be f08a 053d d9c8 fc3d
00000340: 8969 8fbd 61ac 633d b09f 30be 6345 8bbd
00000350: 1a67 3fbe 2f4c e9be 1b77 66be d1a1 1bbe
00000360: 20b7 34bd 55a5 eb3d 4734 77bd 5967 873e
00000370: d91b 0fbd b1ef 72bc 9edd 32bd 7b66 dcbe
00000380: 9c3c 673e f102 ad3d b3da 0f3e dafc 813e
00000390: 2713 ae3d 91d2 c4bd 17ef 25be f230 893d
000003a0: 697a 693d d3b1 5dbc 88cc 943d 0aa5 99bd
000003b0: 5ab6 cf3d 5159 4cbd 0433 32bd d622 3c3d
000003c0: 56bc a0be 5ec4 a2bd 157e e23c dcaf bebd
000003d0: 515a 843e 81de eb3d 84e6 773e 3a34 98bd
000003e0: 6399 2fbe 88a6 b8be 0c91 58be df30 6e3d
000003f0: a780 133e 9824 eebd ab61 40bc 5363 df3c
0.06965404 -0.16614045 0.029353675 -0.03052636 0.092282355 0.044538103 0.056811456 -0.1449156
0.17181902 0.073638305 0.1044401 -0.26903272 -0.13920166 0.26142147 -0.09776419 -0.023414029
0.034115814 0.18611869 0.041892674 0.14365742 0.0696262 0.07190249 0.0059956405 0.12411705
0.2924125 0.005293759 -0.029072285 0.04215462 0.12895603 0.36722037 0.112425044 -0.35853443
0.19704865 0.07372398 0.3988566 0.15663014 0.5052932 0.12991622 -0.16730253 0.25425807
-0.09481076 -0.0767903 -0.50665224 0.029138966 -0.03188804 -0.023177816 0.07772764 -0.23311758
0.121402204 0.09847727 -0.1872241 -0.38810322 0.1720629 -0.026578987 0.01241693 -0.036275603
0.13723718 0.3755083 0.123228125 0.13100608 -0.2357913 0.16378757 0.29792833 0.12052982
0.25308514 0.0045323865 0.07535027 -0.16211525 -0.07686464 0.19118148 0.7335213 0.6363792
0.08138693 -0.060801256 0.31098494 0.015185038 0.014656148 0.72805893 0.17276427 0.02609693
-0.020612778 -0.23029448 0.16334754 0.1963157 0.007929722 0.16651946 0.30148423 0.08306131
-0.03657777 -0.070651844 -0.08062995 -0.14224122 0.06115254 0.011063757 0.09268961 0.13476871
-0.25372675 0.22561398 -0.14993332 0.2636067 0.11858118 0.29093376 -0.08744998 -0.1698929
0.014761891 -0.051925227 0.18437767 0.028575834 0.015295643 0.15910953 -0.008371432 0.009042888
0.10182505 0.006237644 -0.22697127 0.17248677 -0.10448678 0.24510999 0.050965544 0.093695454
0.27086636 0.017031332 0.19052902 0.0496996 0.09504195 -0.022447838 0.13964322 -0.0045793634
0.04609445 0.15564051 -0.27064052 0.0035500154 0.009404188 -0.05270553 0.10436359 -0.37697765
-0.031608187 0.22404617 -0.07559969 0.0628163 0.101200566 -0.07795571 0.07111991 0.14724636
0.06821847 -0.09149783 -0.14636965 0.3336766 -0.1816635 -0.10986418 0.07158084 0.16686498
0.1698035 -0.0066449735 0.09087462 -0.025831265 0.076205544 -0.067528225 0.0011394077 0.13924372
0.041822378 -0.12125497 -0.04065446 0.038938046 0.03747236 -0.061080474 0.28429666 -0.014772611
-0.17239185 -0.027209083 0.24574417 -0.014264822 -0.0032591396 0.083275385 0.15768741 0.24212666
0.06207788 -0.09663035 -0.11169575 0.098086715 -0.40420985 0.035929758 -0.00744939 0.2963426
0.030706251 -0.09788496 0.24538422 -0.038218617 0.16107039 0.023419028 -0.17392294 0.040015582
-0.14608718 0.19352207 -0.026569325 0.01841905 0.22726989 0.023540111 -0.15117702 -0.10644729
-0.17076418 -0.1082614 -0.16529119 0.13289106 0.09588707 -0.17315353 0.032603204 0.12342996
-0.07002551 0.055584315 -0.17248416 -0.06800344 -0.18691674 -0.45565936 -0.22506373 -0.15198447
-0.044119954 0.11506144 -0.06035259 0.26446036 -0.034938667 -0.014827655 -0.043668382 -0.43046936
0.22581714 0.08447827 0.14048271 0.25388223 0.08499747 -0.09610475 -0.16204487 0.06698789
0.057001505 -0.013531166 0.07265574 -0.07502182 0.10142203 -0.049889866 -0.043505684 0.04593166
-0.3139369 -0.0794761 0.027648011 -0.09310886 0.25850156 0.115170486 0.24209028 -0.074318364
-0.17148356 -0.36064553 -0.21149081 0.058152076 0.14404546 -0.116280735 -0.011742036 0.027269041

net.2.bias f4 [128]
00000000: 5285 52bd 7b2d babc 6038 533c e217 83bc
00000010: 8005 023e 7c86 9abb 345d aebc c070 a33d
00000020: 569b 51bd aefa aabd b5de adbd 76cc 4d3d
00000030: 6b8c 9f3d d4aa c13d 3ffa 38bd cfae a53d
00000040: 966b 713c 88cf e3ba 742b 9d3d fbba c83d
00000050: 6144 d2bd f413 45bd c8cc 2ebd cf71 96bb
00000060: 3170 30bd fdb8 773c 75d5 d5bd 8055 fe3d
00000070: fd5a bf3d 47dd c93c 10b0 213d 1552 f33a
00000080: ebdd 1bbc f646 d6bc 461d 2e3c a8ea 6c3d
00000090: de68 27bd bae3 c23d 5b09 7d3c 799f adbd
000000a0: 8153 9f3d cc63 1b3d b1ba 8cbc d094 bf3d
000000b0: 0576 f4bc 29f5 753a 14be 933d 71e9 6fbd
000000c0: 605e 11bd 6f67 c73c 2adb b63d 7872 16bd
000000d0: 9ae1 89bc bc48 57bd 83bc 743d 582d 55bd
000000e0: 582e 4dbd 22a7 66bd db63 773d c5df 133a
000000f0: f61e 9b3c 2053 3fbc 4fe4 70bc f235 84bd
00000100: f6eb 4c3d 636d 2cbc 02cb 5cbc 6465 773d
00000110: bb14 883d e897 a53d 6219 033e ff32 10bd
00000120: 76bc 18be a642 243e 9478 d73c 8e8f 193e
00000130: 16a3 093d 779e d73d 1ae7 fe3d 81f8 ea3b
00000140: ffaa bd3c 7272 52bd b2a6 30ba e151 abbd
00000150: ced3 aabc 8d05 bcbd daff 5f3e 60fc 243d
00000160: 3107 fbbb 976b 43bb b08f af3d ab57 4fbc
00000170: 34cc 5ebd c3a8 e33c 89a8 693d 2ec9 a0bd
00000180: 8d99 5f3c 94fd fe3d 8e57 dabc 790d 13bd
00000190: 7b3b c13d e648 2fbc 1898 3b3d 988e 873d
000001a0: 9ccd e6bd 0a63 edbd 8120 39bd 4581 e8bc
000001b0: 8191 9d3c 223b b43d e72a 83bd 3e54 aa3d
000001c0: dff8 4b3d 7d4e a5bd 65d3 c13b ab53 dcbc
000001d0: 9b5a 8f3d 0483 023e fc52 e33d 768f fbbd
000001e0: 851b 74bd 9dab b93c 2d36 adbd 9d28 9bbd
000001f0: f424 8c3a 3b31 c6bc bdde 553d 6221 433c
-0.051396675 -0.022726765 0.012891859 -0.0160026 0.1269741 -0.004715739 -0.021284677 0.0798049
-0.05117353 -0.083485946 -0.084897436 0.050243817 0.077904545 0.09456411 -0.04516053 0.08089983
0.014735123 -0.0017380575 0.07674304 0.09801289 -0.102669485 -0.048114732 -0.042675763 -0.0045912038
-0.043075744 0.015119788 -0.10441104 0.124186516 0.093435265 0.024641646 0.039474547 0.0018563891
-0.009513359 -0.026156884 0.0106270965 0.057840973 -0.040871494 0.09516092 0.015444125 -0.084776826
0.07779599 0.03793697 -0.017178865 0.093545556 -0.029841432 0.000938254 0.07213989 -0.058572236
-0.035490394 0.024341313 0.08928521 -0.03673026 -0.016831208 -0.0525596 0.05975009 -0.052045196
-0.050093025 -0.056311734 0.060397964 0.0005640949 0.018935662 -0.011677533 -0.0147028705 -0.06455602
0.050029717 -0.010524127 -0.013476135 0.060399428 0.06644579 0.080856144 0.12802652 -0.035204884
-0.14915642 0.1604105 0.026302613 0.14996168 0.033602796 0.10528272 0.12446423 0.0071707373
0.023152826 -0.051378675 -0.0006738707 -0.083652265 -0.02085295 -0.09180746 0.21874943 0.040279746
-0.0076607694 -0.0029818767 0.08572328 -0.012655179 -0.054393962 0.027790433 0.057045493 -0.07850872
0.013647449 0.1245071 -0.026653077 -0.03590152 0.09435173 -0.010698533 0.045799345 0.066189945
-0.112696856 -0.11591156 -0.045197014 -0.028381953 0.01923442 0.08800341 -0.06404667 0.08316849
0.04979789 -0.08071611 0.005915093 -0.026895365 0.069997035 0.12745291 0.110998124 -0.122832224
-0.059596557 0.02266484 -0.08457599 -0.07576106 0.0010692165 -0.024193397 0.052214373 0.011909815

net.4.weight f4 [7, 128]
00000000: 6cba 1a3e 812d 053f 3373 89be 8c49 8c3e
00000010: 2812 ce3e 8ea4 e33d 2210 2e3d 03ee 9d3d
00000020: 37dd 993d 774a 363f 3b80 2a3e f969 253e
00000030: 2e63 833d 8e81 423e b57a 743d c8c7 a03e
00000040: f280 713f 3627 94bb 845c 4a3e 16c8 8d3d
00000050: 8751 fe3d 9423 4b3e 6ed0 ad3e c386 bf3c
00000060: 091e 013c 68db 58bc 1bab 01bb 4b9a a43d
00000070: 2777 fcbc e8b6 293e 0897 82be 194f c23d
00000080: db0f 4a3e dc45 713c 343a 62bd 9942 1c3e
00000090: aee1 9c3e a0e0 353e 2183 003e f4c1 7b3d
000000a0: 28a2 ed3d b3d5 893e b8be 74bd 424a f13d
000000b0: facc 833e ae90 40be 1dd3 433e 0cc6 5a3e
000000c0: 250e 563f a58c b6bd 37d9 2e3e 2601 453e
000000d0: 4d1a 943e 7314 9b3e 5fba 053e be08 09be
000000e0: d752 623e 8ff8 4b3e 6dd9 26be acc8 16bd
000000f0: 45d6 09bd 7a6b 4a3e 5f57 a83e 2752 5cbd
00000100: d07b 7e3e 477b fa3d c0cf 173c 8ffb 663e
00000110: 15a9 cc3d 9b45 1a3e 978d ca3c 3f87 87bc
00000120: 8072 583e 5d9f 333f b1ce 793e 7bc0 a63d
00000130: ef5d d5bd 5449 2c3a 8cd6 99bc ea25 0b3d
00000140: 4598 8c3e f084 9f3e b3b7 293e 2a54 9fbe
00000150: da27 dd3e d8c0 8c3d 57ff 953e 14e7 80be
00000160: 2188 093e db3f 813c 08ea 4a3e 5fe7 0e3e
00000170: d6a5 073d b8ae 673e 0d88 0c3e 681c ca3e
00000180: 19dc 4d3e 7287 403e 0797 913c cbec 0f3e
00000190: 6d15 833e 54a9 4c3d 5f26 023e 2fa0 0f3e
000001a0: d999 373e bfea 863e b8fb f63d 0a2a 8dbe
000001b0: 5771 fc3e da85 573e 0b79 713d 72b4 683d
000001c0: e542 fd3d bc7c b13e 8cb0 513d 3590 0cbc
000001d0: 4d08 d53d 2042 283e 0ea7 f63d 7d45 643e
000001e0: f997 cfb9 803d 7e3d 3119 3f3e bf07 923e
000001f0: e9ed fc3d 8382 483e 8a3d 2b3e 3fc9 f23d
00000200: 897c 8f3d 6af7 cb3e 81dd ecbd 497b 2e3e
00000210: 54c9 1e3f 6e06 4f3e e359 d33d ee92 be3d
00000220: 51b0 863e 7201 963e 8999 453e a5c8 403e
00000230: f76c 3cbc 68d4 c73e 9c89 383e 2b2e 8c3e
00000240: b92c b73d 3ad0 0ebd de1d a63e b14b 523e
00000250: 2827 073e c8ab f33b bdf9 4a3e 9857 50bd
00000260: b995 60be 8986 1b3f 87cb 293d 3e27 c23d
00000270: 7970 0dbc f7be 9e3d f6f3 95be 67ac a1bd
00000280: 9f4e 233e b5c8 583c d142 0cbe a5dd 983e
00000290: c3f6 423e 17e2 7d3e 4067 6e3e 56c9 9b3d
000002a0: 77f7 e73d dce9 373e 3600 d9bc 6513 5e3d
000002b0: aeb3 913e 080e f03d 7b05 393e 148d 0e3e
000002c0: ed48 a33e ee3a 83be 97b2 963e ad70 123e
000002d0: cee5 853e 66cc 93bd 38b4 763e 25a2 64bd
000002e0: 2f91 8e3e 9733 523e 1b1b 3d3e c6f8 6b3e
000002f0: 82d0 43bc 34b4 343e bebf a43d 1d16 9e3d
00000300: ef6a 8c3e eda5 143e d0be b53e c617 d83d
00000310: 09d9 6b3e 93e4 2d3e 4302 f23d bc5d 98bd
00000320: ec2a a63e 8c16 7f3f 8e1f 043e 2b49 e4bc
00000330: 5009 e0bd f751 673d de9f 07be 60ed 213e
00000340: b357 853e acbb 5b3e 4759 063e b0fe 25be
00000350: 85c8 24be 981b e43d bcc7 573f 0497 27be
00000360: 1a9b 6a3e a173 103d 681c 96bd cd41 1d3e
00000370: 041b 85bd 3c47 a13d 863c 0f3e 44ca b53e
00000380: 9a39 c03d 7566 763e 3230 e1bd 5d67 9d3d
00000390: 9a98 3d3e 81d1 f6bb 6834 b43d 45fd 963d
000003a0: 84ba 753e 48b1 0f3e 6366 0b3e 418d b03d
000003b0: 73c2 8e3e 1e3a 093a 7e22 7d3e 1ad5 593e
000003c0: 1c67 73be 41ab 9d3e fcaa 14be 0f1c 3bbe
000003d0: fbcd 31be a357 723e 7523 ed3d 4bd2 bc3e
000003e0: 56a2 333b 198c 453d 1faf 173e 6767 873e
000003f0: f791 513e 93be 1d3e 0a43 4f3e 7129 303d
0.15110177 0.5202256 -0.26845703 0.27399862 0.40248227 0.11115371 0.042495854 0.07711413
0.075128965 0.71207374 0.16650479 0.16153707 0.064154014 0.18994734 0.059687335 0.3140242
0.9433738 -0.004521276 0.19761854 0.06922929 0.12417894 0.1983779 0.33948082 0.02337969
0.007880696 -0.013235904 -0.0019785825 0.080372415 -0.030818535 0.1657368 -0.25505853 0.09487743
0.19732611 0.014726128 -0.055231288 0.1525978 0.3064093 0.17761469 0.12550022 0.061464265
0.116031945 0.26920852 -0.059752196 0.11781742 0.25742322 -0.18805191 0.19123502 0.21364611
0.8361533 -0.089135446 0.17075048 0.1923872 0.28926316 0.3028904 0.13059376 -0.13382241
0.22101913 0.19919036 -0.16293879 -0.03681247 -0.03365161 0.19767562 0.3287916 -0.053789284
0.24851918 0.122305445 0.00926584 0.225569 0.09993187 0.15065615 0.024725718 -0.016543983
0.21137428 0.70165044 0.24395253 0.081421815 -0.10418307 0.0006572206 -0.018779062 0.033971705
0.27459922 0.3115611 0.16573982 -0.311189 0.43194467 0.068727195 0.2929637 -0.251763
0.13430835 0.015777519 0.19815838 0.13955449 0.033117138 0.22625244 0.13723774 0.39474797
0.20103492 0.18801668 0.01777221 0.14055173 0.25602284 0.04996617 0.1270995 0.14025949
0.17929782 0.26350972 0.1205973 -0.27571136 0.4930522 0.21047154 0.058953326 0.05681271
0.12366275 0.34665477 0.05119376 -0.0085793035 0.10401974 0.16431475 0.12043582 0.22292133
-0.00039595345 0.06207037 0.18661954 0.28521535 0.12350065 0.19581036 0.16722694 0.11854791
0.07006175 0.398372 -0.11565686 0.17039217 0.6202595 0.20217296 0.10319879 0.09305368
0.26306394 0.29297978 0.1929685 0.1882654 -0.011500589 0.3902924 0.18021244 0.27378973
0.08944077 -0.03486655 0.32444662 0.20536686 0.1319853 0.0074362494 0.1982183 -0.050864786
-0.21932115 0.6075216 0.041453864 0.09480141 -0.008632773 0.077512674 -0.2928769 -0.07894211
0.1594796 0.013231446 -0.13697363 0.298566 0.19039445 0.24793278 0.23281574 0.07606761
0.11326497 0.17960304 -0.026489358 0.054217715 0.28457397 0.11721426 0.18068497 0.13921005
0.31891575 -0.25630897 0.29433128 0.14300795 0.2615189 -0.0721672 0.24092185 -0.055818696
0.2784514 0.20527492 0.18467371 0.23044118 -0.011951568 0.17646867 0.080443844 0.077190615
0.27425334 0.1451642 0.3549714 0.105514094 0.23032011 0.16981725 0.11816838 -0.074397534
0.32454622 0.9964378 0.12902662 -0.02786692 -0.10939276 0.056474652 -0.13244578 0.15813208
0.26043472 0.2145831 0.13119994 -0.16210437 -0.16092117 0.111380756 0.84289145 -0.16366202
0.22910729 0.035266522 -0.07329637 0.15357132 -0.064992934 0.07874915 0.13987932 0.3550588
0.093859866 0.24062522 -0.10995521 0.076857306 0.18515244 -0.007532299 0.08799058 0.07372526
0.23996931 0.14032471 0.13613276 0.08620692 0.27882728 0.00052347954 0.24720189 0.21272698
-0.23769802 0.3079472 -0.1451835 -0.18272422 -0.17363732 0.23666243 0.115790285 0.3687919
0.0027409992 0.04822931 0.14812897 0.26446077 0.20465837 0.1540473 0.20240417 0.04300827

net.4.bias f4 [7]
00000000: 42b6 ef3d 86ef faba 3175 4c3c 7b6e 15bd
00000010: 4637 363c 875b dcbd 99c9 c03d
0.11704685 -0.001914487 0.0124791125 -0.036482316 0.011121577 -0.10759645 0.09413452
