coup_nsfp/0.95G10kEp0.1to0.02e-4/nfsp_coup_demo_best_agent_block.pt (torch, 84341 bytes, 6 tensors)

net.0.weight f4 [128, 26]
00000000: 9806 073e 1fa6 10be faaf 22be 0d95 83bd
00000010: 10ac 0d3e 22f8 ed3d 6f3d 1a3e 4307 2a3e
00000020: 3f1b d53d ede4 373e b3b9 433e 870e d23c
00000030: 2a5e 613e 0377 6fbd 7953 81bd 6b0d 49be
00000040: c1b6 cb3d 24b2 16be 9a21 3a3d 78b4 013e
00000050: 0324 55be ef2a b3bd 9dcb 3abc 7cd7 013e
00000060: 2ee1 06be f924 e33d 47dd 0fbe cf3c cd3d
00000070: 2e43 0e3e 8d03 8fbe 08f2 573e 86bb a53d
00000080: 5720 f7bd 8b4c aebd 525d 87bc a319 e2bd
00000090: f7a7 5a3e 1e60 863d 7e19 013e 3e1d 17be
000000a0: a6ba ebbd 31e8 173e c0b0 563e b6de 9e3c
000000b0: 7658 07be 88c3 06be 6b21 06be 8131 97bd
000000c0: 4d6a 0c3e ea01 fb3d ba1b 34be df71 fe3d
000000d0: 423e 80be fc95 82bd b224 ab3d 47f7 0bbe
000000e0: d944 1cbd 6599 eb3b bff8 3e3c 0e69 223e
000000f0: fb24 c7bd 9e1c b03d 2fbd 2c3e b49e 12be
00000100: 7b43 233e c095 3a3e 236b c13d f273 633e
00000110: d389 403e 64b6 393d df50 70bd 6d57 cebd
00000120: d848 fabd 5e0c d0bd 3cf5 763d 271f ebbd
00000130: 5034 c63c ae72 6ebe 59c8 16be e12a 46be
00000140: 6010 41be 8a0f c03d d298 20be fd67 293e
00000150: 4661 923d 4440 c5bd b779 453e 5439 acbd
00000160: c92f 65bd f852 e93d 1913 62be 964c 0ebe
00000170: 335f c4bd 530b 14be 8445 c43d 1c7a 8fbc
00000180: 0d1a 30be 53ab 4f3d 3ad0 24bd 8336 9d3c
00000190: 6dc8 da3b 29a1 303e bb88 28bc 85d6 6abd
000001a0: 1fe4 a43d fd33 413e 3cd0 8abe 7057 883d
000001b0: 6f65 2f3d 1274 26be 1d8d 0abd f518 c23c
000001c0: 64a0 443d dadd c73d ac9a c7bc b948 ff3d
000001d0: f1a0 203e 680d 23bd 4b5b 16bd e76e 683d
000001e0: 1669 8e3c cff1 72be fbeb aebb 8fbb 1c3d
000001f0: 0ef0 e8bc 78e0 573d beab 04bc 16e1 2d3e
00000200: 90d4 1fbe cd1d dc3d 8cb3 6abe 8c95 3a3c
00000210: 4855 043e 34e9 ef3c b107 ce3b 8a14 68be
00000220: b19e dd3d 5224 f93d f775 ec3a 8be5 a43d
00000230: 95c1 6bbe bbc2 5b3d 485d 2f3e d734 233e
00000240: 15a4 e13d 944d c43d 7941 ecbd 90dd f0bd
00000250: 0f4b 36be 35f7 2a3e ac50 90be fbe0 183e
00000260: 67cb 32be 8003 883d baa9 b33d bcc3 aa3d
00000270: 5b33 0bbe 6a8c 203e 941d 76bd 2a42 18be
00000280: f95a 06be ad66 073e d409 353e 2582 c43d
00000290: 1be3 183e 30d4 25be 53b7 56bd 7ec3 4fbe
000002a0: 1a90 9f3c 3f11 d13d 06d3 fd3c c43b 35bc
000002b0: 399a a7bd 1f4b 193e bb78 e13d 8926 b0bd
000002c0: cc35 503b dbee 4f3d eebc 98bd a9a7 bf3d
000002d0: 437d cebd ecc4 73be 7453 2d3e f487 eabd
000002e0: 8b12 6d3d b633 13be 3f17 443e 4b19 06be
000002f0: e95f a73d d035 33bd c7e4 dc3d 9d78 263d
00000300: d9d6 46bd 502c 29be a6ce bcbd 2bfb 573d
00000310: 79e7 133e 1d8d 9bbc 0a0f 6cbe 826f 843c
00000320: 7110 2a3e 6d64 b9bc 76ea 973d 439b 8abd
00000330: f45f 193e 6585 163c 1bf4 4d3a b33f 97bd
00000340: 7a3f 9f3d f75b e93d a904 423d 12ac 023e
00000350: 3114 2cbd e82b 4fbd 2b70 363e 3661 aebc
00000360: e296 25bd 117d f43d f14d 083e 0936 f73c
00000370: 01c8 7fbe 1273 d33d 5088 b63d 9597 8cbd
00000380: d828 303d aeb4 63be 9d85 c73d 8dbd 79bd
00000390: 4372 d23c 1b95 18bd 79f9 a9bd 0de5 2d3e
000003a0: 5013 27be e3e0 6b3d 9a93 11be 9627 71bd
000003b0: 6c47 d23c 0b3f 44bd 383e 8bbd c6bc 273d
000003c0: acac 08bd b48f 2c3e f146 09bd e016 54be
000003d0: 04e0 a53c 391b 5ebd 5434 2abe 1137 04be
000003e0: 524b 0fbd 40c4 603e 3968 88bd 04b7 0d3e
000003f0: 21e2 fe3d 687c 8e3d f675 0cbe eb7f 823d
0.13186109 -0.1412587 -0.15887442 -0.064249136 0.13835168 0.11619593 0.15062498 0.16604333
0.104055874 0.17958422 0.19113807 0.025641693 0.22008577 -0.058463108 -0.06314749 -0.19634025
0.09946967 -0.14716393 0.0454422 0.126665 -0.20814519 -0.08748423 -0.011401084 0.12679857
-0.13171837 0.11091036 -0.14049254 0.10021364 0.13892815 -0.27932397 0.21088421 0.08092408
-0.12066715 -0.08510693 -0.01652399 -0.11040046 0.21353136 0.06561302 0.12607381 -0.14757249
-0.1151021 0.14834668 0.20965862 0.019393306 -0.13217339 -0.13160527 -0.13098685 -0.07382489
0.13712426 0.122562245 -0.17588702 0.12424063 -0.250475 -0.063762635 0.083566085 -0.13668548
-0.038151596 0.007189917 0.011655985 0.15860388 -0.0972385 0.08599208 0.16869043 -0.14318353
0.1594371 0.18221188 0.09444263 0.22212198 0.18802576 0.045339957 -0.058670875 -0.10075269
-0.12220925 -0.10158609 0.060292467 -0.11480551 0.024194866 -0.23285934 -0.14724864 -0.19352295
-0.18853903 0.09377964 -0.15683296 0.16543575 0.0714746 -0.09631398 0.19284712 -0.08409372
-0.055953775 0.11392778 -0.22077598 -0.13896403 -0.0958847 -0.14457445 0.095835716 -0.017514281
-0.17197438 0.050700497 -0.040237643 0.019191032 0.0066767246 0.17248978 -0.010286505 -0.057333488
0.08051323 0.18867488 -0.27111995 0.066573024 0.042821344 -0.16255215 -0.033825982 0.023693541
0.048004523 0.09759112 -0.024365745 0.124650426 0.15686394 -0.039807707 -0.036708158 0.05674639
0.017384093 -0.23725055 -0.0053381897 0.038264807 -0.02843478 0.052704304 -0.008097587 0.16980395
-0.1560843 0.107478715 -0.22920054 0.011388194 0.12923157 0.029286005 0.006287538 -0.22664085
0.108212836 0.12165131 0.0018040527 0.08051594 -0.23023064 0.053652506 0.17125428 0.15938126
0.11017624 0.09585109 -0.115359254 -0.1176101 -0.1780207 0.16695864 -0.28186548 0.14929573
-0.17460404 0.066412926 0.08772607 0.083381146 -0.1359381 0.15678564 -0.0600868 -0.1486899
-0.13120641 0.13222761 0.1767953 0.095951356 0.14930384 -0.16194224 -0.052420925 -0.20289418
0.019477893 0.102083676 0.030984413 -0.0110616125 -0.081837125 0.14970063 0.11009356 -0.086011
0.0031770347 0.0507649 -0.074579105 0.093581505 -0.100824855 -0.23805588 0.16926366 -0.11451712
0.057879012 -0.14375195 0.19149493 -0.13095586 0.0817259 -0.04375249 0.10785823 0.04064237
-0.04854474 -0.1652081 -0.092191026 0.052729767 0.14443769 -0.018988186 -0.23052612 0.016166452
0.16607834 -0.022630895 0.07417767 -0.06767895 0.1497801 0.009187077 0.0007856504 -0.073851965
0.07775779 0.11394494 0.047367726 0.12760952 -0.042011444 -0.05057898 0.17816226 -0.021286588
-0.040427096 0.11937917 0.13310982 0.030177133 -0.24978639 0.10324682 0.08912718 -0.068648495
0.0430077 -0.22236893 0.097422816 -0.060971785 0.02568925 -0.037251573 -0.08299536 0.16981907
-0.16315961 0.057587516 -0.14216462 -0.058875643 0.025668822 -0.047911685 -0.06798977 0.040951513
-0.033367798 0.16851693 -0.03351492 -0.20711851 0.02024842 -0.05422518 -0.16621524 -0.12911631
-0.03498394 0.21949863 -0.06660504 0.13839346 0.124454744 0.06957322 -0.13716874 0.06372055

net.0.bias f4 [128]
00000000: 1f41 1e3d a400 3dbe 931f 29be e6b8 c03d
00000010: 5ed4 8cbd 317b ccbd d9ed 303e 41f5 233e
00000020: 7d1b 09be b436 0fbe 75c4 c6bd 28ed 91bd
00000030: 225d 0d3e f570 2e3e ee2b f0bd e715 2d3e
00000040: 543c 56bd e71d 83ba 4e0b fe3d cdb2 3fbe
00000050: a40a 39be d17a b53d 1fc8 3fbd 6382 94bd
00000060: 1906 26be 831e 253e aed4 2cbe cbff 01be
00000070: bb78 c9bd 2b80 1e3e bf4f 8b3d 02d5 d53d
00000080: a401 833d b319 243c 046d 3c3e f1bd 2fbd
00000090: 5571 6dbc 61a5 39be 9929 db3c ed05 0a3e
000000a0: 2316 d9bd 8866 98bd ad30 463e 0d30 12bd
000000b0: cb2b 2b3c b77d 16be 80b1 20be b08c b9bc
000000c0: 05bf e83d dc38 cd3d 1cbe 443e 2858 523d
000000d0: 0f57 08bd 4c85 a83c 935c 2dbd ce9c 43bc
000000e0: 8d2c 23bd c729 82bd 448e 773b 3145 03bd
000000f0: 6574 07bd 847e 39be eb85 abbd 7d68 33bd
00000100: aa13 0c3e 6724 853c 1dd2 04be aadc 303e
00000110: 50ae 1a3e 1188 3bbd 714c 35bd 0768 5e3d
00000120: 7cd3 523d 1b60 ce3a 1443 a23b 5b0f e2bd
00000130: 2974 03be 4052 693d 38ff 2f3d 3ef6 d93d
00000140: 3151 80bd 8eef 75bc 6f29 d7bb 326d 343e
00000150: bed2 1ebe 6924 c6bc 47a0 f43d 20f8 16be
00000160: b5ee acbd dd13 91bc 5212 0c3e 70f2 1fbc
00000170: 05f7 463e 1459 20be 41d8 3bbd 1862 413e
00000180: abac 063e b8b6 4f3e af9b 0fbe 53cd 9b3d
00000190: 37ca b03d 92bb c33d d223 eb3d cd59 033e
000001a0: 85ce 41bd c977 0b3e d8c6 0b3e 8694 173e
000001b0: 464a 333e 8ba4 fd3d 78ea 033c cce2 cb3d
000001c0: 85ff 1cbe 2e22 403e 4b5b 11bc dde8 1b3e
000001d0: 6ce6 1ebe 5c36 283e bc79 6c3d c974 be3d
000001e0: 8022 083e e9d9 aabd c98f 8abd b14b c3bc
000001f0: 3991 0d3c 95a0 b6bd 0626 ccbd a657 183d
0.038636323 -0.18457276 -0.16515951 0.094102666 -0.06876443 -0.099844344 0.17278232 0.16011526
-0.13389392 -0.13985711 -0.0970544 -0.07125312 0.13805059 0.17035277 -0.11727129 0.16902886
-0.052303627 -0.0010003418 0.124045 -0.18720551 -0.18070465 0.08861316 -0.04682171 -0.07251432
-0.16213264 0.1612492 -0.16878006 -0.12695234 -0.09837481 0.1547858 0.0680232 0.10441019
0.06396797 0.010015893 0.18400961 -0.04290575 -0.0144923525 -0.18129493 0.026753234 0.13478823
-0.10599925 -0.07441431 0.19354506 -0.035690356 0.010447453 -0.14696394 -0.15692711 -0.022650093
0.11364559 0.10020611 0.19213146 0.051353604 -0.03328615 0.020571373 -0.042324614 -0.011939241
-0.03983741 -0.06355625 0.0037774006 -0.032048408 -0.033069987 -0.18114668 -0.08375152 -0.04380082
0.13679376 0.01625271 -0.12970777 0.17271677 0.15105557 -0.04578406 -0.044262353 0.054298427
0.05147122 0.0015745194 0.004951844 -0.11038085 -0.1283728 0.056963205 0.042968005 0.1064267
-0.06265486 -0.015010728 -0.0065662186 0.1761978 -0.1551008 -0.024187284 0.11944633 -0.1474309
-0.08443967 -0.017709667 0.13678864 -0.009762391 0.19430168 -0.1565898 -0.045860533 0.18885076
0.13151805 0.20284545 -0.14024232 0.07607522 0.086323194 0.095572606 0.114814416 0.12827225
-0.047316093 0.13619913 0.13650072 0.14802751 0.17508802 0.123849 0.008051507 0.099553674
-0.15331848 0.18763039 -0.008871864 0.15225549 -0.15517586 0.16426986 0.057733282 0.09299619
0.1329441 -0.08342344 -0.06765706 -0.023839803 0.008640581 -0.08917347 -0.0996819 0.037192963

net.2.weight f4 [128, 128]
00000000: 1479 883d 42fa e8bd e477 1ebc d77b 83bd
00000010: 773d 223c 42a4 843c 3c50 303c 8665 acbc
00000020: 059d 0f3d 0b1f c43c ebb2 17bc aae3 0cbc
00000030: e9f0 84bd cc17 1cbd 2991 77bd 5432 b53d
00000040: a230 a43d cb78 74bd 99e4 e8bb bb3f 90bc
00000050: 0fa6 b93c 8dbf e6b9 f6a7 86bc 9c47 bb3d
00000060: d686 85bc 44be 8d3d ac87 32bb 75f1 4c3c
00000070: 1625 43bd 0e74 3d3a 1db9 1ebd ce96 223d
00000080: 246e 81bd 939f 1c3e 8d51 80bd ceb2 9fbd
00000090: 3008 7cbd 399d 3c3c de81 46bc 7a5b 523d
000000a0: e52f 5e3d d9ef 58bd 79be 16be 0d94 62bc
000000b0: 8c2d 1d3d a3c2 3e3b 5032 583d 370d 513d
000000c0: d967 2e3d dfe6 883c cdba 113d c901 813c
000000d0: 22e3 3d3d 2a75 daba c423 d03c d2f6 d4bc
000000e0: 9ff1 eabd 1166 ca3d 603e 893d 3ebc 06bd
000000f0: d006 1dbe 959b c23b 9e9c b23d 7c17 3dbd
00000100: 5e78 733d ec17 b33d d0ef 043e c62f 8ebd
00000110: 7e62 41bc 37f7 923d 3701 073c dbc8 37bd
00000120: cb14 8e3d f188 4cbb 1e9c b73c c3aa b5bd
00000130: 9d81 84bc fc5f acbd 6c16 e33d 5793 f63c
00000140: 594c 82bd 4d64 25bc 6b4f 93bd 722f d93c
00000150: fa2d 50bd ace3 1cbd fcd9 733c af52 72bd
00000160: 40a5 dfbc 3f87 c83d 4106 b83c 0397 26bd
00000170: f5b5 0abc 0dca 71bc 5184 1cbe d42a 39bd
00000180: f26d a33b d314 05bd 6a6c 4a3c b83d bdbc
00000190: 3ace 033d 497c 063d 7946 aa3d 33cc a73d
000001a0: cf33 16bd 0827 ddbd 18de a4bd e486 b53c
000001b0: 5187 b53d 579a 8ebd e3b2 553d 34fc d5bc
000001c0: 98fd 86bc 182c af3c 043d b8bd 6785 89bb
000001d0: c1e5 f13d abc9 bb3d 68d6 8e3c e512 c1bc
000001e0: ff6c 85bd 6ef4 b1bd bd5e 7ebd eac1 8e3d
000001f0: ded1 f3bc 82e8 a3bd 91e1 753d a7f1 4cbd
00000200: 6d72 8abc 5c23 383e 1073 e23d 00de 893d
00000210: 7e68 6d3d a74f 38bd 95b0 b53d 8eb4 103e
00000220: 0a37 be3d 48d4 71bd 587f 7a3d 9d70 463d
00000230: 0a4d 153d 816a a43c 0e6f b8bd a4ff 4f3d
00000240: a4dc e3bd 3f45 b8bc 6bbd 3fbd f6a5 f93c
00000250: b2a7 973c beb8 efbc ac71 bbbd e35e 16bd
00000260: d025 063d d35f aebd 74e5 2a3d 0c3c d03a
00000270: eec9 2bbe 3250 85bd 22d0 043e 4030 91bc
00000280: 556f 7c3d 1aba 6dbd fa81 b8bc 3557 44bd
00000290: 6165 efbc 3c7a 3ebb 5b9e e4bc b3e0 223d
000002a0: 4134 133d 8968 6c3d 8e09 e33d b379 773d
000002b0: 467e 613d 652f 143d 1a5f 85bd 152c 023d
000002c0: 624c f33b 28e6 313d 4aad 403d 6535 e43b
000002d0: 77ba 203d 8f2c 58bc 0443 503d 2297 573d
000002e0: a6ac 8a3b 6059 bcbd cd06 6c3c 6844 be3d
000002f0: ec4f 2a3e 6836 71bc 388c 53bd b022 97b9
00000300: 44a5 ecbd 59f8 72bd 99b0 cb3c 2155 2b3d
00000310: 6999 ba3c 416c ae3d 2332 d43d 76d3 7b3d
00000320: 259f 653d 464c eb3d 99db 96bd 1b57 7b3d
00000330: 0497 223c 1854 bb3b 7cca 9a39 cda4 99bd
00000340: 3058 a33d 06b1 64bc cc2f a63d 1827 4e3d
00000350: 875c be3d a89a b9bc 9539 08bc fb03 99bc
00000360: 5d38 2ebe 797e 3f3c f469 1cbd 1e12 f3bc
00000370: 7d2c 873d 7390 a13c 479b 853d 8fb6 a4bc
00000380: f256 e73d b9fb dbbc 1675 ae3b 9b1d e43c
00000390: 6fb8 7abc 9f8d b9bd a095 6e3d 29a5 92bd
000003a0: d330 3d3d c398 ea3d 5f01 3cbc c6db 3fbd
000003b0: ca65 91bd 9fd5 b53d d7d9 52bd a594 373d
000003c0: 3f04 3c3a 5758 ca3b c628 b7bb f5f4 5abd
000003d0: 95ee 673d e3ea b33c 6b56 03be 0350 243d
000003e0: fb2b 34bc 7904 54bc 56ca d8bd 66de d73c
000003f0: d62e 90bc bd1b 65bc 152c a8bc c84d ae3d
0.06663719 -0.11375858 -0.009672139 -0.06420105 0.00990235 0.016191605 0.010761317 -0.021044504
0.035061855 0.023940584 -0.009258966 -0.008599201 -0.064912625 -0.038108632 -0.06044117 0.0884749
0.080170885 -0.05968551 -0.007107329 -0.017608514 0.02266219 -0.00044011735 -0.016437512 0.09144518
-0.016299646 0.06921056 -0.0027241511 0.01250874 -0.04764279 0.00072270713 -0.038750757 0.0396946
-0.06319836 0.15295248 -0.062655546 -0.07797776 -0.061531246 0.011512094 -0.012115924 0.05135677
0.054244895 -0.05296311 -0.14721097 -0.013829243 0.038373515 0.0029107712 0.052782357 0.051037993
0.042579506 0.01671165 0.035578538 0.015747922 0.04635919 -0.0016666998 0.02540768 -0.0259966
-0.11471867 0.09882749 0.0670135 -0.032894365 -0.1533463 0.005938957 0.087212786 -0.046164975
0.059440963 0.08744797 0.12982106 -0.06942706 -0.0118032675 0.07176059 0.008240036 -0.044869285
0.0693756 -0.0031209553 0.02241331 -0.08870461 -0.016175086 -0.08416745 0.11088261 0.030099554
-0.063622184 -0.010094714 -0.07192882 0.026511882 -0.050825097 -0.038303062 0.0148835145 -0.059160884
-0.027300477 0.09791421 0.02246392 -0.04067136 -0.0084662335 -0.014757645 -0.1528485 -0.04520686
0.0049874717 -0.032490563 0.0123549495 -0.023100719 0.032179095 0.03283337 0.08314223 0.08193245
-0.036670502 -0.1079846 -0.080501735 0.022159047 0.088637 -0.06963032 0.052172553 -0.026121236
-0.016478345 0.02138333 -0.08996013 -0.004196811 0.118114 0.091693245 0.017436221 -0.02356858
-0.0651493 -0.086891994 -0.06210207 0.0697058 -0.029763158 -0.08003332 0.06002957 -0.050035145
-0.016900266 0.17982239 0.11057103 0.06731796 0.05796098 -0.044997837 0.08871571 0.14131376
0.092878416 -0.059040338 0.0611566 0.04844724 0.036450423 0.020070316 -0.09005557 0.050780907
-0.11126068 -0.022493957 -0.046811502 0.030474644 0.01851258 -0.029262897 -0.091525406 -0.036711585
0.032750905 -0.08514371 0.04172273 0.0015887036 -0.16776249 -0.06509437 0.12970021 -0.017723203
0.061629612 -0.05803881 -0.022522915 -0.04793473 -0.029223146 -0.0029064557 -0.027907541 0.03976507
0.035938505 0.05771688 0.11085807 0.060418796 0.055052064 0.03617801 -0.0651228 0.03178032
0.007424877 0.043432385 0.04704026 0.006964373 0.039240327 -0.013194217 0.05084516 0.052634366
0.004232007 -0.091967344 0.014405918 0.09290391 0.1663205 -0.014722444 -0.051647395 -0.0002882681
-0.115549594 -0.059318874 0.024864482 0.041829232 0.02277823 0.085167415 0.10361125 0.06148096
0.056059975 0.114891574 -0.07366104 0.061362367 0.0099237 0.005716812 0.00029524032 -0.075021364
0.07975805 -0.013958221 0.08114585 0.05033025 0.09294992 -0.022656754 -0.00831451 -0.018678656
-0.17013688 0.011687868 -0.038186982 -0.029671725 0.06600282 0.019722199 0.065237574 -0.020106582
0.112958804 -0.02685343 0.0053240163 0.027846148 -0.015302761 -0.09060215 0.058248162 -0.07160408
0.04618914 0.11454918 -0.011474936 -0.04684045 -0.07099493 0.088786356 -0.05147728 0.044819493
0.00071722636 0.0061750817 -0.0055895774 -0.053456265 0.056624014 0.021962589 -0.12825935 0.040115368
-0.010996814 -0.0129405195 -0.105854675 0.026351165 -0.017600458 -0.013983664 -0.020528832 0.08510929

net.2.bias f4 [128]
00000000: 0c02 b63d 6f1f 7ebd 462d 31bd b079 7c3d
00000010: f051 293c afd9 94bd 7977 0ebc fc96 423d
00000020: b983 ac3c 026e 6c3d 1e49 413d 0eba 413c
00000030: c632 103d 88bb 8f3d 950f 26b8 cd46 8e3d
00000040: 2403 82bd c373 fabc 7c92 373d f845 c1bc
00000050: 1f67 f9bc f679 89bd 1a13 b0bd dda3 72bd
00000060: aae7 863c e77d 3a3c 4e9e 83bc 3371 12bd
00000070: ac1c 933d 6bde 9f3d 99d7 693d 3f1a a43d
00000080: 6ce1 8e3d 911a cdbc 2f79 11bd 81ff bc3d
00000090: 6ca9 8cbd 1c69 4f3d 09d8 dc3a 7f1e e8bc
000000a0: 0f79 1cbd 3792 78bd 0e2e 403d dee1 983d
000000b0: 7297 e03c 12ca 0abd d850 2b3d 1d3c ad3c
000000c0: d27f 713d 473e acbd c7d1 96bd b7ae bb3d
000000d0: 38a1 d43b 45ad 523d a08c 8d3d 34a2 e63b
000000e0: f1cf 18bd 933c 55bc d585 863d 5953 c73b
000000f0: 330f ab3a c153 9fbd 3e50 a2bc 660a 86bd
00000100: feff 4ebd 1e9c 40bd 5722 c43c e67d 3b3d
00000110: 8150 28bd 7b3d 883d 20be 04bd 877e 28bd
00000120: 5ddb 833d e91c 963c cdef 993d 359d 773b
00000130: ea78 c83c 8463 c73d 7fec 24bc b207 aabd
00000140: 62a9 c1bb 8087 313d 9951 c43c 6a9f 553d
00000150: 9cc3 953d 657e 783c b27f 223b 6472 4dbd
00000160: 939a 3fbd 6bfc 0ebd 60f6 9dba dce1 47bc
00000170: 1619 9a3d af23 283d 8ed3 b03d 372e fcbc
00000180: 2b58 22bd 7147 8e3d 4e66 433d c51d 93bd
00000190: 7f28 0a3c 14e7 7d3c 1a66 7bbc 43ef 0ebc
000001a0: 2e34 7abc 4161 a9bd 5066 993d a184 cd3c
000001b0: 5307 aa3d a447 d93c 85ce 41bc bfde a73c
000001c0: e0a6 83bd 62d0 843c 018e 3b3d 4e12 54bd
000001d0: 5ad3 82bd 3c4b 4abc c27d 813d 4f65 1bbd
000001e0: 595e 80bd 3d19 0cbc a5a6 0f3d ddcc cf3a
000001f0: 0e05 8abc a691 0c3d 1782 273d c5df 3f3b
0.08887109 -0.062041696 -0.043256067 0.061639488 0.010334477 -0.07268082 -0.008695477 0.04750727
0.021058904 0.0577221 0.04718887 0.011824144 0.03520467 0.070181906 -3.9591996e-05 0.06947098
-0.06348255 -0.030572778 0.044817433 -0.023592934 -0.03044468 -0.06712715 -0.08597393 -0.059238303
0.016467888 0.0113825565 -0.016066696 -0.035752486 0.07183203 0.07806095 0.057090376 0.080128185
0.069765896 -0.025037082 -0.03551596 0.09228421 -0.06868252 0.05063735 0.0016849051 -0.028334854
-0.038201388 -0.060686316 0.04691892 0.07464956 0.027415965 -0.033884116 0.041825145 0.021146828
0.05895979 -0.08410316 -0.073642306 0.091641836 0.0064889453 0.051434774 0.06911588 0.007038379
-0.037307683 -0.01301493 0.06568495 0.006082934 0.0013050794 -0.07779647 -0.019813653 -0.06544952
-0.050537102 -0.047023885 0.023942156 0.045774363 -0.0410924 0.066523515 -0.03240788 -0.04113629
0.064383246 0.018324332 0.075164415 0.0037782912 0.024471719 0.09735778 -0.010066151 -0.08302249
-0.0059100846 0.043342113 0.02396469 0.052153982 0.073127 0.015166854 0.002479535 -0.05015792
-0.046778273 -0.034908693 -0.0012051575 -0.012199845 0.07524316 0.041049656 0.08634101 -0.030783756
-0.039634865 0.0694722 0.047704987 -0.071834125 0.008432507 0.015496988 -0.015344167 -0.008724037
-0.01527123 -0.08270503 0.07490218 0.025087656 0.08302178 0.026523419 -0.011829023 0.020491956
-0.06428313 0.016212646 0.045789722 -0.05177527 -0.06387968 -0.012347039 0.063228145 -0.037938412
-0.062679954 -0.008550939 0.035071034 0.0015853901 -0.016848113 0.03431859 0.040895548 0.0029277664

net.4.weight f4 [2, 128]
00000000: 1c0d 7a3d a45d 99bd bc82 acbd 865b d2bd
00000010: c088 16be 9f50 fdbd d112 1a3e 015e e23d
00000020: 1fd8 ebbd 3ea9 043e fda6 e3bd b725 20bd
00000030: 554c 9fbd de92 e13c 8b0f a9bd 50f9 03be
00000040: f1d9 d13d 1a8b a33d 04ef e7bc 1d5d 333e
00000050: 756a 5c3d f7b6 163c 533d b7bd d9be d6bd
00000060: 6183 a8bd 1ad1 663d 33a9 3bbd 532f d43d
00000070: 1c05 f3bd ba44 8abd f390 95bc 813d 0abe
00000080: a887 d6bd d9c1 003e c757 0fbe 3493 66ba
00000090: 7046 8bbd 78bd 213e b249 2c3c 4f1c 203e
000000a0: 15aa 10be 3657 3b3e 132e 143e 594c 963c
000000b0: c967 ce3d cc8e 3e3e 7553 ab3c 79ac d6bd
000000c0: d52d 433e ff27 9dbd 22f4 1cbe 5f3d f03d
000000d0: af12 a1bd fcdc 423d b5d1 f9bd 8447 483d
000000e0: 2b5d ac3d 79b0 c43d 66db 673d e60e 083e
000000f0: e8ea 2c3e 205e f43d 6484 a33d 3f0c 003e
00000100: ce54 ec3d 86fc cc3c 589e fa3d 27fc 2fbc
00000110: 1cf1 a13d 10cc a93c f4fe 4abe b62a f43c
00000120: 6543 ac3c 4166 9fbd b049 3dbe e5ef d03d
00000130: 0646 c1bd fa6f 013e fe43 6fbe 915a a13d
00000140: 1cc8 0d3d a5bd 95be 5943 f73d a0e7 dabd
00000150: 0338 8bbd 25b3 2abe 6d9d 9fbc 642a 4ebe
00000160: ef1b 30be 4ab5 7abc afc9 b03c 7a37 763d
00000170: 28d2 253e da53 2fbe 9f51 223d 3a99 533e
00000180: c6d9 ebbc 4a25 1f3e dda2 0a3e 1a54 b9bd
00000190: caa5 803e 2522 e93c fd83 febd f810 073e
000001a0: 34c6 31be 4fd5 02be b383 be3d fabe 1f3e
000001b0: 1156 373b 9c65 f0bd 75cd 4c3c 9005 803d
000001c0: 241d 9dbd cc28 173d 5be4 f93d 257f 433e
000001d0: efd0 013e c4f2 813e 797f 9d3d 04f8 183e
000001e0: 9946 503e 7813 df3d f205 83be 7687 3c3e
000001f0: a3b6 b8bd 9011 2abe 9ed5 18be 2e5f 4bbd
00000200: 28c2 2bbc 3d83 263e 221f 04bd 804e df3d
00000210: 785a 313e 5aa7 133e 0ff1 2a3c 8457 0f3c
00000220: ad22 cd3c 0b7a 0fbe 3938 e03d 3c5f 303e
00000230: 23d6 4d3e cbdd 9f3d 734a d63d c118 fd3d
00000240: e28c 32be cdf9 71bd b34f 923d 7bd4 14be
00000250: 72f4 a3bd c35d b5bd 4be9 433e d5a1 f93d
00000260: 8ef4 293e 9c92 08be 230b fc3d 5228 36be
00000270: 13df ae3d 2c43 043e 867a 743d 181b fd3b
00000280: 6973 1b3d 79e7 98bd 286f be3d 7fba 0d3e
00000290: d236 d73d 0182 80bd 65c8 3cbe 8ae4 45be
000002a0: 54b9 403c 9af4 59bd a9a4 88bc 6027 13be
000002b0: a9c8 73bc b052 5fbe 6c8b bf3d 44b7 a93d
000002c0: 00d2 5bbe 1635 31bc c66f bd3b c3a6 bbbd
000002d0: 1be2 353e ec1c aebd 3a41 123e fcd5 adbc
000002e0: 956f 66bc 0fa4 543d 2603 3e3c 901d 48be
000002f0: 3808 4fbe 40be 12be 8568 973c ce3d efbd
00000300: c8d7 13bd cf6f 03bd 3f19 8fbd 9fcd 61bd
00000310: d5de 12be 3ce8 1fbe 6ac8 983d 1aae f2bd
00000320: 0c27 b1bd fd0b 473d 5624 1f3d 4d28 d4bd
00000330: 4076 963d ecf1 44bd c45b 373e 9543 d4bd
00000340: eb83 07be e677 3e3e 2461 2cbe d01b 7c3d
00000350: 1631 ec3c fbff f43d 5e47 e73d 4e40 2b3e
00000360: 60cd 623e 29df ee3d a78f a0bd e4da 4cbd
00000370: 658f ddbd 90b3 7e3d 87f9 52bd c197 44be
00000380: 5f0f cf3d b891 92bd 9e4c 35be cf44 0e3d
00000390: d540 43be 96af dabd 87b2 923d ffde 00be
000003a0: aeca 4a3d d921 183e b293 7c3c 47c6 48be
000003b0: bfe9 f23d 3e85 3d3e f095 b4bd 9884 0dbd
000003c0: 37e0 663d dd76 a6bd b2be 16be 1c47 5bbd
000003d0: 4b68 dcbc ad02 33be 198e 11bc 3e8c 36be
000003e0: 1701 1fbe 3f7e 9dbc 71ff 5b3e 0482 47be
000003f0: dd57 373e bb1f cb3d 9f0e a63d 665c 023e
0.06104766 -0.07488564 -0.08423373 -0.10271363 -0.14700603 -0.12368893 0.1504624 0.11053086
-0.11515831 0.12955186 -0.11115835 -0.039098468 -0.07778231 0.027535852 -0.08254918 -0.12888074
0.10246647 0.07985516 -0.028312214 0.17515989 0.053812463 0.009198896 -0.089472435 -0.1048562
-0.082281835 0.05635176 -0.045815658 0.10360589 -0.11866209 -0.0675139 -0.018257594 -0.13500024
-0.10475093 0.12573947 -0.13998328 -0.00087957387 -0.06800544 0.15794933 0.010515617 0.15635799
-0.14127381 0.18294987 0.14470701 0.018346952 0.10078389 0.1860916 0.020913819 -0.10482115
0.19060452 -0.07673644 -0.15327504 0.117304556 -0.07864892 0.04757403 -0.121982016 0.048896328
0.08416208 0.09603972 0.05660572 0.13286933 0.16886485 0.119320154 0.07984236 0.12504672
0.11539613 0.025022756 0.12237233 -0.01074127 0.07907316 0.020727187 -0.1982382 0.029805522
0.02102823 -0.07783175 -0.18485141 0.10202006 -0.09437184 0.12640372 -0.2336578 0.07878602
0.034614667 -0.2924625 0.120733924 -0.1068871 -0.06797793 -0.166699 -0.019484246 -0.20133358
-0.17198156 -0.015302012 0.021580545 0.0601115 0.1619345 -0.1712183 0.03962862 0.2066392
-0.028790366 0.15541568 0.1353869 -0.09049244 0.25126487 0.028458664 -0.124275185 0.13190067
-0.17360765 -0.12776683 0.093024634 0.15600196 0.0027974884 -0.117381305 0.012500157 0.06251061
-0.07671574 0.03690414 0.122017585 0.1909147 0.12677358 0.25380528 0.07690329 0.1493836
0.20339431 0.10892385 -0.25590473 0.18411049 -0.0901921 -0.16608262 -0.14925238 -0.049651317
-0.010483302 0.16261001 -0.032256253 0.109036446 0.17319667 0.14419308 0.010433449 0.008748893
0.025040949 -0.140114 0.109482236 0.17223829 0.20101218 0.078059755 0.10463419 0.12358237
-0.17436555 -0.05907612 0.07144108 -0.1453418 -0.080056086 -0.08855774 0.19131963 0.1218907
0.16597196 -0.13337177 0.12306812 -0.17788818 0.08538642 0.12916249 0.05968716 0.007724177
0.03795186 -0.07466025 0.09298545 0.13840674 0.10508503 -0.06274796 -0.1843582 -0.19325462
0.011762936 -0.053211786 -0.016680079 -0.14370489 -0.014879384 -0.21808887 0.093527645 0.08286908
-0.21466827 -0.010815879 0.0057811467 -0.09162667 0.17762034 -0.0850161 0.14282694 -0.0212202
-0.014064689 0.05191427 0.01159743 -0.19542527 -0.20217979 -0.14330387 0.018482456 -0.1168171
-0.036094457 -0.03208905 -0.06987237 -0.055127736 -0.14342816 -0.15615934 0.07460101 -0.118496135
-0.08650026 0.048595417 0.038853012 -0.10359249 0.07346773 -0.048082277 0.179061 -0.10364453
-0.13233916 0.18600425 -0.16833931 0.06154996 0.028832 0.11962887 0.11292909 0.16723749
0.22148657 0.11663658 -0.078398995 -0.050013438 -0.10818366 0.062182963 -0.0515075 -0.19198515
0.10110354 -0.071567 -0.17705008 0.03473359 -0.190677 -0.106780216 0.07162958 -0.12585066
0.049509697 0.14856662 0.015416073 -0.19606887 0.1186099 0.18507859 -0.08817661 -0.03455028
0.05636617 -0.0812814 -0.14721182 -0.053534612 -0.0269052 -0.1748149 -0.008883976 -0.17826936
-0.1552776 -0.019225238 0.21484162 -0.19483191 0.17904611 0.099181615 0.081082575 0.1273056

net.4.bias f4 [2]
00000000: 3685 85bd bad9 503d
-0.065195486 0.05098889
