coup_nsfp/0.95G10kEp0.1to0.02e-4/nfsp_coup_demo_best_agent_avg_strategy.pt (torch, 86473 bytes, 6 tensors)

net.0.weight f4 [128, 25]
0.15362012 -0.039293807 0.31782582 0.0734979 -0.14878592 0.10065052 0.15860449 0.2237704
-0.17635041 -0.033120696 -0.20113002 -0.2106115 0.34156847 -0.023208952 0.012036906 0.025897838
-0.3666095 -0.11800676 -0.04564915 0.118045636 -0.15883167 -0.22077483 0.11229903 0.15485737
-0.15387182 0.05187761 0.09466205 0.0900326 -0.18027753 -0.09261016 0.33711702 0.011161041
-0.13066088 0.26220885 0.1074908 0.2636931 -0.06880892 -0.09196953 -0.12404783 -0.24193197
0.14961334 -0.072991915 0.09765565 0.0743938 0.2930228 -0.24936081 -0.59163254 0.16986908
0.110644214 0.25214735 0.123402975 -0.05972099 -0.055010226 0.14374888 0.24667835 -0.0051160827
-0.24611033 0.21198492 0.018708019 0.05067442 0.058299195 0.06630793 -0.20877594 -0.17526367
-0.1291983 0.185236 -0.032718852 -0.3668934 -0.061018754 -0.03975851 -0.03434352 0.12794165
0.29041326 -0.3762738 0.21305689 0.063997254 0.1979334 0.05654486 0.19925918 -0.04000676
0.053709667 -0.3800074 -0.16591993 0.22119698 -0.18661682 -0.045317963 -0.11652309 0.1664482
-0.11770973 -0.30753505 -0.17064701 0.033237047 0.13569431 -0.1529073 0.39977142 -0.009861558
0.016438967 -0.33571276 0.046571355 0.031691354 0.10595016 -0.06858224 -0.31741282 -0.22967671
0.002374548 -0.25083548 0.14717521 0.06559931 -0.0015457293 0.3480936 -0.40599078 0.20584892
0.22986741 0.0021196604 -0.00563015 0.035431672 -0.039531536 0.20540899 -0.18263559 0.1835899
0.1200813 0.07803978 0.057476956 0.10377028 0.010928028 0.149028 0.06987961 -0.042354893
-0.01381106 0.28756592 0.2787889 -0.05787526 0.14293504 0.0043875864 0.27175716 -0.019698538
-0.00068105507 -0.16629665 0.1370755 -0.018678674 -0.013945071 -0.37556383 0.05630005 -0.10623467
-0.19931069 -0.09570697 -0.17120431 -0.392051 -0.02406168 -0.18771826 0.050649885 -0.06976421
0.23297654 0.08771192 -0.36501348 0.33825994 -0.029491825 -0.019954208 0.09715695 0.124321215
-0.1621147 -0.24792382 0.16266894 -0.115086436 0.15185906 0.00966595 -0.071040064 0.03788997
0.19379817 -0.2459115 0.17999305 -0.0010165941 0.26114863 0.16037121 0.23511292 0.093132734
-0.13928601 0.15381165 -0.33193186 -0.28582144 0.14458825 -0.083295286 -0.22240412 -0.18784292
0.2855388 0.25234777 0.18793166 -0.047841325 0.073902585 0.022045836 -0.43693683 -0.27715534
-0.24810421 -0.12225454 -0.16407807 0.11287924 0.20759097 0.30952406 0.031630535 -0.0012379682
-0.5974148 0.008485862 -0.3333013 -0.16567552 0.053692903 0.05212306 -0.0728491 -0.187944
-0.12268044 0.0018970968 0.102085784 -0.397966 -0.123293355 0.17277768 0.03248177 0.024325985
-0.03154852 0.16041979 0.14681621 0.19143996 0.19822408 0.23993047 0.17499588 0.20891692
0.07767026 -0.29827386 0.008228077 -0.21359554 0.010261995 0.1334058 0.019399079 -0.27221698
0.08348636 0.077682674 -0.37709782 0.32509345 -0.01994542 -0.119082004 0.1293251 0.28001115
0.17791238 -0.11886618 -0.0010190771 -0.10479181 -0.24296011 -0.3562263 0.019790826 0.06277869
0.06744735 -0.100283295 -0.35229924 -0.10342458 0.06701847 0.0323143 -0.03139925 0.5406007
00000000: 984e 1d3e 8bf2 20bd 11ba a23e 1186 963d
00000010: 565b 18be dc21 ce3d 3769 223e 1124 653e
00000020: 3495 34be 91a9 07bd 07f5 4dbe 8baa 57be
00000030: 10e2 ae3e b320 bebc 7136 453c b427 d43c
00000040: 3eb4 bbbe 87ad f1bd 9afa 3abd e9c1 f13d
00000050: c5a4 22be cc12 62be 09fd e53d ee92 1e3e
00000060: 9390 1dbe 9e7d 543d 2dde c13d 0363 b83d
00000070: ac9a 38be 65aa bdbd 9a9a ac3e cddc 363c
00000080: f7cb 05be 3d40 863e 2324 dc3d c802 873e
00000090: b1eb 8cbd 855a bcbd ca0c febd 04bd 77be
000000a0: 3d34 193e c97c 95bd afff c73d c75b 983d
000000b0: 1607 963e 7158 7fbe 3b75 17bf 29f2 2d3e
000000c0: 6f99 e23d 7519 813e b3ba fc3d ff9d 74bd
000000d0: 6752 61bd e832 133e 4099 7c3e d0a4 a7bb
000000e0: 5904 7cbe 9312 593e 8f41 993c fb8f 4f3d
000000f0: 23cb 6e3d 74cc 873d 5cc9 55be 5278 33be
00000100: 8f4c 04be 82ae 3d3e 3404 06bd 74d9 bbbe
00000110: cdee 79bd d2d9 22bd caab 0cbd 2303 033e
00000120: 0cb1 943e f6a6 c0be 962b 5a3e fe10 833d
00000130: 0eaf 4a3e 959b 673d 990a 4c3e 21de 23bd
00000140: abfe 5b3d 5490 c2be eae6 29be 7681 623e
00000150: 7b18 3fbe 549f 39bd a8a3 eebd 6671 2a3e
00000160: cd11 f1bd 3c75 9dbe 17be 2ebe 9223 083d
00000170: 73f3 0a3e bb93 1cbe d7ae cc3e 5f92 21bc
00000180: 03ab 863c 8be2 abbe 9bc1 3e3d cbce 013d
00000190: 66fc d83d d874 8cbd ef83 a2be 5f30 6bbe
000001a0: 4e9e 1b3b 826d 80be 19b5 163e ee58 863d
000001b0: 129a caba 5339 b23e 06de cfbe 0fca 523e
000001c0: 5d62 6b3e 00ea 0a3b 1f7d b8bb cd20 113d
000001d0: d2eb 21bd bc56 523e d304 3bbe fefe 3b3e
000001e0: 2fed f53d 52d3 9f3d f56c 6b3d 8385 d43d
000001f0: 790b 333c cc9a 183e 0a1d 8f3d 537c 2dbd
00000200: c947 62bc d73b 933e 6bbd 8e3e 9c0e 6dbd
00000210: 905d 123e bec5 8f3b c123 8b3e d45e a1bc
00000220: d588 32ba ab49 2abe 855d 0c3e 0504 99bc
00000230: de79 64bc e749 c0be e29a 663d 9091 d9bd
00000240: 1a18 4cbe 0402 c4bd 2f50 2fbe e9ba c8be
00000250: 001d c5bc 3739 40be 4176 4f3d 8ae0 8ebd
00000260: 6791 6e3e 4fa2 b33d 0ce3 babe 6830 ad3e
00000270: d798 f1bc 0277 a3bc 39fa c63d 1f9c fe3d
00000280: 6501 26be bedf 7dbe b092 263e 70b2 ebbd
00000290: f180 1b3e ef5d 1e3c 747d 91bd 8332 1b3d
000002a0: 0773 463e 39d0 7bbe 1950 383e 3d3f 85ba
000002b0: 46b5 853e 5a38 243e 71c1 703e 60bc be3d
000002c0: fea0 0ebe cd80 1d3e f9f2 a9be 3057 92be
000002d0: f10e 143e b896 aabd e8bd 63be e559 40be
000002e0: 2432 923e ba33 813e 2871 403e 44f5 43bd
000002f0: 3d5a 973d 7899 b43c 2fb6 dfbe 4ee7 8dbe
00000300: 080f 7ebe 9760 fabd 1504 28be 3b2d e73d
00000310: ba92 543e f079 9e3e 058f 013d 5243 a2ba
00000320: 2df0 18bf 4908 0b3c 78a6 aabe d8a6 29be
00000330: 17ed 5b3d fd7e 553d e931 95bd 6474 40be
00000340: e23f fbbd 01a8 f83a 5a12 d13d 33c2 cbbe
00000350: 3a81 fcbd a2ec 303e 9b0b 053d 4a47 c73c
00000360: 0539 01bd 1645 243e fd56 163e d608 443e
00000370: 41fb 4a3e 55b0 753e 1f32 333e 51ee 553e
00000380: 9611 9f3d 5ab7 98be 0ecf 063c cab8 5abe
00000390: ed21 283c 889b 083e d1ea 9e3c 0660 8bbe
000003a0: e6fa aa3d 1818 9f3d f712 c1be a672 a63e
000003b0: 9464 a3bc 44e1 f3bd cd6d 043e 9f5d 8f3e
000003c0: aa2e 363e 1d70 f3bd 8e92 85ba 179d d6bd
000003d0: 89ca 78be 4b63 b6be 5f20 a23c 1d92 803d
000003e0: d621 8a3d 5461 cdbd 9160 b4be 44d0 d3bd
000003f0: fb40 893d 005c 043d 809c 00bd cf64 0a3f

net.0.bias f4 [128]
0.11299656 0.09317948 0.132658 0.16855352 0.0729683 -0.19279496 -0.1237683 0.14590713
0.23957919 -0.078822136 0.037107084 -0.018224731 -0.0042253397 0.0223304 -0.0003829438 0.12394554
0.12852271 -0.16253637 0.0074333153 0.072698414 -0.049078632 -0.106913574 0.02103076 -0.0647238
-0.1524615 -0.08836062 -0.113060296 0.13289078 -0.12266005 -0.11011638 0.18134965 -0.12039912
-0.11618939 -0.07293041 -0.075076476 0.19375193 -0.047123026 0.14935596 -0.07598134 0.13445097
0.0072933235 0.00525237 -0.12051962 0.07818776 0.03327819 0.19817895 0.21702278 0.15207773
-0.045457907 0.11424294 0.1821603 -0.06397625 0.2439986 0.049925763 -0.067445435 -0.1250433
0.22774568 -0.10166409 0.15403643 0.016563313 0.17728116 -0.09757287 -0.09553621 -0.10565769
0.0046106996 0.015098479 -0.042813603 0.18898349 0.044362973 -0.12502714 -0.011944846 -0.07953933
0.12519613 0.14593337 0.13246827 0.020933945 0.03643254 -0.031040182 0.1491441 0.047287837
0.10151864 0.11847455 0.06203642 0.16789804 -0.12715799 0.24215348 -0.025783734 -0.012623601
-0.056546126 -0.02959323 -0.029943325 -0.12904328 0.063252054 0.1864847 0.2288999 -0.12678654
-0.10069394 0.22671802 -0.10435102 -0.12406556 0.017942984 0.07105091 0.12288636 -0.14208758
0.20956615 -0.06303645 0.13589919 0.0033924417 0.17962159 -0.03104402 -0.06711522 -0.18474135
-0.0973618 0.16820832 -0.14158039 0.18789828 -0.12565397 0.049243145 0.018030599 0.048503984
0.19607687 -0.055225328 0.1889805 -0.15721068 -0.02832033 -0.1176898 0.20495191 0.20839688
00000000: be6a e73d e2d4 be3d 80d7 073e 4b99 2c3e
00000010: 6770 953d 0b6c 45be 3c7a fdbd ae68 153e
00000020: 3f54 753e 806d a1bd 99fd 173d 084c 95bc
00000030: b874 8abb 3eee b63c d9c5 c8b9 29d7 fd3d
00000040: 759b 033e ef6f 26be 2b93 f33b e8e2 943d
00000050: ad06 49bd 81f5 dabd b348 ac3c e98d 84bd
00000060: de1e 1cbe 6af6 b4bd 288c e7bd 8514 083e
00000070: 3135 fbbd b284 e1bd b9b3 393e d093 f6bd
00000080: b4f4 edbd 8a5c 95bd b2c1 99bd e866 463e
00000090: 1304 41bd c5f0 183e 1b9c 9bbd 84ad 093e
000000a0: d5fc ee3b 131c ac3b fed2 f6bd e820 a03d
000000b0: b64e 083d 6cef 4a3e 383b 5e3e 44ba 1b3e
000000c0: 1232 3abd 34f8 e93d 3b88 3a3e fb05 83bd
000000d0: c5da 793e f57e 4c3d d520 8abd 5a0b 00be
000000e0: 2a36 693e 4335 d0bd babb 1d3e c9af 873c
000000f0: 3189 353e 49d4 c7bd 7da8 c3bd 0f63 d8bd
00000100: 5a15 973b 9c5f 773c 515d 2fbd e384 413e
00000110: f3b5 353d 1d07 00be 51b4 43bc 84e5 a2bd
00000120: 6a33 003e 8f6f 153e c3a5 073e aa7d ab3c
00000130: 493a 153d fb47 febc 3bb9 183e e4b0 413d
00000140: 01e9 cf3d c9a2 f23d e719 7e3d 77ed 2b3e
00000150: b435 02be 15f7 773e 6938 d3bc 38d3 4ebc
00000160: e99c 67bd 806d f2bc b44b f5bc ec23 04be
00000170: 4b8a 813d d8f5 3e3e bc64 6a3e 55d4 01be
00000180: a038 cebd c528 683e fdb5 d5bd 1616 febd
00000190: 2afd 923c 2483 913d d8ab fb3d 687f 11be
000001a0: 8298 563e 4119 81bd 2829 0b3e ba53 5e3b
000001b0: b9ee 373e 0750 febc b473 89bd d62c 3dbe
000001c0: a065 c7bd cd3e 2c3e 73fa 10be 6868 403e
000001d0: 6fab 00be 2eb3 493d e8b4 933c 1dac 463d
000001e0: 60c8 483e f433 62bd 1b84 413e d6fb 20be
000001f0: 0900 e8bc 5a07 f1bd eade 513e fe65 553e

net.2.weight f4 [128, 128]
0.20846736 0.07642802 0.055700872 0.119687065 -0.027308125 0.026973298 0.27355662 -0.08940021
0.30993268 -0.41859978 -0.14520271 0.016230853 0.09499336 -0.07008236 0.32857996 0.12844458
0.17847446 0.06204348 -0.16817084 -0.2701251 0.13692148 -0.11902846 -0.010484871 0.072334364
0.23080385 0.026027406 -0.38741615 0.081788115 -0.0027683568 -0.25167006 -0.20330068 -0.020024398
-0.14089705 0.042605855 -0.11462014 -0.08433128 0.048156273 0.19731268 -0.3600897 0.0857867
-0.066773325 0.06920353 0.045458052 0.0018398431 -0.06795765 0.031463366 -0.14863981 0.09602228
0.03971095 0.010369945 -0.007420505 -0.10555309 -0.1395937 -0.08252095 0.10466043 0.10505697
-0.01840652 -0.09948863 -0.007025789 0.17970088 -0.07988547 0.41412708 0.113726504 0.124974005
-0.07103243 0.012932468 0.12251914 0.05519756 0.08613795 -0.06061762 -0.027713219 -0.20997046
0.000314923 -0.02009294 0.19119361 -0.0646778 0.0527281 0.17473133 0.056880508 0.0046877987
-0.04093583 -0.038014494 0.026647562 0.13460627 0.2552903 -0.042683683 0.20878239 -0.06688674
0.011560254 -0.19941156 -0.048154023 0.047180228 0.063652135 0.086758174 0.08688794 0.21042994
0.103667736 -0.37105802 -0.12716903 -0.3731105 0.013278829 0.07535301 -0.041650318 0.00034178834
-0.13393956 0.03343341 -0.012425761 -0.15109038 -0.08113574 -0.44858587 -0.022112114 0.055108964
-0.19736865 0.04036349 0.28187862 0.064659975 -0.015174443 0.065619595 0.08063601 -0.07867533
-0.016334767 -0.14910077 -0.035367686 0.025837973 0.20214914 0.08336746 0.10195212 0.046000045
0.16553427 -0.15308794 0.020269569 0.056178086 -0.022701435 0.055540573 0.13101584 -0.02813597
-0.057733797 -0.19787826 -0.05231639 -0.40554312 0.16308051 0.0004203743 -0.0899417 -0.09881688
0.08842929 -0.01834214 -0.033891138 0.0045559346 -0.08257508 -0.2457431 0.04484486 -0.12041269
0.30004647 0.09919475 -0.29206842 0.08789252 -0.3403756 -0.16015036 -0.16450045 -0.039593447
-0.36872855 0.23174731 -0.019797329 0.21331978 0.1745289 -0.08586355 -0.33964834 -0.06751057
0.1684721 -0.006936857 -0.020514533 0.024880571 0.007951841 0.17028484 -0.0049867597 -0.017888978
0.027634358 -0.010985085 0.33409145 -0.07267548 -0.12436549 0.18503115 0.028899793 -0.06486339
0.18665397 -0.05164771 -0.11690217 0.1338397 0.018093126 0.15376641 0.2592197 0.066003606
0.016315402 -0.01766619 0.08733579 0.010556846 -0.14534888 -0.2129128 0.113708146 -0.06254836
0.005949176 0.099891186 0.013924866 0.07063974 0.08104643 0.08950369 -0.008494124 -0.014934993
0.02549499 -0.1403421 -0.07332885 0.28773275 0.25532562 -0.12197689 -0.02348908 0.07568384
0.19576383 0.012359422 -0.0038034767 0.2691902 0.004184238 0.056811057 -0.0137201045 0.2311773
0.07395779 -0.14271165 -0.098060876 -0.002715407 0.07947888 0.076524995 -0.02235848 0.26211977
-0.08867074 0.27282637 0.11519398 -0.16834448 0.016735986 -0.042547442 0.036096144 0.15088025
0.06238801 -0.0737969 0.10481239 -0.07226069 0.07913886 -0.152076 -0.016767306 0.03313041
0.08413527 0.009234023 0.027123472 0.0948098 0.023338992 -0.0015870241 0.10392015 -0.044661652
00000000: 7878 553e 4b86 9c3d 9926 643d 7e1e f53d
00000010: 4ab5 dfbc 1bf7 dc3c 9d0f 8c3e 7517 b7bd
00000020: 7faf 9e3e b652 d6be 05b0 14be 91f6 843c
00000030: e18b c23d 5787 8fbd a23b a83e fa86 033e
00000040: 02c2 363e 4e21 7e3d fa34 2cbe d64d 8abe
00000050: 2535 0c3e 31c5 f3bd bdc8 2bbc 0a24 943d
00000060: d857 6c3e 6d37 d53c 695b c6be 8780 a73d
00000070: 526d 35bb e6da 80be 0e2e 50be 350a a4bc
00000080: 5147 10be 7a83 2e3d f7bd eabd e1b5 acbd
00000090: 833f 453d 560c 4a3e ad5d b8be f0b0 af3d
000000a0: 74c0 88bd 95ba 8d3d 3932 3a3d e426 f13a
000000b0: 612d 8bbd bbdf 003d 0935 18be 54a7 c43d
000000c0: f3a7 223d b4e6 293c b527 f3bb 382c d8bd
000000d0: a7f1 0ebe be00 a9bd 3558 d63d 1c28 d73d
000000e0: 45c9 96bc b2c0 cbbd 9738 e6bb 8203 383e
000000f0: fe9a a3bd 7708 d43e 71e9 e83d 5ff2 ff3d
00000100: 7379 91bd b4e2 533c 51eb fa3d d616 623d
00000110: 1869 b03d 2e4a 78bd d506 e3bc 7f02 57be
00000120: 401c a539 f399 a4bc 42c8 433e cb75 84bd
00000130: 6cf9 573d c5ec 323e 89fb 683d 1b9c 993b
00000140: 54ac 27bd 16b5 1bbd fd4b da3c 3ad6 093e
00000150: 69b5 823e 16d5 2ebd 0dcb 553e eafb 88bd
00000160: 3867 3d3c 8b32 4cbe 273d 45bd 0e40 413d
00000170: 0d5c 823d 45ae b13d 4ef2 b13d f27a 573e
00000180: c04f d43d 51fb bdbe 9938 02be 5708 bfbe
00000190: 728f 593c ae52 9a3d 8699 2abd 0e32 b339
000001a0: 7427 09be 79f1 083d 6b95 4bbc 70b7 1abe
000001b0: 7f2a a6bd 0cad e5be 7724 b5bc f0b9 613d
000001c0: 021b 4abe 3054 253d 6552 903e 736c 843d
000001d0: 3a9e 78bc 9163 863d 7e24 a53d 8820 a1bd
000001e0: 7dd0 85bc dfad 18be b5dd 10bd 28aa d33c
000001f0: 2f00 4f3e 8fbc aa3d 46cc d03d 8b6a 3c3d
00000200: d181 293e 16c3 1cbe 5e0c a63c fe1a 663d
00000210: 5cf8 b9bc 837e 633d 0429 063e 687d e6bc
00000220: 467a 6cbd 99a0 4abe b649 56bd 59a3 cfbe
00000230: 94fe 263e af65 dc39 5b33 b8bd 8160 cabd
00000240: 6a1a b53d 4142 96bc 6fd1 0abd f349 953b
00000250: 201d a9bd 14a4 7bbe 3eaf 373d ee9a f6bd
00000260: b19f 993e 9e26 cb3d fe89 95be fe00 b43d
00000270: b645 aebe 75fe 23be ce72 28be bd2c 22bd
00000280: fdc9 bcbe 2b4f 6d3e 022e a2bc 8070 5a3e
00000290: b4b7 323e 3bd9 afbd 63e6 adbe fb42 8abd
000002a0: f383 2c3e 934e e3bb 180e a8bc 57d2 cb3c
000002b0: 7048 023c 265f 2e3e f967 a3bb e88b 92bc
000002c0: 7361 e23c c9fa 33bc 090e ab3e e2d6 94bd
000002d0: 56b3 febd ce78 3d3e 42bf ec3c 19d7 84bd
000002e0: 3822 3f3e 8d8c 53bd 686a efbd 460d 093e
000002f0: 0938 943c f174 1d3e 72b8 843e e62c 873d
00000300: e1a7 853c b0b8 90bc 1bdd b23d 9ff6 2c3c
00000310: 56d6 14be d005 5abe d1df e83d 5b19 80bd
00000320: 4ef1 c23b c093 cc3d 1f25 643c 91ab 903d
00000330: acfb a53d b64d b73d f02a 0bbc e7b1 74bc
00000340: dfda d03c d7b5 0fbe 702d 96bd b551 933e
00000350: 0aba 823e 05cf f9bd 2c6c c0bc 2100 9b3d
00000360: 5076 483e 2c7f 4a3c c043 79bb 4cd3 893e
00000370: ef1b 893b b6b2 683d 4aca 60bc beb9 6c3e
00000380: 2f77 973d 0123 12be 24d4 c8bd f8f4 31bb
00000390: d3c5 a23d 23b9 9c3d 2229 b7bc 9034 863e
000003a0: 0199 b5bd e6af 8b3e d2ea eb3d 7f62 2cbe
000003b0: e819 893c 3a46 2ebd 8dd9 133d 5a80 1a3e
000003c0: 928a 7f3d d422 97bd e1a7 d63d 6afd 93bd
000003d0: 8e13 a23d d0b9 1bbe 975b 89bc c1b3 073d
000003e0: 1d4f ac3d 4d4a 173c 0b32 de3c a42b c23d
000003f0: 6a31 bf3c b103 d0ba 16d4 d43d 23ef 36bd

net.2.bias f4 [128]
0.08405475 0.06554839 0.045947284 0.04485196 0.061338987 0.017786594 0.069403544 0.108971946
-0.051082455 0.017712822 0.0071068928 0.060812928 0.030870536 0.002710602 -0.06758935 0.11262426
0.093960986 -0.073081076 0.05522044 -0.03357378 0.0026862184 -0.07379182 -0.0801684 -0.04443577
0.08099658 0.06869108 0.122145906 0.064146385 -0.08476003 -0.045409665 -0.061987497 0.058243617
0.07410937 -0.039402913 0.04045158 0.09228787 0.036142465 0.053020265 0.00977681 0.05021243
-0.009379881 0.0973547 -0.03781846 0.08244355 -0.07278987 0.090612076 0.07500794 0.07989836
0.052418843 -0.016308066 0.042069044 -0.042746384 -0.02810657 -0.04958515 0.03851581 -0.07211945
-0.045090694 0.083127946 -0.008837496 -0.0057115434 0.01350418 0.0596371 -0.047534157 0.020782316
0.08228865 0.057878464 -0.021777723 -0.01967296 -0.052959375 0.04641599 0.015960453 -0.07620767
0.05568805 0.012190734 0.020111265 0.0034923812 0.04123113 0.08437051 -0.07356492 0.10090689
-0.06679348 -0.016371906 -0.08487463 -0.08135662 -0.011304439 -0.04828712 -0.007583655 -0.02628078
0.024048587 -0.05480393 -0.05857403 -0.1255296 -0.09296213 -0.03234548 0.05783484 0.12301607
0.08122256 0.12018989 0.022243308 -0.0035192906 0.053991586 0.008992268 0.054032486 0.07360128
-0.032471776 0.12057224 0.016553221 -0.047176 0.013275965 -0.04147442 -0.0079583945 -0.0035067834
0.116980255 -0.025068257 0.07854078 -0.037582356 0.116201736 0.0053276885 0.10466227 -0.008511326
0.017014213 0.008389148 0.044055175 -0.07487865 0.040339045 0.14026025 -0.05941539 0.09204689
00000000: e624 ac3d 3c3e 863d 3833 3c3d b0b6 373d
00000010: 973e 7b3d 31b5 913c 7223 8e3d af2c df3d
00000020: d63b 51bd 7b1a 913c f0e0 e83b fa16 793d
00000030: 35e4 fc3c 5ba4 313b 496c 8abd 8ca7 e63d
00000040: 9e6e c03d 88ab 95bd d42e 623d a984 09bd
00000050: 440b 303b 2a20 97bd 552f a4bd 4802 36bd
00000060: 89e1 a53d e9ad 8c3d a227 fa3d 2e5f 833d
00000070: ab96 adbd 7cff 39bd 9ae6 7dbd dc90 6e3d
00000080: a7c6 973d f364 21bd 8eb0 253d 6c01 bd3d
00000090: 1f0a 143d c72b 593d ea2e 203c 8dab 4d3d
000000a0: 13ae 19bc e761 c73d 88e7 1abd 2ad8 a83d
000000b0: db12 95bd d392 b93d c39d 993d c0a1 a33d
000000c0: 24b5 563d 7e98 85bc 9750 2c3d d516 2fbd
000000d0: c03f e6bc cc19 4bbd c1c2 1d3d 5db3 93bd
000000e0: 05b1 38bd fc3e aa3d 25cb 10bc e627 bbbb
000000f0: a340 5d3c 0846 743d 2db3 42bd ad3f aa3c
00000100: f486 a83d f811 6d3d 3267 b2bc 3029 a1bc
00000110: eeeb 58bd b11e 3e3d 7fbf 823c c412 9cbd
00000120: 2719 643d a5bb 473c 61c0 a43c 6fe0 643b
00000130: f9e1 283d 72ca ac3d 34a9 96bd 46a8 ce3d
00000140: 05cb 88bd 601e 86bc c0d2 adbd 4d9e a6bd
00000150: 4136 39bc b7c8 45bd 4f80 f8bb ca4a d7bc
00000160: 8b01 c53c 167a 60bd 52eb 6fbd d58a 00be
00000170: ee62 bebd b27c 04bd 3ae4 6c3d d9ef fb3d
00000180: 0358 a63d 1e26 f63d 9937 b63c e6a3 66bb
00000190: 4826 5d3d 4e54 133c 2b51 5d3d 45bc 963d
000001a0: 2001 05bd 94ee f63d 9f9a 873c 9f3b 41bd
000001b0: 6f83 593c 15e1 29bd ed63 02bc 10d2 65bb
000001c0: 5893 ef3d f25b cdbc fdd9 a03d f5ef 19bd
000001d0: 2dfb ed3d e493 ae3b 2c59 d63d 1773 0bbc
000001e0: 6461 8b3c a372 093c 3373 343d fa59 99bd
000001f0: 8e3a 253d 62a0 0f3e 8d5d 73bd 1483 bc3d

net.4.weight f4 [7, 128]
-0.25721148 -0.2132692 -0.12545183 -0.19523202 -0.534173 0.33569503 0.11049195 -0.26477146
0.087387756 0.33562925 -0.13211362 0.20969826 0.21331586 0.16784534 -0.0090111885 0.14562522
0.06893314 -0.32957074 0.06317337 0.20047487 0.03466758 0.36437324 -0.06344347 0.030074822
0.1888381 -0.3789538 -0.05394057 0.117756285 0.0060884603 -0.27415302 -0.35152927 -0.25381824
-0.2822434 0.22819836 -0.03348062 0.3458111 -0.12591805 0.16300814 -0.19963743 0.2762707
-0.08325464 -0.08785084 -0.28278965 0.10674848 -0.120308995 0.03952137 0.095180646 0.09871089
-0.27452743 0.63668406 0.2610388 -0.21340717 -0.17198539 0.19062065 0.40390003 -0.2715332
-0.3306796 -0.38082498 -0.11142172 0.3797078 0.065459006 0.059070747 -0.33373755 0.18888354
0.10823752 -0.13382366 0.1320796 -0.057725925 -0.18340403 0.03002462 0.13768801 -0.110792756
-0.5755849 0.045143697 0.12900987 0.14213325 0.1783189 0.34046757 -0.027378473 0.05451092
-0.022698443 -0.064621165 -0.3792298 -0.5643746 0.16051231 -1.0535582 -0.12610936 -0.412844
0.1902186 0.27186108 -0.76024705 0.43857422 -0.02999361 0.08046946 -0.38496783 -0.49394947
-0.051561333 -0.04019663 0.12222413 -0.38337654 -0.41166124 -0.032993488 -0.12271689 0.2611202
-0.21593173 0.11988041 -0.3913443 -0.27756456 0.22303511 -0.1424892 -0.12526341 -0.24425673
0.1759221 0.2178793 0.3086407 -0.28925002 0.19902812 0.05681697 0.25029418 0.5482266
0.2627976 0.19347626 -0.2761789 0.05250111 0.18517105 -0.010673074 -0.51154006 0.16258551
0.17688999 0.25327474 0.05788983 0.1526059 0.65747297 -0.5396563 -0.32031944 -0.26535723
-0.22097111 -0.34404984 0.1668133 -0.15748188 -0.17743593 -0.27479538 0.21849151 0.1124518
-0.028121961 0.23229542 0.09208569 -0.26032603 0.2838806 0.36146748 0.063488096 0.12548853
0.32692313 0.24895604 0.20001464 -0.14038038 -0.042426933 0.16394028 -0.26497802 0.21154247
-0.4470724 0.2639228 0.17575306 -0.47487134 0.06920863 -0.44348133 -0.3034944 0.05444005
0.19500028 -0.16017751 0.3501271 -0.27068076 -0.34333894 0.044795148 -0.46722132 0.12137068
-0.74059314 -0.3977437 -0.80971336 -0.19838616 0.22776073 0.05051184 -0.29679036 0.15057899
-0.8012269 0.25532427 0.12401329 -0.20369615 -0.078326926 -0.1254375 0.3165495 -0.23797813
-0.2686102 0.34413305 0.14944509 0.41427392 0.12542312 -0.29167172 -0.19638625 0.017972855
0.006347423 0.12970532 0.13524485 0.03880102 -0.3741183 -0.7542296 -0.24022308 0.1930219
0.0025856413 0.2529214 0.15982063 0.24028485 0.16875915 -0.5838573 -0.26829842 -0.062096033
-0.42666435 0.37085298 0.13667352 -0.17915277 -0.52372754 -0.056333218 0.25147307 0.45422283
0.012547781 -0.1708639 -0.32616252 0.32820818 0.15124449 0.18173322 0.29296204 -0.310622
0.32077408 0.089702316 -0.34231314 0.07268747 0.07562296 -0.31741402 0.3143887 -0.27909556
0.08521867 -0.1815563 -0.31881154 -0.22398363 -0.63218576 0.20560563 -0.124435075 -0.6180981
0.24142936 -0.5921539 0.37828442 -0.082858674 -0.3285413 0.04061071 0.5782199 0.029546728
00000000: 39b1 83be 3e63 5abe 7276 00be e7ea 47be
00000010: 90bf 08bf 38e0 ab3e 9a49 e23d 2090 87be
00000020: 5af8 b23d 99d7 ab3e cb48 07be 24bb 563e
00000030: 796f 5a3e a6df 2b3e aaa3 13bc c71e 153e
00000040: d12c 8d3d 7fbd a8be 0a61 813d 4949 4d3e
00000050: 98ff 0d3d 218f ba3e a6ee 81bd 795f f63c
00000060: c65e 413e 3c06 c2be caf0 5cbd 352a f13d
00000070: b581 c73b c95d 8cbe a5fb b3be 77f4 81be
00000080: 3582 90be d5ac 693e f922 09bd 270e b13e
00000090: a9f0 00be 9beb 263e c16d 4cbe 5a73 8d3e
000000a0: 6981 aabd 24eb b3bd cec9 90be f29e da3d
000000b0: 9064 f6bd 29e1 213d 12ee c23d ef28 ca3d
000000c0: dc8e 8cbe bafd 223f e1a6 853e 6987 5abe
000000d0: f01c 30be 0f32 433e fccb ce3e 6606 8bbe
000000e0: d64e a9be 7efb c2be 1231 e4bd 1069 c23e
000000f0: 5f0f 863d 2bf4 713d a6df aabe b06a 413e
00000100: a2ab dd3d 1209 09be e03f 073e 0572 6cbd
00000110: 44ce 3bbe 31f6 f53c 16fe 0c3e 50e7 e2bd
00000120: 8859 13bf 99e8 383d 2a1b 043e 618b 113e
00000130: 3b99 363e c451 ae3e d248 e0bc d846 5f3d
00000140: 16f2 b9bc 1a58 84bd 692a c2be db7a 10bf
00000150: 575d 243e ffda 86bf d022 01be 4a60 d3be
00000160: aac8 423e 6031 8b3e 8d9f 42bf cd8c e03e
00000170: 29b5 f5bc 2ccd a43d 811a c5be f2e6 fcbe
00000180: fa31 53bd 39a5 24bd a550 fa3d ee49 c4be
00000190: 43c5 d2be 2e24 07bd fe52 fbbd 8cb1 853e
000001a0: 351d 5dbe dc83 f53d 485e c8be f11c 8ebe
000001b0: 5163 643e b0e8 11be 0d45 00be 701e 7abe
000001c0: ec24 343e c01b 5f3e 2706 9e3e 9418 94be
000001d0: 07ce 4b3e e9b8 683d 8f26 803e 9458 0c3f
000001e0: 688d 863e a41e 463e 5267 8dbe 670b 573d
000001f0: 7b9d 3d3e 1ede 2ebc 4af4 02bf d17c 263e
00000200: a622 353e 3aad 813e e31d 6d3d b944 1c3e
00000210: 2650 283f ea26 0abf e900 a4be e7dc 87be
00000220: 4046 62be 4d27 b0be 1bd1 2a3e ee42 21be
00000230: c4b1 35be fbb1 8cbe 3dbc 5f3e 214d e63d
00000240: 0760 e6bc dade 6d3e 6c97 bc3d 7449 85be
00000250: cc58 913e 4412 b93e 0c06 823d 1180 003e
00000260: 7862 a73e 55ee 7e3e a3d0 4c3e e0bf 0fbe
00000270: ddc7 2dbd f6df 273e 33ab 87be 979e 583e
00000280: ace6 e4be e420 873e 9cf8 333e 5622 f3be
00000290: 41bd 8d3d fc0f e3be 9e63 9bbe 88fc 5e3d
000002a0: 27ae 473e 9305 24be dc43 b33e ab96 8abe
000002b0: 1fca afbe 1e7b 373d a237 efbe 3191 f83d
000002c0: 8397 3dbf 10a5 cbbe 6049 4fbf be25 4bbe
000002d0: 1c3a 693e 81e5 4e3d e8f4 97be 6131 1a3e
000002e0: 351d 4dbf ddb9 823e aefa fd3d b995 50be
000002f0: de69 a0bd b072 00be c712 a23e 8ab0 73be
00000300: 4787 89be 3532 b03e 2208 193e b61b d43e
00000310: eb6e 003e ff55 95be 7a19 49be cf3b 933c
00000320: 0bfe cf3b 79d1 043e a07d 0a3e d1ed 1e3d
00000330: 6f8c bfbe 3115 41bf 0afd 75be 88a7 453e
00000340: dd73 293b ea7e 813e 05a8 233e 3b0d 763e
00000350: 33cf 2c3e ac77 15bf 695e 89be 6958 7ebd
00000360: c073 dabe 71e0 bd3e 25f4 0b3e d373 37be
00000370: 0213 06bf a9bd 66bd 14c1 803e e58f e83e
00000380: 3595 4d3c f2f6 2ebe c6fe a6be e70a a83e
00000390: d6df 1a3e 4618 3a3e 1fff 953e d909 9fbe
000003a0: 803c a43e d9b5 b73d ab43 afbe 2bdd 943d
000003b0: 36e0 9a3d 1784 a2be 8ef7 a03e 9de5 8ebe
000003c0: 2087 ae3d e5e9 39be 443b a3be f75b 65be
000003d0: edd6 21bf 488a 523e d1d7 febd ad3b 1ebf
000003e0: 4239 773e 6697 17bf 7fae c13e cfb1 a9bd
000003f0: 9136 a8be 6a57 263d 3806 143f fb0b f23c

net.4.bias f4 [7]
0.040598206 0.051691376 -0.06956711 0.04221396 0.019685822 0.009997127 0.02416476
00000000: 4e4a 263d 56ba 533d 3379 8ebd 8ce8 2c3d
00000010: 2944 a13c fdca 233c 2df5 c53c
