coup_nsfp/0.95G10kEp0.1to0.02e-4/nfsp_coup_demo_best_agent_q_target.pt (torch, 86425 bytes, 6 tensors)

net.0.weight f4 [128, 25]
00000000: b9db ae3c 04e1 90bd f913 153c 6970 c13d
00000010: b106 663d 4742 fe3d 9f83 1d3e be8c 143e
00000020: 0ee9 3f3e fc25 57be b0c2 443d b583 943e
00000030: d494 93bd d241 41be 59b4 82bd a096 cc3e
00000040: 8aba 5b3d e17f ff3c 4256 213e 381b 10bd
00000050: a837 093e 876d b2bb 6aa9 273e d691 613e
00000060: b649 403e 5510 8cbe 6648 6b3e f4e6 16bf
00000070: 4349 79be 3622 b23e 8529 403e 170d 3e3d
00000080: 0c1d eebd efd5 f43c 0359 15bd 914c b23e
00000090: 8c13 573e 9d64 82bd f7fc 8b3d 9d29 94be
000000a0: 68e3 343e 2809 603e b1ee 873e 0d08 d9bd
000000b0: cbb3 e43d 42b5 2ebd fc80 a13e 9710 27be
000000c0: 5910 e63e ea50 cf3d 9af1 42be 16b7 70be
000000d0: 6977 88bc aeab 9dbe f3e1 ab3c 095a f3be
000000e0: 70e6 c63e 2602 00bd 1f5a 2b3e a453 a1be
000000f0: 30a0 3abe 1a01 0a3d e803 8abe b55b 0cbe
00000100: cc9b 54bc 2fb5 dabd 9d9a 68bd 24fe a63e
00000110: 0554 153e e319 10be 8f79 5e3b fdee 4f3e
00000120: b9ec 573e d7fb d33d 99bb 123e c1dc 46be
00000130: 1b60 743e 17dd 21bd 2ad5 1fbe 25a5 cbbd
00000140: cdb2 06bd 7fde 4a3d 37c2 1a3d df9f ca3e
00000150: 7cf7 153e 6d21 3e3e 1ac5 da3b 3d0f a03c
00000160: ed47 94bd 1aae 063e 954e 94be 0f2e cbbd
00000170: 74bd 04be eae1 a4bd 343e 3fbe ba5c 54be
00000180: 8a51 f2bd 99e1 b7bc 6b1d 6abe 069b 0ebe
00000190: 9205 5cbd c02c 573e 034d bb3d 7eab e93c
000001a0: 013d eb3d 669e 94be cb76 30bd bf06 173e
000001b0: 25e9 073e 515c 333e a86d af3d 8690 063d
000001c0: bde7 623e 4f7e 47be c4e4 38be 7d18 8fbe
000001d0: 223d 3cbe c1f8 5cbd 9a9f 41bc 6e03 47be
000001e0: 88ac 8fbd bd27 85be ba48 a8be bba1 adbe
000001f0: 64e5 493b c795 2e3e d146 103e 6a56 3b3d
00000200: 71c1 91bd afa1 8d3e 2d39 a43d 4453 223e
00000210: cec2 a83e 945d 3cbe d2e8 5f3d 3ead a2bd
00000220: cca5 0f3e cceb 89be a260 1cbe b01e 8abd
00000230: 0437 f2ba 40c4 883e e77b d03d 4056 453d
00000240: adca 283d 52d3 8a3e b892 4abe d483 28be
00000250: 2de4 16be f988 8a3c 1f33 3ebd 5eca 4b3e
00000260: 9f54 f13c 3730 f33d 03b2 4c3d a849 eebd
00000270: 7a86 c9bc 85f0 03bc 3981 a03d e8b6 333e
00000280: 1e1b 2a3e 6ed9 a9bd 4890 be3d 23a1 923d
00000290: af18 58be 357d 06be 48ae bbbd e972 babd
000002a0: 2000 dbbd d6ee 803e f5e0 08bc ab61 a53e
000002b0: eaa7 cdbe c2a3 45bd bc4f 643e 74e4 0fbe
000002c0: 39b2 80bc c8f4 513e 809f 3b3d a3f8 f6ba
000002d0: 1b2c 4bbe 9dd4 51be 4c45 373e 5b79 1fbe
000002e0: 7f64 653e 1f62 e63d 3bd5 1b3d f6bb 8b3e
000002f0: 100d adbd 2a6c 19bd e631 0fbe 3ef1 093c
00000300: f021 c5be 9a9a d93c 6c6f 6d3e fdd4 193e
00000310: 4a9e 95be f9ee 0bbf 5d79 b0bd b487 15be
00000320: c692 213e 85af 80be d1ae 263c b14a 1fbd
00000330: 14a4 363e 8aad c63d c5b8 0a3e 5437 5e3e
00000340: 7258 84be 44d6 5a3d b85c e53e 2f54 733d
00000350: ccf8 85be c0f0 6f3d 09c9 f1bd 691d 593e
00000360: a0ec 493d 1477 2abe 870c f1bd 7823 c23e
00000370: b2ef 13bd 270f 963d cf7d f9be 7930 58be
00000380: 6cc7 783d 2c50 a63c ddc0 983e 1f5a b33e
00000390: f69b 37bd f388 4fbe 442a 063e 19f2 1a3e
000003a0: 05b7 95bd 1541 5e3e e946 803d 465b de3d
000003b0: 7cca d6bd ec47 0f3e 0d84 6f3d 2590 95be
000003c0: ad53 883e a93c 27be 7fd8 5fba da99 dfbd
000003d0: b1db 283e 6280 dfbd f8dc 263e da56 053e
000003e0: 3886 03be 6928 f939 9afd 6abe 3120 693e
000003f0: c792 b03e a2b8 013e ccda f7bd 128c 3abe
0.021345006 -0.07074168 0.009099 0.09445269 0.056158725 0.12414985 0.1538224 0.14506814
0.18741247 -0.21010584 0.04803723 0.29006734 -0.07206121 -0.18872765 -0.06382055 0.39958668
0.053644694 0.031188907 0.15755561 -0.035182208 0.13400137 -0.0054451856 0.1637322 0.22028288
0.18778118 -0.2735621 0.22976837 -0.58946157 -0.24344353 0.34791726 0.18765838 0.046399202
-0.11626634 0.029887168 -0.03646184 0.3482404 0.2100355 -0.06366847 0.068353586 -0.28937998
0.17664874 0.21878493 0.26549295 -0.10597239 0.11167105 -0.04265333 0.3154372 -0.16314922
0.44934347 0.10122855 -0.19037476 -0.23507342 -0.016658502 -0.30795044 0.020981764 -0.4752963
0.38847685 -0.03125205 0.16733597 -0.31509125 -0.18225169 0.033692457 -0.26956105 -0.13706858
-0.012976598 -0.10679089 -0.056788076 0.3261577 0.14582832 -0.14072375 0.0033946966 0.2030601
0.21086396 0.10350769 0.14329375 -0.19420148 0.23864786 -0.03951749 -0.1560866 -0.09943608
-0.03288536 0.049528595 0.037782874 0.39575097 0.14645189 0.18567438 0.0066763284 0.019538516
-0.07240281 0.13152352 -0.28966203 -0.09920894 -0.12962896 -0.08050902 -0.18676072 -0.20738497
-0.118319586 -0.02244644 -0.22862785 -0.13926324 -0.05371625 0.21013165 0.09145548 0.028524157
0.11486245 -0.29027098 -0.04308204 0.14748667 0.13272531 0.17515685 0.08565837 0.032852672
0.22158714 -0.19481777 -0.18056017 -0.2794837 -0.18382695 -0.053948168 -0.011817837 -0.19434902
-0.070153296 -0.2600688 -0.32867986 -0.33912453 0.0030806893 0.17049323 0.14089514 0.045736708
-0.07116974 0.27662417 0.08018718 0.15852076 0.32961124 -0.18395072 0.054665394 -0.079431996
0.1402809 -0.2693771 -0.15271237 -0.067441344 -0.0018479531 0.26712227 0.101798825 0.048177958
0.04120891 0.2711435 -0.19782531 -0.16456538 -0.1473548 0.016911017 -0.04643547 0.19901416
0.029459296 0.118744306 0.049974453 -0.116351426 -0.024600256 -0.00805295 0.07837147 0.17550242
0.16611907 -0.082934245 0.09304863 0.07159641 -0.21103166 -0.131337 -0.09164101 -0.091039486
-0.10693383 0.25182217 -0.008354415 0.32301077 -0.4016717 -0.048251875 0.22296041 -0.14051992
-0.015709983 0.20503533 0.045806408 -0.001884241 -0.19841044 -0.20491262 0.17897528 -0.15573637
0.22401617 0.11249184 0.03804515 0.2729184 -0.08449757 -0.03745667 -0.13983878 0.008419333
-0.38502455 0.026562978 0.23187035 0.15022655 -0.29222327 -0.5466152 -0.08616898 -0.14602548
0.15778646 -0.2513391 0.010173515 -0.03888959 0.17836028 0.09701069 0.13547046 0.21700794
-0.25848728 0.053426996 0.447973 0.059406456 -0.2616638 0.058579206 -0.118059225 0.21202625
0.04929793 -0.16646987 -0.117699675 0.37917686 -0.036117263 0.07327109 -0.48728797 -0.21112241
0.06073706 0.0203019 0.29834643 0.35029694 -0.04482647 -0.20267086 0.1310206 0.15131415
-0.07310299 0.21704514 0.06263525 0.10857253 -0.104878396 0.1399228 0.058475543 -0.29211536
0.2662634 -0.16331734 -0.00085390353 -0.10918017 0.16490056 -0.10913159 0.1629523 0.13021412
-0.12844169 0.0004752309 -0.22948304 0.22766186 0.34486982 0.12668088 -0.12102279 -0.18217495

net.0.bias f4 [128]
00000000: 52da e03d 9018 393e 81d2 2e3c b25b 0b3e
00000010: 9669 253d 53e5 833e 686b 42bc 1773 4a3e
00000020: 1745 29be ec92 8d3d d4de 2ebe c4cd dfbd
00000030: 1fca 083e 394b 03be e9a4 aebd 62a3 f23c
00000040: b71c 1e3e 366a 93bd 05df ad3c 4b18 81b9
00000050: a937 67ba 718d 36be 2bc8 e8bc bd3c 04bd
00000060: f00c 0ebc 5409 603e da42 ebbc 15c8 ba3d
00000070: 6485 883e 5fc7 66bd 9ca7 7e3d 61b5 4d3e
00000080: 84bd a9bd 9fbe 4f3e 8a7b 143e c9b9 d7ba
00000090: b1e9 413e 0148 e13d 64a0 a63c 5b8a e43d
000000a0: 7c84 8fbb ecd5 653e 2a1d 183e 4c96 693d
000000b0: df17 863d 7ffd a8bd 05b0 4d3e cd90 863e
000000c0: 4209 083e 2e25 61bd 47a7 afbc 4f9b ff3d
000000d0: 9a9f 16be 6b45 c03d 3f5d 413e dfea 20be
000000e0: 308b 453d 5c0e 09be 85de 923c 6d57 4dbd
000000f0: 2ff2 043e c563 c03d b0d0 afbd f46d a13d
00000100: 2925 acbd 4428 d3bd 3b8c 203e 0b04 cebd
00000110: 6545 5fbc 780c d3bd 681b 13be 3017 c8bc
00000120: 09b2 d93d 633a 25be e15e 8bbc ddaf 213e
00000130: a332 303e 7279 773d 92f3 cd3d a573 1bbe
00000140: aac7 a0bd 7c8c 873e a8f1 99bd 52cb 7bbe
00000150: 644a e73b d3b8 793d a0c8 503e f22f d93d
00000160: cfd1 17be fca6 b23d 6d39 bc3d 4843 ef3d
00000170: 39f6 143e 5de5 0b3e b5ec e93d f732 1cbe
00000180: d0bc 86bd ff9b 3e3e 1a85 0ebe 92de 83bd
00000190: 1716 043e cb4c bb3d 024f e33c 211c 333e
000001a0: b00a d2bd b3c3 9c3d edd6 5fbe 8043 3bbb
000001b0: 79cc 05bd c900 c23b 8c33 9e3d 8488 1e3d
000001c0: adb7 e03d f3db 463c 8c4d 19be 006d bcbc
000001d0: abc1 4b3e 0a7e 0b3e dee3 953d ff4e aebd
000001e0: 9116 b13c f8bd 81bd 9f2a 443e 74da 393e
000001f0: 140e bcbd 7921 66be 1347 633e b685 7e3e
0.10979141 0.18075776 0.010670305 0.13609198 0.040383898 0.25760898 -0.011866428 0.19770466
-0.16530262 0.06912789 -0.1707719 -0.109279186 0.13358353 -0.12821664 -0.08527548 0.029618923
0.15440641 -0.071979925 0.021224508 -0.00024622897 -0.00088202447 -0.17827393 -0.02841576 -0.032284487
-0.008670077 0.21878558 -0.0287184 0.09120194 0.2666427 -0.05634248 0.062171564 0.20088722
-0.082881 0.2028756 0.14500251 -0.0016458567 0.18936802 0.11000062 0.020340152 0.11159202
-0.004379807 0.22444886 0.14854875 0.0570281 0.06547522 -0.082514755 0.20086677 0.2628235
0.13284782 -0.054967098 -0.021442069 0.12480795 -0.1470932 0.093882404 0.18883227 -0.15714596
0.048228443 -0.13384384 0.017928371 -0.050132204 0.1298301 0.093940295 -0.08584726 0.078823
-0.08405525 -0.103104144 0.15678494 -0.10059365 -0.013627385 -0.103051126 -0.14365923 -0.02442512
0.10629661 -0.16135554 -0.017013015 0.15789743 0.17206816 0.060418554 0.10056223 -0.15180834
-0.07850583 0.2647437 -0.075167954 -0.2458928 0.0070584286 0.060967278 0.20389032 0.10604848
-0.1482613 0.08723256 0.091906406 0.11682755 0.14547051 0.13661714 0.114221014 -0.15253817
-0.06578982 0.18614195 -0.13917962 -0.06438936 0.12899052 0.091455065 0.027747635 0.17491199
-0.10255945 0.07654514 -0.21859331 -0.0028574169 -0.032665703 0.0059205038 0.077246755 0.03870441
0.109725334 0.012137401 -0.14970988 -0.023001194 0.19898097 0.13622299 0.07318853 -0.08511161
0.021617206 -0.06335062 0.19156884 0.1814974 -0.09182373 -0.22473706 0.22195081 0.24855694

net.2.weight f4 [128, 128]
00000000: 95a6 8b3d 7cf6 29be 3e8f d23c 41de 06bd
00000010: 66b9 bb3d e9ed 2f3d 2bc6 6a3d b997 14be
00000020: 3e03 303e b1a3 983d b051 d53d b1c7 86be
00000030: b73a 0bbe 557c 843e ba6b cbbd 104f ccbc
00000040: 107d 103d 3889 3d3e 4d6e 2d3d 0f68 143e
00000050: 35bf 893d 227d 8f3d a35e cd3b 00b0 fa3d
00000060: 5e4c 943e 4731 aa3b 105c c9bc 2e71 213d
00000070: 0fac 023e 0ab4 bb3e b684 e63d 7612 b5be
00000080: df1f 483e 829e 903d 6165 cb3e 7650 1f3e
00000090: ec4e 003f 8be1 023e 683b 2abe 6906 823e
000000a0: 46b0 c5bd 2b3c 9abd fe11 00bf 633b c63c
000000b0: f609 04bd ed74 c8bc 6353 9b3d b81f 6dbe
000000c0: 3e38 f53d 8f04 c53d 8287 3ebe 5aef c7be
000000d0: d9da 2f3e cac8 e3bc 3b2c 363c f33f 16bd
000000e0: 9567 093e 51b9 be3e a9c4 f53d db59 043e
000000f0: e564 6cbe 2b9e 263e 06f8 983e d8b4 f73d
00000100: 9c2f 803e 7e1b 7f3b d4b8 983d ac39 24be
00000110: 58dd 9bbd 2bbd 423e faa9 3b3f fb12 223f
00000120: 612a a43d d249 81bd 3144 9d3e 0972 673c
00000130: 2578 5a3c 6d4f 393f 100d 2d3e c481 ca3c
00000140: 639d acbc 4c50 66be 4eaa 203e e22e 4a3e
00000150: aa59 fc3b 9f2e 2b3e 0456 9a3e fad5 a53d
00000160: 8069 16bd 4c3b 8fbd 5121 a5bd c627 10be
00000170: daf6 6e3d 24fc 293c 746d ba3d 932b 093e
00000180: 11ac 81be 8866 653e 4321 1cbe e19e 883e
00000190: 84f1 ec3d f456 933e 764d b3bd ff1b 2ebe
000001a0: dcdb 713c 9e22 57bd cdfa 3b3e cb11 f33c
000001b0: 3fe8 6a3c 10db 223e a78e 23bc 5964 163c
000001c0: b767 c93d b195 e23b 250c 6abe 1213 333e
000001d0: 462a cfbd e129 773e 28cb 543d 89a6 b83d
000001e0: 9d22 893e d1c3 8d3c 7ba3 423e ca4c 423d
000001f0: 88dc be3d 1bd8 bbbc 036f 0d3e 0a29 c0bb
00000200: 5616 513d 54e8 273e 269b 86be eba4 d33b
00000210: fef0 1a3c 8902 4ebd 963e d23d 06cf c1be
00000220: edce 10bd 9381 603e f425 9bbd 3d0e 633d
00000230: 5e2a c93d 1b79 99bd c78c 963d 0901 1a3e
00000240: fc30 8d3d ba83 b4bd 42b2 0bbe a969 aa3e
00000250: bdb4 34be 963c dabd ae01 943d 8f35 2f3e
00000260: 3601 2e3e 17ba dbbb 50c2 9a3d e7c2 a1bc
00000270: ff8a a43d 0bff 88bd c8ea 843b 8798 063e
00000280: c039 3d3d 080b f0bd d3e3 20bd f850 2f3d
00000290: 4c66 093d daf2 74bd efe0 903e 570a 8cbc
000002a0: 222a 30be ec2c cbbc 61b4 6e3e f21a f9bb
000002b0: 8bc0 56ba c042 ae3d 4731 243e c775 6d3e
000002c0: 73e0 8a3d 1d32 babd 9d27 f1bd f663 d93d
000002d0: e1dc cfbe 3952 203d 1c08 1dbc d36d 983e
000002e0: 2e37 033d 92ad bcbd b5cb 7f3e 36fb 0cbd
000002f0: aa85 253e ef8f be3c fc15 34be 6875 2f3d
00000300: 0bcc 14be 692d 443e a43b dbbc 558e b93c
00000310: dc1c 5d3e b8ba c73c 0ea7 1ebe 0a1a c9bd
00000320: 291c 2ebe 057d dabd 4788 29be 389e 0a3e
00000330: fb9a c73d 3c0d 3abe 5c54 183d 4042 003e
00000340: f7b0 86bd 52a8 3e3d 0ef0 2bbe 4749 88bd
00000350: 2472 41be b085 e8be 91a8 69be 2cb2 18be
00000360: e388 38bd 6315 e63d 4734 77bd d2e9 843e
00000370: 237e efbc b45a 67bc d60e 21bd b31f dcbe
00000380: 3949 6d3e 7521 ab3d 41e0 113e 9b4d 803e
00000390: d712 b73d 554c b7bd 244d 21be 9a35 8c3d
000003a0: 697a 693d 3aca 17bc a478 9d3d d9ba 9abd
000003b0: 2990 d33d b60e 51bd 0dea 2fbd 2dd2 3a3d
000003c0: aab6 9bbe 0ed1 9cbd 1f0e c03c 7535 c1bd
000003d0: 8d01 833e ee2d f13d d0cd 713e c3d1 89bd
000003e0: 66e4 32be a9c9 b8be bb58 56be 1299 7e3d
000003f0: 9030 173e 9c57 f3bd 2189 12bc 1d0a ff3c
0.068188824 -0.16597933 0.025703069 -0.0329268 0.09166221 0.0429515 0.057317894 -0.14511003
0.17188737 0.07453097 0.10415971 -0.26324227 -0.13596617 0.25876108 -0.099326566 -0.024940044
0.03527552 0.18509376 0.04234152 0.1449282 0.06725923 0.07006289 0.006267385 0.122406006
0.28964514 0.0051938626 -0.024580032 0.039414577 0.12760948 0.36660796 0.11255781 -0.35365647
0.19543408 0.07061483 0.39725783 0.15558037 0.50120425 0.1278135 -0.16624224 0.25395516
-0.09652762 -0.075310074 -0.50027454 0.02419824 -0.032236062 -0.024469817 0.07584264 -0.23156631
0.11973618 0.0962001 -0.1860638 -0.39049798 0.17173328 -0.027805705 0.011118944 -0.03668208
0.1341842 0.3725076 0.120004006 0.12924902 -0.23085363 0.16271274 0.29876727 0.1209504
0.25036323 0.0038926299 0.07457128 -0.16037625 -0.07610577 0.19017474 0.7330624 0.6331021
0.08015896 -0.06312908 0.30716088 0.014126309 0.013334309 0.7238682 0.16899514 0.02472008
-0.021071142 -0.22491568 0.15689966 0.19744447 0.0077011185 0.16717003 0.3014375 0.080974534
-0.036721706 -0.06993732 -0.08062995 -0.14077672 0.058340885 0.010375056 0.09102908 0.13395528
-0.2532659 0.22402394 -0.15247063 0.26683715 0.11569503 0.28777277 -0.08755009 -0.17002867
0.014761891 -0.052523248 0.18357392 0.02967157 0.014337598 0.15903878 -0.009982741 0.009179198
0.09834235 0.0069148173 -0.22856195 0.17487743 -0.10115485 0.2413707 0.051951557 0.09016139
0.2678422 0.017305287 0.19007675 0.047436513 0.09319407 -0.022930196 0.13811879 -0.0058642672
0.05104669 0.1639722 -0.26290244 0.0064588687 0.009456871 -0.050295386 0.102658436 -0.3785326
-0.03535359 0.21924429 -0.07575598 0.0554335 0.09822534 -0.07493802 0.0735107 0.15039457
0.06894109 -0.08814187 -0.13642219 0.33283737 -0.17647071 -0.10656087 0.07226883 0.17110275
0.1699265 -0.0067055332 0.075565934 -0.019746257 0.08034324 -0.066892706 0.0040563084 0.13144122
0.046197653 -0.11720854 -0.03927977 0.042801827 0.033544824 -0.059801914 0.2829661 -0.017094774
-0.17203572 -0.024801694 0.23310997 -0.007602089 -0.0008192143 0.08508825 0.16034423 0.2318946
0.067810915 -0.090915896 -0.11775134 0.10614769 -0.40598205 0.039140914 -0.009584453 0.2977129
0.032035045 -0.092127934 0.24980052 -0.03441926 0.1616427 0.023261992 -0.17586511 0.042836577
-0.14530961 0.19157948 -0.026761837 0.022650877 0.2159304 0.024381027 -0.15493414 -0.0981942
-0.1700293 -0.10668377 -0.16555892 0.13536918 0.09746357 -0.18169111 0.037189826 0.12525272
-0.06576722 0.04654724 -0.16790792 -0.066546015 -0.18891197 -0.45414495 -0.22818209 -0.14911717
-0.04505242 0.11234548 -0.06035259 0.2595964 -0.029234951 -0.014120746 -0.03932079 -0.42992935
0.23172463 0.08355991 0.14245702 0.25059208 0.0893914 -0.08950106 -0.15752083 0.06846161
0.057001505 -0.009264523 0.07689026 -0.075551696 0.10330231 -0.05103942 -0.042947818 0.045610595
-0.304128 -0.076570615 0.023444233 -0.09434024 0.2558712 0.117763385 0.23613667 -0.06729462
-0.1746994 -0.36091354 -0.20932285 0.062157698 0.14764619 -0.118819445 -0.008943827 0.031132752

net.2.bias f4 [128]
00000000: 49bf 58bd 6dcd a8bc 8c53 3a3c df7e 88bc
00000010: a10a 023e 9157 b5bb d484 abbc aee3 a03d
00000020: d0a6 56bd 836e acbd 581f a9bd 6531 483d
00000030: 6b42 a03d fec8 c43d 7f21 33bd c93d a83d
00000040: 1602 6c3c 88cf e3ba f4e3 9b3d 0c6b c63d
00000050: d9d7 d2bd ef89 42bd cfef 2fbd cf71 96bb
00000060: 98c6 3abd 58c3 963c 21e0 d3bd 8f57 fb3d
00000070: 58ec bb3d 85a8 c23c 8db7 233d b875 753b
00000080: 7479 f4bb 5a79 d1bc 53fe 463c bb63 703d
00000090: 3f22 24bd cdb2 c13d 14c3 6d3c 799f adbd
000000a0: 8e35 9c3d 5366 143d 7962 95bc 9121 c13d
000000b0: b026 f6bc f2e7 d13a e726 923d fdbb 73bd
000000c0: ae92 18bd 38bb ac3c c3bb b53d 3843 1abd
000000d0: 05b4 8fbc d373 54bd dca6 6f3d e3f6 54bd
000000e0: 0ed0 4abd 70c6 62bd 0a2a 7e3d 4316 923a
000000f0: d7c7 9a3c 94da 4abc cf3f 58bc f235 84bd
00000100: db52 523d 1697 27bc a22f 6ebc 53ca 723d
00000110: 750e 853d 8291 a13d 2f31 033e 89be 0dbd
00000120: 7b8c 17be 6fd3 243e 8876 cd3c ed78 183e
00000130: eb13 073d 0db6 d43d b58d fe3d 38e0 b83b
00000140: 860b bd3c 9d36 50bd eefd 4fba 656a a9bd
00000150: 5248 aebc 8b62 bfbd 51b9 5e3e fc01 1a3d
00000160: 7f84 0bbc 976b 43bb 22ab b23d 5668 60bc
00000170: 34cc 5ebd 1f28 d93c 90e2 633d 3898 9abd
00000180: 69ef 753c 30f4 fb3d 7953 d3bc 4290 19bd
00000190: aeac c33d a556 3ebc 0086 373d f676 843d
000001a0: 6f3c e0bd 9e8a e8bd b7ec 3dbd b387 e8bc
000001b0: 1a13 903c 76ab b23d b8a2 83bd 037f a73d
000001c0: 42c9 483d a4c0 a4bd d5b2 ec3b 1b3b ddbc
000001d0: d88e 983d 97c5 003e 4600 e13d d9c4 f8bd
000001e0: 851b 74bd 78b8 c03c 4cec aabd c202 9bbd
000001f0: 79b2 bdb9 cf48 d1bc 6dc7 503d ae3e 383c
-0.0529168 -0.020605767 0.011372458 -0.01666206 0.12699367 -0.0055341204 -0.02093736 0.078559265
-0.05240518 -0.08419516 -0.082579315 0.04887523 0.07825168 0.09608649 -0.043733116 0.082149096
0.014404794 -0.0017380575 0.07611838 0.09688386 -0.10295076 -0.047494825 -0.04295331 -0.0045912038
-0.04559955 0.018403694 -0.103454836 0.1227256 0.09175938 0.023761997 0.03996997 0.00374542
-0.0074607674 -0.02557056 0.012145597 0.05868886 -0.040071722 0.09457932 0.014511842 -0.084776826
0.07627402 0.036230396 -0.018235432 0.094302304 -0.030047745 0.001601456 0.07136326 -0.05950545
-0.03724926 0.021085367 0.08873703 -0.03766176 -0.017541895 -0.05186827 0.05850874 -0.051993262
-0.049514823 -0.055365026 0.06205181 0.001114555 0.01889412 -0.012381215 -0.013198807 -0.06455602
0.05134855 -0.010228893 -0.014537724 0.059274983 0.06496898 0.078890815 0.12811731 -0.034605537
-0.14799683 0.1609628 0.025080934 0.1488988 0.03297798 0.10386286 0.12429372 0.0056419633
0.023076784 -0.050833333 -0.0007934262 -0.08272246 -0.02127472 -0.093449675 0.2175038 0.03759955
-0.008515476 -0.0029818767 0.08724047 -0.013696751 -0.054393962 0.026508389 0.05563599 -0.07548565
0.015010693 0.123024344 -0.025796639 -0.03749109 0.095544204 -0.011617337 0.044805527 0.064680025
-0.10949027 -0.11354564 -0.046368327 -0.028385019 0.017587233 0.0872411 -0.064275205 0.081785224
0.04902006 -0.08044556 0.007223467 -0.027005723 0.0744912 0.12575375 0.1098638 -0.12146921
-0.059596557 0.023525462 -0.08345851 -0.075688854 -0.00036181862 -0.025547413 0.050971437 0.011245413

net.4.weight f4 [7, 128]
00000000: 3a9a 1b3e 2493 043f 7f2a 8abe fc44 8b3e
00000010: eee2 c73e bbb1 e23d eb49 233d eb11 9c3d
00000020: 8a5e 9a3d 94fe 343f b6c3 2a3e c9e5 243e
00000030: f0af 873d cdf2 3d3e 75fa 753d 39f2 9d3e
00000040: 0478 703f 3627 94bb bfc4 4a3e cc38 8f3d
00000050: a229 fc3d bc7f 473e 9099 aa3e c386 bf3c
00000060: 3d28 213c 62ae 84bc 1985 c0bb e282 a33d
00000070: c48b 01bd f0cc 2a3e a60b 85be 084e b93d
00000080: a87b 453e 61b9 333c 3ba9 69bd 46e0 183e
00000090: fe7b 963e 0d97 343e 5cb1 fe3d f4c1 7b3d
000000a0: bc1c eb3d 4012 893e 99bf 54bd e42f e93d
000000b0: 9716 833e 09ae 3abe b2ef 413e 36f9 613e
000000c0: 0660 543f fcf9 c2bd ae19 2d3e 4ed2 423e
000000d0: 8d2f 923e 3bce 993e d745 053e 1a1d 0cbe
000000e0: a7ae 603e f2f5 483e a1c7 26be 226a 44bd
000000f0: 31b2 10bd 8c3c 4b3e 656c a63e 2752 5cbd
00000100: a49c 783e 84dc f93d 457a 2e3c b037 653e
00000110: b4e9 ca3d d1da 193e f4d8 e53c 4439 94bc
00000120: 641a 503e 44e1 2f3f ce1d 793e 7d56 a33d
00000130: e2ee d0bd ec1c c03a 9b48 95bc 40b8 083d
00000140: 7be7 8c3e 9236 9e3e fb60 213e 9cc4 a5be
00000150: 4a96 db3e b015 923d 040b 913e 1ebf 81be
00000160: 1409 0a3e db3f 813c 0912 453e 8ce6 0e3e
00000170: d6a5 073d 016a 663e 71e6 0a3e fadf c53e
00000180: 0a6d 4b3e 97c2 3e3e df06 853c 833e 103e
00000190: cd43 803e 5c0a 513d fe7c 003e b2ca 0f3e
000001a0: 753e 2f3e b4f9 843e 4413 f73d 4781 87be
000001b0: 1a19 f63e 75a7 563e dfe1 833d 4bd9 653d
000001c0: 3e97 f03d abbb b03e 0054 443d 67e7 20bc
000001d0: bd7c d63d 64d2 283e 24ea f73d 66f9 5f3e
000001e0: f997 cfb9 eebc 773d 85dc 3b3e 3674 933e
000001f0: 9b58 fb3d 287f 463e 8df8 2a3e d7be f13d
00000200: 4396 8a3d 7d5d cc3e 2897 e8bd b36f 2b3e
00000210: e848 1c3f 9350 4c3e 8ad6 d93d f127 b93d
00000220: baaa 843e 1bc7 913e 548b 433e 58b6 3d3e
00000230: 2620 1ebc 70ec c93e 91e7 373e 3530 8b3e
00000240: 71ec a63d 3ad0 0ebd 45e3 a03e a889 4f3e
00000250: 70b8 043e 9700 083c f7aa 463e 9857 50bd
00000260: 22e0 60be 1830 1a3f 7d74 253d fec6 bd3d
00000270: 19a3 2abc fd30 9c3d d11a 97be d462 a3bd
00000280: e5b7 1e3e 1e9e 2f3c f37b 0cbe 7d6d 963e
00000290: b0cf 3e3e dc92 7a3e f322 6b3e 56c9 9b3d
000002a0: 7c8b e33d a25e 2f3e 95dc e0bc 088d 583d
000002b0: 4f06 8f3e c03e ef3d a0fc 353e 35e6 0b3e
000002c0: de29 9e3e dacc 80be 87c3 943e f583 103e
000002d0: babf 833e e52e a0bd a7c3 733e fba0 60bd
000002e0: 4b2a 8d3e 3768 4e3e 95e2 3d3e 4502 673e
000002f0: e0d7 01bc 3b0e 323e 7379 9b3d 1d16 9e3d
00000300: fa65 893e 0f41 153e 89a7 b23e 4700 d13d
00000310: 66f0 683e 94f2 2a3e dc5e e73d 622b 9cbd
00000320: 0207 a33e dd30 7d3f 7152 023e d020 f9bc
00000330: c6f2 e3bd 48ae 673d b90a 05be e94f 1f3e
00000340: 9b69 833e 61b8 573e 4083 fd3d 890d 27be
00000350: 853b 29be a1bb de3d ca78 573f 806d 29be
00000360: 90fe 663e a173 103d c956 8fbd 55b8 1a3e
00000370: 041b 85bd f68c 9d3d 6b86 0d3e a666 b03e
00000380: e9f2 ba3d e9e4 733e 6af8 e5bd bf2e 993d
00000390: 3e80 3f3e 88b1 0fbc b2b8 ac3d 9270 903d
000003a0: 625b 703e 1d4f 0b3e 0821 083e 967c ad3d
000003b0: 3c58 8b3e 9b85 3a3b 8e96 743e 3f85 563e
000003c0: a668 6dbe 27be 993e 8a20 12be e145 36be
000003d0: 4be5 32be eb51 6e3e ce52 ec3d f469 b93e
000003e0: 56a2 333b a36f 523d b40d 163e 1767 843e
000003f0: 24f6 4d3e 3e2f 1a3e 6af6 4b3e 7a7d 253d
0.15195552 0.5178702 -0.26985547 0.27201068 0.3904032 0.11069056 0.039865416 0.07620605
0.07537563 0.70700955 0.1667622 0.16103281 0.06625354 0.18549652 0.060053308 0.30848864
0.9393313 -0.004521276 0.19801615 0.06993255 0.12312628 0.1948232 0.33320284 0.02337969
0.009836254 -0.016196433 -0.0058752415 0.07983948 -0.03162743 0.1667974 -0.2598545 0.090480864
0.19285452 0.010969491 -0.057046156 0.14929304 0.29391474 0.17635746 0.12436172 0.061464265
0.1148009 0.26771736 -0.051940534 0.113860875 0.25603172 -0.18230452 0.18939093 0.22067723
0.8295902 -0.09520337 0.16904327 0.19025537 0.28551903 0.30040154 0.13014923 -0.13682976
0.21941625 0.1962507 -0.1628709 -0.04795278 -0.035326187 0.19847316 0.32504573 -0.053789284
0.24278504 0.12200263 0.0106492685 0.22384524 0.099078566 0.15024878 0.028057553 -0.018093713
0.20322567 0.68703103 0.24327776 0.07975481 -0.10201813 0.0014657057 -0.018223098 0.03337884
0.27520356 0.3090101 0.15759651 -0.32376564 0.428881 0.07133043 0.28328717 -0.25341123
0.13480026 0.015777519 0.19245161 0.13955134 0.033117138 0.22501375 0.13564469 0.38647443
0.19865814 0.18628918 0.016238628 0.14086346 0.25051728 0.05103527 0.1254768 0.14042166
0.17113669 0.25971758 0.120642215 -0.26465818 0.48066026 0.20962317 0.06439566 0.05611543
0.11747597 0.3451818 0.04793167 -0.009820796 0.10473011 0.16486508 0.12105206 0.21872482
-0.00039595345 0.06048291 0.1834584 0.287996 0.122727595 0.19384444 0.16696377 0.11803978
0.067669414 0.39915076 -0.11356956 0.16741829 0.61048746 0.19952612 0.10636623 0.09040821
0.25911504 0.28472218 0.19096118 0.1852659 -0.0096512195 0.394382 0.1795943 0.27185217
0.08150566 -0.03486655 0.31423393 0.20267355 0.12960982 0.008300922 0.19401155 -0.050864786
-0.219605 0.60229635 0.040394295 0.092664704 -0.010414862 0.07626531 -0.29512647 -0.07977834
0.15499838 0.01071885 -0.13719158 0.29380408 0.18633914 0.24470085 0.22962551 0.07606761
0.11110589 0.17125943 -0.027448932 0.052868873 0.279345 0.116818905 0.1777215 0.13662036
0.30891317 -0.2515629 0.29055426 0.14112838 0.25732213 -0.078214444 0.23805104 -0.054841023
0.2757133 0.20156942 0.18543465 0.2255946 -0.007925004 0.17388241 0.07591524 0.077190615
0.26835614 0.14575599 0.34893444 0.10205131 0.22747955 0.16694099 0.1129739 -0.07625462
0.31841284 0.98902684 0.12726761 -0.030411154 -0.1113029 0.056562692 -0.12992372 0.15557827
0.25666508 0.21066429 0.123785496 -0.16313757 -0.16526611 0.10875631 0.84168684 -0.16545677
0.22558045 0.035266522 -0.06998975 0.1510938 -0.064992934 0.07692902 0.13820808 0.34453315
0.09128363 0.23817791 -0.11229022 0.07479619 0.18701264 -0.008770354 0.08433665 0.07052721
0.2347236 0.13604398 0.1329385 0.084710285 0.27215755 0.0028460983 0.23885557 0.20949267
-0.23184451 0.30027887 -0.14270225 -0.17800094 -0.17470281 0.23273437 0.11539231 0.36213648
0.0027409992 0.051375996 0.14653665 0.258599 0.20113426 0.15057084 0.19918218 0.040402867

net.4.bias f4 [7]
00000000: b33f ef3d 0c6d 31bb f668 393c f457 14bd
00000010: c8c2 203c 65e5 d7bd 5001 c23d
0.116820715 -0.0027073054 0.011316529 -0.03621669 0.0098120645 -0.105418004 0.094729066
