coup_nsfp/0.95G10kEp0.1to0.02e-4/nfsp_coup_demo_best_agent_challenge.pt (torch, 84389 bytes, 6 tensors)

net.0.weight f4 [128, 26]
00000000: 89ab ae3d 5cf2 6dbe 431a 2b3e 538f 673d
00000010: 1ac5 3d3e e503 afbd 5581 71bc 6252 2d3e
00000020: 10b0 2b3e 5a86 23be 3104 013e e20c 5bbd
00000030: 823d 41be a526 69bd 4ff1 103e a89a 9fbc
00000040: c0d4 5bbd b837 8dbd d659 20be 136a 163e
00000050: 5b41 e3bd ca5d 66bd f9ad c53d 1cac 013e
00000060: c077 df3d 2cc5 803d c62c 7cbc 232b cd3d
00000070: b54d d43c c21f 54be e482 353c 9476 ce3d
00000080: bfe1 133e 8ddc 3e3d eda5 0c3e 6610 683e
00000090: de8a bcbd a1af 0cbe 9c42 b83d c5d4 083e
000000a0: c090 6b3d d037 d9bd 1ed9 a53c 19eb 3d3c
000000b0: b5df 82bd 7c29 593d b44b 56bd 493e 063e
000000c0: 6a41 58bd f6d4 dfbd 4548 d1bd 97c5 edbd
000000d0: 09b5 503c d85c da3d c57c 68bd e60b 4ebd
000000e0: 84e6 323e 317d 52bc ae9f 37be 5a36 7cbc
000000f0: c089 fa3c 14aa 3d3e 0938 8cbd 95a2 d6bd
00000100: 39d2 123e a74b 93bd ffc5 7fbd 0760 72be
00000110: 1c04 1abe 7299 22be 116e 02be 8381 f9bd
00000120: 4f44 123e 19db f83d 1760 11be de36 aa3d
00000130: 13d0 3d3e ad96 03bd d7b0 d4bc c7f1 ffbd
00000140: 3b7c 103d e24d 3bbe 1420 cfbd 4084 27be
00000150: b7c5 40be d68b e5bc 7f81 3ebe 1412 cbbd
00000160: 5172 ecbd 141e 9b3c e68a 123c 90a7 76bd
00000170: 89f5 b0bc ab5f 7cbd 0fe5 12be 6ddd ef3d
00000180: bb1a c73d d83e d0bd 0a30 243e 5d61 e5bd
00000190: 4a26 403e 104b 8f3d 9ca8 353e 1e6d 9ebd
000001a0: 0d4a 3dbe c592 2bbe e761 5e3d fc14 c7bd
000001b0: 075f 29be 893e 28be 95cf 3bbe b6ea 2bbe
000001c0: 01c4 0c3e ecd3 453e e440 efbd ad18 063e
000001d0: 70b6 0a3e e78e 6d3d 8584 01be e402 10be
000001e0: 6254 1ebe b997 60bd a44c 3ebe c8ca 153e
000001f0: 083f e7bd f6ce 1abc 9fa3 b7bd 4762 463e
00000200: 364d 94bc d8c0 3b3e b1bb f9bd fdcc c03d
00000210: 523c 31bd 72fa 52be e025 253e 3e9a 0ebe
00000220: 1fe1 fe3d bbb7 2bbe 5976 eebd 54b0 413e
00000230: 865a 643e 353d 783d b3f7 103e 99f6 c63c
00000240: 05c7 513d 8030 1cbe 67ec 2cbe 2dc7 303e
00000250: 731d 3f3e c33e d1bd a157 513e 7d20 433b
00000260: 7a7f fd3d acbb c9bd 6881 203e e996 cfbd
00000270: f6b2 2a3e b599 19be c78b 85bd b1ca 79bd
00000280: 5428 37be 7816 cf3c 8324 f73d f1ba d83c
00000290: a581 c8bc 9004 f93d f09d e23d 565e a43d
000002a0: 0964 90be 5ad4 21be 91fe 113e 6bb5 a3be
000002b0: 5807 afbd 5188 313e 345a bc3d cc0d fb3d
000002c0: e07c 3cbe 205f e8bd aa47 d83d 3ef1 b3bc
000002d0: d034 1a3e 9e80 85bd e5ad 0cbe dcb1 b1bd
000002e0: 55a1 37be d2ff 553e b23b cebd cbab 35bd
000002f0: 668f 623e 3be5 7ebd d808 3f3e c8d3 c63c
00000300: 9d70 f33d 2cd7 553e b807 f9bc 7f77 cabd
00000310: a7da 7dbd 302d 1cbe faff 943d 4b92 493d
00000320: 10f4 d03d cf2c 923d b7de 213e 9264 25be
00000330: 5ec0 29be 1d16 ca3d f9b8 64bc bdda 3a3e
00000340: 1e31 813d 1cea 18be 9b02 233e 4806 3a3e
00000350: 8ce1 54bd 1088 4e3e e82a 283e 048d 6ebd
00000360: 2559 90bd 24ee 52be 227b 97bd a9ab 9ebd
00000370: 6b01 3e3d a04e 99bd 0eef dfbd 54bc 26bd
00000380: 8a37 29be 5c60 2fbe 42ab 8e3d 58d7 723c
00000390: 6599 29be fccf e7bc 0bdf 0f3e f119 103e
000003a0: 5744 d7bd 4fb4 17be d2da 14be 05a9 353d
000003b0: 2f43 51be caf7 dd3d 5977 f5bd ce07 45be
000003c0: 294b 9f3d f3ef 0dbe daca 2abe 7f5d 443e
000003d0: 71b5 1c3e 9281 67be 516b c53d 3c6b e8bc
000003e0: a9ea 2d3e 21ba a53d febe 333e ec03 463e
000003f0: 26c5 c8bd 1d1f e0bd e7f3 033e 42dc bf3d
0.085288115 -0.23236984 0.16709237 0.05653317 0.1853222 -0.08545665 -0.014740308 0.16925958
0.16766381 -0.1596922 0.12599255 -0.053479083 -0.1887112 -0.05692162 0.14154552 -0.019482926
-0.05366969 -0.06895393 -0.1565927 0.14688902 -0.1109645 -0.056241788 0.09652323 0.12663311
0.109115124 0.062876076 -0.015391534 0.10017993 0.02591596 -0.2071524 0.01107857 0.10081211
0.14441584 0.046597052 0.1373517 0.22662506 -0.09206174 -0.13738872 0.0899708 0.13362415
0.05751109 -0.106063485 0.020245131 0.011591696 -0.06390325 0.05301808 -0.05231829 0.13109697
-0.05279676 -0.10929291 -0.102188624 -0.11609953 0.012738475 0.1066224 -0.056759614 -0.050304316
0.17470747 -0.012847231 -0.17932007 -0.015393818 0.030583262 0.18521911 -0.06846625 -0.10480229
0.14338006 -0.07192164 -0.062444683 -0.23669444 -0.1504063 -0.15878847 -0.127373 -0.121829055
0.1428387 0.121511646 -0.14196812 0.08311246 0.18536405 -0.032126117 -0.02596323 -0.12497287
0.035274725 -0.18291429 -0.1011354 -0.16359043 -0.18825422 -0.02802078 -0.18604086 -0.099155575
-0.115452416 0.01893524 0.008944249 -0.060218394 -0.021601455 -0.061614674 -0.14345191 0.117121555
0.09721895 -0.101682365 0.1603395 -0.11200211 0.18764606 0.06996739 0.177401 -0.07735656
-0.1848528 -0.16755207 0.054292586 -0.09720799 -0.16540156 -0.16430105 -0.18340905 -0.16788754
0.13746645 0.19319123 -0.11682299 0.1309535 0.13546157 0.05799761 -0.12648208 -0.14063603
-0.15461877 -0.054832194 -0.18583924 0.14628136 -0.11291319 -0.009448757 -0.08966755 0.19373427
-0.018103223 0.18335283 -0.121940024 0.094140984 -0.043270417 -0.2060335 0.1612773 -0.13926026
0.12445282 -0.16769306 -0.11643667 0.1891492 0.22300157 0.060605247 0.1415699 0.024287509
0.05121519 -0.15252876 -0.16887055 0.1726348 0.18663578 -0.10217049 0.20443584 0.0029774003
0.1237783 -0.09850249 0.15674365 -0.10136206 0.1666983 -0.15000041 -0.06520801 -0.060984317
-0.17886478 0.025279269 0.12067511 0.026456328 -0.024475882 0.12159073 0.110652804 0.08025806
-0.2820132 -0.15803662 0.14257266 -0.31974348 -0.085463226 0.17337157 0.091968924 0.12258491
-0.18407011 -0.11346269 0.10560544 -0.02196562 0.15059209 -0.065186724 -0.1373821 -0.08676502
-0.17932637 0.20898369 -0.1006998 -0.044353288 0.22125015 -0.06223033 0.18655717 0.024270907
0.11886714 0.20882863 -0.030399188 -0.09886073 -0.0619761 -0.15251613 0.07275386 0.04921178
0.10202801 0.07137453 0.15807615 -0.16151646 -0.16577289 0.09867499 -0.013960117 0.18247505
0.063081965 -0.14933056 0.15918963 0.18166459 -0.05197291 0.20169091 0.16422617 -0.05823995
-0.07048253 -0.20598656 -0.073965326 -0.07747585 0.04638807 -0.074857 -0.10934268 -0.040706947
-0.16525093 -0.17126602 0.069662586 0.01482185 -0.16562422 -0.028297417 0.14049928 0.14072396
-0.10511082 -0.14814876 -0.14536598 0.044350643 -0.20435785 0.10838278 -0.119856544 -0.19241259
0.077780075 -0.13861065 -0.16678944 0.19176291 0.1530359 -0.22608021 0.096396096 -0.028371446
0.16984047 0.08092142 0.17553326 0.19337434 -0.09803228 -0.109434344 0.1288601 0.09368183

net.0.bias f4 [128]
00000000: 386f 773d 72d9 613d 7587 dfbd f98c 003e
00000010: 3efd 983d bef3 35be 7150 30bd ea0f babd
00000020: 0bc5 423e 3f96 1ebd 039d 7c3d d5e5 9ebd
00000030: 5aa9 d43c d41f 02be fce3 e5bc 4f90 bbbd
00000040: 107c 3f3e 92a1 03bd a610 f3bd 54c0 b23d
00000050: 7455 2b3d 704b 14be 38e7 d73c 63f2 4abe
00000060: 7779 85bd 5e96 143e 2b83 9b3d 844d e3bd
00000070: d897 28be 96dd 53be 5238 293e 9075 383e
00000080: 51bf 75bd ec10 0a3e c312 443e 6a0b 973d
00000090: ce41 9ebd 44b9 1cbe 3603 b9bd 612b 2fbe
000000a0: 2f41 0b3d efa2 323e 1507 973d bd75 38bd
000000b0: e4f9 13bd 171d e8bd 777b 48be ea5a 2a3e
000000c0: 43a5 0ebe a86f 43bd 25b5 12be 7143 ccbd
000000d0: 5089 bd3d 9358 0bbd 203a 36be d16e bf3c
000000e0: 8697 c0bd 3b5d f33d ef2d 8cbd bf92 19be
000000f0: 9e97 2f3e 80fe a2bd be47 0a3e 9202 223e
00000100: c69d babd 71cc f63d a8d4 0abd dc62 d83b
00000110: 666e f03d 0c86 c53d 8055 7dbd 7295 c7bd
00000120: 7ee5 443d b13c 753d 768b 293e 1e58 b03d
00000130: 0095 44bd 405e ff3b ffa3 1c3e c005 42be
00000140: b02b 1cbd 8b8c 31be 4fca 11bd b77e 263e
00000150: d465 36be 3e93 c43d 299a cb3d 702c 553d
00000160: addd e93d 222e a53d c31d 083e f425 9d3d
00000170: 05bc 01be 7c7a a73d 9a08 13bb f8c3 c8bc
00000180: 834e 34bd 46ae 0ebe 0e11 51bd a330 043e
00000190: dade f73c ded7 73bc aec5 703d fdec 173e
000001a0: abb0 cabd c0b0 143d c50c 913d 49e2 363e
000001b0: 33a3 243e 063e 843d e69c 253e 680d 3f3e
000001c0: d67e abbd 4449 d23c a33e d4bd 34a1 debd
000001d0: a203 233d 245f 9c3d b421 3cbe 181f 9abd
000001e0: 5a8d f13d 340a 5e3d cf21 cfbd cc42 10be
000001f0: 7daa 7abc d3ad abbb 273b d33c fbde 28bd
0.0604088 0.055139013 -0.10914508 0.12553777 0.07470177 -0.17768762 -0.043045465 -0.090850666
0.19020478 -0.038717505 0.061673176 -0.07758681 0.02595966 -0.12707454 -0.028062813 -0.09158384
0.1869967 -0.032136507 -0.1186841 0.0872809 0.04182954 -0.14481902 0.02635537 -0.19819026
-0.06517308 0.14510486 0.07593378 -0.11098769 -0.16464174 -0.20689997 0.1652539 0.18013597
-0.059996907 0.13483018 0.19147782 0.07375224 -0.07727395 -0.15305048 -0.090338156 -0.17106391
0.03399771 0.17444967 0.07374398 -0.04503416 -0.036126986 -0.113336734 -0.19578348 0.16636243
-0.1393023 -0.047713906 -0.14326914 -0.09973801 0.09254706 -0.034020018 -0.1779561 0.023368271
-0.09403901 0.11883017 -0.06844699 -0.14997385 0.17147681 -0.07958698 0.1350393 0.15821293
-0.09112124 0.12050713 -0.03389421 0.006603582 0.11739807 0.09644708 -0.061849117 -0.09745301
0.048070423 0.059872333 0.16557106 0.08610557 -0.04799366 0.007793218 0.15296935 -0.18947506
-0.0381276 -0.17338769 -0.035593327 0.16259275 -0.17812282 0.09598397 0.09941513 0.052044332
0.114192344 0.0806544 0.13292603 0.076732546 -0.1266938 0.08177659 -0.0022435547 -0.024507508
-0.044020187 -0.13933668 -0.051041655 0.12909178 0.030257631 -0.01488301 0.058782272 0.14836498
-0.09896978 0.036301374 0.07082514 0.17859758 0.1607788 0.064571425 0.16173133 0.18657458
-0.083738014 0.025669701 -0.103635095 -0.10870591 0.039798386 0.07635334 -0.18372232 -0.07525462
0.11794539 0.05420895 -0.1011387 -0.14087981 -0.015299437 -0.0052392273 0.025785042 -0.041228276

net.2.weight f4 [128, 128]
00000000: f6b5 b83d a51a 1a3c 9957 833c 76b7 8dbd
00000010: e16f 9dbd 9b10 e93d bfa8 683c 0d56 8dbd
00000020: 9f0d b6bd 2ed6 5f3d 5104 9bbc fced 1d3e
00000030: 7b0e 03be 4d9f 04bd 9de9 7bbd dc22 99bb
00000040: 48f2 ec3c 0161 52bd 6144 7d3d 3dd2 bfbd
00000050: fd15 d3bb bc65 163d 40bc fbbb 3360 433b
00000060: e3af d4bd 2247 703d f2a8 dd3c 6372 a13d
00000070: 16d5 83bd 44d7 383d c544 8ebc 4e27 17bd
00000080: 5c84 533b ed7e 8b3c 274b 89bc 2bca a63d
00000090: 66d7 6abd 8711 9f3c e1c4 8e3c 1377 1abd
000000a0: 7fd1 723d 083e d83c adb2 a7bd 2f7b ccbc
000000b0: 414b 6a3c ac90 d5bb 2591 15bd 3031 553d
000000c0: b9c2 68bd 9ef8 98bd 5433 29bc b6e0 a2bd
000000d0: 8e09 953d f59d c73d 8666 74bc ba17 f83c
000000e0: ae75 42bd 437c d4bb da9c 283d da50 aa3c
000000f0: d86c 80bc 9049 4b3a 0c45 11bc f715 4abd
00000100: acde a33d 10a7 f13b 4f8a 90bd 70a4 31bd
00000110: 1dfd efbc e2d3 963c 1372 b43d 504a 293b
00000120: 1b2f 253d be14 173d 2040 063c 5f3e 363c
00000130: be0b c13d 9e6e 373d 764e 023d 97ae 2bbe
00000140: 88c9 9cbd 0a5b edbc d200 403d eda9 1c3d
00000150: 29d8 88bb 8ab1 0abd ffa4 a53d d778 933c
00000160: 1a71 96bd ecf6 a1bd 7181 523c 57e8 edbc
00000170: 18ad 8dbd d9a8 6ebd 53a6 acbc 98dc 2f3d
00000180: b8c6 743d 12f5 c3bc 71fb 39bc 13a6 d43d
00000190: a65b 5e38 30ac a53c 969f 0cbe 2286 963d
000001a0: 24fc 553d d648 32bd 9a42 f23c 1ee8 3b3d
000001b0: 40ba 773c 3c7d 53bd 2f6b a3bd b1d7 603c
000001c0: bd83 863d d4c1 36bd 8e9a 4a3d 151d 893d
000001d0: 8b97 8dbd 3e2d 9f3d 849f a5bd b4e8 8b3d
000001e0: 86d6 a03b 0a2c 17bc 9fd1 9e3c 25ca 4a3d
000001f0: 1a11 7dbd ec3c 1cbd 196d 1bbd 59e1 b53c
00000200: 7cde c43b a516 73bc 137e adbc a4ef 7fbd
00000210: 55d7 1d3d 000b bf3c 699a 913d 43e9 973d
00000220: 2521 ffbb 83c4 6ebd 3e76 883d b1a0 363e
00000230: 8963 8dbd b242 94bd b31f 973d 58d7 ed3c
00000240: d1e1 2abd 7055 9bbd f94d 88bd 5d5b 91bd
00000250: 690b 1ebd cdcc 903d 386b dfbd 0e79 a1bd
00000260: 68d9 743c 7346 54bd 5249 933d bc96 af3d
00000270: ecee 993d dda1 533d 7e0e 583d 849a f6bc
00000280: 0829 23bd 7436 eb3c 4942 c3bc 2ff9 8d3b
00000290: 0690 803d bd1f 94bd 1d9a e93d b8b7 593c
000002a0: 0020 cbbc 6160 8bbd eb62 233d 1dbc a13d
000002b0: 1774 cf3d ff29 f7bc 29c5 0e3d 3567 7ebd
000002c0: f1ff c4bb 81d9 f7ba ab4b 2b3e 35c1 6c3c
000002d0: 8feb 04bd 8fb5 e43c 7e25 a6bd 0b43 1739
000002e0: f736 cb3b a725 523d 9641 183e 7d09 9a3d
000002f0: 9f38 8dbd 0016 dc39 ed28 efbc 3755 533d
00000300: ee8d c0bd ab03 c5bb ceda 5ebb e980 01bd
00000310: edc0 7e3c d56f f1bb cc3c 3a3d 4e47 803d
00000320: 494b c7bc 4dcd 51bd 632c 8d3d 40e2 db3b
00000330: 4bbe acbc 615b 4a3d a064 803d 6862 2c3b
00000340: 42f7 053d 13b6 abbc 135a c23d 6527 91bd
00000350: 5660 75bd b78e 83bd d3c7 71bc 9761 703d
00000360: 5630 84ba 298b 30bd ba4d fbbd 805e 8dbc
00000370: 1e0d 113d 3f50 4b3d d8c8 5a3d 4294 c5bc
00000380: 983d 8e3d 7541 04be 26bb fe3d b0ea b83d
00000390: 42a0 303c 5929 8b3d 12cf 0dbe 3361 ecbb
000003a0: 6fbc c43d cd74 87bc d03a c63c d7a3 293d
000003b0: 68c5 abbc bb40 94bd 0933 fdba c0fd 12bd
000003c0: a950 92bd a166 09bd a079 0d3d 5994 86bd
000003d0: a07a b33d f978 183d 8b32 ab3c 8411 d23c
000003e0: 14cd e03c a960 8abc 235c 733d 13a1 9a3d
000003f0: 381e c5bc dd81 3f3d d640 383c 4f0d 3fbc
0.09019081 0.009405767 0.01603298 -0.06919758 -0.07687355 0.1138012 0.014200388 -0.069011785
-0.08889317 0.054647617 -0.018922957 0.15422815 -0.12798493 -0.032378484 -0.061502088 -0.004673345
0.028924122 -0.05136204 0.06183279 -0.09366272 -0.00644183 0.036718115 -0.0076823533 0.0029811978
-0.1038511 0.058661588 0.027058098 0.07883146 -0.06437127 0.04512717 -0.017366776 -0.03690272
0.0032274937 0.017028296 -0.016759468 0.08144029 -0.057334326 0.019417537 0.017427864 -0.037711214
0.059281822 0.026396766 -0.081883766 -0.024961082 0.0143001685 -0.0065174904 -0.036515374 0.052048862
-0.056826327 -0.07469295 -0.010327179 -0.079530165 0.07277213 0.09746925 -0.014917022 0.030284751
-0.04747551 -0.0064845397 0.04116521 0.020790506 -0.0156769 0.0007754797 -0.00886656 -0.049337354
0.08001456 0.0073746517 -0.0705763 -0.04336971 -0.029295499 0.01841158 0.088108204 0.0025831647
0.040328126 0.036885016 0.0081939995 0.011123269 0.09426068 0.044783227 0.031813107 -0.1676582
-0.076556265 -0.028974075 0.046875782 0.03824799 -0.004176159 -0.03386072 0.08088111 0.018001957
-0.07345791 -0.07908425 0.012848244 -0.029041452 -0.06917781 -0.058266494 -0.021075403 0.042934984
0.059759825 -0.02392057 -0.011351452 0.10383239 5.301428e-05 0.020223707 -0.13732752 0.073498026
0.052242413 -0.043526493 0.029572774 0.04587566 0.015120089 -0.051633105 -0.07979428 0.0137233
0.06568096 -0.044618443 0.0494638 0.06695 -0.0691367 0.07772301 -0.08087066 0.06831494
0.0049083857 -0.009226808 0.019387065 0.049509186 -0.061783887 -0.038144037 -0.03794584 0.02220218
0.0060079675 -0.014836942 -0.021178281 -0.0624844 0.038535435 0.023320675 0.071095295 0.07417538
-0.0077859336 -0.058292877 0.06663178 0.17834736 -0.069037504 -0.072392836 0.07379093 0.029033348
-0.04171926 -0.07584655 -0.06655497 -0.07097504 -0.0385851 0.07070313 -0.10909122 -0.078844175
0.014944412 -0.051824998 0.07191719 0.08573672 0.07516274 0.051668037 0.052748196 -0.030102976
-0.039834052 0.028712489 -0.023835318 0.0043326835 0.0627747 -0.07232616 0.11406348 0.013288431
-0.024795532 -0.06805492 0.039889257 0.07897208 0.10129564 -0.030171392 0.034855995 -0.062110145
-0.006011956 -0.0018909426 0.16728084 0.014450361 -0.03245121 0.027918605 -0.0811262 0.00014425458
0.0062016207 0.05130544 0.14868769 0.07521341 -0.06895565 0.0004197806 -0.02919432 0.05159494
-0.09402071 -0.0060124 -0.003400493 -0.03161708 0.015548927 -0.0073680677 0.045468137 0.062636
-0.024327891 -0.05122118 0.06893232 0.0067103207 -0.021086833 0.049403552 0.06269193 0.0026303772
0.032706507 -0.020960843 0.094898365 -0.07087592 -0.059906326 -0.06423705 -0.014757114 0.05868682
-0.0010085206 -0.043101463 -0.122706845 -0.017256975 0.0354129 0.049637076 0.053414196 -0.024118546
0.06945342 -0.12915595 0.124380395 0.09029138 0.010780396 0.06794996 -0.13848522 -0.0072137355
0.09606253 -0.016535187 0.024197966 0.041416015 -0.020968154 -0.07238909 -0.0019317578 -0.035886526
-0.07144291 -0.03354514 0.03453982 -0.06571264 0.08763623 0.037224744 0.020898124 0.025643118
0.027441539 -0.016891794 0.05941404 0.07550254 -0.024062261 0.046754707 0.011245927 -0.011660888

net.2.bias f4 [128]
00000000: 5c58 a63d 7314 22bc c850 65bd 8e5f 7fbd
00000010: f0be e53c 10f2 7dbd 650b 2f3d 655c 7cbb
00000020: 4467 473d 6e35 0b3d 7966 a73d 6822 453c
00000030: 10a3 aabd b207 c03c 84a4 7a38 f4a6 68bd
00000040: 58ab 24bb f29f 303d edf2 f13c 34f1 283d
00000050: 23b1 553d beb3 abbd b6e9 013d 3eaa 033c
00000060: a073 6a3d 1abb 673d f2e1 493d afef 553d
00000070: ab6c 5ebd c9cd 42bd 36be 993d 243a 5ebc
00000080: 5362 92bc 024f 13bb 0109 76bd db3d fdbc
00000090: 03f9 b03c e649 8f3d 9cec c7bc ab57 f23a
000000a0: c631 bfbc d8f3 8a3d b1ff 2d3d 4e02 dfbc
000000b0: 056e 2cbd 65d4 323c 1efd 923d de1f 4f3d
000000c0: d9c7 953b 30b8 06bd 92cd d73c 11d7 70bd
000000d0: d2c1 593c b88d a2bd 8774 8cbd 7ea2 20bd
000000e0: 23e7 7f3d 9d19 bcbb 93cf fc3a f3c5 b93d
000000f0: a0e2 343d ae2b 933d 62c1 9fbc a9f9 393d
00000100: 148e b53d 904b 413d 75c9 76bc 781e aabc
00000110: 956a 54bd 0a70 733d 71e2 13bc 1507 7cbd
00000120: c9d2 963c 9746 66bd d57b 7d3c dc70 8a3d
00000130: be17 9d3a c660 33bd 5938 103d 14ab 78bb
00000140: 03c6 ceb9 1c51 7cbd 9701 3ebd 7f12 8a3d
00000150: ffd0 73bc 8578 99bd af52 4cbd 216a 65bd
00000160: 6e63 1fbd 9388 9cbd 4d37 933d c360 963d
00000170: b5bb 973d 7f9e deba 3e3d a73d a091 2cbc
00000180: a096 b33d 09fa 9dbb 2425 36bd 2049 cabc
00000190: 9d7f 673d fe64 8dbd 586d a63d 757e 01bd
000001a0: 31fa a13d e071 b43d f453 893d 2085 55bd
000001b0: b594 1abd d0f8 a8bc a0a9 743d 3311 e43c
000001c0: 4d12 84bd 6540 7e3d be4c 363c 2ab3 9d3d
000001d0: 32c3 993d 351b a53d ffbd 273d d057 41bd
000001e0: 27af 24bd 2612 aabd faca 893d e6dd 07bd
000001f0: 9994 813d 3f12 d33c e9bb 483c 0cf3 d3bc
0.08122322 -0.009892571 -0.055985242 -0.062346987 0.028045148 -0.061998427 0.042735476 -0.003850722
0.048682466 0.0339865 0.08173842 0.012032129 -0.08331883 0.02344117 5.9757862e-05 -0.056799844
-0.0025126543 0.043121286 0.029534781 0.041245654 0.052170884 -0.083838925 0.031717025 0.008036194
0.057239175 0.05657492 0.049287744 0.052230533 -0.054302853 -0.047559533 0.07506983 -0.0135636665
-0.01786915 -0.0022477512 -0.06006718 -0.030913284 0.021603113 0.06996517 -0.024404816 0.0018489262
-0.023339164 0.06784791 0.042480174 -0.027222779 -0.04209711 0.010914897 0.071771845 0.0505675
0.004570943 -0.0328905 0.02634314 -0.058798853 0.013290839 -0.07937187 -0.06858163 -0.039217465
0.06247629 -0.005740358 0.0019287936 0.09070959 0.04416144 0.071860656 -0.019501392 0.04540411
0.0886499 0.047191203 -0.01506268 -0.020766482 -0.051859457 0.05943302 -0.009026156 -0.06153019
0.018411057 -0.056219663 0.015471418 0.067598075 0.0011985225 -0.043793462 0.035209987 -0.0037943767
-0.00039438912 -0.06160079 -0.046388235 0.06741809 -0.0148813715 -0.074936904 -0.04988354 -0.056009416
-0.038913183 -0.07643237 0.07188282 0.073426746 0.07408849 -0.0016984491 0.08165978 -0.010532767
0.08768964 -0.0048210663 -0.044469014 -0.024693072 0.056518186 -0.06904028 0.081263244 -0.03161474
0.07909048 0.088107824 0.06705466 -0.05212891 -0.037739474 -0.020626456 0.05973208 0.027840232
-0.06448803 0.06207313 0.011126695 0.077001885 0.07507934 0.0806183 0.04095268 -0.047202885
-0.0402061 -0.08304243 0.06728168 -0.033170603 0.06327171 0.025765536 0.0122518325 -0.02587273

net.4.weight f4 [2, 128]
00000000: 1c97 29bd 1ce3 b4bd 61ba 153e 726a 533e
00000010: 48d7 383d 7b49 24be 0875 4dbd 0852 ffbd
00000020: 4516 d03d 950e cfbd 0744 b83d 9166 953d
00000030: e379 92bc e2c6 0dbe 6513 09be 5f9b 5d3e
00000040: 2756 0c3e 7d0c 343b 13dd a33c d603 9bbd
00000050: 0b3b 90bd de8e ab3d cedb 77bc faaa f4bd
00000060: 8476 ba3d 6779 78bb 4e70 b03d 62fb ecbd
00000070: cb42 0abe d1a3 46be 53f5 0fbc fa4e 7dbd
00000080: 2992 ae3d c845 f33d f52c 1b3d 8843 b8bc
00000090: e43b f2bd 6ffb 463e 2af1 053d d8c6 4a3d
000000a0: b89a 28be 416f 383d a378 7a3d 8e2a 143e
000000b0: d45e 9d3d d995 a93d 388f dcb9 73d8 f93d
000000c0: cba4 683e 337d 85bd 51ce 7abd 8cda dcbd
000000d0: 5a49 3ebe b40c a13d a96b 37be 1d16 e2bd
000000e0: 33c9 a23c f3e9 323e ee07 07be f2f7 a7bd
000000f0: 0735 0d3e ab9c 47bd 5c33 ea3d 20a3 9bbd
00000100: ecbd 20be cb59 0f3e e583 00bd a89c 11be
00000110: 2081 03be c063 f53d 6b3b 0c3e c5b6 fb3d
00000120: 2862 e7bd faa9 f53c 400a 0abe 9d39 cabd
00000130: 718e 1fbe bcef 2fbd 0ee2 eebd 4f2d cabd
00000140: b19a aa3d 470f 253e b268 543e 6d68 29be
00000150: ee12 eebd 9632 bcbb 59db 04be 5e5b 5ebe
00000160: 3ac6 7e3d 3085 d23c a7e5 8cbd 157e 4abb
00000170: 1ed3 58bd 6717 e23d 4947 e0bd 440d 9d3d
00000180: 6dfd f9bc e0d2 69bd 0e93 59bd 9a68 bcbc
00000190: 4198 ee3c f979 113e b383 d73c 237e 23be
000001a0: 3e64 433d bc56 e0bc 6596 513a 9429 573e
000001b0: 801a b6bd 4218 1e3e fccd 0d3e a057 54be
000001c0: c377 89bd e7b8 26be afe1 ab3d 45cc 933d
000001d0: f154 1b3d a5ed 223e 8b0f c43d 1628 823e
000001e0: 5d16 7a3c 663e 76bd d8e3 003d 7a66 063e
000001f0: cb39 8a3e 4df8 f03d f8a1 15be 6974 55bd
00000200: 58b9 be3d d0a6 8d3d 34a0 b4bd ae86 e1bd
00000210: a714 acbd 2dc7 c93c b853 803d 2f96 6a3d
00000220: 1b7b e8bd bd07 5d3e 9f7e 1e3d fa56 0abd
00000230: 6970 053e 55d1 c0bb 62de 053e 9e50 14be
00000240: 9c8e 56bd f4bf 1b3e f201 52bd 2744 bf3d
00000250: 3d51 bdbc 2c0b 1fbe eb8e a6bd 76eb 843d
00000260: c74e 26be 76ff 18bd c87c 27bb 41e4 b6bc
00000270: c3e5 693d 06fa 6d3e 68db 093e eb2c bd3d
00000280: 070d 95bd 2d31 fabd a086 db3d a7cf 423d
00000290: 904c 013e 0499 06be dc84 08be 2400 8b3d
000002a0: 629b 003e 3a22 6bbd bbd1 0cbe dfc8 3dbe
000002b0: bef1 15be 5cd4 d0bd cc8f 65bd 9c28 2cbd
000002c0: 8f22 59be 15c5 0fbc e656 423d e953 3d3d
000002d0: 14c2 583e e855 f7bd b53c 383e 1f72 7b3e
000002e0: f626 bbbd 93a5 28be a055 233e be18 e03c
000002f0: f217 71be 5329 183d 78cf c33c 5f61 493e
00000300: 759d e43d f925 febd a433 adbd 2fc5 383e
00000310: eb56 b63d 115f 933c 1e85 26be f70e 23be
00000320: e87b 4e3d d216 06be 0e25 c5ba b4f9 c23b
00000330: e51b 213e c211 a33d badc 2f3e b3fa 1a3e
00000340: 5fa9 95bd 3f53 ecbd dd6b 68be 4772 803d
00000350: fd78 343e ce38 0ebe f45e 233e 1609 3c3e
00000360: bde8 1bbe 0eb8 db3d bea5 83bb 7157 0abd
00000370: 725e 943d c18b 81bd be88 e33b d2be 8ebd
00000380: d403 863d b282 793d 1e1c e5bd d2dd 163e
00000390: d8a1 cebd a245 57be a909 7d3d d900 083e
000003a0: 7925 dfbd f9c6 c83d fb22 433d 97d9 3dbe
000003b0: c5a0 b73d 12d1 c8bd b1c2 04be 3ef2 d33d
000003c0: ca2c af3d 59dc f13d 3310 33be 1b32 d3bd
000003d0: 77eb ecbd b74e 02be 8a60 0fbd 19f5 38be
000003e0: 18fa f03d 09d8 903d 1255 a23d 4f27 fcbd
000003f0: cb79 37be 4326 45be f30c f53d 2a5e fb3d
-0.041403875 -0.0883238 0.14621879 0.20646074 0.045127183 -0.16043656 -0.050160438 -0.12466818
0.101604976 -0.10110203 0.0899735 0.072949536 -0.017880386 -0.13845399 -0.13386305 0.216413
0.1370474 0.0027473264 0.020002877 -0.07569091 -0.070425116 0.08376859 -0.015128089 -0.11946674
0.09104636 -0.0037914158 0.086151704 -0.11571385 -0.13502042 -0.19398428 -0.008786517 -0.061842896
0.085239716 0.11878544 0.03788467 -0.022493139 -0.118278295 0.19431852 0.032700695 0.04950604
-0.1646527 0.045027975 0.061150204 0.14469358 0.07684103 0.08280534 -0.00042068376 0.121994875
0.22719114 -0.065180205 -0.061231915 -0.10783872 -0.18582669 0.07863751 -0.17912163 -0.11039374
0.01987133 0.17472057 -0.13186619 -0.08201589 0.1378976 -0.048733395 0.11435577 -0.07599473
-0.1569745 0.13999097 -0.031375784 -0.14219916 -0.12842226 0.119819164 0.13694541 0.1229072
-0.11298019 0.029988278 -0.13480473 -0.0987427 -0.15581681 -0.042953238 -0.1166421 -0.09871923
0.08330286 0.16119109 0.20743063 -0.16543742 -0.11624704 -0.005743335 -0.129743 -0.21714541
0.062200762 0.025698274 -0.0687974 -0.0030897905 -0.052935712 0.1103962 -0.109510966 0.07668546
-0.03051635 -0.05708587 -0.053118758 -0.022999097 0.029125335 0.14206685 0.026307916 -0.15966086
0.04770302 -0.027385108 0.0007995128 0.21011955 -0.08891773 0.15438941 0.13848108 -0.20736551
-0.06712296 -0.16281472 0.08392655 0.07216696 0.037922803 0.15910967 0.09573277 0.25421208
0.015264121 -0.0601181 0.03146729 0.13125029 0.26997218 0.117661096 -0.14612567 -0.05211297
0.09312695 0.069165826 -0.08819619 -0.11012016 -0.084023766 0.024631107 0.06265968 0.057272132
-0.113516055 0.21584983 0.038694974 -0.033774354 0.13031162 -0.0058843293 0.13073114 -0.14483878
-0.052382097 0.15209943 -0.051271386 0.09339171 -0.023110026 -0.15531605 -0.08132728 0.06490223
-0.16240989 -0.037353 -0.0025556553 -0.022325637 0.057103883 0.23239908 0.13462603 0.09237083
-0.072778754 -0.12216411 0.10719037 0.047561314 0.12626863 -0.13144308 -0.13331932 0.06787136
0.12559274 -0.057405688 -0.13751881 -0.18533657 -0.14642999 -0.10196754 -0.05604534 -0.042030916
-0.2120459 -0.008775015 0.047446154 0.0462226 0.21167785 -0.12076932 0.17991908 0.24555252
-0.091382906 -0.16469412 0.15950632 0.027355548 -0.2354429 0.037148785 0.02390264 0.1966605
0.11162845 -0.124095865 -0.08457115 0.1804397 0.08903297 0.017989667 -0.16261718 -0.15923677
0.050411135 -0.13094643 -0.001504095 0.005950177 0.15733297 0.079623714 0.17174044 0.15134697
-0.073076956 -0.115393154 -0.22697397 0.06271797 0.17624278 -0.13888857 0.1595419 0.18362841
-0.15225501 0.10728465 -0.0040175607 -0.033774797 0.072445765 -0.06325484 0.006943791 -0.0696999
0.06543699 0.060915656 -0.111870036 0.14733055 -0.10089463 -0.21022657 0.06177679 0.13281573
-0.10895819 0.09803576 0.04764078 -0.18540035 0.08966211 -0.09805502 -0.12964894 0.103489384
0.08553465 0.11809606 -0.17486648 -0.10312291 -0.11568349 -0.1272534 -0.035004176 -0.18062247
0.117664516 0.070724554 0.07926382 -0.12312185 -0.17917554 -0.19252877 0.119653605 0.1227382

net.4.bias f4 [2]
00000000: 2fa2 a73c 9874 023d
0.020463077 0.031849474
